DDQN_Champion.pth (torch, 176260 bytes, 6 tensors)

layer1.weight f4 [128, 70]
0	0x3cda7475	0.02666686
1	0x3dbb968a	0.091595724
2	0xbe54b945	-0.207738
3	0xbd81e64a	-0.06342752
4	0xbc234a7d	-0.00996649
5	0x3d700b13	0.05860431
6	0x3c99408a	0.018707532
7	0x3dfa88ba	0.1223311
8	0xbebca1d1	-0.36842206
9	0xbe0593da	-0.13044682
10	0xbe83e21e	-0.2575845
11	0xbdb0c93d	-0.08632133
12	0xbdab3296	-0.08359258
13	0xbe2686a5	-0.162623
14	0xbcb1d53b	-0.021708122
15	0xbe8a46ed	-0.27007237
16	0xbb64af6a	-0.0034894594
17	0xbd7205f1	-0.059087697
18	0xbe22e1b7	-0.15906416
19	0xbccb1ca1	-0.024793925
20	0xbd77229d	-0.060335744
21	0x3e01db6d	0.1268136
22	0x3c8730ef	0.016502826
23	0x3d9fb8b0	0.07798898
24	0x3d022966	0.031777762
25	0xbd0488ca	-0.032357015
26	0x3e0ac088	0.13550007
27	0xbe0febfa	-0.14054862
28	0xbd434e64	-0.04768218
29	0x3c20f2a1	0.009823472
30	0xbdeeb7c2	-0.11656143
31	0x3e515670	0.2044313
32	0xbe06f4c0	-0.13179302
33	0xbce69dfc	-0.028151505
34	0xbe0253df	-0.12727307
35	0xbdacce40	-0.084377766
36	0xbc9667b2	-0.018359993
37	0x3db21474	0.086953074
38	0x3dd1d9fc	0.10246655
39	0x3d284024	0.041076794
40	0x3d0a2e01	0.03373528
41	0xbce83615	-0.0283461
42	0x3d433806	0.04766085
43	0xbd82a3bf	-0.06378888
44	0xbe08efa0	-0.1337266
45	0x3c410e0e	0.011783136
46	0x3cd3a47f	0.025835274
47	0x3dc7b13b	0.09750601
48	0xbe0710f4	-0.13190061
49	0x3c6e0bdd	0.014529196
50	0x3dc7643b	0.09735914
51	0x3e1b406b	0.15161292
52	0x3e0ce30c	0.13758487
53	0xbca22f2f	-0.01979789
54	0x3dcc0ba3	0.09963157
55	0xbd79e045	-0.061004896
56	0x3c9ccb8e	0.019140031
57	0xbd81a947	-0.06331115
58	0xbda270c3	-0.07931664
59	0x3c0a6ad6	0.008448323
60	0x3b2bf530	0.0026238672
61	0x3d398d87	0.045300987
62	0xbe0ffe5c	-0.14061874
63	0x3cf9569a	0.030436803
64	0x3db59e1f	0.0886805
65	0xbc91b278	-0.017785296
66	0x3d12cdf9	0.035840962
67	0x3bd71c58	0.006564658
68	0x3d8bd54c	0.068277925
69	0x3d827093	0.06369128
70	0xbdbca2aa	-0.09210713
71	0xbd336937	-0.043801513
72	0x3d406776	0.046973668
73	0x3dcad08d	0.09903059
74	0x3dd50305	0.104009666
75	0x3dd7fc5c	0.105461806
76	0x3cc2dc83	0.023786789
77	0xbdd4dbe1	-0.10393501
78	0x3c34253d	0.010995206
79	0xbd99232f	-0.07477414
80	0xbde42059	-0.11138982
81	0x3dd97cd9	0.10619516
82	0x3dba1f7d	0.09088037
83	0xbdf42d7e	-0.119227394
84	0x3cb7441a	0.02237134
85	0xbca4f1c9	-0.020134823
86	0xbca12081	-0.01966882
87	0xbd601a1f	-0.05471241
88	0x3d3c43f7	0.045963254
89	0xbd90fc59	-0.070793815
90	0x3d337874	0.043816045
91	0x3d7793cb	0.06044368
92	0x3daf3baa	0.08556302
93	0x3d370dd6	0.04469093
94	0xbdf2452b	-0.11829599
95	0xbd9eca34	-0.07753411
96	0x3d74728e	0.05967956
97	0x3ccceefa	0.025016297
98	0xbdbef380	-0.09323788
99	0xbd8cf362	-0.06882359
100	0x3de6477e	0.11244105
101	0x3da4f065	0.08053664
102	0xbd557683	-0.052114975
103	0xbcf66eb5	-0.030082086
104	0xbde92dfe	-0.113857254
105	0xbb0ccad6	-0.0021483204
106	0xbdb855fd	-0.09000776
107	0xbdbcd09b	-0.09219476
108	0xbbd7cc8b	-0.0065856627
109	0x3c930300	0.017945766
110	0xbd487df1	-0.048948232
111	0x3d913fa7	0.07092219
112	0xbd94f5bd	-0.07273433
113	0x3dde1bce	0.10845147
114	0x3da7bfe8	0.081909
115	0xbdce6bd2	-0.10079159
116	0xbcf3b0c0	-0.029747367
117	0x3bb0b951	0.005393185
118	0x3c8edb38	0.017438516
119	0x3ce83989	0.028347747
120	0x3d401e91	0.04690415
121	0x3bea99ba	0.007159439
122	0xbd6edf87	-0.05831864
123	0x3d67a836	0.056556903
124	0xbdeacec2	-0.11465217
125	0xbd91159c	-0.070842
126	0xbcf51b15	-0.02992014
127	0xbd6e7956	-0.058221184
128	0xbd2b4433	-0.041813087
129	0xbdc8a11a	-0.09796353
130	0xbcd046ac	-0.025424324
131	0x3cd14bae	0.025548782
132	0xbd9f77b7	-0.07786506
133	0xbbc8fe5a	-0.0061338367
134	0x3daf3a5d	0.08556054
135	0xbc494f54	-0.01228698
136	0x3b59b2a4	0.003321805
137	0xbc28efea	-0.010311106
138	0x3cc6286e	0.0241892
139	0x3d9ba480	0.07599735
140	0x3e1a50f1	0.15069939
141	0x3de809e0	0.113300085
142	0x3d34ef9e	0.04417383
143	0x3cc6e994	0.0242813
144	0xbd2b77ba	-0.041862227
145	0xbca9210c	-0.02064564
146	0x3ddb2364	0.107001096
147	0x3d1657e1	0.0367049
148	0xbe7e1458	-0.24812448
149	0xbe88209f	-0.26587388
150	0xbeb092eb	-0.3448709
151	0xbe3ef46a	-0.18647924
152	0x3c85d6c8	0.016337767
153	0x3c368424	0.011139903
154	0x3dd118e9	0.10209829
155	0xbe24c78e	-0.16091749
156	0xbbd742d9	-0.006569248
157	0xbe5cdb5d	-0.21568055
158	0xbda890ce	-0.08230744
159	0xbc35a44e	-0.011086537
160	0x3c9975a3	0.018732851
161	0x3c65937f	0.014012217
162	0xbab47996	-0.0013769146
163	0xbe6181ba	-0.22022143
164	0x3d14407a	0.036194302
165	0xbd935cdf	-0.07195448
166	0xbc8cb90d	-0.017178083
167	0x3bafef5c	0.00536911
168	0xbd8f8fa9	-0.07009823
169	0x3d8c31fd	0.06845472
170	0x3d50950f	0.050923403
171	0x3c485064	0.012226198
172	0x3cd9e5e1	0.026598873
173	0x3da37f67	0.079832844
174	0xbdfd548f	-0.12369644
175	0x3de7a18f	0.11310112
176	0x3da1f8ca	0.07908781
177	0xbdf71f64	-0.12066534
178	0x3e169548	0.14705384
179	0xbe2b5cb6	-0.16734585
180	0x3d4ce66c	0.050024435
181	0xbd60a0de	-0.054840915
182	0x3dfa706d	0.12228475
183	0x3ddd216a	0.10797389
184	0x3b97ee06	0.004636529
185	0x3de1ac96	0.11019246
186	0xbd9c623d	-0.07635925
187	0x3c3e01d7	0.011597118
188	0xbd18ec89	-0.037334953
189	0x3dbe00fb	0.09277531
190	0x3e109f7b	0.14123337
191	0x3d4b689d	0.049660314
192	0x3cba5f53	0.022750532
193	0xbd4f3ddd	-0.050596107
194	0xbd63ff48	-0.055663377
195	0x3bd4181e	0.0064726016
196	0xbd8824a1	-0.066476114
197	0x3dc14da8	0.0943864
198	0xbdd92210	-0.106022
199	0x3d415eb3	0.047209453
200	0xbd7b02b6	-0.061281882
201	0x3da436cd	0.08018265
202	0xbda558df	-0.080735914
203	0xbdaab5f0	-0.08335483
204	0xbd07738f	-0.03306919
205	0x3da1f878	0.0790872
206	0xbc247f5f	-0.010040133
207	0x3d64a7f7	0.055824246
208	0x3d2b0197	0.041749563
209	0x3d3284dc	0.043583736
210	0x3cc425da	0.02394383
211	0x3a9c910b	0.0011945082
212	0xbca61e06	-0.020277988
213	0xbcc568bb	-0.024097791
214	0x3de7a649	0.11311013
215	0x3d2003b6	0.03906604
216	0x3cc24d28	0.023718432
217	0xbd1ae147	-0.037812497
218	0x3f2618a5	0.64881355
219	0xbde0f27f	-0.109837525
220	0xbb9a99ed	-0.0047180564
221	0xbc667ff1	-0.01406859
222	0x3d8f08f8	0.069841325
223	0xbcda0785	-0.026614914
224	0xbda14561	-0.07874561
225	0xbe838878	-0.25690055
226	0xbda51c71	-0.080620654
227	0xbdf26e29	-0.11837418
228	0xbe08c4cf	-0.13356327
229	0x3bf278c6	0.007399651
230	0x3de1221c	0.10992834
231	0x3dfcc249	0.123417445
232	0x3da351c9	0.07974584
233	0x3ced2d99	0.028952407
234	0x3deb13d0	0.11478388
235	0xbe530a85	-0.20609482
236	0x3d9efb47	0.07762771
237	0xbdef0744	-0.11671308
238	0xbcd38ab2	-0.025822971
239	0x3d0db361	0.034594897
240	0x3de1664b	0.11005839
241	0x3e162994	0.14664298
242	0xbe30a632	-0.17250898
243	0x3cca391d	0.024685437
244	0xbaea2213	-0.0017862938
245	0xbdb9de09	-0.09075553
246	0x3dbfef73	0.09371843
247	0xbe870200	-0.26368713
248	0x3d2658fe	0.040612213
249	0xbe2a8b09	-0.166546
250	0xbd1c0462	-0.038090117
251	0xbe28296e	-0.16422054
252	0x3dfceab5	0.12349454
253	0x3d0e4662	0.03473509
254	0x3a1f53f7	0.00060778804
255	0x3cbc59d4	0.022992052

layer1.bias f4 [128]
0	0x3d2b789d	0.041863073
1	0xbdbe2ef3	-0.092862986
2	0x3dfaf391	0.12253488
3	0xbd6216c2	-0.055197485
4	0x3cfb11dd	0.030648166
5	0x3e1b9284	0.1519261
6	0x3ddeb878	0.10875028
7	0x3d69668c	0.056982562
8	0x3da062bd	0.07831333
9	0x3c8b0b2a	0.016973097
10	0x3df9db3d	0.122000195
11	0x3c3884f9	0.011262172
12	0xbdc56204	-0.096378356
13	0x3dd83064	0.10556105
14	0xbdb84eeb	-0.089994274
15	0x3e430d1f	0.19047974
16	0x3bd7f623	0.006590621
17	0x3d859354	0.06522241
18	0x3cc6324f	0.02419391
19	0x3da202b6	0.07910673
20	0x3da6ccb1	0.081445105
21	0xbde8f2c2	-0.113744274
22	0x3de8dadc	0.11369869
23	0xbc69777c	-0.014249679
24	0xbdc7656a	-0.0973614
25	0xbdc6d684	-0.09708884
26	0x3dc3ad15	0.09554497
27	0x3e0e5999	0.13901366
28	0xbdb770f2	-0.089570895
29	0x3dc452de	0.09586118
30	0x3dba46b4	0.09095517
31	0xbe04890a	-0.12942901
32	0x3d9e8890	0.07740891
33	0xbd40a033	-0.047027778
34	0x3c98f8e4	0.018673368
35	0x3c8f7ea1	0.017516436
36	0x3dc7021b	0.097171985
37	0xbd873885	-0.06602577
38	0x3d8126ee	0.063062534
39	0xbd38250f	-0.044957217
40	0x3da70b57	0.0815646
41	0x3d4d33c8	0.05009821
42	0xbd17bd24	-0.037045613
43	0xbb96a26d	-0.0045969994
44	0x3d134b49	0.03596047
45	0x3d272c77	0.04081389
46	0xbd77abd5	-0.060466606
47	0x3df8675a	0.12129088
48	0xbd4c84f2	-0.049931474
49	0xbd81e109	-0.0634175
50	0x3dcc002a	0.09960969
51	0xbc522b37	-0.012827686
52	0x3d45bd10	0.048276007
53	0x3dea11eb	0.11429199
54	0xbcf694df	-0.030100284
55	0x3db9d88f	0.090745084
56	0x3de6ef31	0.11276091
57	0x3dd1c58e	0.10242759
58	0x3e180b88	0.14848149
59	0x3dd0d0ca	0.10196073
60	0x3e0f90c8	0.14020073
61	0x3e16dd59	0.14732875
62	0x3d9338a7	0.0718854
63	0x3db28145	0.087160625
64	0x3dbc81b2	0.09204425
65	0x3dc8542d	0.0978168
66	0x3d7d7a5e	0.061884277
67	0x3ca6b6fc	0.020350926
68	0x3b931a2b	0.0044892034
69	0xbabb8b00	-0.0014308393
70	0x3d9f3436	0.0777363
71	0xbc193f68	-0.009353496
72	0xbcb94084	-0.022613771
73	0x3d9cb3e9	0.07651503
74	0x3d5d6a0a	0.054056205
75	0x3d7822e7	0.06058016
76	0x3cd03406	0.025415432
77	0xba9b2f7d	-0.0011839714
78	0xbd0994f4	-0.03358932
79	0x3e1409ea	0.14456907
80	0xbd147e9a	-0.03625355
81	0xbcafe9bc	-0.021473758
82	0x3ce7f413	0.028314626
83	0x3cdbd6ee	0.026835885
84	0x3df9ee2a	0.12203629
85	0x3d949ce1	0.07256485
86	0x3c0b096f	0.008486136
87	0xbde79f91	-0.11309732
88	0xbd673264	-0.05644454
89	0x3db46d52	0.08809914
90	0x3c3bf84d	0.011472774
91	0xbc3a08a5	-0.0113546
92	0x3cf6e42b	0.030138096
93	0x3df4bf58	0.119505584
94	0x3c70e3f1	0.014702783
95	0x3e19b4e5	0.15010412
96	0x3e34848f	0.17628692
97	0x3d42a060	0.047516227
98	0x3de59f84	0.11212066
99	0x3d0db3f0	0.03459543
100	0x3db4cae2	0.08827759
101	0x3db61482	0.0889063
102	0xbdd10019	-0.10205097
103	0x3de77b2f	0.11302792
104	0x3e30779c	0.17233127
105	0x3cb6a185	0.022293815
106	0x3b84d4bd	0.0040536807
107	0x3cd4c6a9	0.025973635
108	0xbdc04480	-0.09388065
109	0x3c27d428	0.010243453
110	0x3d8619c5	0.06547884
111	0x3e066ceb	0.13127486
112	0x3e332434	0.17494279
113	0xbcb18155	-0.021668116
114	0x3e1bc898	0.15213239
115	0x3d063b74	0.032771543
116	0xbd0ecae3	-0.034861457
117	0xbd4f1bfc	-0.050563797
118	0xbda3af35	-0.079924025
119	0x3dcbcd73	0.09951296
120	0x3c5de1a8	0.01354257
121	0x3d874bc6	0.066062495
122	0xbd6cb60b	-0.057790797
123	0x3d30a0b9	0.043122027
124	0x3d813375	0.06308643
125	0xbc9d041b	-0.019166997
126	0x3e2437e7	0.1603695
127	0xbd12d9f2	-0.03585238

layer2.weight f4 [256, 128]
0	0xbb48433c	-0.0030557653
1	0x3d70c7de	0.05878436
2	0x3e13d9fc	0.14438623
3	0x3e0fad10	0.14030862
4	0xbeb95d72	-0.36204106
5	0xbbebde03	-0.0071980967
6	0x3c88c793	0.016696727
7	0xbe4dfe0d	-0.20116444
8	0x3b110a36	0.002213133
9	0x3e0442c7	0.12916099
10	0x3ddaba54	0.106800705
11	0x3e2aea7c	0.16691011
12	0xbe0aa9a9	-0.13541283
13	0x3cbdae5f	0.023154436
14	0x3daf3cb4	0.085565
15	0x3d146f6e	0.03623908
16	0x3d9fc90b	0.07802018
17	0x3e84be63	0.25926504
18	0x3e6e8101	0.23291399
19	0xbd0f9329	-0.035052452
20	0xbd9f3aec	-0.0777491
21	0x3e190b4d	0.14945717
22	0x3d801f96	0.062560245
23	0x3e498b02	0.19681934
24	0x3e6b2cde	0.22966334
25	0x3eac11af	0.33607242
26	0x3e03c51e	0.12868163
27	0xbc35ad71	-0.011088715
28	0x3e183211	0.14862849
29	0x3c2fdd58	0.010733925
30	0xbc9f537d	-0.01944899
31	0x3f1d5363	0.61455363
32	0x3c731f8e	0.014839066
33	0x3d6b479f	0.05744135
34	0xbd55cd64	-0.05219783
35	0x3d15edb4	0.036603644
36	0x3d30cad8	0.043162197
37	0x3db642ea	0.088994816
38	0xbe9e84e3	-0.3096076
39	0x3be97a69	0.007125188
40	0xbc996ca9	-0.018728571
41	0x3c660e17	0.014041445
42	0x3d0e7cf6	0.03478714
43	0x3d35e280	0.04440546
44	0x3dcb70b2	0.09933604
45	0x3de8f855	0.113754906
46	0x3cb49cbd	0.022047395
47	0x3dfd7c23	0.12377193
48	0x3e59b1fd	0.21259303
49	0xbc007d0f	-0.007842316
50	0x3e188b69	0.14896931
51	0x3bc655cd	0.0060527087
52	0x3e6b8de4	0.23003346
53	0x3cc820d2	0.024429712
54	0x3e0efee1	0.13964416
55	0x3de96e95	0.11398045
56	0x3e4d085f	0.20022725
57	0x3b919bb2	0.004443609
58	0xbc4c7120	-0.012478143
59	0x3da1bbde	0.07897161
60	0x3d4c09eb	0.049814146
61	0x3e138c43	0.14408974
62	0xbcf1f4e5	-0.02953572
63	0x3cf4e146	0.029892575
64	0x3dbd0dee	0.092311725
65	0x3d8ebdcd	0.069697954
66	0x3ec0a8d2	0.376288
67	0x3d691cd1	0.056912247
68	0x3d98fa77	0.074696474
69	0x3eb8a83e	0.3606586
70	0x3e5ef2b8	0.21772277
71	0x3d4a070c	0.049323127
72	0x3d51cff1	0.0512237
73	0x3dd28193	0.102786206
74	0x3db80fa5	0.08987359
75	0x3db701f8	0.089359224
76	0xbb327e9f	-0.0027236117
77	0xbda7a7b1	-0.081862815
78	0xbd366a45	-0.04453494
79	0xbc38e8fc	-0.011286017
80	0x3b5d6286	0.0033780648
81	0x3d0d6ee5	0.034529585
82	0x3d913d27	0.07091742
83	0x3e53ba98	0.20676649
84	0x3cffaf4c	0.031211518
85	0xbb4e36aa	-0.0031465688
86	0x3e503567	0.20332871
87	0x3d5332c4	0.051562086
88	0x3d3ddfcd	0.04635601
89	0x3e146629	0.14492096
90	0x3dcda18b	0.100405775
91	0x3e0cabdd	0.13737436
92	0x3abb4850	0.0014288519
93	0x3ec71ff4	0.38891566
94	0x3cdec5f3	0.027193999
95	0x3e10ad37	0.14128576
96	0x3cfc8efa	0.030829895
97	0x3e168443	0.14698891
98	0xbeff945c	-0.49917877
99	0x3d86733f	0.0656495
100	0x3c4c2359	0.012459599
101	0x3d11fd24	0.035641804
102	0xbe780308	-0.24219906
103	0x3d008faa	0.03138701
104	0x3d9222a4	0.071355134
105	0xbd4515ed	-0.048116613
106	0x3db1c433	0.0868
107	0x3c987534	0.018610574
108	0x3c6984ed	0.014252883
109	0xbda9b5a7	-0.082866006
110	0x3e5abe5d	0.2136168
111	0x3dfad64b	0.122479044
112	0x3abaf0cb	0.0014262436
113	0x3d446e4d	0.047956754
114	0x3e423cb2	0.18968466
115	0x3da50f52	0.08059563
116	0x3c8c7c01	0.017148973
117	0xbf0dabd0	-0.5534029
118	0xbcd4fce4	-0.025999494
119	0x3db5ceb1	0.08877314
120	0x3ca54c04	0.020177849
121	0x3c338a26	0.01095823
122	0xbb3e04fc	-0.002899467
123	0x3da023c7	0.07819324
124	0xbee3dd1d	-0.44504634
125	0x3e157db9	0.1459874
126	0x3dc2a7a8	0.09504634
127	0xbc600d0d	-0.013674987
128	0xbd2e770a	-0.042593993
129	0x3c0c8e30	0.008578822
130	0xbd160e3f	-0.03663468
131	0xbd80b727	-0.062849335
132	0x3deb8b5c	0.1150119
133	0xbd22b5f3	-0.0397243
134	0x3ba211c1	0.004945964
135	0x3f6e065a	0.9297844
136	0xbc9b24e0	-0.018938482
137	0xbdaa507a	-0.08316131
138	0xbdd0443c	-0.10169265
139	0xbe2ca4c6	-0.16859731
140	0xbdf5d90b	-0.12004288
141	0x3db3ca14	0.08778778
142	0x3d9a6d5a	0.075403884
143	0xbd9ff260	-0.07809901
144	0xbd8b3bf7	-0.06798547
145	0x3cb150ed	0.021645034
146	0xbe122889	-0.14273275
147	0x3da2242f	0.07917058
148	0xbda73e81	-0.081662185
149	0xbea54297	-0.32277367
150	0x3d96e83d	0.07368515
151	0xbf12f07b	-0.57398194
152	0xbe5d660c	-0.21620959
153	0xbf215ad1	-0.630292
154	0x3dd5927d	0.10428331
155	0x3daf9745	0.08573774
156	0xbd39d3d1	-0.04536802
157	0xbcce8cd6	-0.02521364
158	0x3cae5d99	0.021284865
159	0x3dd8dede	0.105893835
160	0x3d200fdd	0.03907763
161	0xbf9cf3ce	-1.2261903
162	0x3d3ebfa8	0.046569496
163	0x3d98f3d6	0.07468383
164	0xbd99ce7f	-0.07510089
165	0x3cd5c81c	0.026096396
166	0x3f02b8d8	0.510633
167	0x3d3fdb2f	0.04683989
168	0xbd78f05a	-0.060776092
169	0xbb1a0cae	-0.0023506093
170	0x3db3e30c	0.0878354
171	0x3d20f9d6	0.039300762
172	0x3d553dcd	0.05206089
173	0xbb6e7091	-0.0036383013
174	0x3cd007d6	0.025394361
175	0x3d8dbf89	0.06921298
176	0xbe21a191	-0.15784289
177	0x39fdb696	0.00048391958
178	0xbcbe4241	-0.023224952
179	0xbc834b26	-0.016027045
180	0xbef95640	-0.48698616
181	0xbd186ea3	-0.037214886
182	0x3d0c767b	0.03429268
183	0x3dbfa861	0.093582876
184	0x3daef9ac	0.08543715
185	0x3ddfe239	0.109318204
186	0xbc73795a	-0.014860475
187	0xbd3c27db	-0.045936447
188	0x3da55b57	0.08074062
189	0xbd38a2f6	-0.045077287
190	0x3d28ef39	0.041243766
191	0x3d890822	0.06691004
192	0xbdb1b71b	-0.08677503
193	0xbe0ccc4b	-0.13749807
194	0xbe9bab0c	-0.30403936
195	0xbbe9ee33	-0.0071389913
196	0xbd4c0364	-0.04980792
197	0xbf2d6473	-0.677314
198	0xbed43358	-0.41445422
199	0xbc8ce49c	-0.017198853
200	0x3db6d97c	0.089282006
201	0xbc4d574a	-0.012533018
202	0x3bc38604	0.0059669036
203	0x3c7ed78b	0.015554319
204	0x3c405be0	0.011740655
205	0xbc80a0ec	-0.015701734
206	0xbce3653c	-0.027758233
207	0x3c3637c7	0.011121697
208	0xbbd26a5d	-0.006421371
209	0x3c915724	0.017741747
210	0xbd3bfd7b	-0.045896035
211	0xbe6e1583	-0.23250394
212	0xbd4d7221	-0.05015767
213	0x3c6901f9	0.014221662
214	0xbee2a3d1	-0.44265607
215	0x3d7f08bd	0.062264193
216	0x3d17c2e3	0.037051093
217	0x3d3e143c	0.046406016
218	0xba9760c4	-0.0011549224
219	0xbd646f63	-0.05577029
220	0x3bc1e4dd	0.005917175
221	0xbec12936	-0.37726754
222	0x3afd336b	0.0019317692
223	0x3dc37590	0.09543908
224	0x3bff5150	0.0077916756
225	0x3db3d011	0.0877992
226	0x3e996e1d	0.29966822
227	0x3d8e3b31	0.069448836
228	0x3ae0ae0d	0.0017141715
229	0xbd6be836	-0.0575945
230	0xbde6fe1b	-0.112789355
231	0xbd2ca997	-0.04215392
232	0x3cab94f7	0.020945055
233	0x3daece02	0.085353866
234	0xbd94bb14	-0.07262245
235	0xbd032afb	-0.03202341
236	0x3d00cac9	0.03144339
237	0xbcb446bd	-0.022006387
238	0x3c3418c6	0.010992235
239	0x3c2aae7c	0.010417577
240	0x3d23cede	0.039992206
241	0xbdb4b11f	-0.08822846
242	0xbe3cd733	-0.18441467
243	0x3d7371ea	0.05943481
244	0x3d2c8189	0.04211572
245	0x3f801268	1.0005617
246	0x3da8727d	0.08224962
247	0x3d3ebf10	0.04656893
248	0x3c325c66	0.010886287
249	0xbc22146e	-0.009892566
250	0xbc73879e	-0.014863877
251	0x3e09ebbb	0.1346883
252	0x3ee83834	0.4535538
253	0x3d0ee273	0.034883928
254	0xbcf35120	-0.02970177
255	0xbfcac17f	-1.58403

layer2.bias f4 [256]
0	0x3e1068e7	0.14102517
1	0x3d23ccb0	0.039990127
2	0x3ded75bf	0.11594724
3	0xbc81682b	-0.015796741
4	0x3d910f54	0.07083002
5	0xbbf25017	-0.0073948014
6	0x3da8586b	0.082199894
7	0x3b16155a	0.002290091
8	0x3dab7739	0.08372349
9	0x3a9682f4	0.0011483119
10	0x3dc23c6e	0.09484182
11	0xbd8c04e5	-0.06836871
12	0x3d668e52	0.05628807
13	0x3b89b7cf	0.00420282
14	0xbcd630ba	-0.026146282
15	0x3deea886	0.11653237
16	0xbd1a682f	-0.037697013
17	0x3d053e59	0.032530162
18	0xbd9666b3	-0.07343807
19	0x3b940560	0.0045172423
20	0x3b46b7d3	0.003032197
21	0x3d9c091c	0.07618925
22	0xbc5337fa	-0.012891764
23	0x3d191926	0.0373775
24	0x3d4681e3	0.048463713
25	0x3d091b94	0.033473566
26	0x3df212ec	0.11820015
27	0x3d4e1ee1	0.050322417
28	0xbd197915	-0.03746899
29	0x3e070023	0.13183646
30	0x3dd65ab4	0.10466519
31	0x3cb4d364	0.022073455
32	0x3db12b8d	0.08650885
33	0xbcb374af	-0.021906225
34	0x3d754bcc	0.05988674
35	0xbd1d7808	-0.03844455
36	0x3d254252	0.04034645
37	0x3d8f3200	0.069919586
38	0xbc1d1b81	-0.009589077
39	0x3d1ab9ba	0.03777478
40	0x3d33715b	0.043809276
41	0x3de22c4c	0.11043605
42	0xbd98bca7	-0.074578576
43	0xbca2fdbb	-0.019896379
44	0x3d31cfd8	0.043411106
45	0x3dab10ef	0.08352839
46	0xbcc3397d	-0.023831123
47	0xbd52e246	-0.051485322
48	0xbd856276	-0.065129206
49	0xbcd85a39	-0.026410209
50	0xbd2e5bba	-0.042567946
51	0x3c8d088f	0.017215995
52	0x3d9b0748	0.07569748
53	0x3d9b3c75	0.07579891
54	0x3dc80c26	0.09767942
55	0x3dfa96cc	0.122357935
56	0x3e015aec	0.1263234
57	0x3dbce41a	0.092231944
58	0x3c6de6b2	0.014520334
59	0xbd8e7294	-0.06955448
60	0x3cddb568	0.02706404
61	0x3df5938e	0.119910344
62	0xbbfb81f6	-0.0076754047
63	0xbd263e29	-0.040586624
64	0xbcd93d95	-0.026518622
65	0x3dad1389	0.08450992
66	0xbd8cfaad	-0.0688375
67	0x3d97e29e	0.07416271
68	0xbd2fc45d	-0.042911876
69	0x3d8d0c65	0.0688713
70	0xbd574623	-0.052557122
71	0x3dbafa05	0.09129719
72	0x3d74195a	0.05959449
73	0x3c3fcb52	0.01170619
74	0xbd294313	-0.041323733
75	0xbda7efeb	-0.082000576
76	0xbd5a182e	-0.053245716
77	0xbc41579a	-0.011800671
78	0x3df41ba1	0.11919332
79	0xbd0a3ed2	-0.033751316
80	0xbd0c16bb	-0.034201365
81	0x3db66415	0.08905808
82	0x3db2b2f1	0.087255366
83	0x3d18865a	0.037237503
84	0x3c84c689	0.01620795
85	0x3c886143	0.01664794
86	0xbb96ecf7	-0.004605885
87	0x3bfc6776	0.007702763
88	0x3d1320b0	0.035919845
89	0x3d7b30c7	0.061325815
90	0x3c329cd8	0.010901652
91	0x3d520373	0.05127282
92	0x3dc8bd1b	0.09801694
93	0xbb5bcd6c	-0.003353919
94	0x3d8042b3	0.06262722
95	0x3de64f39	0.11245579
96	0xbd654259	-0.055971477
97	0xbd8cd175	-0.06875888
98	0x3d73fbe7	0.059566405
99	0xbc26cbe7	-0.01018045
100	0xbd50e204	-0.050996795
101	0xbced5821	-0.028972687
102	0xbcc82f17	-0.024436517
103	0x3d307b4e	0.043086343
104	0x3db79f43	0.08965924
105	0x3d5e22c9	0.054232392
106	0xbc466caf	-0.012110873
107	0x3d4fe0ca	0.050751485
108	0xba94d316	-0.0011354412
109	0x3c0e04d0	0.00866814
110	0x3d60e7d7	0.0549086
111	0x3c03427d	0.0080114575
112	0x3c923b7a	0.017850626
113	0x3dc62335	0.09674684
114	0x3d72f4e7	0.05931559
115	0xbc9c5400	-0.019083023
116	0x3d385c47	0.045009878
117	0xbd71c52a	-0.05902592
118	0x3bb1e766	0.005429196
119	0xbd1ca118	-0.03823957
120	0xbc9733ba	-0.018457282
121	0x3c9e6b66	0.019338321
122	0xbdad52b1	-0.08463038
123	0x3b77a46b	0.003778721
124	0xbcaf834d	-0.021424914
125	0xbcc27807	-0.023738874
126	0xbd7cbfb6	-0.061706267
127	0x3dae70ff	0.08517646
128	0xbd97bffe	-0.074096665
129	0x3dc22070	0.09478843
130	0xbccf3e53	-0.025298273
131	0xbcac2f95	-0.021018783
132	0x3d67f60e	0.05663114
133	0x3c78794e	0.01516564
134	0xbd26c40c	-0.04071431
135	0x3b60c248	0.0034295488
136	0x3c4e542c	0.01259331
137	0x3d837af4	0.06419936
138	0x3aaf6ea7	0.0013384417
139	0x3dbce964	0.09224203
140	0x3d5872d0	0.05284387
141	0xbc92490f	-0.017857103
142	0x3d184852	0.037178345
143	0xbd81f2f2	-0.06345166
144	0x3da02bc5	0.078208484
145	0xbd2600ae	-0.040527992
146	0xbd889928	-0.06669837
147	0x3c2d5077	0.010578266
148	0x3d996a77	0.0749101
149	0x3d719f97	0.058990087
150	0x3cb2d4d0	0.021829993
151	0xbcf30729	-0.0296665
152	0x3e046d24	0.12932259
153	0x3d36cd74	0.04462953
154	0x3def5c29	0.116875
155	0xbd4e8a4a	-0.05042485
156	0x3d24b16f	0.040208276
157	0x3cb48aad	0.022038782
158	0x3d4774e7	0.04869547
159	0x3d6ef363	0.05833758
160	0x3d4d6e75	0.05015417
161	0xbc17f622	-0.009274991
162	0x3d8e61f1	0.069522746
163	0xbd681c34	-0.05666752
164	0x3d8c8e08	0.06863028
165	0xbd4af90b	-0.049553912
166	0x3de1cc35	0.110252775
167	0x3de77c16	0.113029644
168	0x3cfa956b	0.030588826
169	0x3ca462d2	0.020066652
170	0x3c355c69	0.011069396
171	0xbceedba7	-0.029157473
172	0x3c60c95f	0.013719886
173	0x3d8e1fe8	0.069396794
174	0x3d543202	0.051805504
175	0x3d5de055	0.054169018
176	0x3dc64b49	0.09682328
177	0x3d6b37c7	0.05742624
178	0xbd8bb9ae	-0.06822525
179	0xbd47385f	-0.048637744
180	0x3ad15690	0.0015971232
181	0x3c3558c4	0.011068527
182	0xbbc56c49	-0.0060248715
183	0x3b39c626	0.0028346865
184	0x3d9e1065	0.07717971
185	0x3d60e288	0.054903537
186	0x3d50ac23	0.050945412
187	0x3c1d3449	0.009594985
188	0xbd91a199	-0.071109004
189	0x3d36235c	0.044467315
190	0x3d8102b9	0.062993474
191	0x3d637c6a	0.055538572
192	0x3ce94d17	0.028479142
193	0xba9d6b7e	-0.0012010185
194	0x3dc9e089	0.0985728
195	0x3d03d311	0.03218371
196	0x3db165d5	0.08662001
197	0x3df1ac20	0.11800408
198	0x3d956f66	0.07296638
199	0xbb9d28fa	-0.0047961446
200	0x3d3e3a22	0.04644216
201	0xbd5a27e6	-0.053260706
202	0xbd169abb	-0.036768656
203	0x3d5402de	0.051760547
204	0x3d945a10	0.072437406
205	0xbd98e693	-0.074658535
206	0xbd513801	-0.0510788
207	0xbda7cc8c	-0.08193311
208	0x3da9a5fc	0.08283612
209	0x3ccf02cc	0.025269888
210	0xbcdb9af2	-0.026807282
211	0xbd10a2e4	-0.035311595
212	0xbb61af58	-0.0034436788
213	0x3df2f6e8	0.118635
214	0x3cd35ee2	0.02580208
215	0x3e10d46c	0.14143533
216	0x3d937ba3	0.07201316
217	0x3e06c4a7	0.13160954
218	0x3df5335a	0.11972685
219	0x3cfe1d9b	0.031019976
220	0xbc8825a0	-0.016619503
221	0x3d85cc5a	0.065331176
222	0xbc6a7fc1	-0.0143126855
223	0x3b036cb6	0.002005381
224	0xbd9729ee	-0.07381044
225	0x3cf8885e	0.030338462
226	0x3dd8f9be	0.105945095
227	0xbca62e87	-0.020285858
228	0xbd9cf409	-0.076637335
229	0x3d7317f4	0.059349015
230	0xbc97eda8	-0.01854594
231	0x3da81046	0.08206229
232	0xbda1d589	-0.07902057
233	0x3dac771b	0.08421155
234	0xbcda6873	-0.026661133
235	0xbc1d899d	-0.009615329
236	0xbae84cfa	-0.0017723136
237	0x3df4e7be	0.11958264
238	0x3c8c0e96	0.017096799
239	0x3ddd04fc	0.10791966
240	0x3bdb01e1	0.0066835736
241	0xbcf5626a	-0.029954154
242	0x3df69955	0.120409645
243	0x3c5d30d5	0.013500412
244	0x3d128fac	0.035781547
245	0x3bfed6dc	0.007777078
246	0x3cb8538b	0.022500774
247	0xbd00cbac	-0.031444237
248	0xbd1540fb	-0.036438923
249	0x3d867c2b	0.06566652
250	0x3d4ca653	0.049963307
251	0xbd57f687	-0.05272534
252	0x3d804c34	0.062645346
253	0xbd427ca0	-0.047482133
254	0xbc83ceee	-0.016089883
255	0x3df50a48	0.119648516

layer3.weight f4 [5, 256]
0	0x3df806d2	0.12110676
1	0xbe3bc98d	-0.18338604
2	0x3de2a64d	0.110668756
3	0x3c9b0fab	0.01892837
4	0x3d56f9b3	0.052484225
5	0xbd27a8a2	-0.040932305
6	0xbd2e1368	-0.042498976
7	0x3d23d7d8	0.040000767
8	0xbe42ab76	-0.1901072
9	0xb8bb3c00	-8.928031e-05
10	0x3da33512	0.07969107
11	0xbd0623ea	-0.032749094
12	0x3db533ca	0.088477686
13	0x3c1d2b0a	0.009592781
14	0x3d53a77e	0.051673405
15	0x3d91d97d	0.07121561
16	0x3d369baa	0.044582047
17	0xbf18e239	-0.5972019
18	0x3d5bb240	0.05363679
19	0xbd78b391	-0.060718123
20	0xbf156050	-0.58350086
21	0xbd36c3be	-0.044620268
22	0xbe803b11	-0.25045064
23	0x3e0f6a07	0.1400529
24	0xbd0d74dd	-0.034535278
25	0xbd314e20	-0.043287396
26	0x3dc637f6	0.096786425
27	0x3d8c8dc7	0.068629794
28	0x3d07d486	0.033161663
29	0x3dd08ee5	0.10183505
30	0x3dc2c995	0.09511105
31	0xbe24b10d	-0.16083165
32	0xbeba2686	-0.36357516
33	0x3d012a70	0.031534612
34	0x3d9b9bac	0.075980514
35	0x3dc8b407	0.097999625
36	0x3cfaedf0	0.030631036
37	0x3d948a90	0.07252991
38	0xbd29e2c6	-0.041476034
39	0xbd22d48c	-0.03975348
40	0x3e07d06e	0.13263103
41	0x3dddc875	0.1082925
42	0xbc11c0eb	-0.008896093
43	0x3d1dba2a	0.038507618
44	0x3d6f6c3c	0.05845283
45	0x3dc5a26d	0.09650121
46	0x3b0dcce0	0.0021637008
47	0xbdce39c2	-0.1006961
48	0x3d1a426e	0.03766101
49	0x3d407fea	0.04699699
50	0x3d27dfd0	0.04098493
51	0x3919575d	0.00014623762
52	0x3c13a92f	0.0090125045
53	0x3e057ce8	0.13035929
54	0x3dc64712	0.09681524
55	0xbf90ca98	-1.1311827
56	0x3e09fae9	0.13474621
57	0x3c6aa7ad	0.014322204
58	0x3df4f588	0.11960894
59	0xbd5a5912	-0.0533076
60	0xbe9a69fa	-0.3015898
61	0x3d6963d4	0.05697997
62	0x3d5fb716	0.054617964
63	0x3d1e607e	0.03866624
64	0xbd571543	-0.05251051
65	0x3df4d1c0	0.11954069
66	0xbdf8e73e	-0.12153481
67	0x3d6a3b12	0.05718524
68	0x3e04eac1	0.12980177
69	0xbcd6c408	-0.026216522
70	0xbea81f30	-0.32836294
71	0x3e198c2f	0.14994882
72	0xbcdad33b	-0.02671205
73	0x3d195314	0.037432745
74	0x3cfdb033	0.030967807
75	0xbd151ad6	-0.036402546
76	0xbcebca28	-0.028782919
77	0x3e6e952b	0.2329909
78	0x3e0b00d6	0.13574538
79	0x3d1ccf15	0.038283426
80	0xbf53b6b3	-0.8270065
81	0xb911eeb1	-0.00013917197
82	0x3cfdaf60	0.030967414
83	0x3d89b91f	0.06724762
84	0x3c9e6a5c	0.019337825
85	0x3dce79e5	0.10081843
86	0x3df9c5ec	0.12195954
87	0xbd161d34	-0.036648944
88	0x3d869047	0.065704875
89	0xbc923514	-0.017847575
90	0x3d4f82c3	0.050661813
91	0x3d269373	0.040667962
92	0x3e0c2c56	0.13688788
93	0x3bd2e348	0.0064357854
94	0x3d4dbe96	0.050230585
95	0x3d11cd92	0.035596438
96	0xbcf70ae0	-0.030156553
97	0xbba7de04	-0.005122902
98	0x3d7e6e75	0.06211706
99	0x3de9d2d4	0.114171654
100	0xbd57d7f4	-0.052696183
101	0x3cb5a048	0.022171155
102	0x3e6e873e	0.23293778
103	0x3b242e60	0.0025052056
104	0x3d73f95a	0.059563972
105	0x3d7eb488	0.062183887
106	0xbf292630	-0.66073895
107	0x3ddb06b2	0.106946364
108	0xbcf63024	-0.030052252
109	0x3d64c278	0.055849522
110	0x3d82ca17	0.06386202
111	0xbec1fcfa	-0.37888318
112	0x3de20108	0.11035353
113	0x3d1e029d	0.03857671
114	0xbd082b00	-0.033244133
115	0xbd9cbe31	-0.07653464
116	0xbd789fea	-0.06069938
117	0xbcbfd0ac	-0.023414932
118	0xbea57378	-0.32314658
119	0x3df010ff	0.11721992
120	0x3deef0b5	0.11667005
121	0x3dd5e9f5	0.104450144
122	0xbbd3c850	-0.006463088
123	0x3df5c628	0.12000686
124	0x3d0cd344	0.034381166
125	0x3d2b220a	0.04178051
126	0x3d70a114	0.058747366
127	0xbf053243	-0.5202982
128	0xbd28dd4f	-0.04122668
129	0x3e01158a	0.12605873
130	0xbb06437b	-0.0020487
131	0xbe63f178	-0.22260082
132	0xbf551d26	-0.832476
133	0x3e3e6965	0.18594892
134	0x3d1a0051	0.037597958
135	0x3df2e063	0.118592046
136	0x3d788b19	0.06067953
137	0x3c771ca6	0.015082514
138	0x3d1038bf	0.035210367
139	0x3da80cc2	0.08205558
140	0xbe8bf510	-0.27335405
141	0x3d12fdf7	0.03588673
142	0x3e084475	0.13307364
143	0xbd9ce878	-0.076615274
144	0x3c6ce1bf	0.014458119
145	0x3ebdddb8	0.3708322
146	0xbead419a	-0.33839113
147	0xbdaa2842	-0.0830846
148	0x3e037c93	0.1284049
149	0xbc0d4d48	-0.008624382
150	0x3ddd08ef	0.107927196
151	0xbed01635	-0.40641943
152	0x3dd4903f	0.10379075
153	0xbd102178	-0.03518817
154	0x3e0a3e92	0.13500431
155	0x3b3ef00d	0.002913478
156	0xbe41248b	-0.18861596
157	0x3d7e6c91	0.062115256
158	0x3bb12085	0.005405488
159	0xbe5fd83d	-0.21859832
160	0x3e03b801	0.1286316
161	0xbe935190	-0.28773165
162	0x3e18be50	0.14916348
163	0xbd20a1f2	-0.039216943
164	0x3e04e515	0.12978013
165	0x3c374fb8	0.01118844
166	0x3e0d391d	0.13791318
167	0x3e0fe9e2	0.14054063
168	0x3e06c1df	0.13159893
169	0xbecb3e93	-0.39696178
170	0x3e1552be	0.14582345
171	0x3d97ec74	0.07418147
172	0x3df5921f	0.11990761
173	0x3d38cf4c	0.04511957
174	0x3daaa603	0.083324455
175	0x3df85602	0.1212578
176	0x3df73321	0.12070299
177	0x3d0e5bdc	0.034755573
178	0x3d1aafb2	0.037765212
179	0xbe8e6de8	-0.27818227
180	0x3d49c360	0.04925859
181	0x3d1e1ab6	0.038599692
182	0x3de43c69	0.11144335
183	0x3d5b4e42	0.05354143
184	0x3dfd03e5	0.123542584
185	0xbe8e449c	-0.2778672
186	0xbf5b37cc	-0.85632014
187	0xbd2b0413	-0.041751932
188	0xbd00a66a	-0.031408705
189	0x3cc0ca13	0.023533856
190	0x3e382031	0.1798103
191	0x3cc47369	0.023980813
192	0x3d211bee	0.039333276
193	0x3bf67598	0.0075213425
194	0x3d9f85d9	0.07789201
195	0x3d43a686	0.04776623
196	0x3d735ce5	0.059414763
197	0x3db4609f	0.088074915
198	0x3cbf8ce8	0.023382619
199	0xbe386958	-0.18008935
200	0x3c824cb4	0.015905716
201	0xbd5d1328	-0.053973347
202	0xbea346c1	-0.31889918
203	0xbf0687ea	-0.5255114
204	0x3de709d8	0.112811744
205	0xbd8c4fbc	-0.068511456
206	0xbd38bd56	-0.04510244
207	0x3d489b00	0.048975945
208	0x3daadeb3	0.08343258
209	0xbed37f01	-0.41307834
210	0xbd4b7db8	-0.04968044
211	0x3d1b7dc6	0.037961744
212	0x3d425a8b	0.04744963
213	0x3d8ddef0	0.069272876
214	0xbd0e02de	-0.034670703
215	0x3d875d1a	0.066095546
216	0x3e04a6ee	0.12954304
217	0x3d808f87	0.06277376
218	0x3d48a7ca	0.04898814
219	0xbc6992aa	-0.014256159
220	0xbcdbfe04	-0.026854523
221	0x3e093f23	0.13402991
222	0xbf0f29b9	-0.5592304
223	0x3c51b120	0.012798578
224	0xbb512e40	-0.0031918436
225	0x3db5cbff	0.088768
226	0x3c883c7b	0.016630402
227	0x3d656c2e	0.05601137
228	0x3d18e0c4	0.03732373
229	0x3db0275d	0.08601258
230	0x3d1cf9ec	0.03832428
231	0x3df123da	0.11774416
232	0xbd64f75a	-0.055899955
233	0x3dadde41	0.08489657
234	0x3d55ce68	0.052198797
235	0x3d4212af	0.0473811
236	0x3da539f9	0.08067698
237	0x3d6cee81	0.057844643
238	0x3d685359	0.05672011
239	0x3d954168	0.07287866
240	0xbb1704a0	-0.0023043528
241	0xbd42f63c	-0.04759811
242	0x3dd2fc71	0.103020556
243	0xbd0c888c	-0.03430991
244	0xbd1040e3	-0.03521813
245	0x3dbaee95	0.09127537
246	0x3c486934	0.012232114
247	0xbb181600	-0.0023206472
248	0x3ee4c4be	0.44681352
249	0x3e0df2ed	0.138622
250	0xbd479630	-0.048727214
251	0xbd09699b	-0.03354798
252	0x3cfe0449	0.031007903
253	0x3de21f9c	0.11041185
254	0x3dcd638b	0.10028752
255	0x3e06fd02	0.13182452

layer3.bias f4 [5]
0	0x3bbadaf7	0.005702372
1	0xbbd0b491	-0.0063691814
2	0xbbe89cec	-0.0070987847
3	0xbb231e7b	-0.0024889994
4	0x3db9ca6b	0.09071811
