DDQN_policyNet1.pth (torch, 176280 bytes, 6 tensors)

layer1.weight f4 [128, 70]
00000000: c951 d73c d3db ba3d df41 28be e49a 1bbd
00000010: 566e 533d 6367 703d 5ae5 923d a2bf f93d
00000020: ecf0 c9be eadc 17be 1cfb 9ebe dbb0 04be
00000030: 4425 b1bd 4b5c 39be b5f8 b4bc 0bf4 11be
00000040: 9e51 0ebd cafb 1e3c 1674 28be 1876 c9bc
00000050: 5b93 373d dc76 013e ce79 9f3d 0c42 553e
00000060: 19b9 bebb 10ec 81bd 9fd4 0a3e aefa a3bc
00000070: badf 44bd 23d4 303c a33b 67bc 1b07 db3d
00000080: 654e 27be 38c4 ddbc 2a80 dbbd 5a97 adbd
00000090: 3630 4bbc a074 103e f0ac 893c 8f4b 45bd
000000a0: dd8d 083d 2bc3 8cbc e226 423d a49e 4fbd
000000b0: aacd 8bbd a53a 7ebd bfe3 9dba 6114 c73d
000000c0: 3a30 813d 3aee 793c 0f5e eb3d c1c0 d33d
000000d0: a78c 873d 59ac 5bbd 8688 cc3d 4865 95bb
000000e0: 4cc4 df3c c6e3 9cbd 6691 3ebd 03ff 86bd
000000f0: 79ad 60bc 7d32 5b3d fc28 75bd 769c bd3c
00000100: ad27 c03d 25f6 02bb 6e6a 9cba 323a 55bd
00000110: 74b7 7a3d d8b1 113e aaa2 bcbd 3769 33bd
00000120: 7667 403d 8dd0 ca3d 0503 d53d 5cfc d73d
00000130: 83dc c23c e1db d4bd 3d25 343c 2f23 99bd
00000140: 5920 e4bd d97c d93d 7d1f ba3d 7e2d f4bd
00000150: 1a44 b73c c9f1 a4bc 8120 a1bc 1f1a 60bd
00000160: f743 3c3d 59fc 90bd 7478 333d cb93 773d
00000170: aa3b af3d d60d 373d 2b45 f2bd 34ca 9ebd
00000180: 8e72 743d faee cc3c 80f3 bebd 62f3 8cbd
00000190: 7e47 e63d 65f0 a43d 8376 55bd b56e f6bc
000001a0: fe2d e9bd d6ca 0cbb fd55 b8bd 9bd0 bcbd
000001b0: 8bcc d7bb 0003 933c f17d 48bd a73f 913d
000001c0: bdf5 94bd ce1b de3d e8bf a73d d26b cebd
000001d0: c0b0 f3bc 51b9 b03b 38db 8e3c 8939 e83c
000001e0: 911e 403d ba99 ea3b 87df 6ebd 36a8 673d
000001f0: c2ce eabd 9c15 91bd 151b f5bc 5679 6ebd
00000200: 3344 2bbd 1aa1 c8bd ac46 d0bc ae4b d13c
00000210: b777 9fbd 5afe c8bb 5d3a af3d 544f 49bc
00000220: a4b2 593b eaef 28bc 6e28 c63c 80a4 9b3d
00000230: 9afe 1b3e 6c61 eb3d e8d4 003e bd51 623d
00000240: 0646 25bd efda 8abc 1500 0b3e 6a11 1d3d
00000250: 368d 03bf acee 5cbe 05f6 bfbe e635 2fbe
00000260: 14df 823c 21c2 0dbd 6475 d43d fe04 9ebe
00000270: 6f7a 60bd 0f42 37be 2bb3 bcbc a09f 18bc
00000280: c3df 3b3e 843c 803c a5a8 043d ac0d ebbd
00000290: e354 afbc 672b e3bc 84aa 71bc cff3 203e
000002a0: 2e33 8cbd a8d4 833d 2b4d ed3d e803 ddbc
000002b0: a4d5 213d f588 a93d f358 cfbd 0cfe ea3d
000002c0: d28a 993d 4e69 74bd f0b6 983d ac6b 34be
000002d0: a090 553d 91f2 2abd e2eb fe3d 873d fb3d
000002e0: 8e1a 5c3d a5d8 803d 52c2 88bd 162e 613c
000002f0: e83a b23d c41d c53d a882 113e 98d8 bb3d
00000300: f811 7ebd 6b08 1dbd 626b 58bd 0e85 98bc
00000310: 4de7 75bd c3d1 9b3d a2ae fabd bcbe 243d
00000320: b8ec 00bd 48fe b03d f714 80bd 3f5f c8bd
00000330: 9625 d1bc 1b0b 083e 595e d7bc 9d4f 2c3e
00000340: 1a7f de3c 160e f93d 77ba 84bb 1873 dbbc
00000350: d2eb 413c f173 f9bc ad28 5eba ea12 463c
00000360: 0e83 bfbd 8ec5 86bd 8634 bf3d 4a2e c0bd
00000370: b8fa b1bb 0c2a f23d 13e7 233d 08c7 5d3b
00000380: c49a dabd 2197 653d fee2 a7bd 9220 fcbc
00000390: db39 24bd f1e3 aabc 3d5c ab3a e66c c33d
000003a0: 10b9 403c 503b db3d 8b2f 9c3d 51bd 9abd
000003b0: 26a0 4e3d 3809 adbd d56f 5cbd bf0d 033d
000003c0: 2898 2e3d 9c18 be3d 5491 1dbd 949b 42bb
000003d0: 390a 7c3d 6d33 f3bd 7d80 aa3d f1f2 c3bd
000003e0: 4a3a 9d3b fb67 a6bc d164 87bd ad69 813c
000003f0: 32f1 c33d ee0d 1cbd b0da 8abd 5927 28bd
0.026284115 0.091239594 -0.16431378 -0.037989512 0.051618896 0.058692347 0.071726516 0.12194754
-0.3944162 -0.14830366 -0.31050956 -0.1295809 -0.08649686 -0.18101613 -0.022091249 -0.14253251
-0.034745805 0.009703586 -0.16450533 -0.024592444 0.044818264 0.12642998 0.07786904 0.20825976
-0.005820405 -0.063438535 0.13557671 -0.020016994 -0.048064925 0.010792765 -0.01411334 0.10694715
-0.16338499 -0.027071103 -0.10717805 -0.08476134 -0.012401631 0.14106989 0.016806096 -0.04816776
0.033338416 -0.017182907 0.047400363 -0.0506884 -0.06826337 -0.062067647 -0.0012046023 0.09720684
0.063080266 0.015254552 0.1149255 0.10339499 0.06618624 -0.05363116 0.09986977 -0.004559193
0.027315281 -0.07660632 -0.04652538 -0.065916084 -0.013713234 0.053514946 -0.05985354 0.023145895
0.093825676 -0.001998314 -0.0011933574 -0.052057452 0.06121011 0.14227998 -0.09210713 -0.043801513
0.046973668 0.09903059 0.104009666 0.105461806 0.023786789 -0.10393501 0.010995206 -0.07477414
-0.11138982 0.10619516 0.09088037 -0.119227394 0.02237134 -0.020134823 -0.01966882 -0.05471241
0.045963254 -0.070793815 0.043816045 0.06044368 0.08556302 0.04469093 -0.11829599 -0.07753411
0.05967956 0.025016297 -0.09323788 -0.06882359 0.11244105 0.08053664 -0.052114975 -0.030082086
-0.113857254 -0.0021483204 -0.09000776 -0.09219476 -0.0065856627 0.017945766 -0.048948232 0.07092219
-0.07273433 0.10845147 0.081909 -0.10079159 -0.029747367 0.005393185 0.017438516 0.028347747
0.04690415 0.007159439 -0.05831864 0.056556903 -0.11465217 -0.070842 -0.02992014 -0.058221184
-0.041813087 -0.09796353 -0.025424324 0.025548782 -0.07786506 -0.0061338367 0.08556054 -0.01228698
0.003321805 -0.010311106 0.0241892 0.07599735 0.15233842 0.11493191 0.12581217 0.055253733
-0.040349983 -0.016950099 0.1357425 0.038346685 -0.51387346 -0.21575421 -0.37492386 -0.17110404
0.015975513 -0.034608964 0.10373953 -0.30863184 -0.05480426 -0.17896293 -0.023034653 -0.009315401
0.18347077 0.015653856 0.032387394 -0.11477217 -0.021402782 -0.027730657 -0.014750127 0.15718006
-0.06845699 0.06437045 0.11586984 -0.026979402 0.039510384 0.082780756 -0.101243876 0.11474237
0.07497181 -0.05967074 0.074567676 -0.17619199 0.05213988 -0.041735236 0.12447335 0.12267595
0.053736262 0.06291322 -0.06677689 0.013743898 0.08702642 0.09624818 0.14209998 0.09172171
-0.062028855 -0.038338106 -0.052836783 -0.018618133 -0.06003504 0.07608368 -0.1224034 0.04022096
-0.031475753 0.0864225 -0.06253999 -0.09783792 -0.025530618 0.13285486 -0.026290106 0.16827245
0.027160216 0.1216089 -0.0040505487 -0.02678828 0.011836009 -0.030450793 -0.0008474689 0.01208947
-0.093511686 -0.06580649 0.0933619 -0.09383829 -0.0054314993 0.11824426 0.04001529 0.0033840556
-0.106740505 0.05605233 -0.08197592 -0.03077725 -0.040094238 -0.020860644 0.0013073754 0.09542255
0.011762872 0.10704672 0.076262556 -0.075556405 0.0504457 -0.08449024 -0.05381759 0.03199553
0.042625576 0.092820376 -0.038468674 -0.0029694783 0.061533187 -0.11875043 0.083252884 -0.09567822
0.0047982084 -0.020313254 -0.06611026 0.01579746 0.09567489 -0.038099222 -0.067799926 -0.04105315

layer1.bias f4 [128]
00000000: ffe6 293d f32e bebd 1450 fe3d 4160 aabd
00000010: 8d87 573d 0be7 153e 78b8 de3d 77c7 353d
00000020: f01a ad3d d5a4 bd3b 44b9 cb3d bc83 a83b
00000030: 9bca 9dbd 6430 d83d eb4e b8bd 6ea5 083e
00000040: 23f6 d73b 64b8 8d3d 287e 6c3c 5f0c 9d3d
00000050: b1cc a63d d7e6 e2bd cdda c93d ab4a 85bb
00000060: c176 dcbd ff6a d7bd 99a4 683d a756 023e
00000070: 3ce6 b4bd ab35 a53d 21b9 a83d 4123 f2bd
00000080: 6bf8 5e3d 97e1 31bd e4f8 983c 381c d6bb
00000090: 1b02 c73d ce28 a1bd f9a8 593d 0f25 38bd
000000a0: f38b f33c 4715 283d fc9b 7cbd a643 e2bc
000000b0: 2ef4 e23c 1c4d 283d d5ab 77bd 078e e83d
000000c0: 5efa 72bd 09e1 81bd 574b c23d 372b 52bc
000000d0: 1232 103d 155b c63d dd91 3cbd c3dd 973d
000000e0: 5bdc c83d b5a6 db3d 4681 123e a689 cf3d
000000f0: 6495 053e c158 093e a738 933d 75b6 913d
00000100: e0bc b13d ad2b dc3d 1564 043c fcb6 a63c
00000110: d5cd 12bb 4eb0 943b 0ca5 903d 683f 19bc
00000120: 113f 0bbd 5b05 a93d 5a4c 203d 1416 393d
00000130: 65d3 2c3a 7d2f 9bba fda5 06bd 934f 113e
00000140: 7e8f 09bd ee90 59bd 97c7 c33c e3ee 153c
00000150: 4b78 f83d 7782 583d e323 6a3c 919f e7bd
00000160: 6432 67bd 7fe9 833d 35b4 cdbb e9b2 06bd
00000170: 2be4 f63c 44b1 ae3d f1e3 703c 78e3 0e3e
00000180: adff 0e3e 443b e43c ad76 f33d 622c 273d
00000190: 17a1 913d b1e8 9f3d 9755 f4bd ff95 b93d
000001a0: 31f7 e43d 85a1 b63c 72f0 7d3c 9436 0f3c
000001b0: 8044 c0bd fc00 2b3c 599b 4a3d 8827 6d3d
000001c0: 5178 243e ec37 0dbd 9763 e03d 726b 363c
000001d0: e3ca 0ebd d2ae 58bd 35af a3bd 2f79 763d
000001e0: b93d b3bc 15cc 653d 5ae8 9abd c403 1cbc
000001f0: 2489 a03d 6e26 29bd 0ca3 163e fe37 b6bd
0.04148006 -0.092862986 0.124176174 -0.0831914 0.052619506 0.14638917 0.10875028 0.044379678
0.084524035 0.005787472 0.09947446 0.005142657 -0.077046596 0.10556105 -0.089994274 0.13344356
0.006590621 0.06919935 0.014434375 0.07668375 0.081445105 -0.110791855 0.09856186 -0.004067739
-0.10764838 -0.10518455 0.056797598 0.12728368 -0.08832976 0.08066877 0.082384355 -0.118231304
0.05443613 -0.04342803 0.018673368 -0.0065341257 0.097171985 -0.07869111 0.05313966 -0.044957217
0.029729819 0.041035917 -0.061672196 -0.027620148 0.027704325 0.041089162 -0.060466606 0.113552146
-0.0593208 -0.0634175 0.09487026 -0.012827686 0.035204 0.09685341 -0.046037544 0.074153446
0.098076545 0.10725156 0.14307126 0.10133676 0.13045269 0.13412763 0.0718854 0.07114879
0.08678603 0.10750518 0.008080502 0.020350926 -0.0022400517 0.0045376187 0.0706273 -0.009353496
-0.03399569 0.082529746 0.039135315 0.04518707 0.00065927795 -0.0011839714 -0.032873143 0.14190511
-0.03358411 -0.05311673 0.023898883 0.009151193 0.12132319 0.052858796 0.014290783 -0.11309732
-0.05644454 0.0644102 -0.006277586 -0.032885466 0.030138096 0.085299045 0.014702783 0.1395396
0.1396472 0.027860291 0.1188787 0.04081381 0.071108036 0.07808054 -0.119303875 0.090618126
0.111799605 0.022293815 0.015499221 0.00874104 -0.09388065 0.010437246 0.049464557 0.057899028
0.16061522 -0.03447716 0.10956495 0.011134015 -0.034861457 -0.052901097 -0.079924025 0.060174163
-0.021880018 0.05610283 -0.07563849 -0.009522382 0.078386575 -0.041296415 0.14710635 -0.088973984

layer2.weight f4 [256, 128]
00000000: a62c 3dbc dec7 703d a01a 083e fb11 2d3d
00000010: 7881 363e c490 67bc 93c7 883c 7f12 e4be
00000020: 9bfa 963b fdba 15bf 1e71 b83d 7583 ae3d
00000030: 74c5 0bbe 5fae bd3c b43c af3d 9aa4 b93d
00000040: 0bc9 9f3d d53f 233e 9fe3 613e b70c bbbc
00000050: ec3a 9fbd bc46 453e 2edb 883d 3600 a33d
00000060: 819f 083e 7ed7 6dbc 4100 fd3d 1979 bbbc
00000070: 9bb7 0a3e eabe 0cbc 5831 d4bc 748d e63e
00000080: 792a da3a b9ce 5dbe 64cd 55bd edba 173d
00000090: d8ca 303d 0618 f53d e571 b6be 697a e93b
000000a0: 0171 8fbd ed5b 7b3c 6ece 093d 69b0 1b3d
000000b0: a552 953d f90f c53d bd9c b43c 4945 f63d
000000c0: 1d2b 16bc 0f7d 00bc 1b18 0b3e cd55 c63b
000000d0: 21c9 693e b841 8b3c 4c98 c73e ee24 eb3d
000000e0: 6161 293e 7d1c 23bc c73b 33bd 0879 823d
000000f0: ca3c 343d 8530 123e e5f4 f1bc 2642 913c
00000100: 689f 913d 4c33 04bd 1dc0 94bd d11c 693d
00000110: 561b 8f3d 5ff8 943e 3bdf 083e 0c07 4a3d
00000120: 8623 58be ec35 bb3d 8034 a73d 3380 c83d
00000130: e19d 38bc b1a7 a7bd 05d5 2cbd ea0a 85bc
00000140: cab7 1fbc fcf1 053d b37b 223d 6089 7a3e
00000150: 50eb ac3c a555 1dbb 198e 8d3d c432 533d
00000160: cddf 3d3d 96e6 073e cb8d aa3d 18b6 023e
00000170: 5048 bb3a 9220 5fbd f3c5 de3c 057e 023e
00000180: 11dc b83c 87d9 323e b956 c6bb 3857 8b3e
00000190: 45ac 893c ba82 ee3c b7dd ccbe f377 793c
000001a0: c473 04be ed15 45bd 8b6a db3d e3bf 683c
000001b0: ed84 693c 404e a1bd d3c6 cf3d f54a 203e
000001c0: 5637 7dbc 752e 363d a5c9 f73e fb65 9d3d
000001d0: 017c 8c3c 2476 b5be e4fc d4bc d8ee a73d
000001e0: 98dd 8a3d 13b6 ac3a defb b5bb 4811 433d
000001f0: 56ef a23d dec1 e23d dca3 b43d caed d5be
00000200: 4dd1 fdbc 308e 0c3c d5aa 90bc 046a 643c
00000210: 15b3 94bd b9f7 50bd c111 a23b 1f42 dc3e
00000220: d1c9 493c fe2f ff3e c5ad 98bd 23b4 08bf
00000230: e4c4 013d 14ca b33d 5a6d 9a3d 1b16 ecbe
00000240: f73b 8bbd 9c05 8dbf 12f6 dabe 4b84 813c
00000250: 813e a7bd 11ad 4dbf a4f4 813d 1d98 a53c
00000260: d0fc 0dbf 6f5b 49be 20ec e93d d769 d03d
00000270: d7c7 20bc f52b 99bb 29c2 f33c 0097 a43a
00000280: 6658 0e3d 1596 273e a8bf 3e3d a047 363d
00000290: 7fce 99bd a8ef b1bd 4d3b 263e 2fdb 3f3d
000002a0: e227 9ebd 9124 21bc 5441 4a3d 7a10 1b3d
000002b0: ffb5 ce3d 69d7 fb3c d607 d03c e2e4 6c3d
000002c0: 00af f6bc 96b6 fd39 61c7 abbc 264b 83bc
000002d0: 76b3 25bf f657 89bb 9d19 b4bf e4a2 9b3d
000002e0: b9fe 5bbe 78e1 0e3e bbd8 793c cc87 c3bc
000002f0: fea5 b33d a179 59bd 39ef 283d 05bc a33d
00000300: 8254 9ebd 8743 693d b96e a33d 33ee e9bb
00000310: dc88 3ebd 861b 17be 4d97 5fbe 9ce4 8cbc
00000320: 37d6 0b3d 32d6 233b 97f8 1d3b 35a1 f53a
00000330: b067 4b3d eca0 80bc 0668 e5bc 1ce9 213c
00000340: efde 6f3b 7890 62bc 0b4b 2f3d a39b 30be
00000350: 315d 52bd d0c0 b3bc 7b4e 21bc bd08 7f3d
00000360: e3c2 173d 4b1c 0c3d a16d ab3c ebd1 3dbd
00000370: dde4 c13b 1f32 8ebd 6b33 fd3a d428 d93d
00000380: 0bfd cdbb b9c2 39bd 1f41 86bc a935 28bf
00000390: 3eda f73c 3ddc 58bd 8ca7 3a3e c066 b9bc
000003a0: 35a1 463e 02ce ae3d a0c3 57be c2b4 01bd
000003b0: c9ca 003d bd46 b4bc 92ef 52bf 0aaa 74bd
000003c0: 2b1d 2c3d 10af c0bd 32fe 97bf f366 683d
000003d0: 8981 2c3d 5b30 9c3e 7d72 a83d 2e1f ee3c
000003e0: f642 84bf 15e1 83bb ecf9 0ebd dfb6 503e
000003f0: fd88 cdbd 1a55 2e3d 99be 26bd 525c 32be
-0.01154629 0.05878436 0.13291407 0.042253476 0.17822826 -0.014133636 0.016696727 -0.4454536
0.004607511 -0.58488446 0.090059504 0.08521167 -0.13649541 0.023154436 0.085565 0.090645984
0.07802018 0.15942319 0.22059487 -0.022833211 -0.0777491 0.19265264 0.0668243 0.079590246
0.13342096 -0.014516709 0.12353564 -0.022884892 0.13546602 -0.008590439 -0.025902435 0.45029795
0.0016644738 -0.2166089 -0.05219783 0.0370435 0.043162197 0.11967473 -0.3563377 0.007125188
-0.07003976 0.015341741 0.033644132 0.038010035 0.07291154 0.09622187 0.022047395 0.12024934
-0.009165552 -0.007842316 0.13583414 0.0060527087 0.22830631 0.01699911 0.3898338 0.11481653
0.16541053 -0.009955523 -0.04375818 0.06370741 0.044003285 0.14276321 -0.02953572 0.017731737
0.071104825 -0.032275483 -0.07263205 0.056912247 0.06987636 0.29095742 0.13366406 0.049323127
-0.21107301 0.09141144 0.081643105 0.09790077 -0.01126811 -0.081862815 -0.04219534 -0.016240556
-0.009748409 0.032701477 0.03966875 0.24466467 0.0211083 -0.0024007347 0.069118686 0.051562086
0.04635601 0.13271555 0.08327826 0.12764776 0.0014288519 -0.05447442 0.027193999 0.12743385
0.022565873 0.17465793 -0.0060528186 0.2721498 0.016805777 0.02911507 -0.40012905 0.015226352
-0.12934786 -0.048116613 0.10713681 0.014205906 0.014252883 -0.07876253 0.101453446 0.15653594
-0.015455088 0.0444779 0.4839603 0.07685467 0.017148973 -0.35441697 -0.025999494 0.08199853
0.06780547 0.0013176821 -0.0055537065 0.047623903 0.07955806 0.110721335 0.08820316 -0.4178298
-0.030983591 0.008578822 -0.017659584 0.013941292 -0.0726072 -0.051017497 0.004945964 0.43019196
0.012316183 0.49841303 -0.07455019 -0.53399867 0.03168191 0.08778778 0.075403884 -0.46110615
-0.06798547 -1.1017337 -0.42765862 0.015810153 -0.081662185 -0.80342203 0.063454896 0.020214135
-0.55463886 -0.19663785 0.114219904 0.10176437 -0.0098132705 -0.0046744295 0.029755669 0.0012557209
0.034752272 0.16365846 0.046569496 0.0445019 -0.07510089 -0.08688289 0.16233559 0.04683989
-0.07722451 -0.009835378 0.049378708 0.03785751 0.10093307 0.030742364 0.025394361 0.057835467
-0.030112743 0.00048391958 -0.020969095 -0.016027045 -0.6472696 -0.004191394 -1.4070317 0.07599428
-0.21483888 0.13953197 0.0152494265 -0.023868464 0.08771895 -0.05309451 0.041243766 0.07994846
-0.07730962 0.056949165 0.07980103 -0.0071389913 -0.046517238 -0.14756593 -0.2183506 -0.017198853
0.034139838 0.0024999497 0.002410447 0.001874006 0.04965943 -0.015701734 -0.028003704 0.009882238
0.0036601385 -0.013828389 0.042796176 -0.1724687 -0.051358406 -0.021942526 -0.009845371 0.062264193
0.037051093 0.03420667 0.020926299 -0.04634277 0.005917175 -0.069431536 0.0019317692 0.106034905
-0.0062862686 -0.045351718 -0.016388474 -0.6570688 0.030255433 -0.05294441 0.18227977 -0.022632003
0.19397433 0.085353866 -0.21070719 -0.031666525 0.03144339 -0.022006387 -0.82396805 -0.059732474
0.042020004 -0.094083905 -1.1874449 0.056738805 0.04211572 0.30505642 0.08224962 0.029067602
-1.0332935 -0.0040246346 -0.034906313 0.2038226 -0.10035894 0.042561628 -0.04070911 -0.1741803

layer2.bias f4 [256]
00000000: 5df5 013e 3016 2f3d 27b0 e43d da6c cbbc
00000010: 3e90 673d 1750 f2bb 6b58 a83d 5a15 163b
00000020: f4dd 713d f482 963a 38a7 ce3d e504 8cbd
00000030: 7270 413d fca5 8d3b 1218 45bd 1928 e13d
00000040: c909 98bd 0a97 503b b366 96bd 65d1 8a3b
00000050: f543 373c c841 9a3d 028d 0bbd 8510 0b3d
00000060: 7622 923d 9533 683d 4803 df3d b61a 3d3d
00000070: 3b67 52bd ae46 003e 3941 a93d 301b 953c
00000080: 89b7 a33d af74 b3bc aff8 303d b7d6 80bd
00000090: bc17 593c e2a7 833d 74a9 e6bb f841 673d
000000a0: beae 1e3d 1084 ca3d 45b4 92bd 2ba7 bcbc
000000b0: d8cf 313d f557 833d 7d39 c3bc 94c5 64bd
000000c0: 7662 85bd b4cb d5bc 319b 103b 38ec 883c
000000d0: e34e 643d c010 073d 03f1 d73d a0bf cc3d
000000e0: 5290 073e 1862 9b3d a8b9 27bc 80e0 94bd
000000f0: f62c ff3c 9f0d 9c3d f681 fbbb 293e 26bd
00000100: 1c0a 9bbc 2ef7 993d c2bd 8bbd 788b 863d
00000110: 4435 55bd 650c 8d3d 5da7 41bd 2ccb dd3d
00000120: cc19 a93d 3f0c e83c 2304 b63a 4c0f 9ebd
00000130: 2e18 5abd 7b16 bbbc b78a ca3d fa8b 30bd
00000140: 0e2d 3bbd f86c 9c3d f1b2 b23d fabc fc3c
00000150: 587f d13c 6354 003b 70b0 8ebc 3d6a fc3b
00000160: 4de7 c03a 47bd 803d 50b3 b5bb a0a8 2dbc
00000170: 8898 b83d ecd9 643d 7e63 4a3d 384a cb3d
00000180: 5942 65bd e50e 8dbd 6259 3d3d 1025 4bbc
00000190: 28bb 29bd a1df 11bd 5c5d 32bd 4e7b 303d
000001a0: bacd 8d3d c922 5e3d 1288 c9bc 57ea e73c
000001b0: bbd8 48bd e143 17bc ae40 383d 0d71 533d
000001c0: d078 853c 710d 9e3d 3c0f 673d 529a 37bc
000001d0: 7ade 023d 2ac5 71bd cae7 43bb 765d 0abd
000001e0: dc01 42bd 8279 35bd b152 adbd 9809 903a
000001f0: 4ff8 bfbc 0778 c2bc 60cd 6fbd 71a5 893d
00000200: 0dc5 8dbd 926e 943d 3eaf b4bc 0754 35bd
00000210: 19fe 343d a3e9 00bc 7064 75bd 1055 3ebc
00000220: 4455 e5bb b09e c73d 9ec2 14b9 f1e8 8f3d
00000230: e7db 453d 536c f4bc 28d4 ac3c d08e 8abd
00000240: dada 2c3d c170 febc 599f 7cbd f821 26bc
00000250: 5168 a73d 979f 713d a811 113b ba09 33bd
00000260: 5bfd f43d 74cd 363d b8ba d13d b9e4 4bbd
00000270: 25d5 613d d95a 1e3c 11f6 c838 c01e a33d
00000280: 80a7 6d3c bb5d 90ba 6bd4 bb3c 341c 68bd
00000290: c083 2b3d 0bf9 4abd 69c2 a63d f999 df3d
000002a0: 79b3 343c d7d2 3d3d 7b79 493b ace1 2abd
000002b0: 5b07 983b e81f 8e3d 0960 5f3d fd15 2c3d
000002c0: a6b2 853d c737 6b3d aeb9 8bbd a0d5 92bd
000002d0: 9056 d13a 2c65 98bc bc69 29bc 2692 e9bb
000002e0: 7ef4 883d ce33 5b3d 7a44 d53c 610f 0a3d
000002f0: 99a1 91bd 6b1a ea3c 2ea0 a03d 9e8e 823d
00000300: 174d e93c 12a9 4e3d 2742 ae3d 64b4 51bc
00000310: 2522 793d ace3 ef3d 666f 953d 2486 2bbc
00000320: 223a 3e3d 4019 67bd 1ab5 cabc 4e7b 513d
00000330: e78b 833d f252 a3bd 6a32 53bd 8ccc a7bd
00000340: 024d 9c3d ce80 21bb 044b debc 03d4 6eb9
00000350: 7ed4 91bc 4a66 b43d e25e d33c 038f 003e
00000360: f2d7 433d 5dd6 f83d 7374 d83d e9b8 9c3d
00000370: a025 88bc aeb7 893d 6966 81bd 5f23 09bd
00000380: ee29 97bd 53f4 5f3b 0f55 ae3d 872e a6bc
00000390: 861a 9ebd cf8c 533d a8ed 97bc 5abe b83d
000003a0: 4558 a2bd c3ba 943d cbed 2abc 5e26 02bd
000003b0: fc6c d4bb b6d4 b93d a62a 77bc 5c50 d23d
000003c0: e101 db3b 6a62 f5bc 76e4 e93d 6e93 483c
000003d0: 57f6 323d 3c80 74bc d2a7 f43b b888 b53b
000003e0: fc0c 4dbd fda8 4b3d 53a6 4c3d a8f0 45bd
000003f0: 0167 363d 1a5e 96bd 95df a1bc 2f07 e13d
0.12691255 0.04274577 0.11166411 -0.024832178 0.056534044 -0.0073948014 0.082199894 0.002290091
0.05904956 0.0011483119 0.10090488 -0.06836871 0.047226377 0.0043227654 -0.04811866 0.10993976
-0.07423741 0.0031828308 -0.07343807 0.0042363876 0.011185636 0.07532078 -0.034070022 0.0339513
0.07135479 0.056689817 0.10889298 0.04616805 -0.05136798 0.12526962 0.08264393 0.01820144
0.07993991 -0.021906225 0.043205913 -0.062909536 0.013250288 0.064285055 -0.0070392434 0.056459397
0.038740866 0.0988847 -0.0716329 -0.02302893 0.043411106 0.06413261 -0.023831123 -0.055852488
-0.065129206 -0.02609811 0.0022065158 0.0167142 0.055739295 0.03297496 0.10544016 0.09997487
0.13238648 0.07587069 -0.010237135 -0.072693825 0.031149369 0.076197855 -0.0076754047 -0.040586624
-0.018925719 0.07517849 -0.06823303 0.0656957 -0.05205275 0.0688713 -0.04727875 0.108297676
0.082568735 0.028326152 0.0013886731 -0.077177614 -0.053245716 -0.022837868 0.09889739 -0.043102242
-0.045697264 0.07637972 0.087255366 0.03085183 0.025573418 0.0019581548 -0.017418116 0.0077030943
0.001471737 0.06286102 -0.0055450574 -0.010599285 0.09013468 0.05587189 0.04941129 0.099262655
-0.055971477 -0.068876065 0.04622782 -0.012398973 -0.04143825 -0.03561366 -0.043546066 0.043086343
0.06924005 0.054232392 -0.024601016 0.028309984 -0.049034815 -0.009232492 0.04498356 0.051621486
0.01629296 0.077174075 0.056411013 -0.011206226 0.03195045 -0.05902592 -0.0029892796 -0.033780538
-0.047365054 -0.044305332 -0.08463038 0.0010989187 -0.023433832 -0.023738874 -0.05854547 0.067210086
-0.0692235 0.07247652 -0.022056218 -0.044269588 0.04418764 -0.007868203 -0.059910238 -0.01161696
-0.00699869 0.09747064 -0.0001418688 0.07026852 0.04830542 -0.02983681 0.021097258 -0.067655206
0.0422009 -0.031059625 -0.061675403 -0.010139935 0.08174194 0.058990087 0.0022135768 -0.043710448
0.11962386 0.04462953 0.10240692 -0.049778674 0.05513491 0.009665214 9.5825766e-05 0.079648495
0.014505267 -0.0011014262 0.022928437 -0.05666752 0.041873693 -0.049553912 0.081425495 0.1091804
0.011029118 0.04634365 0.0030742574 -0.041719124 0.0046395487 0.069396794 0.054534946 0.042013157
0.06528215 0.05742624 -0.06822525 -0.07169652 0.0015971232 -0.01860293 -0.01034015 -0.007128018
0.06687258 0.0535162 0.026033629 0.033706073 -0.071109004 0.02857705 0.07843052 0.06374858
0.028479142 0.050454207 0.08508711 -0.012799356 0.06082358 0.11713347 0.07296638 -0.010468993
0.04644216 -0.056420565 -0.02474456 0.051142983 0.06423169 -0.07974805 -0.05156175 -0.08193311
0.076318756 -0.0024643424 -0.02713538 -0.00022776429 -0.01780152 0.088085726 0.02580208 0.12554555
0.047813363 0.121502616 0.10569086 0.07652456 -0.016619503 0.06724487 -0.06318361 -0.033480998
-0.07381044 0.0034172728 0.085123174 -0.020285858 -0.07719903 0.051647957 -0.01854594 0.09020682
-0.07926992 0.072621845 -0.010432671 -0.03177487 -0.0064827185 0.090737745 -0.015085852 0.102692336
0.0066835736 -0.029954154 0.114205286 0.012242181 0.04369196 -0.014923152 0.007466295 0.00553998
-0.05006121 0.049721707 0.049963307 -0.04832521 0.044531826 -0.07342167 -0.019759933 0.10987698

layer3.weight f4 [5, 256]
00000000: ccb1 cd3d 6cb9 debe 2c3d b73d 4c11 253c
00000010: 40bd 2a3d a2a8 27bd 6813 2ebd d8d7 233d
00000020: 3f26 65be 003c bbb8 519b 593d ea23 06bd
00000030: 8c43 a33d c826 1d3c 4f57 223d 7898 6d3d
00000040: 2441 17bd 6fc5 b63d 40b2 5b3d 60d9 ab3e
00000050: 3e40 74bd 120b 49bd c07b 3d3e d986 f63d
00000060: 3ca5 5cbc 8351 cabe 0c37 a33d 8d28 513d
00000070: f294 bc3c 0697 a13d e97d b23d 6526 b63d
00000080: f694 29be 702a 013d 825c 873d 498b b23d
00000090: e723 9f3c b78c 2f3d b537 37bd d504 f9be
000000a0: bcad e23d 7a0f be3d 5e83 6bbc 2aba 1d3d
000000b0: 3c6c 6f3d 2921 ce3d e0cc 0d3b fe79 6bbf
000000c0: 6e42 1a3d bb7b 163d 28c9 053e 00be cf3a
000000d0: 4283 f3bb 5ffd 7f3d 78ff 9a3d ca8e 7ebe
000000e0: 068a f63d 7005 cfbd 9c1d da3d 1259 5abd
000000f0: 2305 91bf cfbf 15bd 16b7 5f3d 7e60 1e3d
00000100: 7a3d 1bbe 39c9 ed3d ca5b 71bd 27b2 103d
00000110: b50f e03d 08c4 d6bc f2fe b73c f4e6 e23d
00000120: 0f2d 053d cc83 68be 49ad c63d a289 0ebd
00000130: 28ca ebbc c589 d03d 25ad f83d f5dd 8d3c
00000140: af12 7cbe 031f 81bb 60af fd3c 1b03 4d3d
00000150: 1eb2 e9be 7640 ba3d ab6b df3d 341d 16bd
00000160: 6cda 493d 5147 77bc 3b1b 153d 24aa d1bc
00000170: 3491 bc3d 326d cc3d 1725 e93c 6300 433c
00000180: e00a f7bc b5d5 3dbc 7c71 343d 7535 af3d
00000190: 31a8 d8be b30a 52be 58cf dabd 602e 243b
000001a0: e959 3e3d 88b4 7e3d 1065 20bf c376 7b3d
000001b0: e3e5 7bbd 75c6 043d 3b25 6b3d d953 88bb
000001c0: 2ac9 c63d c5dc c83c c587 05bd 5a20 fe3d
000001d0: 08a4 0bbd acd0 bfbc 87a4 5ebf 822a 50bb
000001e0: ee28 d23d 8294 613e 50c8 d3bb f47c 923d
000001f0: 6e32 083d 0a22 2b3d 14a1 703d d1f1 fabe
00000200: b10d 22bd 29d3 ea3d 0c4b 973e 31ab a13e
00000210: b3f9 e3be 277f 203d 8b71 533c f25f e43d
00000220: eb8d 843d 0e8c 19bd cec0 b63d 243f 763d
00000230: b757 56bf abd0 d43c 9591 e63d 90a1 adbb
00000240: 09bf ae3a fc5f 293d d5ce 4abf 90bc 77bc
00000250: f06a e33d 484d 0dbc 1fa5 b63d 8b72 293c
00000260: c577 993d 7821 10bd d00d 003e 5016 293b
00000270: ab5e 83be c3cf 803d ca43 47bd ee08 00bf
00000280: e4a7 f93d 0c77 30be e36d 8b3e f2a1 20bd
00000290: 9b8c 9c3d b84f 373c 9e30 043e 730c f93d
000002a0: 6cc6 e93d 3845 b1bd 9eed 0b3e 3fdd 593d
000002b0: d0ad d53d 4ccf 383d fef4 943d 2a80 d83d
000002c0: 77af e43d dc5b 0e3d b2af 1a3d 0b07 973e
000002d0: 60c3 493d be2a 33bd 3a10 0f3e 6059 2c3d
000002e0: a456 dc3d af02 05be 7679 e2be de33 0bbf
000002f0: 6aa6 00bd 6c8a 20bb 7737 613e 51bc 19be
00000300: ee1b 213d 87f6 983d b5ce 863d b4c2 5a3d
00000310: c8df 2a3d af58 5c3d e88c bf3c f874 8d3d
00000320: b44c 823c 2813 5dbd f57e 19be 1dad 26bf
00000330: 8d05 d73d ce1c 053e 8ee9 2dbd 009b 483d
00000340: 25ba 813d 76f8 0d3e 95a9 4bbd 1eac ed3d
00000350: 975e 143d 4da0 773d de02 0ebd b7a8 083d
00000360: 32d8 273d 75e0 2d3d 8975 003d 5516 b43d
00000370: 04fe dbbc e9a8 d83d 10f0 683e 6ee1 313c
00000380: 402e 51bb bd07 a23d d167 983b 2e6c 653d
00000390: 6bbc 103d b464 993d ecf9 1c3d 360b e93d
000003a0: e279 58bd 2371 903d 3fd3 2a3e 7235 ea3c
000003b0: 466f 443d 024d 663d 213f 283d d85e 563d
000003c0: a004 17bb 3cf6 42bd cbfd c13d 958a 01bd
000003d0: a11e d3be 04c9 9e3d afc8 d6bb 6079 d9be
000003e0: cde8 2c3d 7c1d f43d 3096 47bd 8c19 f0bc
000003f0: f6ad 173b d7a8 6b3e d566 7a3d 1e08 e13d
0.10043678 -0.4350084 0.089472145 0.010074925 0.04168439 -0.040932305 -0.042498976 0.040000767
-0.22377871 -8.928031e-05 0.053126637 -0.032749094 0.07971868 0.009591766 0.039634045 0.058006734
-0.036927357 0.08924376 0.05363679 0.3356428 -0.05963158 -0.049082823 0.18504238 0.12037439
-0.013467129 -0.39515314 0.07969484 0.051064063 0.023020241 0.078901336 0.08715422 0.08894042
-0.1656073 0.031534612 0.06609441 0.08717973 0.0194263 0.042858806 -0.04473086 -0.486365
0.110682935 0.09280296 -0.014374582 0.038507618 0.05845283 0.100649185 0.0021637008 -0.9198302
0.03766101 0.036739092 0.13065016 0.0015849471 -0.0074314186 0.062497493 0.07568258 -0.24859157
0.12038045 -0.10108459 0.10650179 -0.0533076 -1.1329693 -0.036559876 0.054617964 0.03866624
-0.1516017 0.11610646 -0.058925427 0.03532615 0.10940496 -0.026216522 0.022460435 0.11079207
0.032513674 -0.22706527 0.0970102 -0.034799226 -0.028782919 0.101825275 0.121424 0.017317751
-0.24616502 -0.0039404645 0.030967414 0.05005179 -0.45643705 0.09094326 0.10909208 -0.036648944
0.04928057 -0.015092687 0.036402922 -0.025593825 0.09207383 0.09981765 0.028460069 0.011901948
-0.030156553 -0.011586596 0.04405354 0.08555118 -0.4231582 -0.20511894 -0.10684079 0.0025052056
0.046472464 0.062183887 -0.6265421 0.061392557 -0.061498534 0.032415826 0.057408553 -0.004160386
0.09706338 0.024519334 -0.032600183 0.12408514 -0.03409198 -0.023414932 -0.869698 -0.0031763618
0.10261713 0.22029307 -0.006463088 0.07152739 0.03325122 0.04178051 0.058747366 -0.49012616
-0.03956384 0.11466057 0.29549444 0.3157592 -0.44526443 0.039183762 0.012905489 0.111511126
0.06472381 -0.037487082 0.08923493 0.06011881 -0.8372759 0.025978407 0.11258236 -0.0052988008
0.0013332079 0.041351303 -0.7922185 -0.01512064 0.11104381 -0.008624382 0.08918213 0.010342251
0.07493547 -0.03518817 0.12505269 0.0025800653 -0.25658163 0.062896274 -0.048648633 -0.50013626
0.12190226 -0.17232913 0.27232274 -0.039216943 0.07644006 0.01118844 0.12909171 0.121605776
0.11414799 -0.086557806 0.13664863 0.053189512 0.10433543 0.04511957 0.07273291 0.1057132
0.1116628 0.034755573 0.037765212 0.2949756 0.04925859 -0.043741934 0.13971034 0.042077422
0.10758713 -0.12989305 -0.44233292 -0.5437602 -0.031408705 -0.0024496568 0.21993814 -0.15013243
0.039333276 0.07468896 0.06582395 0.05340834 0.04171732 0.053795513 0.023382619 0.06907076
0.015905716 -0.053973347 -0.14989837 -0.651079 0.104991056 0.1299927 -0.042459063 0.048975945
0.063343324 0.13864312 -0.049722273 0.116050944 0.03622302 0.06045561 -0.034670703 0.033364024
0.040977664 0.042450387 0.03136209 0.08793322 -0.026854523 0.10579092 0.22747827 0.010856969
-0.0031918436 0.07911632 0.0046510478 0.05601137 0.03533594 0.07489911 0.03832428 0.113790914
-0.05285061 0.07052829 0.16682146 0.028589938 0.04795768 0.056225784 0.04107583 0.052336544
-0.0023043528 -0.04759811 0.09472235 -0.031626303 -0.41234306 0.077531844 -0.006554685 -0.42475414
0.042214204 0.11919686 -0.048727214 -0.029309057 0.002314446 0.23013626 0.061133225 0.10987876

layer3.bias f4 [5]
00000000: cc4c 7e3b 3109 03bc 5752 16bd c986 363c
00000010: ab9d 603d
0.0038803099 -0.007997797 -0.03669962 0.011140534 0.054837864
