DDQN_policyNet.pth (torch, 176270 bytes, 6 tensors)

layer1.weight f4 [128, 70]
0	0x3cd8ec36	0.026479822
1	0x3dbb33ff	0.09140777
2	0xbe53e45b	-0.2069258
3	0xbd821bdd	-0.06352971
4	0xbba924af	-0.0051618437
5	0x3d6f5d14	0.058438376
6	0x3cad889a	0.0211833
7	0x3dfa269a	0.12214394
8	0xbebabb9e	-0.36471266
9	0xbe0557c9	-0.13021769
10	0xbe836610	-0.25663805
11	0xbdbc1d26	-0.09185247
12	0xbdabaafa	-0.083822206
13	0xbe2b521b	-0.1673054
14	0xbcb35d7a	-0.021895159
15	0xbe884bb0	-0.26620245
16	0xbb1e8538	-0.0024188291
17	0xbd64a040	-0.05581689
18	0xbe2830bc	-0.1642484
19	0xbcccad5a	-0.024985004
20	0xbd7ea030	-0.062164485
21	0x3e01aa69	0.12662663
22	0x3c950c10	0.018194228
23	0x3da347f5	0.07972709
24	0x3d0cf6ac	0.034414932
25	0xbd11ec3e	-0.03562569
26	0x3e0a93de	0.1353297
27	0xbe0a5373	-0.13508396
28	0xbd441281	-0.04786921
29	0x3c56701f	0.013088255
30	0xbded30ed	-0.115815975
31	0x3e502910	0.20328164
32	0xbe0ba37b	-0.13636582
33	0xbce7e176	-0.02830575
34	0xbe039459	-0.12849559
35	0xbdad3060	-0.084564924
36	0xbc9a9e36	-0.018874269
37	0x3db11625	0.08646802
38	0x3dd17ce6	0.102289006
39	0x3d1208ce	0.035652928
40	0x3d095fa3	0.033538472
41	0xbcf7d152	-0.030251179
42	0x3d4273e9	0.04747382
43	0xbd84291c	-0.064531535
44	0xbe096de8	-0.13420832
45	0x3c129e54	0.008948881
46	0x3ca51d6d	0.020155633
47	0x3dc7561a	0.097332194
48	0xbe08fd27	-0.1337782
49	0x3c6c117d	0.014408466
50	0x3dc98815	0.09840409
51	0x3e1b4c3e	0.15165803
52	0x3e09f4f7	0.13472353
53	0xbcb4997a	-0.02204584
54	0x3dcbc37f	0.09949397
55	0xbd576ad8	-0.05259213
56	0x3c9eaf52	0.019370709
57	0xbd8069b1	-0.06270159
58	0xbd9f82b1	-0.07788599
59	0x3c2475e1	0.01003787
60	0xbb34897b	-0.0027547765
61	0x3d3a76d1	0.04552347
62	0xbe1152b2	-0.14191702
63	0x3d020369	0.031741533
64	0x3db5c477	0.08875363
65	0xbc895bfd	-0.016767496
66	0x3d0a98e6	0.03383722
67	0x3b7de6ce	0.0038742307
68	0x3d8e6e3e	0.06954621
69	0x3d8cd2e3	0.06876161
70	0xbdbca2aa	-0.09210713
71	0xbd336937	-0.043801513
72	0x3d406776	0.046973668
73	0x3dcad08d	0.09903059
74	0x3dd50305	0.104009666
75	0x3dd7fc5c	0.105461806
76	0x3cc2dc83	0.023786789
77	0xbdd4dbe1	-0.10393501
78	0x3c34253d	0.010995206
79	0xbd99232f	-0.07477414
80	0xbde42059	-0.11138982
81	0x3dd97cd9	0.10619516
82	0x3dba1f7d	0.09088037
83	0xbdf42d7e	-0.119227394
84	0x3cb7441a	0.02237134
85	0xbca4f1c9	-0.020134823
86	0xbca12081	-0.01966882
87	0xbd601a1f	-0.05471241
88	0x3d3c43f7	0.045963254
89	0xbd90fc59	-0.070793815
90	0x3d337874	0.043816045
91	0x3d7793cb	0.06044368
92	0x3daf3baa	0.08556302
93	0x3d370dd6	0.04469093
94	0xbdf2452b	-0.11829599
95	0xbd9eca34	-0.07753411
96	0x3d74728e	0.05967956
97	0x3ccceefa	0.025016297
98	0xbdbef380	-0.09323788
99	0xbd8cf362	-0.06882359
100	0x3de6477e	0.11244105
101	0x3da4f065	0.08053664
102	0xbd557683	-0.052114975
103	0xbcf66eb5	-0.030082086
104	0xbde92dfe	-0.113857254
105	0xbb0ccad6	-0.0021483204
106	0xbdb855fd	-0.09000776
107	0xbdbcd09b	-0.09219476
108	0xbbd7cc8b	-0.0065856627
109	0x3c930300	0.017945766
110	0xbd487df1	-0.048948232
111	0x3d913fa7	0.07092219
112	0xbd94f5bd	-0.07273433
113	0x3dde1bce	0.10845147
114	0x3da7bfe8	0.081909
115	0xbdce6bd2	-0.10079159
116	0xbcf3b0c0	-0.029747367
117	0x3bb0b951	0.005393185
118	0x3c8edb38	0.017438516
119	0x3ce83989	0.028347747
120	0x3d401e91	0.04690415
121	0x3bea99ba	0.007159439
122	0xbd6edf87	-0.05831864
123	0x3d67a836	0.056556903
124	0xbdeacec2	-0.11465217
125	0xbd91159c	-0.070842
126	0xbcf51b15	-0.02992014
127	0xbd6e7956	-0.058221184
128	0xbd2b4433	-0.041813087
129	0xbdc8a11a	-0.09796353
130	0xbcd046ac	-0.025424324
131	0x3cd14bae	0.025548782
132	0xbd9f77b7	-0.07786506
133	0xbbc8fe5a	-0.0061338367
134	0x3daf3a5d	0.08556054
135	0xbc494f54	-0.01228698
136	0x3b59b2a4	0.003321805
137	0xbc28efea	-0.010311106
138	0x3cc6286e	0.0241892
139	0x3d9ba480	0.07599735
140	0x3e1a370d	0.15060063
141	0x3de7d536	0.11319964
142	0x3d367376	0.044543706
143	0x3cc82889	0.024433391
144	0xbd31d703	-0.04341794
145	0xbca97473	-0.02068541
146	0x3dd3062c	0.103039116
147	0x3d15f082	0.03660632
148	0xbe7c2b4a	-0.24625888
149	0xbe8879cc	-0.26655424
150	0xbeb04182	-0.34424978
151	0xbe3d615c	-0.18494171
152	0x3c84a435	0.016191581
153	0x3c24132e	0.010014338
154	0x3dd0e53f	0.10199975
155	0xbe2320c9	-0.15930475
156	0xbbf7ec50	-0.0075660124
157	0xbe59e1c1	-0.21277525
158	0xbda68f9e	-0.081328616
159	0xbc373309	-0.011181601
160	0x3c82a617	0.015948338
161	0x3c63f596	0.013913533
162	0x39adbb58	0.00033136713
163	0xbe5f7bf2	-0.21824625
164	0x3d204a20	0.03913319
165	0xbd8d0ef3	-0.06887617
166	0xbc8d4b24	-0.017247744
167	0x3c422f12	0.011852043
168	0xbd8fc353	-0.07019677
169	0x3d93c283	0.072148345
170	0x3d598a90	0.05311066
171	0x3c3e4800	0.011613846
172	0x3cec35c9	0.02883424
173	0x3da3623b	0.0797772
174	0xbdf99296	-0.12186162
175	0x3de76de5	0.113002576
176	0x3da00b4f	0.07814657
177	0xbdffd24e	-0.12491284
178	0x3e1525e9	0.14565243
179	0xbe2a7ced	-0.16649218
180	0x3d4c7d8e	0.049924426
181	0xbd6642fc	-0.056216225
182	0x3dfa3cc3	0.12218621
183	0x3dda6722	0.10664202
184	0x3b76398e	0.0037570926
185	0x3dda7e8c	0.10668668
186	0xbd9c5913	-0.07634177
187	0x3c3cc561	0.011521668
188	0xbd28c2ff	-0.041201588
189	0x3dbdfdfb	0.092769586
190	0x3e11b381	0.14228632
191	0x3d4a95f8	0.049459428
192	0x3c9a255c	0.018816642
193	0xbd41cb70	-0.047313154
194	0xbd6416f5	-0.055685956
195	0x3c52debc	0.012870487
196	0xbd87ac5f	-0.06624674
197	0x3dc1f63e	0.09470795
198	0xbddb914f	-0.10721075
199	0x3d463d51	0.04839832
200	0xbd74f93d	-0.059808005
201	0x3da4a9dd	0.08040211
202	0xbda17803	-0.078842185
203	0xbdaa0ffb	-0.08303829
204	0xbd0c5d6d	-0.034268785
205	0x3d9f42d5	0.07776419
206	0xbc237552	-0.009976702
207	0x3d73c868	0.059517294
208	0x3d2c26fb	0.042029362
209	0x3d39c168	0.045350462
210	0x3cc1476a	0.023593623
211	0x3a5d644a	0.0008445425
212	0xbc9f7f42	-0.019469861
213	0xbcb9cda6	-0.022681069
214	0x3dea629d	0.1144459
215	0x3d1e7d88	0.038693935
216	0x3cb57044	0.022148259
217	0xbd1c508a	-0.038162746
218	0x3f211309	0.6291967
219	0xbddf36d4	-0.108991295
220	0xbbe5cd1d	-0.007012977
221	0xbc47a414	-0.012185115
222	0x3d8e24d0	0.06940615
223	0xbc8611cd	-0.01636591
224	0xbda1fcea	-0.07909568
225	0xbe75f8fb	-0.2402076
226	0xbda13377	-0.07871144
227	0xbdfa281a	-0.1221468
228	0xbe0a9e7d	-0.13537021
229	0x3be62a00	0.0070240498
230	0x3ddd72fb	0.108129464
231	0x3dfc0ac0	0.12306738
232	0x3da412ac	0.08011374
233	0x3d113917	0.035454836
234	0x3de29810	0.1106416
235	0xbe51c076	-0.20483574
236	0x3d9e4a7a	0.07729049
237	0xbddbb046	-0.10726981
238	0xbcd66922	-0.026173178
239	0x3d1bf399	0.03807411
240	0x3dd7f84f	0.10545408
241	0x3e0c248e	0.1368582
242	0xbe30b768	-0.17257464
243	0x3cc7b10e	0.024376418
244	0x3a5af1fe	0.00083520997
245	0xbdba9592	-0.091105595
246	0x3dc0004e	0.09375058
247	0xbe87f0e8	-0.26550984
248	0x3d11b761	0.035575274
249	0xbe2eb6ca	-0.17061916
250	0xbd1d6c4d	-0.03843336
251	0xbe3324ba	-0.17494479
252	0x3dfc332c	0.12314448
253	0x3d1215d5	0.035665352
254	0x3b4e8f12	0.0031518382
255	0x3c5159df	0.012777775

layer1.bias f4 [128]
0	0x3d2ab480	0.041676044
1	0xbdbe2ef3	-0.092862986
2	0x3dfabfe7	0.12243634
3	0xbd638604	-0.05554773
4	0x3cf6ba5c	0.03011816
5	0x3e1b3afc	0.1515922
6	0x3ddeb878	0.10875028
7	0x3d6a311f	0.05717575
8	0x3d9eff3a	0.07763524
9	0x3c95eba0	0.018300831
10	0x3df8fe1d	0.12157843
11	0x3c35a0a7	0.011085666
12	0xbdc48864	-0.09596327
13	0x3dd83064	0.10556105
14	0xbdb84eeb	-0.089994274
15	0x3e42ab5e	0.19010684
16	0x3bd7f623	0.006590621
17	0x3d857fcd	0.06518517
18	0x3cca85d1	0.024722012
19	0x3da20801	0.07911683
20	0x3da6ccb1	0.081445105
21	0xbde863a9	-0.11347134
22	0x3de88482	0.11353399
23	0xbc743956	-0.014906248
24	0xbdcb7416	-0.09934251
25	0xbdc73872	-0.09727563
26	0x3dc2c56e	0.09510313
27	0x3e0e150f	0.1387522
28	0xbdb78f57	-0.08962887
29	0x3dc37400	0.095436096
30	0x3dba15a9	0.090861626
31	0xbe03fc6f	-0.12889265
32	0x3d9e0b8c	0.07717046
33	0xbd42b100	-0.04753208
34	0x3c98f8e4	0.018673368
35	0x3c8c4d11	0.017126592
36	0x3dc7021b	0.097171985
37	0xbd888d52	-0.0666758
38	0x3d82c99c	0.0638611
39	0xbd38250f	-0.044957217
40	0x3da672e0	0.081273794
41	0x3d4cb313	0.049975466
42	0xbd19efc5	-0.037582178
43	0xbbad16c1	-0.0052822535
44	0x3d12c621	0.03583348
45	0x3d26dc9c	0.040737733
46	0xbd77abd5	-0.060466606
47	0x3df7f874	0.121079355
48	0xbd46e450	-0.04855758
49	0xbd81e109	-0.0634175
50	0x3dcb63d1	0.09931148
51	0xbc522b37	-0.012827686
52	0x3d455a2d	0.0481817
53	0x3de947ba	0.11390634
54	0xbcf7dfa6	-0.030258011
55	0x3db96b60	0.09053683
56	0x3de7da88	0.113209784
57	0x3dd08b43	0.10182812
58	0x3e178c9b	0.1479973
59	0x3dd01925	0.10161046
60	0x3e0f6160	0.1400199
61	0x3e168134	0.14697725
62	0x3d9338a7	0.0718854
63	0x3db1a690	0.086743474
64	0x3dbc398a	0.09190662
65	0x3dc6cbc7	0.09706836
66	0x3d7c5990	0.06160885
67	0x3ca6b6fc	0.020350926
68	0x3b8749d5	0.0041286745
69	0xbac8b889	-0.0015313785
70	0x3da0c839	0.078506894
71	0xbc193f68	-0.009353496
72	0xbcba90a1	-0.022774043
73	0x3d9c38cc	0.07628021
74	0x3d5bea0f	0.053690013
75	0x3d76e77d	0.06027936
76	0x3ccc6beb	0.024953803
77	0xba9b2f7d	-0.0011839714
78	0xbd0994f4	-0.03358932
79	0x3e13d83f	0.1443796
80	0xbd14bc8e	-0.036312632
81	0xbcb4ddcf	-0.022078423
82	0x3ce4cdcb	0.027930161
83	0x3cda92ab	0.026681265
84	0x3df99465	0.12186507
85	0x3d947a18	0.0724985
86	0x3c11cc5c	0.008898821
87	0xbde79f91	-0.11309732
88	0xbd673264	-0.05644454
89	0x3db383dd	0.08765385
90	0x3c33dc7b	0.01097786
91	0xbc4033fd	-0.011731145
92	0x3cf6e42b	0.030138096
93	0x3df9236e	0.12164961
94	0x3c70e3f1	0.014702783
95	0x3e195821	0.14975025
96	0x3e33ca51	0.17557646
97	0x3d45a191	0.048249785
98	0x3de4d008	0.11172491
99	0x3d0db3f0	0.03459543
100	0x3db46764	0.08808783
101	0x3db5c280	0.088749886
102	0xbdd1eced	-0.10250268
103	0x3de67ce6	0.11254291
104	0x3e2fa067	0.17151032
105	0x3cb6a185	0.022293815
106	0x3b84d4bd	0.0040536807
107	0x3cd18413	0.025575673
108	0xbdc04480	-0.09388065
109	0x3c27d428	0.010243453
110	0x3d86aea4	0.06576279
111	0x3e05c8ee	0.1306493
112	0x3e328ce1	0.17436554
113	0xbcb43ece	-0.022002604
114	0x3e1b260e	0.15151235
115	0x3d041736	0.0322487
116	0xbd0ecae3	-0.034861457
117	0xbd4f54bb	-0.050617915
118	0xbda3af35	-0.079924025
119	0x3dca88d2	0.09889378
120	0x3c5d9698	0.013524674
121	0x3d86e17b	0.06585976
122	0xbd6d5a29	-0.05794731
123	0x3d2ce09b	0.042206388
124	0x3d7de945	0.06199004
125	0xbca0514f	-0.019570021
126	0x3e23e205	0.16004188
127	0xbd1ac2d0	-0.037783444

layer2.weight f4 [256, 128]
0	0xbb63a987	-0.0034738497
1	0x3d70c7de	0.05878436
2	0x3e134054	0.14380008
3	0x3e0ba8ce	0.13638613
4	0xbeb8d4bc	-0.36099803
5	0xbbf3577f	-0.007426202
6	0x3c88c793	0.016696727
7	0xbe504eb4	-0.20342523
8	0x3b0bc47e	0.0021326835
9	0x3e032d88	0.12810338
10	0x3dd97135	0.10617296
11	0x3e2c2004	0.16809088
12	0xbe094272	-0.13404253
13	0x3cbdae5f	0.023154436
14	0x3daf3cb4	0.085565
15	0x3d12cec0	0.035841703
16	0x3d9fc90b	0.07802018
17	0x3e7fcb53	0.24979906
18	0x3e6d799a	0.23190919
19	0xbd0fb891	-0.035088126
20	0xbd9f3aec	-0.0777491
21	0x3e174b7a	0.14774886
22	0x3d7f9136	0.062394343
23	0x3e4802af	0.19532274
24	0x3e6bf581	0.23042871
25	0x3ead10e2	0.33801943
26	0x3e031ff2	0.12805155
27	0xbc38db4d	-0.011282754
28	0x3e184c53	0.14872865
29	0x3c2ae161	0.010429711
30	0xbca09413	-0.019601857
31	0x3f1c62c9	0.61088234
32	0x3c6c80eb	0.014435033
33	0x3d68ac8f	0.05680519
34	0xbd55cd64	-0.05219783
35	0x3d152c53	0.036419224
36	0x3d30cad8	0.043162197
37	0x3db5faee	0.08885752
38	0xbe9ea5b0	-0.30985785
39	0x3be97a69	0.007125188
40	0xbc99edcd	-0.01879015
41	0x3c69143f	0.014226018
42	0x3d0d085c	0.0344318
43	0x3d3257d4	0.04354079
44	0x3dccbe4f	0.09997236
45	0x3de7eb9f	0.11324238
46	0x3cb49cbd	0.022047395
47	0x3dfd3291	0.123631604
48	0x3e4bfcf7	0.19920717
49	0xbc007d0f	-0.007842316
50	0x3e1821cc	0.14856642
51	0x3bc655cd	0.0060527087
52	0x3e6aa50a	0.2291452
53	0x3cc0ffd0	0.02355948
54	0x3e0eb499	0.1393608
55	0x3de8d9b0	0.113696456
56	0x3e4c2862	0.1993728
57	0x3b834774	0.0040063206
58	0xbc50f7e6	-0.012754416
59	0x3da1c43d	0.078987576
60	0x3d4af304	0.049548164
61	0x3e13047d	0.14357181
62	0xbcf1f4e5	-0.02953572
63	0x3cf2aa00	0.029622078
64	0x3dbd1dcb	0.09234198
65	0x3d8ba445	0.06818441
66	0x3ebd8a3d	0.3701953
67	0x3d691cd1	0.056912247
68	0x3d97a3a0	0.07404256
69	0x3eb88447	0.3603842
70	0x3e5b9653	0.21444063
71	0x3d4a070c	0.049323127
72	0x3d5a747e	0.05333375
73	0x3dd1db61	0.10246921
74	0x3db70295	0.08936039
75	0x3db7148f	0.08939468
76	0xbb66c877	-0.0035214701
77	0xbda7a7b1	-0.081862815
78	0xbd366a45	-0.04453494
79	0xbc40858f	-0.011750593
80	0x3b4d6842	0.003134266
81	0x3d0c72e1	0.034289245
82	0x3d90898f	0.07057487
83	0x3e518e50	0.20464444
84	0x3cfbadf6	0.0307226
85	0xbb405fb1	-0.0029353912
86	0x3e4f1e6f	0.20226453
87	0x3d5332c4	0.051562086
88	0x3d3ddfcd	0.04635601
89	0x3e13dc35	0.14439471
90	0x3dccd5fd	0.100017525
91	0x3e0c1de7	0.13683282
92	0x3abb4850	0.0014288519
93	0x3ec4a6ca	0.384085
94	0x3cdec5f3	0.027193999
95	0x3e104947	0.14090453
96	0x3cf97e83	0.030455833
97	0x3e16ef0b	0.14739625
98	0xbefed9dc	-0.4977559
99	0x3d86733f	0.0656495
100	0x3c46aedc	0.012126651
101	0x3d120c97	0.035656538
102	0xbe747495	-0.23872598
103	0x3cfd6a11	0.030934365
104	0x3d8fdcb0	0.07024515
105	0xbd4515ed	-0.048116613
106	0x3db1c433	0.0868
107	0x3c95c8ef	0.01828429
108	0x3c6984ed	0.014252883
109	0xbda9b5a7	-0.082866006
110	0x3e447e76	0.19188866
111	0x3df9bfae	0.12194763
112	0x3a4c7cee	0.00078005984
113	0x3d43b45a	0.04777942
114	0x3e41aa67	0.1891266
115	0x3da428a7	0.08015566
116	0x3c8c7c01	0.017148973
117	0xbf0d5917	-0.55214065
118	0xbcd4fce4	-0.025999494
119	0x3db452fd	0.08804891
120	0x3ca052f9	0.019570814
121	0x3c2fec67	0.010737515
122	0xbb66f84c	-0.0035243211
123	0x3d9f19f1	0.0776862
124	0xbee086bf	-0.43852803
125	0x3e153aa4	0.14573151
126	0x3dc26f70	0.09493911
127	0xbc70c849	-0.014696189
128	0xbd2f7d90	-0.042844355
129	0x3c0c8e30	0.008578822
130	0xbd129242	-0.035784014
131	0xbd634590	-0.05548626
132	0x3de9ce10	0.114162564
133	0xbd220e34	-0.039564326
134	0x3ba211c1	0.004945964
135	0x3f6fb67b	0.9363782
136	0xbc9c5381	-0.019082787
137	0xbda66595	-0.08124844
138	0xbdce1140	-0.10061884
139	0xbe2bdfb4	-0.16784555
140	0xbdf5d90b	-0.12004288
141	0x3db3ca14	0.08778778
142	0x3d9a6d5a	0.075403884
143	0xbd9ebc55	-0.07750765
144	0xbd8b3bf7	-0.06798547
145	0x3ce616e5	0.028087089
146	0xbe0a7c92	-0.13524082
147	0x3da1e74a	0.07905443
148	0xbda73e81	-0.081662185
149	0xbea28687	-0.3174326
150	0x3d97f52f	0.07419812
151	0xbf0f22d0	-0.55912495
152	0xbe5e6493	-0.21718054
153	0xbf210f7d	-0.6291426
154	0x3dd6fe9b	0.10497781
155	0x3db0f931	0.086412795
156	0xbd37e0e4	-0.044892207
157	0xbcc9c2c1	-0.024628999
158	0x3cb3e0f9	0.021957861
159	0x3dd8dede	0.105893835
160	0x3d241dd7	0.04006752
161	0xbf9a9a5b	-1.2078356
162	0x3d3ebfa8	0.046569496
163	0x3d98e551	0.07465614
164	0xbd99ce7f	-0.07510089
165	0x3ccf11ef	0.025277106
166	0x3f01e3f6	0.50738466
167	0x3d3fdb2f	0.04683989
168	0xbd78453a	-0.060612895
169	0xbac46e84	-0.001498655
170	0x3db44ba9	0.088034935
171	0x3d247de7	0.040159132
172	0x3d56091e	0.05225479
173	0xbb366f9e	-0.0027837525
174	0x3cd007d6	0.025394361
175	0x3d8de44c	0.0692831
176	0xbe244966	-0.16043624
177	0x39fdb696	0.00048391958
178	0xbcbccd3b	-0.02304708
179	0xbc834b26	-0.016027045
180	0xbef7351c	-0.48282707
181	0xbd141ecf	-0.036162194
182	0x3d0e2987	0.034707572
183	0x3dc07e32	0.0939907
184	0x3dad3923	0.084581636
185	0x3de00d48	0.10940033
186	0xbc6ce4de	-0.014458863
187	0xbd3a4f02	-0.045485504
188	0x3da656eb	0.08122047
189	0xbd378215	-0.04480179
190	0x3d28ef39	0.041243766
191	0x3d8a3ada	0.06749506
192	0xbdb130a9	-0.08651859
193	0xbe0c8b4c	-0.13725013
194	0xbe98d541	-0.298502
195	0xbbe9ee33	-0.0071389913
196	0xbd47e096	-0.048798166
197	0xbf2f84e9	-0.6856218
198	0xbecdf7b9	-0.4022806
199	0xbc8ce49c	-0.017198853
200	0x3db67fb9	0.0891108
201	0xbc3ca674	-0.011514295
202	0x3bd448c1	0.0064783995
203	0x3c801f38	0.015639886
204	0x3c4c2c8b	0.012461792
205	0xbc80a0ec	-0.015701734
206	0xbce3653c	-0.027758233
207	0x3c40042e	0.0117197465
208	0xbbb2d2cb	-0.0054572574
209	0x3c90c650	0.017672688
210	0xbd38f028	-0.045150906
211	0xbe655b92	-0.22398213
212	0xbd4b348c	-0.04961066
213	0x3c6f5c31	0.0146093825
214	0xbee04689	-0.43803814
215	0x3d7f08bd	0.062264193
216	0x3d17c2e3	0.037051093
217	0x3d3f1530	0.046651065
218	0xba537ae4	-0.00080673234
219	0xbd6319d9	-0.055444572
220	0x3bc1e4dd	0.005917175
221	0xbebf19bc	-0.3732432
222	0x3afd336b	0.0019317692
223	0x3dc478ea	0.09593375
224	0x3bff7949	0.0077964407
225	0x3db46c41	0.0880971
226	0x3e9842c9	0.29738453
227	0x3d8e3b31	0.069448836
228	0x3b25025c	0.0025178408
229	0xbd69ede9	-0.057111654
230	0xbdf9ed9c	-0.122035235
231	0xbd2a36d6	-0.041556202
232	0x3caee994	0.021351613
233	0x3daece02	0.085353866
234	0xbd94bb14	-0.07262245
235	0xbd00ee4d	-0.03147726
236	0x3d00cac9	0.03144339
237	0xbcb446bd	-0.022006387
238	0x3d02dcfc	0.03194903
239	0x3c2e6292	0.010643618
240	0x3d25f35e	0.040515296
241	0xbdb3b7c9	-0.087752886
242	0xbe3b2d08	-0.18278897
243	0x3d747d4c	0.059689805
244	0x3d2c8189	0.04211572
245	0x3f7eeb4f	0.995778
246	0x3da8727d	0.08224962
247	0x3d3f74a8	0.04674211
248	0x3c3ddc8d	0.011588228
249	0xbc1902c7	-0.009339041
250	0xbc70171a	-0.014653945
251	0x3e0a0b87	0.1348096
252	0x3ee366fe	0.44414514
253	0x3d129064	0.035782233
254	0xbcef93f0	-0.029245347
255	0xbfc9a6e2	-1.5754054

layer2.bias f4 [256]
0	0x3e100fba	0.14068499
1	0x3d256a6f	0.040384706
2	0x3decc192	0.11560358
3	0xbc835c9b	-0.016035369
4	0x3d8fda26	0.070240304
5	0xbbf25017	-0.0073948014
6	0x3da8586b	0.082199894
7	0x3b16155a	0.002290091
8	0x3dab7f98	0.08373946
9	0x3a9682f4	0.0011483119
10	0x3dc137e8	0.094344914
11	0xbd8c04e5	-0.06836871
12	0x3d64f074	0.055893376
13	0x3b89b7cf	0.00420282
14	0xbcda1495	-0.026621142
15	0x3dee5dae	0.11638962
16	0xbd1bc9df	-0.038034316
17	0x3d01beeb	0.031676214
18	0xbd9666b3	-0.07343807
19	0x3b93afd2	0.0045070434
20	0x3b2aa51e	0.002603836
21	0x3d9c091c	0.07618925
22	0xbc50cfed	-0.012744886
23	0x3d18de9a	0.037321664
24	0x3d422533	0.047398757
25	0x3d091b94	0.033473566
26	0x3df190eb	0.11795219
27	0x3d4cc67b	0.049993973
28	0xbd1b1fdc	-0.03787218
29	0x3e068a69	0.13138737
30	0x3dd5517a	0.10415931
31	0x3cb1384f	0.021633295
32	0x3dafdbb8	0.0858683
33	0xbcb374af	-0.021906225
34	0x3d73cd0d	0.059521724
35	0xbd1f7a67	-0.03893509
36	0x3d22a522	0.039708264
37	0x3d8e1830	0.06938207
38	0xbc1d1b81	-0.009589077
39	0x3d1ab9ba	0.03777478
40	0x3d331194	0.043717936
41	0x3de14405	0.10999302
42	0xbd98bca7	-0.074578576
43	0xbca2fdbb	-0.019896379
44	0x3d31cfd8	0.043411106
45	0x3da9dc77	0.082940035
46	0xbcc3397d	-0.023831123
47	0xbd561528	-0.05226627
48	0xbd856276	-0.065129206
49	0xbcd85a39	-0.026410209
50	0xbd2e5bba	-0.042567946
51	0x3c8d088f	0.017215995
52	0x3d9b31ec	0.07577881
53	0x3d9a9389	0.07547671
54	0x3dc7208c	0.09723005
55	0x3dfa0235	0.12207452
56	0x3e01332c	0.12617177
57	0x3dbc931e	0.09207748
58	0x3c664d30	0.014056489
59	0xbd8e7294	-0.06955448
60	0x3cdecb79	0.027196633
61	0x3df4659b	0.11933442
62	0xbbfb81f6	-0.0076754047
63	0xbd263e29	-0.040586624
64	0xbcdb6dac	-0.026785694
65	0x3dacd38f	0.08438789
66	0xbd8b7bcb	-0.06810721
67	0x3d972d2f	0.07381665
68	0xbd3094e1	-0.043110732
69	0x3d8d0c65	0.0688713
70	0xbd56c423	-0.052433144
71	0x3dba4328	0.0909484
72	0x3d74195a	0.05959449
73	0x3c3fcb52	0.01170619
74	0xbd294313	-0.041323733
75	0xbda7efeb	-0.082000576
76	0xbd5a182e	-0.053245716
77	0xbc4f36bf	-0.01264733
78	0x3df324c4	0.11872247
79	0xbd0c941b	-0.034320932
80	0xbd0b7f70	-0.03405708
81	0x3db54c6b	0.08852466
82	0x3db2b2f1	0.087255366
83	0x3d16c4d4	0.036808804
84	0x3c84c689	0.01620795
85	0x3c86107f	0.016365288
86	0xbb9ed4bd	-0.0048471377
87	0x3bfc6776	0.007702763
88	0x3d1192eb	0.035540503
89	0x3d7b30c7	0.061325815
90	0x3c2a1ea1	0.010383279
91	0x3d4fc7b5	0.050727565
92	0x3dc7ed35	0.097620405
93	0xbb5bcd6c	-0.003353919
94	0x3d7e7919	0.062127206
95	0x3de5b96b	0.11217006
96	0xbd654259	-0.055971477
97	0xbd8cd175	-0.06875888
98	0x3d71ebc8	0.05906275
99	0xbc2bd1a8	-0.010486998
100	0xbd50e204	-0.050996795
101	0xbcf27e1b	-0.029601147
102	0xbcc87768	-0.024471
103	0x3d307b4e	0.043086343
104	0x3db692e1	0.08914734
105	0x3d5e22c9	0.054232392
106	0xbc4bf159	-0.0124476785
107	0x3d4d720d	0.050157595
108	0xbadba4d7	-0.00167575
109	0x3c05b42b	0.008160631
110	0x3d5e9587	0.05434182
111	0x3c05d1cd	0.008167696
112	0x3c8fea1c	0.017567687
113	0x3dc4d57c	0.096110314
114	0x3d72f4e7	0.05931559
115	0xbca08e08	-0.019598976
116	0x3d372baa	0.044719376
117	0xbd71c52a	-0.05902592
118	0x3baa397a	0.00519484
119	0xbd1f0400	-0.038822174
120	0xbc9afc9b	-0.01891928
121	0x3c9a2097	0.018814368
122	0xbdad52b1	-0.08463038
123	0x3b4ec417	0.0031549984
124	0xbcaf834d	-0.021424914
125	0xbcc27807	-0.023738874
126	0xbd7cbfb6	-0.061706267
127	0x3dad2a6d	0.08455358
128	0xbd97bffe	-0.074096665
129	0x3dc109be	0.09425686
130	0xbccf3e53	-0.025298273
131	0xbcb1f551	-0.021723421
132	0x3d686454	0.056736305
133	0x3c7524a4	0.014962349
134	0xbd286007	-0.041107204
135	0x3b4a5d9d	0.0030878552
136	0x3c4a5b31	0.012350843
137	0x3d837af4	0.06419936
138	0x3aaf6ea7	0.0013384417
139	0x3dbc0d81	0.09182263
140	0x3d59414a	0.05304078
141	0xbc96aa98	-0.018391892
142	0x3d16c38f	0.036807593
143	0xbd817496	-0.06321065
144	0x3d9f9102	0.0779133
145	0xbd24b466	-0.040211104
146	0xbd8992b4	-0.067174345
147	0x3c363b81	0.011122585
148	0x3d993681	0.07481099
149	0x3d719f97	0.058990087
150	0x3cafd949	0.021465914
151	0xbcf4fbd7	-0.029905243
152	0x3e03dd63	0.12877421
153	0x3d36cd74	0.04462953
154	0x3deeba29	0.11656601
155	0xbd4e8a4a	-0.05042485
156	0x3d26614c	0.040620133
157	0x3cb27dcd	0.021788502
158	0x3d45db90	0.048305094
159	0x3d6f3dfc	0.058408722
160	0x3d4b258b	0.04959635
161	0xbc216439	-0.009850555
162	0x3d8d3d3b	0.068964444
163	0xbd681c34	-0.05666752
164	0x3d8c7025	0.06857327
165	0xbd4af90b	-0.049553912
166	0x3de11e73	0.10992136
167	0x3de6cfad	0.1127008
168	0x3cf686f0	0.03009364
169	0x3ca4f1f6	0.020134907
170	0x3c312e16	0.01081421
171	0xbcf19dc9	-0.029494183
172	0x3c5c7585	0.013455753
173	0x3d8e1fe8	0.069396794
174	0x3d536cba	0.05161736
175	0x3d5d5445	0.054035444
176	0x3dc52f0e	0.096281156
177	0x3d6b37c7	0.05742624
178	0xbd8bb9ae	-0.06822525
179	0xbd4a7412	-0.0494271
180	0x3ad15690	0.0015971232
181	0x3c3048dd	0.010759559
182	0xbbcbf8e0	-0.0062247366
183	0x3b246a67	0.0025087835
184	0x3d9d454b	0.07679232
185	0x3d603b32	0.054743953
186	0x3d54f75a	0.051993705
187	0x3c1d3449	0.009594985
188	0xbd91a199	-0.071109004
189	0x3d34301d	0.043991197
190	0x3d8167a1	0.06318594
191	0x3d637c6a	0.055538572
192	0x3ce94d17	0.028479142
193	0xba9d6b7e	-0.0012010185
194	0x3dc926e4	0.09821871
195	0x3d023ad9	0.031794403
196	0x3db01c9f	0.08599209
197	0x3df08839	0.117447324
198	0x3d956f66	0.07296638
199	0xbbacbd37	-0.0052715796
200	0x3d3e3a22	0.04644216
201	0xbd5a27e6	-0.053260706
202	0xbd199449	-0.03749493
203	0x3d551eab	0.0520312
204	0x3d93fba9	0.07225735
205	0xbd98e981	-0.07466412
206	0xbd513801	-0.0510788
207	0xbda7cc8c	-0.08193311
208	0x3da8b71c	0.0823805
209	0x3cc7ef55	0.024406115
210	0xbcdb9af2	-0.026807282
211	0xbd10a2e4	-0.035311595
212	0xbb736a71	-0.0037142301
213	0x3df1b44d	0.11801968
214	0x3cd35ee2	0.02580208
215	0x3e105b10	0.14097238
216	0x3d935c5b	0.0719535
217	0x3e0674da	0.13130513
218	0x3df419c3	0.11918976
219	0x3cfe1d9b	0.031019976
220	0xbc8825a0	-0.016619503
221	0x3d81d8ba	0.063401654
222	0xbc794690	-0.015214577
223	0x3ac83196	0.0015273567
224	0xbd9729ee	-0.07381044
225	0x3cf43e6c	0.029814921
226	0x3dd82a1b	0.10554906
227	0xbca62e87	-0.020285858
228	0xbd9cf409	-0.076637335
229	0x3d7141ee	0.058900766
230	0xbc97eda8	-0.01854594
231	0x3da7c05b	0.08190986
232	0xbda1d589	-0.07902057
233	0x3dac05cd	0.08399544
234	0xbcda6873	-0.026661133
235	0xbc26243c	-0.010140475
236	0xbb043793	-0.0020174726
237	0x3df3c4d2	0.11902775
238	0x3c877e79	0.016539799
239	0x3ddc3aa8	0.10753375
240	0x3bdb01e1	0.0066835736
241	0xbcf5626a	-0.029954154
242	0x3df61359	0.12015409
243	0x3c5d30d5	0.013500412
244	0x3d128fac	0.035781547
245	0x3becf0b0	0.0072308406
246	0x3cb390cf	0.021919636
247	0xbd00cbac	-0.031444237
248	0xbd1590ed	-0.036515165
249	0x3d856d17	0.06514948
250	0x3d4ca653	0.049963307
251	0xbd562cf7	-0.052288976
252	0x3d7de3cc	0.061984822
253	0xbd437a5b	-0.04772411
254	0xbc87f967	-0.016598416
255	0x3df3f6f8	0.1191234

layer3.weight f4 [5, 256]
0	0x3df75d5a	0.12078352
1	0xbe44a52b	-0.19203632
2	0x3de25925	0.11052159
3	0x3c9a2e82	0.018821005
4	0x3d573270	0.052538335
5	0xbd27a8a2	-0.040932305
6	0xbd2e1368	-0.042498976
7	0x3d23d7d8	0.040000767
8	0xbe3fb33d	-0.18720718
9	0xb8bb3c00	-8.928031e-05
10	0x3da17619	0.078838535
11	0xbd0623ea	-0.032749094
12	0x3db46a16	0.08809297
13	0x3c1d2b0a	0.009592781
14	0x3d528257	0.051393833
15	0x3d915143	0.070955776
16	0x3d35093f	0.04419827
17	0xbf17c425	-0.5928367
18	0x3d5bb240	0.05363679
19	0xbd82d8fe	-0.06389044
20	0xbf0f31c4	-0.5593531
21	0xbd36c3be	-0.044620268
22	0xbe7f8c9e	-0.24955985
23	0x3e0ee5d8	0.13954866
24	0xbd195a75	-0.037439782
25	0xbd314e20	-0.043287396
26	0x3dc5e696	0.096631214
27	0x3d8c6c34	0.068565756
28	0x3d0754fc	0.03304003
29	0x3dd007d5	0.10157744
30	0x3dc28c1e	0.094993815
31	0xbe1d2451	-0.15345885
32	0xbeb7dc88	-0.3591044
33	0x3d012a70	0.031534612
34	0x3d9b54eb	0.07584556
35	0x3dc87057	0.09787052
36	0x3cf9a2ea	0.030473191
37	0x3d9388c3	0.072038196
38	0xbd29e2c6	-0.041476034
39	0xbd22d48c	-0.03975348
40	0x3e073a60	0.13205862
41	0x3ddd9235	0.108189024
42	0xbc11c0eb	-0.008896093
43	0x3d1dba2a	0.038507618
44	0x3d6f6c3c	0.05845283
45	0x3dc44114	0.09582725
46	0x3b0dcce0	0.0021637008
47	0xbdd15332	-0.10220946
48	0x3d1a426e	0.03766101
49	0x3d407fea	0.04699699
50	0x3d27dfd0	0.04098493
51	0x3919575d	0.00014623762
52	0x3c1f0a0c	0.009706985
53	0x3e052767	0.13003312
54	0x3dc63825	0.096786775
55	0xbf8ef41f	-1.116825
56	0x3e0a0da9	0.13481773
57	0x3c6d65cf	0.014489605
58	0x3df46794	0.119338185
59	0xbd5a5912	-0.0533076
60	0xbe9ac367	-0.30227205
61	0x3d69d9a7	0.057092335
62	0x3d5fb716	0.054617964
63	0x3d1e607e	0.03866624
64	0xbd5340c5	-0.05157544
65	0x3df40b93	0.1191627
66	0xbe09117f	-0.1338558
67	0x3d69d695	0.057089407
68	0x3e04dd77	0.12975107
69	0xbcd6c408	-0.026216522
70	0xbea9538c	-0.33071554
71	0x3e18134a	0.14851108
72	0xbcdad33b	-0.02671205
73	0x3d195314	0.037432745
74	0x3cfdb033	0.030967807
75	0xbd151ad6	-0.036402546
76	0xbcebca28	-0.028782919
77	0x3e6eff35	0.23339541
78	0x3e0a7792	0.13522175
79	0x3d1bb14b	0.038010877
80	0xbf519ed2	-0.81882966
81	0xb8ab2d27	-8.162326e-05
82	0x3cfdaf60	0.030967414
83	0x3d892352	0.0669619
84	0x3c9e6a5c	0.019337825
85	0x3dce38c6	0.100694224
86	0x3df97572	0.12180604
87	0xbd161d34	-0.036648944
88	0x3d861b5b	0.065481864
89	0xbc923514	-0.017847575
90	0x3d4ea31c	0.050448522
91	0x3d263184	0.040574566
92	0x3e0c1c6a	0.13682714
93	0x3bd2e348	0.0064357854
94	0x3d4dd6c1	0.050253633
95	0x3d11cf5e	0.03559815
96	0xbcf70ae0	-0.030156553
97	0xbba7de04	-0.005122902
98	0x3d7e52b0	0.062090576
99	0x3de90f46	0.11379866
100	0xbd57d7f4	-0.052696183
101	0x3ca79069	0.020454602
102	0x3e6e3e50	0.23265958
103	0x3b242e60	0.0025052056
104	0x3d743bb3	0.059627246
105	0x3d7eb488	0.062183887
106	0xbf27448a	-0.6533896
107	0x3dd9b459	0.10630102
108	0xbcf65f75	-0.030074814
109	0x3d6476c5	0.05577733
110	0x3d821e40	0.06353426
111	0xbec06445	-0.375765
112	0x3de1ea5a	0.11031027
113	0x3d1cfc7d	0.03832673
114	0xbd082b00	-0.033244133
115	0xbd8b2be8	-0.06795484
116	0xbd752a67	-0.05985489
117	0xbcbfd0ac	-0.023414932
118	0xbea4e5f9	-0.32206705
119	0x3ded18ab	0.11576971
120	0x3dee6e73	0.1164216
121	0x3dd58738	0.104261816
122	0xbbd3c850	-0.006463088
123	0x3df45480	0.119301796
124	0x3d0cd344	0.034381166
125	0x3d2b220a	0.04178051
126	0x3d70a114	0.058747366
127	0xbf03c06b	-0.5146548
128	0xbd28dd4f	-0.04122668
129	0x3e00981a	0.12558022
130	0xbb06437b	-0.0020487
131	0xbe5af56a	-0.2138268
132	0xbf523df1	-0.82125765
133	0x3e3ddb2b	0.18540637
134	0x3d1a4811	0.037666384
135	0x3df2d694	0.11857334
136	0x3d77964c	0.06044607
137	0x3c771ca6	0.015082514
138	0x3d1038bf	0.035210367
139	0x3da79273	0.0818223
140	0xbe8a5a75	-0.27022138
141	0x3d1252c7	0.035723474
142	0x3e080861	0.13284446
143	0xbd9e5417	-0.077308826
144	0x3c69ffbc	0.014282163
145	0x3eba4389	0.3637965
146	0xbead7ace	-0.33882755
147	0xbdb51141	-0.088411815
148	0x3e034dc2	0.12822631
149	0xbc0d4d48	-0.008624382
150	0x3ddcc2fd	0.107793786
151	0xbed01635	-0.40641943
152	0x3dd371a4	0.103244096
153	0xbd102178	-0.03518817
154	0x3e0a2c59	0.1349348
155	0x3b3ef00d	0.002913478
156	0xbe40ade8	-0.1881634
157	0x3d7e6774	0.06211038
158	0x3bbde38e	0.005794949
159	0xbe6059cc	-0.21909255
160	0x3e0365e8	0.12831843
161	0xbe8f6759	-0.28008536
162	0x3e183320	0.14863253
163	0xbd20a1f2	-0.039216943
164	0x3e04856a	0.12941518
165	0x3c374fb8	0.01118844
166	0x3e0cd2dd	0.13752313
167	0x3e0faab2	0.14029959
168	0x3e06a66d	0.13149424
169	0xbec81eb3	-0.39085922
170	0x3e151f25	0.14562662
171	0x3d97dc83	0.07415106
172	0x3df49ea3	0.1194432
173	0x3d38cf4c	0.04511957
174	0x3daaafff	0.0833435
175	0x3df810dd	0.121125914
176	0x3df6bdfa	0.12047954
177	0x3d0e5bdc	0.034755573
178	0x3d1aafb2	0.037765212
179	0xbe8b5117	-0.27210304
180	0x3d49c360	0.04925859
181	0x3d1c8087	0.03820851
182	0x3de15f39	0.110044904
183	0x3d5b7095	0.053574163
184	0x3dfcca35	0.123432554
185	0xbe8d8f1f	-0.27648255
186	0xbf592e62	-0.848364
187	0xbd2b0413	-0.041751932
188	0xbd00a66a	-0.031408705
189	0x3cc087d6	0.023502272
190	0x3e35d29a	0.1775612
191	0x3cc47369	0.023980813
192	0x3d211bee	0.039333276
193	0x3bf67598	0.0075213425
194	0x3d9f0d0d	0.07766161
195	0x3d426636	0.047460757
196	0x3d724c0f	0.059154566
197	0x3db3f078	0.087861
198	0x3cbf8ce8	0.023382619
199	0xbe367c6e	-0.17820904
200	0x3c824cb4	0.015905716
201	0xbd5d1328	-0.053973347
202	0xbea42af4	-0.3206402
203	0xbf04a6cc	-0.5181701
204	0x3de749c7	0.11293369
205	0xbd89d312	-0.067297116
206	0xbd38bd56	-0.04510244
207	0x3d489b00	0.048975945
208	0x3daa9d5a	0.08330794
209	0xbed0dff8	-0.40795875
210	0xbd4b7db8	-0.04968044
211	0x3d1b7dc6	0.037961744
212	0x3d41ee6d	0.04734652
213	0x3d8d96b9	0.06913514
214	0xbd0e02de	-0.034670703
215	0x3d875675	0.06608287
216	0x3e06d653	0.13167696
217	0x3d80de78	0.062924325
218	0x3d4893ae	0.048968963
219	0xbc6992aa	-0.014256159
220	0xbcdbfe04	-0.026854523
221	0x3e0386f1	0.12844445
222	0xbf0c5f7f	-0.54833215
223	0x3c4d754f	0.012540176
224	0xbb512e40	-0.0031918436
225	0x3db5a791	0.088698514
226	0x3c88beac	0.016692482
227	0x3d656c2e	0.05601137
228	0x3d18e0c4	0.03732373
229	0x3daf6b70	0.08565414
230	0x3d1cf9ec	0.03832428
231	0x3df0bbef	0.117545955
232	0xbd64f75a	-0.055899955
233	0x3dad2cae	0.084557876
234	0x3d55ce68	0.052198797
235	0x3d42f116	0.0475932
236	0x3da4afd2	0.080413476
237	0x3d6c15d4	0.057638004
238	0x3d6805d2	0.056646176
239	0x3d9525d2	0.07282604
240	0xbb1704a0	-0.0023043528
241	0xbd42f63c	-0.04759811
242	0x3dd32a46	0.103107974
243	0xbd0c888c	-0.03430991
244	0xbd1040e3	-0.03521813
245	0x3dbaca9a	0.091206744
246	0x3c47d93c	0.012197789
247	0xbb181600	-0.0023206472
248	0x3ee36e27	0.44419977
249	0x3e0d9274	0.13825399
250	0xbd479630	-0.048727214
251	0xbcd13b84	-0.025541075
252	0x3cfba3cf	0.030717758
253	0x3de0e4c3	0.10981133
254	0x3dcd18ec	0.10014519
255	0x3e067914	0.13132125

layer3.bias f4 [5]
0	0x3bba7a4c	0.0056908485
1	0xbbd95503	-0.0066324486
2	0xbbf05548	-0.007334385
3	0xbb21dcaf	-0.0024698188
4	0x3db7eab3	0.08980312
