DDQN_policyNet.pth (torch, 176270 bytes, 6 tensors)

layer1.weight f4 [128, 70]
000000 81 5a 44 3d 12 50 e7 3d 6a 8b 84 be 30 cd 1b bd
       0.047937874 0.11294569 -0.25887614 -0.03803748
000010 e6 a6 1e be 61 90 a5 3d e1 b5 13 be 63 0d 13 3e
       -0.15493354 0.08084179 -0.1442485 0.14360575
000020 39 37 63 be c8 ab 90 bd f7 b7 94 be 9b 3f ca 3c
       -0.22189035 -0.07064015 -0.29046604 0.024688533
000030 61 a5 81 bd 40 7e 68 be 27 fa e4 b9 c2 40 35 bd
       -0.06330372 -0.2270441 -0.00043673927 -0.04425121
000040 75 11 ab bd c2 f0 cf bd e9 62 7a 3b 01 45 58 bb
       -0.08352939 -0.10153343 0.0038205928 -0.0033000114
000050 7d 38 58 bd 45 a4 17 3e 79 93 55 3c be 94 21 3e
       -0.052788246 0.14808758 0.0130356485 0.15779397
000060 a2 83 88 3d 5c 90 dd 3d 4a 3a 20 3e e3 cf de bd
       0.06665732 0.1081855 0.15647236 -0.10879495
000070 14 5b d8 bc e8 8e b4 3c 67 6f 64 bd 6e b1 0b 3e
       -0.026410617 0.0220408 -0.055770304 0.13641903
000080 5b ff d8 3c 96 16 df bb 64 d7 db bd ab 3d 81 bd
       0.02648895 -0.0068081124 -0.10734442 -0.0631059
000090 8d ab f2 bb c6 f8 bf 3d e2 e2 e2 3d e6 ef 2e 3e
       -0.0074057044 0.09373622 0.11078431 0.17083701
0000a0 b6 50 5f 3d 58 a1 c9 bc 75 6c 8d 3d 57 bb 10 bd
       0.05452033 -0.024613068 0.06905452 -0.03533491
0000b0 5f e7 f5 bd 10 db 35 3c 60 cc 5b 3e 12 57 f3 3d
       -0.12007021 0.011099592 0.21464682 0.11881842
0000c0 d7 f4 33 3d c5 d5 bf 3c 9e 4d e7 3d 4b 43 05 3e
       0.04393467 0.023417363 0.11294101 0.13013951
0000d0 45 fc db 3d 26 0e 0b 3e cc 97 dd 3d 8f 7a a8 bd
       0.10741476 0.13579616 0.108199686 -0.08226501
0000e0 97 e6 22 3c 05 fc 9b bd d9 9e a3 bd 8a 97 47 3c
       0.009942672 -0.07616428 -0.07989282 0.012182126
0000f0 65 4b 38 3e bd 05 13 3d 4d 62 83 3c 68 e8 cc 3c
       0.1799751 0.035894144 0.016038084 0.025013164
000100 9b 81 bd 3d 90 21 d4 bc b3 41 20 3d c9 95 48 3e
       0.09253236 -0.02589491 0.039125156 0.19588389
000110 2a 76 82 3d 82 9d de 3d aa a2 bc bd 37 69 33 bd
       0.06370194 0.10869886 -0.09210713 -0.043801513
000120 76 67 40 3d 8d d0 ca 3d 05 03 d5 3d 5c fc d7 3d
       0.046973668 0.09903059 0.104009666 0.105461806
000130 83 dc c2 3c e1 db d4 bd 3d 25 34 3c 2f 23 99 bd
       0.023786789 -0.10393501 0.010995206 -0.07477414
000140 59 20 e4 bd d9 7c d9 3d 7d 1f ba 3d 7e 2d f4 bd
       -0.11138982 0.10619516 0.09088037 -0.119227394
000150 1a 44 b7 3c c9 f1 a4 bc 81 20 a1 bc 1f 1a 60 bd
       0.02237134 -0.020134823 -0.01966882 -0.05471241
000160 f7 43 3c 3d 59 fc 90 bd 74 78 33 3d cb 93 77 3d
       0.045963254 -0.070793815 0.043816045 0.06044368
000170 aa 3b af 3d d6 0d 37 3d 2b 45 f2 bd 34 ca 9e bd
       0.08556302 0.04469093 -0.11829599 -0.07753411
000180 8e 72 74 3d fa ee cc 3c 80 f3 be bd 62 f3 8c bd
       0.05967956 0.025016297 -0.09323788 -0.06882359
000190 7e 47 e6 3d 65 f0 a4 3d 83 76 55 bd b5 6e f6 bc
       0.11244105 0.08053664 -0.052114975 -0.030082086
0001a0 fe 2d e9 bd d6 ca 0c bb fd 55 b8 bd 9b d0 bc bd
       -0.113857254 -0.0021483204 -0.09000776 -0.09219476
0001b0 8b cc d7 bb 00 03 93 3c f1 7d 48 bd a7 3f 91 3d
       -0.0065856627 0.017945766 -0.048948232 0.07092219
0001c0 bd f5 94 bd ce 1b de 3d e8 bf a7 3d d2 6b ce bd
       -0.07273433 0.10845147 0.081909 -0.10079159
0001d0 c0 b0 f3 bc 51 b9 b0 3b 38 db 8e 3c 89 39 e8 3c
       -0.029747367 0.005393185 0.017438516 0.028347747
0001e0 91 1e 40 3d ba 99 ea 3b 87 df 6e bd 36 a8 67 3d
       0.04690415 0.007159439 -0.05831864 0.056556903
0001f0 c2 ce ea bd 9c 15 91 bd 15 1b f5 bc 56 79 6e bd
       -0.11465217 -0.070842 -0.02992014 -0.058221184
000200 33 44 2b bd 1a a1 c8 bd ac 46 d0 bc ae 4b d1 3c
       -0.041813087 -0.09796353 -0.025424324 0.025548782
000210 b7 77 9f bd 5a fe c8 bb 5d 3a af 3d 54 4f 49 bc
       -0.07786506 -0.0061338367 0.08556054 -0.01228698
000220 a4 b2 59 3b ea ef 28 bc 6e 28 c6 3c 80 a4 9b 3d
       0.003321805 -0.010311106 0.0241892 0.07599735
000230 b1 5e 24 3e f1 42 fc 3d 13 c3 5f 3d ec 98 31 3d
       0.16051747 0.123174556 0.054629397 0.04335873
000240 9b fc 07 be 4c 01 25 bc b6 3e 29 3b af 93 3e 3d
       -0.13279955 -0.01007111 0.0025824732 0.04652756
000250 0e 5e c5 bd d6 67 af be 90 0e bb be e8 dc 1d be
       -0.0963708 -0.34258908 -0.36534548 -0.154163
000260 f4 e8 cc 3c d1 ad ee bd 9f 36 e5 3d 3e f5 27 be
       0.025013424 -0.116542466 0.11192059 -0.16402146
000270 b5 41 0c 3d 3e 86 98 be 98 db 60 3c 0f 28 bc ba
       0.03424235 -0.2978992 0.01372423 -0.00143552
000280 c2 e9 81 bc 8f 41 c3 3c ec a5 3b 3c 24 6f 00 bd
       -0.015858535 0.023834972 0.011453133 -0.031355992
000290 7e a3 69 3d d5 3f 02 3d 72 66 fe bb 3f 38 aa 3d
       0.057040684 0.031799156 -0.0077636773 0.08311509
0002a0 fd e3 76 bd ae e0 a5 3d 88 16 31 3e 91 18 bd bc
       -0.06027602 0.08099495 0.17293751 -0.023083003
0002b0 7f be 0f 3e 80 dd b7 3d c2 b0 7d bd 45 bf fb 3d
       0.14037512 0.08977795 -0.061936148 0.12292341
0002c0 29 42 94 3d dc dc 22 bd 3b 06 2a 3e a1 fe 7d bd
       0.072391815 -0.03976141 0.16603939 -0.06201041
0002d0 95 45 72 3d 66 14 c7 3c 21 d6 07 3e 81 67 11 3e
       0.05914839 0.024301719 0.13265277 0.1419964
0002e0 1b 55 7e 3d 05 55 9d 3d f8 0f 20 3b d7 b0 b2 3c
       0.06209288 0.07682232 0.002442358 0.02181284
0002f0 6b ef bc bd 4f 64 c2 3d 37 f4 1d 3e 55 34 b5 3d
       -0.09225353 0.094917886 0.15425192 0.08847872
000300 14 c6 09 bd ec 33 80 3d f1 ab 5b bd 27 5d e7 bb
       -0.033636168 0.06259903 -0.053630773 -0.007060665
000310 69 69 9d bd 49 eb a9 3d 7f 6b c9 bc 72 98 f6 3c
       -0.07686121 0.0829683 -0.024587391 0.030101988
000320 62 d4 3c 3d ab 8a 8e 3d 0c ab c1 bd 0c a9 b6 bd
       0.04610098 0.069600426 -0.09456453 -0.08918962
000330 8e d8 0b bd f4 18 a4 3d 04 ee 79 bb bd 39 27 3e
       -0.03414207 0.08012572 -0.0038136253 0.16330619
000340 d5 43 16 3d 03 66 67 3c 95 01 db 3c 75 21 85 3b
       0.036685783 0.014123443 0.026734153 0.0040628263
000350 cc 2e dc bb 24 7a 08 bc ea ce eb 3c cc 99 29 3d
       -0.006719446 -0.008329902 0.028785188 0.041406438
000360 08 9d 9c bd 46 74 0f bd e7 09 ed 3e 78 b4 00 be
       -0.07647139 -0.035022996 0.46296617 -0.12568843
000370 96 9a 0a bc 9d 4f a4 3c 95 21 93 3d 08 32 45 be
       -0.008459708 0.020057494 0.0718414 -0.19257367
000380 be 8e 9b bd 9d 0b ca be 82 91 e2 ba d1 a1 68 be
       -0.07595585 -0.39461985 -0.0017285796 -0.22717978
000390 27 26 8c bd 65 c2 28 3c 38 57 ef 3c 68 3c 01 3e
       -0.068432145 0.0103002535 0.029216394 0.126207
0003a0 b9 26 b7 bc 01 61 34 3d 33 7d c2 3d 8c 19 25 be
       -0.022357332 0.044037823 0.09496536 -0.16123027
0003b0 d9 5e a5 3d 0e 00 a4 be 65 b0 bc bc 89 fc 85 3d
       0.080747314 -0.32031292 -0.02303333 0.06542308
0003c0 38 e7 c4 3d 55 07 44 3e fb b8 b7 bd b6 e8 de 3c
       0.09614414 0.19143422 -0.08970829 0.027210575
0003d0 6b 29 55 bc 68 27 b4 bd 08 c8 8a 3d 24 0a 24 be
       -0.013010363 -0.08796579 0.06776434 -0.16019493
0003e0 f9 37 30 3c 44 8d 9c bd 26 f0 10 bd 18 ae 7b bd
       0.010755532 -0.07644132 -0.035385273 -0.061445326
0003f0 85 7e 01 3e 30 c5 7e bc 16 e6 20 3d a3 13 05 3d
       0.1264592 -0.015549943 0.039281927 0.03248943

layer1.bias f4 [128]
000000 79 4c 81 3d f3 2e be bd 34 88 07 3e ce a8 56 bd
       0.06313414 -0.092862986 0.13235551 -0.05240708
000010 34 4f b3 3c 3f b5 30 3e 78 b8 de 3d a5 93 3c 3d
       0.021888353 0.1725664 0.10875028 0.046039242
000020 21 ce 74 3d c7 2d ec 3c ab 83 07 3e dc 14 f1 3c
       0.059766892 0.028830422 0.13233821 0.029428892
000030 d2 db a1 bd 64 30 d8 3d eb 4e b8 bd 97 73 3a 3e
       -0.079032555 0.10556105 -0.089994274 0.18208157
000040 23 f6 d7 3b ab 13 47 3d 93 f4 3e 3d 9e e2 8a 3d
       0.006590621 0.04860274 0.046619963 0.06781505
000050 b1 cc a6 3d 78 d3 3a bd 21 a9 e7 3d b0 df fd 3b
       0.081445105 -0.04561183 0.11311556 0.007747613
000060 d3 dc 8a bd 20 fb d9 bd 59 54 94 3d c7 4b 18 3e
       -0.067804 -0.106436014 0.072426505 0.14872657
000070 a4 ca a3 bd 7d 0f cb 3d b6 4b c8 3d 2b f2 f2 bd
       -0.07997635 0.099150635 0.09780066 -0.11862596
000080 37 b1 92 3d dc 34 69 bc e4 f8 98 3c 4e 46 f4 3b
       0.07162707 -0.014233794 0.018673368 0.00745467
000090 1b 02 c7 3d 6f 69 c5 bd 7c 10 6d 3d 0f 25 38 bd
       0.097171985 -0.096392505 0.05787705 -0.044957217
0000a0 af 12 f8 3c 1b fb 5f 3d a9 6a 2b bd 05 13 b1 bb
       0.030282347 0.054682832 -0.041849766 -0.0054038786
0000b0 b6 f1 4a 3d 6b 36 7f 3d d5 ab 77 bd fe 3d 03 3e
       0.04954692 0.062307756 -0.060466606 0.12816617
0000c0 c7 f1 5d bd 09 e1 81 bd 7e 75 e9 3d 37 2b 52 bc
       -0.054185655 -0.0634175 0.11399363 -0.012827686
0000d0 a6 b0 09 3d 63 ae fa 3d fc 04 26 bd 65 7f b4 3d
       0.03361573 0.12240293 -0.040532097 0.08813361
0000e0 a6 b9 15 3e 03 a2 d0 3d 9c 32 26 3e 6b c8 de 3d
       0.146216 0.10187151 0.16230243 0.108780704
0000f0 f9 6d 03 3e f9 24 28 3e a7 38 93 3d 82 c6 ca 3d
       0.1283492 0.16420354 0.0718854 0.099011436
000100 4a 20 b1 3d f4 47 de 3d 15 64 04 3c fc b6 a6 3c
       0.08648737 0.10853568 0.008080502 0.020350926
000110 7b a3 87 3c bc 78 3a 3b 0e 5b 81 3d 68 3f 19 bc
       0.016557446 0.002845331 0.063161954 -0.009353496
000120 44 72 1d bd b2 8d a4 3d d6 32 4f 3d 27 58 bf 3c
       -0.03843905 0.08034839 0.05058559 0.023357464
000130 67 cd 77 bc 7d 2f 9b ba 1e ce 0e 3c 8c 4d 20 3e
       -0.015124655 -0.0011839714 0.008716134 0.15654582
000140 41 2b c3 bc a3 13 4c bc 8b cb 9a bb c1 93 52 3d
       -0.023824336 -0.012455854 -0.0047239712 0.05141044
000150 f9 a3 0b 3e e1 7a 95 3d 5a 99 8c ba 2b c6 e3 bd
       0.1363677 0.07298828 -0.0010726855 -0.11121782
000160 64 32 67 bd 27 af ac 3d 74 50 f0 3c 74 19 0b bc
       -0.05644454 0.08431845 0.029335238 -0.008489955
000170 2b e4 f6 3c 44 b1 ae 3d f1 e3 70 3c a0 f4 17 3e
       0.030138096 0.085299045 0.014702783 0.14839411
000180 51 5a 29 3e 55 1d 26 3d 78 a2 0a 3e e4 27 83 3d
       0.16538359 0.040555317 0.1353854 0.06404093
000190 32 e1 a8 3d 32 6e d1 3d 0b a4 ef bd e6 5b ee 3d
       0.082460776 0.10226096 -0.117012106 0.11638622
0001a0 3d e2 ef 3d 85 a1 b6 3c 16 18 a6 b9 07 a0 14 3d
       0.117130734 0.022293815 -0.00031679933 0.036285426
0001b0 80 44 c0 bd 01 d9 bb 3c 89 23 d6 3d 58 dc 80 3d
       -0.09388065 0.022930624 0.104559965 0.06292027
0001c0 47 33 35 3e b5 5f 43 bc fd db c8 3d 8d c6 19 3c
       0.17695342 -0.011924674 0.098075844 0.009385717
0001d0 e3 ca 0e bd 78 88 62 bd 35 af a3 bd bb c3 a6 3d
       -0.034861457 -0.055305928 -0.079924025 0.081428014
0001e0 72 36 b5 bc 78 31 96 3d 35 6f a0 bd 83 69 7d 3b
       -0.022120688 0.07333654 -0.07833711 0.0038667626
0001f0 23 bf c5 3d eb e3 97 bc ff 64 23 3e 30 bb 9f bd
       0.09655597 -0.018541297 0.15956496 -0.07799375

layer2.weight f4 [256, 128]
000000 15 eb 82 bb de c7 70 3d 66 05 16 3e 60 e2 91 3e
       -0.003995309 0.05878436 0.14650497 0.28493023
000010 61 db a1 bd a2 00 38 bb 93 c7 88 3c da 1c 22 3d
       -0.07903171 -0.002807655 0.016696727 0.039578296
000020 d8 ef 2f 3c 0d 95 20 be c7 92 dd 3d f1 64 fb 3d
       0.010738336 -0.15681858 0.10819011 0.122751124
000030 38 9a 2a bd 5f ae bd 3c b4 3c af 3d 09 e6 7e 3d
       -0.04165098 0.023154436 0.085565 0.062231097
000040 0b c9 9f 3d 86 e7 50 bb 23 d5 f2 3d 18 8f bc bc
       0.07802018 -0.003187628 0.11857059 -0.023017451
000050 ec 3a 9f bd 67 e1 00 3d d1 e0 a3 3d 0d 40 45 3e
       -0.0777491 0.03146496 0.08001865 0.19262715
000060 7e 86 6e 3e c9 e2 21 3e a9 02 19 3e 38 b8 d3 bb
       0.23293492 0.15809168 0.14942421 -0.0064611696
000070 6e c5 18 3e 31 b1 97 3c 8d a8 1a bc e6 79 8b 3e
       0.14919063 0.018517109 -0.0094396 0.2724144
000080 f7 af bd 3c 13 bd 58 3d 64 cd 55 bd b3 57 32 3d
       0.023155196 0.05291469 -0.05219783 0.043540668
000090 d8 ca 30 3d 91 26 af 3e db e2 c3 be 69 7a e9 3b
       0.043162197 0.3420911 -0.38259014 0.007125188
0000a0 7c 79 93 bd f6 57 a8 3c 08 55 27 3d a1 96 4b 3d
       -0.07200906 0.020549756 0.040852576 0.049704198
0000b0 b9 c2 c8 3d 87 7d f0 3d bd 9c b4 3c 48 ee ff 3d
       0.098027654 0.117426924 0.022047395 0.124966204
0000c0 8e e1 46 3e 0f 7d 00 bc 89 92 1b 3e cd 55 c6 3b
       0.1942198 -0.007842316 0.15192617 0.0060527087
0000d0 b6 18 97 3e 72 de 13 3d 7f 17 b5 be 0f b2 ec 3d
       0.2951104 0.036100812 -0.3536949 0.115573995
0000e0 62 df f0 3d f0 02 a1 3c ba eb 1f bd 2e b9 99 3d
       0.11761357 0.019654721 -0.039043166 0.07506023
0000f0 6f 30 7a 3d f9 d4 1a 3e e5 f4 f1 bc 7b 3c 29 3d
       0.061081346 0.15120305 -0.02953572 0.041317444
000100 86 01 c5 3d 92 6f bd bd 1d c0 94 bd d1 1c 69 3d
       0.09619431 -0.09249796 -0.07263205 0.056912247
000110 fa e7 ae 3d aa 45 3b 3e 5a ae 67 3e 0c 07 4a 3d
       0.0854034 0.18288293 0.22625104 0.049323127
000120 7d 68 cb 3c d6 07 e3 3d d4 8c db 3d 1d a5 72 be
       0.024830097 0.11085479 0.1072022 -0.23695798
000130 11 6d fa bd b1 a7 a7 bd ff 43 29 3d 73 2b 6b 3b
       -0.12227834 -0.081862815 0.04132461 0.0035884052
000140 35 f5 f4 3a 10 72 1c 3d 42 31 d1 3d 96 4d ed 3d
       0.00186888 0.038194716 0.10214473 0.11587064
000150 4e 36 de 3c 94 3f 96 bb 8b 33 28 bc 08 4a cf 3e
       0.027125504 -0.004585216 -0.010266195 0.4048617
000160 cd df 3d 3d 22 c4 19 3e 05 2e d7 3d b1 8e 12 3e
       0.04635601 0.15016225 0.105068244 0.14312245
000170 50 48 bb 3a 92 20 5f bd f3 c5 de 3c 00 05 11 3e
       0.0014288519 -0.05447442 0.027193999 0.14162064
000180 ae 54 25 3d ad 87 27 3e d0 3b a6 be a2 dc 1a 3e
       0.04036396 0.1636035 -0.32467508 0.15123227
000190 87 f6 22 3d 8e ee 0d 3d 90 e9 5e 3b 4c 3c 26 3d
       0.039785888 0.03465133 0.0034013726 0.040584847
0001a0 8e 66 04 3e ed 15 45 bd 77 ce be 3e b7 75 ed 3c
       0.12929747 -0.048116613 0.37266895 0.028986795
0001b0 ed 84 69 3c 28 9c 06 bf 02 19 e1 3d 25 49 34 3d
       0.014252883 -0.52582026 0.10991098 0.04401507
0001c0 f4 43 60 3b da 59 60 3d 8b 77 97 3b 42 1d 9e 3d
       0.003422019 0.05477319 0.004622405 0.07720424
0001d0 01 7c 8c 3c fd c9 b1 be e4 fc d4 bc 79 82 b5 3d
       0.017148973 -0.34724417 -0.025999494 0.08862776
0001e0 d6 60 96 be b3 a1 1e 3c 5a 35 95 3b b2 9f b5 3d
       -0.29370755 0.009682107 0.004553479 0.0886835
0001f0 bc 29 8e 3d c8 d7 12 3e 5c da bd 3d f4 d8 e2 be
       0.06941554 0.14340127 0.09270164 -0.44306147
000200 da ff e3 bc 30 8e 0c 3c 98 a5 bd bc 13 7c 98 be
       -0.02783196 0.008578822 -0.02315025 -0.2978216
000210 5a 10 ca bd e9 f5 2c bd c1 11 a2 3b 5c 13 2c be
       -0.098664 -0.042226706 0.004945964 -0.1680426
000220 97 c6 b4 be 62 31 8d 3d e3 b8 cd bd 60 16 79 3c
       -0.35307762 0.06894185 -0.1004503 0.0152030885
000230 3f b4 37 3d 14 ca b3 3d 5a 6d 9a 3d 89 89 1a bd
       0.04484963 0.08778778 0.075403884 -0.03772882
000240 f7 3b 8b bd 83 cc 9e bd 17 b3 fe 3d da 86 98 3d
       -0.06798547 -0.07753851 0.124365024 0.07447596
000250 81 3e a7 bd 89 3d ac bc 12 aa 46 3d e5 f9 b6 be
       -0.081662185 -0.021025436 0.048502035 -0.3573753
000260 2e a8 ee be 9c 77 19 be dc d5 ae 3d 1c b5 b6 3d
       -0.46612686 -0.14987034 0.08536884 0.089212626
000270 8a f3 01 bd 62 cd 6b bd 34 34 fb 3c 83 3a af 3c
       -0.031726398 -0.057568915 0.03066454 0.021390205
000280 06 77 e0 3c 8c ae b7 bd a8 bf 3e 3d 27 00 0e 3d
       0.027400505 -0.08968839 0.046569496 0.034668114
000290 7f ce 99 bd ff 62 7b bf 4c fc d9 3e 2f db 3f 3d
       -0.07510089 -0.9819793 0.425753 0.04683989
0002a0 3d d1 9b bd fb 59 cc 3b 3b 7f 9e 3d 74 4f 74 bc
       -0.076082684 0.0062363124 0.07739111 -0.014911521
0002b0 95 9f 4f 3d 17 8f 39 3d d6 07 d0 3c 18 d4 99 3d
       0.0506893 0.045302477 0.025394361 0.07511157
0002c0 ec ba 24 3c 96 b6 fd 39 da 48 27 bb 26 4b 83 bc
       0.010054331 0.00048391958 -0.00255256 -0.016027045
0002d0 ba 58 8c 3c 0e 7a 53 bc e7 81 7b 3e 09 f7 74 3d
       0.017132152 -0.012907518 0.24561273 0.059805904
0002e0 b5 81 80 3d 05 a4 c1 3d b0 16 c2 3d a4 57 a5 bc
       0.0627474 0.09455112 0.094769835 -0.020183392
0002f0 6b a9 b1 3d 13 73 85 bd 39 ef 28 3d 47 20 d0 3d
       0.08674892 -0.06516089 0.041243766 0.101624064
000300 38 74 d4 bc 0a 15 67 bf b9 6e a3 3d 33 ee e9 bb
       -0.025934324 -0.9026648 0.07980103 -0.0071389913
000310 aa 21 65 bd 9e 7b 96 bf 1e 77 5f be 9c e4 8c bc
       -0.055940308 -1.1756475 -0.21822783 -0.017198853
000320 bb 54 43 3e 56 f2 df bc e8 16 49 3c 2c 12 2c bd
       0.19075291 -0.027337234 0.012273528 -0.042009518
000330 05 c5 81 3e ec a0 80 bc b0 87 6f bd 47 58 40 3b
       0.25345626 -0.015701734 -0.05847901 0.0029349492
000340 b9 d5 97 3c be ed d4 39 f5 f1 56 be 1e 5b ea bc
       0.018534528 0.00040612923 -0.20990737 -0.028607901
000350 2f ef 44 bd 76 04 94 3c f5 e8 83 be 6d ca fb 3e
       -0.048079666 0.018068533 -0.2576367 0.49177876
000360 e3 c2 17 3d c5 48 82 3d ab f7 35 3d 34 ec 96 bd
       0.037051093 0.06361536 0.044425648 -0.07369271
000370 dd e4 c1 3b 1f 32 8e bd 6b 33 fd 3a fc db da 3d
       0.005917175 -0.069431536 0.0019317692 0.1068649
000380 90 5e 75 bc f4 29 77 3d d6 63 b6 3e 5d ac f6 be
       -0.014976159 0.060342744 0.35623044 -0.48178378
000390 35 2a db 3a b9 f2 36 bd 6f 0d b6 bd b6 a2 52 bd
       0.0016720953 -0.044665072 -0.08889281 -0.051424704
0003a0 e0 78 a6 be 02 ce ae 3d 70 d6 07 be 39 86 30 bd
       -0.32514095 0.085353866 -0.13265395 -0.043096755
0003b0 c9 ca 00 3d d0 cc 81 3e 10 2d 17 bd 07 5b d2 3e
       0.03144339 0.25351572 -0.03690821 0.41085073
0003c0 1b 9e 57 3d 2a 04 b8 bd 0f 32 1e bd 91 ea 1f 3d
       0.052641015 -0.08985169 -0.03862196 0.03904206
0003d0 89 81 2c 3d 6a 1e 73 3e 7d 72 a8 3d b7 07 a1 3c
       0.04211572 0.23742071 0.08224962 0.019656999
0003e0 84 a6 1d 3e 94 48 40 3c f5 0d 8a bc 4f e3 f0 3c
       0.15395552 0.011736054 -0.016852358 0.029405264
0003f0 e0 29 0f be 31 64 31 3c cf 1d 88 bc dc 6a 82 3e
       -0.13980818 0.01082711 -0.016615776 0.25472152

layer2.bias f4 [256]
000000 06 b6 1a 3e da d8 11 3d 62 47 ea 3d 85 bb be bb
       0.15108499 0.035607196 0.114393964 -0.005820694
000010 6a 80 82 3d 17 50 f2 bb 6b 58 a8 3d 5a 15 16 3b
       0.06372149 -0.0073948014 0.082199894 0.002290091
000020 de bc 0c 3d f4 82 96 3a 5d e2 b4 3d e5 04 8c bd
       0.034359805 0.0011483119 0.08832238 -0.06836871
000030 7a 87 62 3d c5 f3 66 3b 48 d9 cc bc e2 ac 02 3e
       0.05530498 0.0035240513 -0.025005952 0.12761262
000040 96 fd 6e bd 90 73 44 bc b3 66 96 bd 54 ed 5a 3b
       -0.058347307 -0.011990443 -0.07343807 0.0033405619
000050 ce 2e 30 3c fe d3 9a 3d 7a 2c f2 bb ad 0f 5a 3d
       0.010753347 0.075599656 -0.007390556 0.053237606
000060 6e 71 2b 3d 4b 97 0c 3d ae 1b 03 3e a9 fc 4f 3d
       0.04185622 0.03432397 0.12803528 0.050778065
000070 53 0e fb bc ca 0c 01 3e 31 c3 d6 3d 04 53 85 3c
       -0.030646479 0.12602535 0.104864486 0.016274936
000080 17 fc a9 3d af 74 b3 bc 44 36 8f 3d e6 d9 00 bd
       0.083000354 -0.021906225 0.06992772 -0.031457804
000090 bd f2 c4 3c e3 a8 b2 3b e3 cf 16 bc 60 2d 84 3d
       0.024041528 0.005452262 -0.0092048375 0.06453967
0000a0 a4 f8 64 3d 29 83 e3 3d 25 83 8e bd 31 de bc bc
       0.055901185 0.11109001 -0.069586076 -0.023055168
0000b0 d8 cf 31 3d 16 43 21 3d 7d 39 c3 bc 07 34 0f bd
       0.043411106 0.03937062 -0.023831123 -0.034961727
0000c0 76 62 85 bd 9b 60 e2 bc b6 c8 23 bd 94 22 8f 3c
       -0.065129206 -0.027633956 -0.039986335 0.017472543
0000d0 f5 a8 c9 3d 01 6e 11 3d 42 80 d1 3d 9f cf e5 3d
       0.09846679 0.0355053 0.10229541 0.11221241
0000e0 19 ee 08 3e 51 4d bc 3d e8 06 c3 3c a1 7b 16 bd
       0.13372077 0.091944344 0.023807004 -0.036738995
0000f0 43 dd 0c 3c 8c 82 c9 3d f6 81 fb bb d6 05 30 bd
       0.008597675 0.09839353 -0.0076754047 -0.042974316
000100 5b 5f 55 bd a3 e6 b5 3d c2 bd 8b bd 7e 54 a1 3d
       -0.05209289 0.08881881 -0.06823303 0.07877444
000110 13 15 05 bd 65 0c 8d 3d 0c 85 92 bd a3 ab dd 3d
       -0.0324908 0.0688713 -0.07154283 0.10823753
000120 d0 a3 e1 3d 3c df 1e 3d 90 3d 5c 3c 23 4e a4 bd
       0.11017573 0.03878711 0.013442412 -0.08022716
000130 2e 18 5a bd 98 80 03 3c 40 b8 00 3e 9d 4f b5 bd
       -0.053245716 0.008026265 0.12570286 -0.08853076
000140 db d3 91 bc 11 12 9e 3d f1 b2 b2 3d 18 52 16 3d
       -0.017801216 0.0771829 0.087255366 0.036699384
000150 0f eb 55 3c 07 19 e8 3c 55 de 1d 3c b9 88 3b 3c
       0.013056531 0.028332246 0.009635528 0.011446171
000160 08 ec f8 bb c7 30 7b 3d 3f d2 25 3c a0 50 4d bc
       -0.0075964965 0.061325815 0.010120927 -0.0125314295
000170 90 f4 da 3d 21 20 b4 bb 1b 6c 7c 3d a4 b6 f8 3d
       0.10691178 -0.005496994 0.061626535 0.12144211
000180 59 42 65 bd 14 30 90 bd 65 e9 7b 3d 9a ca 4f bc
       -0.055971477 -0.0704042 0.06150188 -0.012682581
000190 33 ba 50 bd 04 ce 43 bd b4 e9 1a bd 4e 7b 30 3d
       -0.050958823 -0.047803894 -0.037820533 0.043086343
0001a0 b7 da c2 3d 17 2c e8 3d 83 5b d4 bc 1f 0f e1 3c
       0.09514373 0.113365345 -0.025922542 0.02747303
0001b0 4e be a9 ba 2b 16 98 3c 5c 30 19 3d 26 fb 38 3d
       -0.0012950392 0.018565258 0.037399635 0.04516139
0001c0 f3 e7 8d 3c 90 2a 94 3d 5e 1e 6c 3d 92 08 9b bc
       0.017322516 0.07234681 0.057646148 -0.018924985
0001d0 f4 1b c4 3c 2a c5 71 bd 20 60 65 3c eb a2 1b bd
       0.02393911 -0.05902592 0.013999969 -0.037997168
0001e0 31 3f 8f bc 71 2a fd 3c b1 52 ad bd 28 23 63 3a
       -0.017486187 0.030904027 -0.08463038 0.00086646015
0001f0 5c 8f bd bc 07 78 c2 bc 60 cd 6f bd fb f8 94 3d
       -0.023139648 -0.023738874 -0.05854547 0.07274052
000200 5f 29 86 bd 0d d5 b1 3d 1a 22 b9 3c 0e 15 24 bd
       -0.0655086 0.08683214 0.022599269 -0.04005914
000210 da 4d 92 3c 7d 3d f4 bb bf 3d 45 bd 56 f8 81 3c
       0.017859388 -0.007453619 -0.04815459 0.015865486
000220 c4 d3 61 3c b1 5f 84 3d e4 70 19 3d 91 6d d0 3d
       0.013783399 0.06463564 0.037461177 0.10177148
000230 8d 5f 45 3d bf e1 be bc 8d 87 32 3d be dc 8f bd
       0.048186827 -0.023301004 0.043586303 -0.07024525
000240 75 a3 90 3d 8e 97 78 3c 43 49 2d bd 8f d0 a3 bb
       0.07062427 0.015172852 -0.042306196 -0.0049992274
000250 63 8b a2 3d 97 9f 71 3d 76 5a 0b 3d 2e 37 c4 3b
       0.07936742 0.058990087 0.034021817 0.0059880232
000260 1c aa 0d 3e 74 cd 36 3d b0 bb 01 3e 54 09 4c bd
       0.13834423 0.04462953 0.12669253 -0.049813583
000270 11 95 11 3d ab 2f 00 3d c1 d6 56 3d 9b 1b cf 3d
       0.03554255 0.03129546 0.0524509 0.10112687
000280 7f a8 44 3d 44 0f 27 3c a6 b8 9c 3c 34 1c 68 bd
       0.048012253 0.010196511 0.019131016 -0.05666752
000290 f0 a4 a2 3d 0b f9 4a bd bc fa c5 3d d5 5f e4 3d
       0.079416156 -0.049553912 0.096669644 0.11151091
0002a0 a0 39 1f 3d 34 52 40 3d 44 89 c0 3c c1 b2 ae bc
       0.038873315 0.046953395 0.023502953 -0.02132547
0002b0 b1 55 b1 3c e8 1f 8e 3d 28 6e 5d 3d 44 52 88 3d
       0.021647306 0.069396794 0.05406013 0.06656316
0002c0 e8 8c cc 3d a3 62 5e 3d ae b9 8b bd a5 20 88 bd
       0.09987813 0.054293286 -0.06822525 -0.066468515
0002d0 90 56 d1 3a f3 b7 ec bc d7 9a 6d bc 59 84 2e 3c
       0.0015971232 -0.028896308 -0.014502249 0.010651671
0002e0 d2 91 a3 3d a2 a8 55 3d 68 30 c6 3c 55 e4 17 3c
       0.079867974 0.052162774 0.024193004 0.009270747
0002f0 99 a1 91 bd 80 c8 2a 3d 3c 3d 9b 3d 01 7d da 3d
       -0.071109004 0.041695118 0.07580039 0.10668374
000300 17 4d e9 3c af 81 7a 3d 95 8b d7 3d db e8 f2 3c
       0.028479142 0.061158832 0.1052467 0.02965205
000310 f1 31 b0 3d da 6f fa 3d 66 6f 95 3d bf c3 fc bc
       0.086032756 0.12228365 0.07296638 -0.030855058
000320 85 51 33 3d e6 27 5a bd cb d3 e3 ba 71 2e 3f 3d
       0.043778915 -0.053260706 -0.0017381845 0.04667515
000330 81 22 b0 3d 7d 35 a8 bd 9b 50 b1 bc 8c cc a7 bd
       0.08600331 -0.08213327 -0.021644881 -0.08193311
000340 20 3b 9a 3d a5 7b dc 3c 0c 8d da bc 2a c3 e0 3c
       0.075308084 0.026914427 -0.026678585 0.027436811
000350 3b d1 6f 3a 24 37 ed 3d e2 5e d3 3c 64 84 9c 3d
       0.0009148304 0.11582783 0.02580208 0.07642439
000360 e7 21 46 3d 09 83 0d 3e 12 8a ef 3d 82 d1 a2 3d
       0.048372176 0.13819517 0.11696257 0.07950117
000370 a0 25 88 bc ab b8 70 3d 9c 07 7a bd 08 9d 8c bc
       -0.016619503 0.058769863 -0.061042413 -0.017164722
000380 ee 29 97 bd 9f ed 0f 3d b6 4c 70 3d 87 2e a6 bc
       -0.07381044 0.035138723 0.058666907 -0.020285858
000390 37 d7 9f bd 4f 29 7b 3d a8 ed 97 bc 63 a2 ad 3d
       -0.07804721 0.06131869 -0.01854594 0.084782384
0003a0 e6 7e 20 bd 08 5c c9 3d 62 fd d9 bc 37 70 07 bc
       -0.03918352 0.09832007 -0.02661008 -0.0082665
0003b0 1e fc 45 bd 9e 6d fa 3d 42 35 5c 3c a6 c3 dd 3d
       -0.04833614 0.12227939 0.013440432 0.108283326
0003c0 e1 01 db 3b 6a 62 f5 bc b8 9a 03 3e 27 67 6d 3c
       0.0066835736 -0.029954154 0.1285199 0.0144899255
0003d0 36 94 10 3d 38 4a 50 3c fe 24 8d 3c 46 93 f8 bc
       0.035297595 0.012713008 0.017229553 -0.030343663
0003e0 d3 9a 46 bd b6 87 81 3d 53 a6 4c 3d 05 6a fa bb
       -0.048487496 0.06324713 0.049963307 -0.007642033
0003f0 15 ac 4f 3d fb 54 71 bd b0 45 9b bb 91 48 d6 3d
       0.05070122 -0.058918934 -0.004738532 0.1046306

layer3.weight f4 [5, 256]
000000 51 47 f3 3d c7 23 b7 be 3d 20 e0 3d cd cc 96 3c
       0.11878837 -0.35769483 0.10943649 0.018408203
000010 62 4f 32 3d a2 a8 27 bd 68 13 2e bd d8 d7 23 3d
       0.043532737 -0.040932305 -0.042498976 0.040000767
000020 7c 8d 1b bc 00 3c bb b8 5f 19 94 3d ea 23 06 bd
       -0.009494182 -8.928031e-05 0.07231402 -0.032749094
000030 83 84 c2 3d c2 ef 25 3c f8 a2 3c 3d e0 12 93 3d
       0.09497931 0.0101279635 0.046053857 0.071813345
000040 ca 99 12 bf 18 22 86 3c 40 b2 5b 3d ea 72 d8 3d
       -0.57265913 0.016373679 0.05363679 0.10568793
000050 9b 78 72 bd 70 11 41 bd db 57 94 be e9 59 05 3e
       -0.05919705 -0.04713577 -0.28973278 0.13022579
000060 19 17 5a bc 83 55 35 bd 87 04 b2 3d d8 05 7c 3d
       -0.013311171 -0.044271003 0.0869227 0.06152901
000070 82 09 d9 3c b6 91 cc 3d fe 35 cb 3d ea 82 5a 3d
       0.026493791 0.0998873 0.099224076 0.053347506
000080 d5 29 b3 be 70 2a 01 3d 50 bf 9a 3d 6e e6 d2 3d
       -0.34992853 0.031534612 0.07556021 0.10297857
000090 04 56 b5 3c 98 cf b0 bc bb 41 2a bd b7 b1 3b bf
       0.022135742 -0.021583363 -0.04156659 -0.73318046
0000a0 8a f3 03 3e c7 05 ca 3d 08 88 45 bc 2a ba 1d 3d
       0.12885872 0.09864383 -0.012056358 0.038507618
0000b0 3c 6c 6f 3d 6c 9a cc 3c e0 cc 0d 3b 6d ef 73 bf
       0.05845283 0.024975978 0.0021637008 -0.9528721
0000c0 6e 42 1a 3d 14 af 29 3d 12 8a 2d 3d 56 e9 00 3a
       0.03766101 0.041426733 0.042368002 0.0004917582
0000d0 65 f9 6b 3c 38 c4 85 3d aa 25 a9 3d 44 f7 38 bc
       0.014402722 0.065315664 0.08259137 -0.0112894215
0000e0 48 21 06 3e 28 74 d5 bc 21 c2 f6 3d f7 79 82 bd
       0.13098633 -0.026056364 0.12048746 -0.06370919
0000f0 06 4d f3 3e a7 2d 35 bd 16 b7 5f 3d 7e 60 1e 3d
       0.47519702 -0.04423299 0.054617964 0.03866624
000100 10 33 eb 3c 68 69 0f 3e ca 5b 71 bd 80 a7 48 3d
       0.028710872 0.14005053 -0.058925427 0.048987865
000110 0b 0e 02 3e 08 c4 d6 bc f5 a3 a4 be 6e e1 0a 3e
       0.1270067 -0.026216522 -0.3215634 0.13562557
000120 9b ca 71 3d b1 65 a8 bc a2 a4 0f 3e e7 a8 03 bd
       0.05903111 -0.020556303 0.14027646 -0.0321435
000130 28 ca eb bc e9 a7 a3 3d 56 a8 08 3e 8e f8 37 bf
       -0.028782919 0.07991011 0.13345465 -0.7186364
000140 39 4d 83 bf 9c 21 1c bf 60 af fd 3c 10 47 78 3d
       -1.0257941 -0.60988784 0.030967414 0.060614645
000150 5c 6a 9e 3c c9 e6 d5 3d 94 f4 f7 3d 08 21 e5 3d
       0.019337825 0.104444094 0.121071965 0.11187941
000160 a9 a9 d7 bb 14 35 92 bc d8 3a 2f 3d 5f e2 c3 bc
       -0.0065815044 -0.017847575 0.042780727 -0.023911653
000170 14 7a 07 3e df 03 a1 ba 4e 17 40 3d a6 80 be 3c
       0.13230163 -0.0012284479 0.046897225 0.023254704
000180 e0 0a f7 bc a0 07 fa bb 3b 23 29 3d 24 9d e5 3d
       -0.030156553 -0.0076303035 0.041293364 0.11211613
000190 28 7b 59 bd 8e 08 47 be 6a 65 9f bd 60 2e 24 3b
       -0.053095967 -0.19436857 -0.07783015 0.0025052056
0001a0 c1 bb 83 3d de 95 06 3e 81 32 8f be a8 20 5b bf
       0.064322956 0.13143107 -0.2796822 -0.85596704
0001b0 2d 25 47 bd e0 11 69 3d c0 ac 9f 3d 12 68 0b bd
       -0.048619438 0.056901813 0.07796621 -0.034034796
0001c0 cc dd e2 3d 9e f0 28 3d 2a 3e 04 bf fc 8f a4 3d
       0.11077461 0.041245095 -0.51657355 0.08035275
0001d0 0a a5 17 bf ac d0 bf bc 69 35 49 bf 2d 12 a8 be
       -0.59236205 -0.023414932 -0.7859712 -0.32826367
0001e0 f9 0d f3 3d ca 2d ee 3d 50 c8 d3 bb 36 29 cb 3d
       0.118678994 0.11629827 -0.006463088 0.0991997
0001f0 7e b6 14 3d 0a 22 2b 3d 14 a1 70 3d f3 d4 fd bc
       0.03630685 0.04178051 0.058747366 -0.030985331
000200 98 65 a5 be 01 ac 0d 3e 66 07 88 bf 0d f0 9c 3d
       -0.32304072 0.13835146 -1.0627258 0.076629736
000210 b7 5e 53 bd 36 70 17 3d 97 8b 81 3c e3 51 de 3d
       -0.051604 0.036972247 0.015813632 0.108554624
000220 fc 01 ce 3d a6 9f 73 3c 1f 88 0c 3e 4d 98 ac 3d
       0.10058972 0.014869606 0.13723801 0.084274866
000230 a3 52 67 be ca 5e f3 3c f2 21 ff 3d 14 9b 52 bc
       -0.22590117 0.029708285 0.124576464 -0.012854356
000240 89 92 e9 be 1f c3 52 3e 3e 9e 9b be 70 e1 21 bf
       -0.4561961 0.20582245 -0.30394167 -0.63234615
000250 f3 e0 fc 3d 48 4d 0d bc d0 a3 ed 3d 30 90 44 3d
       0.12347593 -0.008624382 0.116035104 0.04798907
000260 34 84 cf 3d 78 21 10 bd f5 69 08 3e b9 71 20 3b
       0.101326376 -0.03518817 0.1332167 0.0024481846
000270 c7 ea 47 bd 49 76 42 3d 16 82 52 bc 49 17 68 bf
       -0.048807885 0.047476087 -0.012848398 -0.9066053
000280 71 66 0c 3e 3c 58 d3 3c 9e 1d 76 3c f2 a1 20 bd
       0.13710953 0.02579891 0.01502171 -0.039216943
000290 31 61 f5 3d b8 4f 37 3c 51 d1 39 3e ca 86 03 3e
       0.119814284 0.01118844 0.18146254 0.12844387
0002a0 a2 ff 01 3e db 4e 26 be 98 39 19 3e f6 cf 82 3d
       0.12695172 -0.16241018 0.14963377 0.06387322
0002b0 32 2b ff 3d 4c cf 38 3d 16 14 9c 3d 60 5a f8 3d
       0.12459411 0.04511957 0.076210186 0.12126613
0002c0 ca e1 04 3e dc 5b 0e 3d b2 af 1a 3d f4 2c 14 3e
       0.12976757 0.034755573 0.037765212 0.14470273
0002d0 60 c3 49 3d e7 14 bb bc 78 04 10 be ff 36 2f 3d
       0.04925859 -0.022837115 -0.14064205 0.042777058
0002e0 76 33 f1 3d 76 d9 c1 be 89 45 f2 be 20 05 4f bd
       0.117773935 -0.37861222 -0.47318676 -0.050541997
0002f0 6a a6 00 bd 68 2c d1 3b 14 71 2a 3e 20 17 db 3d
       -0.031408705 0.0063834675 0.16644698 0.1069777
000300 ee 1b 21 3d b5 b0 ae 3d e1 50 a6 3d da c8 67 3d
       0.039333276 0.08529798 0.08120895 0.05658803
000310 4f df 3d 3d e8 0b 95 3d e8 8c bf 3c a3 32 39 3b
       0.04635554 0.072776616 0.023382619 0.0028258942
000320 b4 4c 82 3c 28 13 5d bd 21 80 96 bf 32 21 64 be
       0.015905716 -0.053973347 -1.1757852 -0.22278288
000330 32 61 f1 3d f3 bc ea 3e 9c e3 86 bd 00 9b 48 3d
       0.11786117 0.45847282 -0.06586382 0.048975945
000340 22 88 96 3d c0 5b 12 bf 73 56 4c bd 30 72 08 3e
       0.07350184 -0.5717125 -0.049887132 0.13324809
000350 df e7 44 3d d5 3a 7b 3d de 02 0e bd 0b 43 75 bc
       0.048072692 0.061335403 -0.034670703 -0.014969598
000360 32 d8 27 3d 48 e6 58 3d d5 1a 1b 3d 8f ce 8a 3d
       0.040977664 0.05295399 0.037867386 0.06777679
000370 04 fe db bc 0d 8a 38 3e 4c 7c 34 3d ec 9b 66 3c
       -0.026854523 0.18021412 0.04406385 0.014075261
000380 40 2e 51 bb 86 bb ba 3d 64 c4 51 bd 2e 6c 65 3d
       -0.0031918436 0.091177985 -0.051212683 0.05601137
000390 e8 26 1d 3d 4f 97 91 3d ec f9 1c 3d d1 59 f4 3d
       0.038367182 0.07108938 0.03832428 0.119311936
0003a0 27 b8 5a be 2f d0 b0 3d c1 15 4d 3d 28 8f cf 3c
       -0.21359311 0.08633458 0.050069574 0.025336817
0003b0 a2 27 03 bc b3 1c 74 3d 35 4d 7b 3d bc 98 8d 3d
       -0.008005055 0.059597682 0.061352927 0.069138974
0003c0 a0 04 17 bb 3c f6 42 bd b8 12 bd 3d d7 1a 0a bd
       -0.0023043528 -0.04759811 0.09232086 -0.033717003
0003d0 01 06 93 bc 4b d1 c6 3d fc df 15 3b 00 16 18 bb
       -0.017947199 0.09707888 0.00228691 -0.0023206472
0003e0 5e c4 38 3d 8f 35 0b 3e 30 96 47 bd 37 4d 0b 3e
       0.045109145 0.1359465 -0.048727214 0.13603674
0003f0 d3 76 0c 3c 3f ff 26 3e 6b ac b7 3d 70 79 10 3e
       0.008573252 0.16308306 0.08968433 0.14108825

layer3.bias f4 [5]
000000 02 72 5a 3c b7 9e 93 bc 1a 78 d9 3b 95 41 0b 3c
       0.013332846 -0.018020017 0.0066366317 0.008499523
000010 16 b8 9b 3d
       0.07603471
