DDQN_Champion1.pth (torch, 176270 bytes, 6 tensors)

layer1.weight f4 [128, 70]
00000000: 7b84 a53c 177d ae3d a718 98be 1daf 27bd
00000010: 6028 b0bc 41d6 583d e1a0 0c3d 9d4c ed3d
00000020: 7396 fabe 1114 a63d 0b78 aebe 6fdc bfbd
00000030: 6dd8 bcbd 5f4e 5cbe c9c5 e6bc f7ae 93be
00000040: b254 fcba c2de ccbc 7490 45be 16fa 03bd
00000050: 1eb9 63be 677a f63d e841 4a3e 5544 febc
00000060: 76e2 3c3d 6fa5 94bd e7a9 033e 7f3c d6be
00000070: 74c6 5dbd f850 803d 809d ddbd b702 103e
00000080: 29ce e0bd d99f 0abd 036d 4abe 5f0a babd
00000090: 2696 87bc bff2 0a3c dbbf 1a3d 4a6d 473c
000000a0: 4a02 de3c 46b1 36be 3a40 293d d0b3 21bd
000000b0: 6e50 dfbd 2fdc 8fbd d676 7f3d 25b4 ba3d
000000c0: 6986 8fbd 82d8 833c 1746 f23d 26a2 de3d
000000d0: 1956 0c3d b995 423d 4428 ce3d ba92 913d
000000e0: d0be 9f3c 92e0 7dbd 12b7 d8bd 019e 6ebd
000000f0: f094 833d 187b 3b3d f600 88bd 455b eb3c
00000100: 3eb6 b13d c82f a6b8 1837 22bc 71df a03d
00000110: bef3 883d 4cec f3bc aaa2 bcbd 3769 33bd
00000120: 7667 403d 8dd0 ca3d 0503 d53d 5cfc d73d
00000130: 83dc c23c e1db d4bd 3d25 343c 2f23 99bd
00000140: 5920 e4bd d97c d93d 7d1f ba3d 7e2d f4bd
00000150: 1a44 b73c c9f1 a4bc 8120 a1bc 1f1a 60bd
00000160: f743 3c3d 59fc 90bd 7478 333d cb93 773d
00000170: aa3b af3d d60d 373d 2b45 f2bd 34ca 9ebd
00000180: 8e72 743d faee cc3c 80f3 bebd 62f3 8cbd
00000190: 7e47 e63d 65f0 a43d 8376 55bd b56e f6bc
000001a0: fe2d e9bd d6ca 0cbb fd55 b8bd 9bd0 bcbd
000001b0: 8bcc d7bb 0003 933c f17d 48bd a73f 913d
000001c0: bdf5 94bd ce1b de3d e8bf a73d d26b cebd
000001d0: c0b0 f3bc 51b9 b03b 38db 8e3c 8939 e83c
000001e0: 911e 403d ba99 ea3b 87df 6ebd 36a8 673d
000001f0: c2ce eabd 9c15 91bd 151b f5bc 5679 6ebd
00000200: 3344 2bbd 1aa1 c8bd ac46 d0bc ae4b d13c
00000210: b777 9fbd 5afe c8bb 5d3a af3d 544f 49bc
00000220: a4b2 593b eaef 28bc 6e28 c63c 80a4 9b3d
00000230: e2c2 033e f317 bb3d 0dab 943e 3c0c 043d
00000240: add7 5fbd 4704 2bbd b31a be3d 557f 703c
00000250: fc7c 24bf 6bd7 febe 9795 ddbe aca8 60be
00000260: 3d95 19bc a0bd 2cbe e4fc a33d 6ca3 a7be
00000270: 63d2 da3d 9b5c 29be 19f7 9bbc 2784 0fbd
00000280: 55c6 243e 2b4c 03bc d493 f43d b1cd 23ba
00000290: aab2 663d 9e2e 11bc d775 22bd 6ee0 9d3d
000002a0: aeab bcbd a3aa 9d3d 6a78 5c3e f631 2dbd
000002b0: da57 b73d 7614 723d b648 17bd 8c85 ba3d
000002c0: fe6f c63c ca3c 37bd 7ece 893d d673 dcbd
000002d0: 991f e73c 0011 aa3d 6273 ce3d 2622 db3d
000002e0: 311a 1f3d 6e43 9b3c 4067 90bd ed65 1cbc
000002f0: 859d a9bd 58b7 9e3d 5a3f 113e 034d 933d
00000300: c225 30bd 5509 41bd 5a80 91bd fef1 0cbe
00000310: 37a9 7fbd f114 913d cfa5 91bd 9e93 43bd
00000320: e761 a6bc c9df ad3d f309 89bd 1fc2 b1bd
00000330: a35b e3bc 6ad3 bf3d 6d37 8cbc 234e a23d
00000340: 9114 1a3d 63c3 bb3d d73c 69ba 628e c1bc
00000350: 30b2 753c 5594 dfbc 5527 5cba 55dc 793c
00000360: 6a78 bfbd 624c 80bd 0da9 c53d 16a7 c6bd
00000370: 899d 0cbc 0e26 f23d 68d9 303d 08c7 5d3b
00000380: 9821 d4bd 1f85 723d a65a aebd 5ef8 0abd
00000390: dc41 24bd 3bff 90bc 3d5c ab3a 12e6 c93d
000003a0: 9b77 743c 0e40 db3d 98bc 953d 4fc1 9abd
000003b0: 7b92 5b3d 3809 adbd 807d 4fbd 0cfe 0f3d
000003c0: 94a6 213d 98a4 b73d 5599 1dbd 52a2 4839
000003d0: 390a 7c3d 41ba ecbd 26f9 b03d 996a cabd
000003e0: 05eb d73a ff77 a6bc a5eb 80bd ad69 813c
000003f0: 5e6a ca3d 0f1c 0fbd 7c53 91bd 750f 35bd
0.020204773 0.08519953 -0.29706308 -0.040938485 -0.021503627 0.052938703 0.034333114 0.115868784
-0.4894291 0.08109296 -0.3407596 -0.09368216 -0.092209674 -0.21514271 -0.028170483 -0.28844425
-0.0019251315 -0.025008563 -0.19293386 -0.032220922 -0.22238585 0.12035065 0.19751704 -0.031038443
0.046114407 -0.072581165 0.12857781 -0.4184303 -0.054144338 0.062654436 -0.10821056 0.14063536
-0.10976822 -0.03384385 -0.19768147 -0.090840094 -0.016551089 0.008480727 0.037780624 0.012172053
0.0271007 -0.17841062 0.041321017 -0.039478123 -0.109040126 -0.070244186 0.06236919 0.09116391
-0.070080586 0.01609445 0.11829775 0.10870771 0.034261797 0.047506068 0.10066274 0.07108064
0.019500166 -0.061981745 -0.10581793 -0.058256153 0.06424892 0.04577169 -0.06640808 0.028730044
0.08677338 -7.924397e-05 -0.009900831 0.07855118 0.06687115 -0.029775761 -0.09210713 -0.043801513
0.046973668 0.09903059 0.104009666 0.105461806 0.023786789 -0.10393501 0.010995206 -0.07477414
-0.11138982 0.10619516 0.09088037 -0.119227394 0.02237134 -0.020134823 -0.01966882 -0.05471241
0.045963254 -0.070793815 0.043816045 0.06044368 0.08556302 0.04469093 -0.11829599 -0.07753411
0.05967956 0.025016297 -0.09323788 -0.06882359 0.11244105 0.08053664 -0.052114975 -0.030082086
-0.113857254 -0.0021483204 -0.09000776 -0.09219476 -0.0065856627 0.017945766 -0.048948232 0.07092219
-0.07273433 0.10845147 0.081909 -0.10079159 -0.029747367 0.005393185 0.017438516 0.028347747
0.04690415 0.007159439 -0.05831864 0.056556903 -0.11465217 -0.070842 -0.02992014 -0.058221184
-0.041813087 -0.09796353 -0.025424324 0.025548782 -0.07786506 -0.0061338367 0.08556054 -0.01228698
0.003321805 -0.010311106 0.0241892 0.07599735 0.1286731 0.09135427 0.2903675 0.03223823
-0.054649044 -0.041752126 0.09282436 0.014678796 -0.6425321 -0.49773726 -0.4327819 -0.21939343
-0.00937396 -0.16869211 0.080072194 -0.32741868 0.10684659 -0.16539232 -0.019038724 -0.03503814
0.16091283 -0.008013765 0.119422585 -0.0006248607 0.05632273 -0.008861212 -0.039663162 0.07708822
-0.09212433 0.07698562 0.2153031 -0.042283975 0.08952303 0.059101544 -0.036934577 0.09107503
0.024223324 -0.044735707 0.067288384 -0.107642815 0.02821331 0.08304024 0.10080601 0.10699873
0.038843337 0.018953051 -0.070509434 -0.009545785 -0.082819976 0.07749814 0.14184323 0.07192423
-0.04300476 -0.04712804 -0.07104559 -0.13764188 -0.062417235 0.070840724 -0.071117036 -0.0477482
-0.020310355 0.08489949 -0.06691351 -0.08679604 -0.027753657 0.09366496 -0.017116273 0.0792506
0.03761727 0.091681264 -0.00088973105 -0.023627464 0.0149960965 -0.02729241 -0.0008398195 0.015250285
-0.09349139 -0.06264569 0.096513845 -0.09699838 -0.008582481 0.118236646 0.043176085 0.0033840556
-0.1035797 0.059208985 -0.085133836 -0.033928268 -0.04010187 -0.017699828 0.0013073754 0.098583356
0.014921094 0.10705577 0.07311362 -0.07556402 0.05360649 -0.08449024 -0.050656796 0.035154387
0.039465502 0.08966941 -0.038476307 0.00019133955 0.061533187 -0.115589626 0.08641271 -0.09883613
0.001647324 -0.02032089 -0.062949456 0.01579746 0.09883569 -0.034938868 -0.070960015 -0.044204194

layer1.bias f4 [128]
00000000: 2100 113d f32e bebd 91d7 cd3d 15e7 a3bd
00000010: a4b9 363d bc39 fe3d 78b8 de3d 0918 313d
00000020: a7b2 723d 3e92 883c 50f1 c73d dbb6 f43b
00000030: 0154 79bd 6430 d83d eb4e b8bd 9b84 0f3e
00000040: 23f6 d73b 6d7f 853d 2572 903c 0b6d 263d
00000050: b1cc a63d 2f93 f7bd 6966 963d c72b 333c
00000060: 5221 ebbd 1f49 a5bd 254a 813d 3a4e 073e
00000070: 36d1 e3bd ac72 5a3d c4e1 763d 7d67 eebd
00000080: 9038 833d 9ff3 f4bc e4f8 983c 9b27 d5bc
00000090: 1b02 c73d 6520 c3bd 7a6d 813d 0f25 38bd
000000a0: bd13 853d 7eb7 293d 797e 9bbd dd1b ddbc
000000b0: b86c 293c 883a 273d d5ab 77bd 42ec f73d
000000c0: 5979 67bd 09e1 81bd bce9 9e3d 372b 52bc
000000d0: ba44 093d 987b ce3d b94c 56bd 0917 4f3d
000000e0: 926e a03d d3d5 af3d f122 363e afe6 cb3d
000000f0: cd21 df3d 601e f83d a738 933d 48db 7b3d
00000100: d36e 9a3d 13a2 653d 1564 043c fcb6 a63c
00000110: 9ef3 31bd 134a 3ebc 617a 6e3d 683f 19bc
00000120: fe26 0cbd ea9e 883d b521 183c cfc0 473d
00000130: 1726 5e3c 7d2f 9bba 1b9f febc 2f40 033e
00000140: be70 8cbd 8e3e 79bd bf33 78bc a7ae 223c
00000150: 3983 be3d 1841 1e3d a0df 12bc 919f e7bd
00000160: 6432 67bd 212f 923d a0fa 81bb 817e 02bd
00000170: 2be4 f63c 44b1 ae3d f1e3 703c ffbc 1b3e
00000180: f0ba ff3d 57b7 f03b 6a05 0f3e d740 303d
00000190: 13ed 843d 1e13 a53d a531 eabd 5904 c03d
000001a0: 0bfe f53d 85a1 b63c 4465 853b 59bd 47bb
000001b0: 8044 c0bd 658b 303c 3d2c 383d 64e9 d93d
000001c0: 1ae4 333e 8823 11bd 6c6e d33d dcbf bebc
000001d0: e3ca 0ebd e512 66bd 35af a3bd a55f ab3d
000001e0: 25e9 b8bb 16e7 4d3d 51e6 abbd 95d3 53bd
000001f0: d8ba d43d daf1 6abd 2539 003e f8b2 bebd
0.035400514 -0.092862986 0.10050882 -0.0800306 0.044610634 0.12413356 0.10875028 0.043235812
0.059252407 0.016671296 0.097628236 0.007468087 -0.060871128 0.10556105 -0.089994274 0.14015429
0.006590621 0.06518445 0.017632553 0.040631335 0.081445105 -0.1208862 0.07343752 0.01093573
-0.11480965 -0.08070587 0.0631297 0.13213435 -0.11123888 0.053332016 0.0602739 -0.116408326
0.06407273 -0.029901324 0.018673368 -0.026019862 0.097171985 -0.09527663 0.06319709 -0.044957217
0.064979054 0.041434757 -0.07592482 -0.026990825 0.010340862 0.040827304 -0.060466606 0.121056095
-0.05651221 -0.0634175 0.07759425 -0.012827686 0.03351281 0.100821674 -0.052319262 0.050559077
0.078335896 0.085857056 0.17786767 0.09956109 0.10895119 0.121151686 0.0718854 0.06148842
0.07540669 0.05606277 0.008080502 0.020350926 -0.043445222 -0.01161434 0.05822218 -0.009353496
-0.034216873 0.066709355 0.00928538 0.04876786 0.013558886 -0.0011839714 -0.031081727 0.12817453
-0.06857441 -0.060850672 -0.015149056 0.009929336 0.093023725 0.038636297 -0.008964449 -0.11309732
-0.05644454 0.071378954 -0.0039666444 -0.031858925 0.030138096 0.085299045 0.014702783 0.15208815
0.124868274 0.0073460746 0.13966909 0.043030586 0.06490531 0.08060287 -0.1143525 0.09375829
0.120113455 0.022293815 0.0040709097 -0.003047785 -0.09388065 0.010775422 0.044964064 0.10640219
0.17567483 -0.035434276 0.10323796 -0.023284845 -0.034861457 -0.056170363 -0.079924025 0.08367852
-0.0056430274 0.05026921 -0.08393539 -0.051715452 0.103872 -0.057359554 0.12521799 -0.09311479

layer2.weight f4 [256, 128]
00000000: 3b03 7b3c dec7 703d 87c3 0a3e b04c 203d
00000010: 015a 763e bf80 a5bc 93c7 883c 5cbf 333e
00000020: f05b 363c 486f c23c 4525 c33d 0486 2c3e
00000030: c839 4cbe 5fae bd3c b43c af3d 3b1b 453e
00000040: 0bc9 9f3d a8dc fb3d 6e4a 933e 7f34 81bc
00000050: ec3a 9fbd 672e e83c e45c 9a3d 40b2 b53d
00000060: d1b7 8c3e 5ccd 583d 56d4 fd3d e2fc 59bc
00000070: ca81 163e 7308 2bba 0bef 29bd 2d6a 3e3d
00000080: 6c02 633a f05c d03c 64cd 55bd 5765 0f3d
00000090: d8ca 303d 11e7 cf3d 2d9e 02bf 697a e93b
000000a0: 5447 b7be bb6f 683c f7f5 233d e379 363d
000000b0: ecc9 a93d 0c9b ca3d bd9c b43c d4fc eb3d
000000c0: b8ea 963c 0f7d 00bc 5ef8 233e cd55 c63b
000000d0: 6189 c93e 1a24 cf3c 35b4 e03e 503a ec3d
000000e0: c15f 633e 508e c8bb fba7 3cbd 956a a13d
000000f0: aa89 4a3d 9e04 1d3e e5f4 f1bc 3849 e93c
00000100: 4084 ca3d ef01 883e 1dc0 94bd d11c 693d
00000110: ef0a 9c3d afa0 a03c a127 71bc 0c07 4a3d
00000120: b1ab 8dbe 92f5 da3d 3624 c03d a78f c63d
00000130: 466b 033a b1a7 a7bd 07b3 33bd 4e9c 47bc
00000140: 19c0 953c e6b1 f53c e251 833d 946a 563e
00000150: 0d3f e23c 6c2c b83c fb8c 303e c432 533d
00000160: cddf 3d3d 8f09 0a3e 0ff4 b83d ed17 063e
00000170: 5048 bb3a 9220 5fbd f3c5 de3c 97ba f83d
00000180: 20f4 9b3c dd7f 643e 413f a4be 1a69 b33e
00000190: 81d0 643c 471e f23c defb 31bc 7eda d23c
000001a0: 26b3 80bd ed15 45bd 2da2 ad3d 5fea ba3c
000001b0: ed84 693c 79ea a8bd 6f42 df3b 85cd f83d
000001c0: 544d 57bc 652f 443d 74c4 1b3f bfe6 163d
000001d0: 017c 8c3c f402 54be e4fc d4bc a14a aa3d
000001e0: 73da 933c 61a3 853c 6a41 0c3c 4480 063e
000001f0: ad68 a53d 4a91 f63d d992 c33d 1c4f 203e
00000200: 4f34 96bc 308e 0c3c 44f4 1fbe 046a 643c
00000210: ced3 81be f92b 9dbd c111 a23b c154 03be
00000220: 87e7 7c3d 3e98 103c cbf8 6dbd 3a44 c8bc
00000230: db30 4e3d 14ca b33d 5a6d 9a3d a4a5 00be
00000240: f73b 8bbd e320 2abe 21cc 003e 2d2f 4cbd
00000250: 813e a7bd 4456 60bd 0474 083e 679a 703c
00000260: e84a e43c 6cfc 173e 5daf 7d3d a10d a83d
00000270: 4c88 08bd b399 1ebd 8ef4 323e 3a00 8b3d
00000280: 7912 b0bc 2673 b03d a8bf 3e3d 5777 9d3d
00000290: 7fce 99bd b993 5dbd 7c76 b63d 2fdb 3f3d
000002a0: 9a49 0c3e 3ae1 a8bc 0c90 be3c 5689 1b3c
000002b0: 9a6c 923e 5528 a5bc d607 d03c 37af 873d
000002c0: 1604 acbd 96b6 fd39 8b72 143d 264b 83bc
000002d0: 67b0 813e c933 60bd 8312 9e3e e6a2 c43d
000002e0: e6a1 113e d015 203e eb1e 95bd 9310 07bc
000002f0: 3e30 093e 4864 b4bd 39ef 283d 6f38 8c3d
00000300: 7305 babd ce34 02bf b96e a33d 33ee e9bb
00000310: fd7c 57bd e257 52bd ea95 a6bd 9ce4 8cbc
00000320: 8cc8 d2bd b9eb 9dbc 2b7c 2bbc 4090 ec3c
00000330: 523a 8bbd eca0 80bc 0668 e5bc 27bc ff3c
00000340: 98fd 4ebd cf58 afbc 4504 d33d 45a3 a0bb
00000350: e7e5 e1bd d045 babd f7da 243d bd08 7f3d
00000360: e3c2 173d 8991 273d 3060 103d bac9 28bd
00000370: dde4 c13b 1f32 8ebd 6b33 fd3a e7df 893d
00000380: c845 a9bb 437d b2bd ec33 033e b4cf 973e
00000390: 43e8 7f3d 7316 2dbd c04f aebd f21b 3dbd
000003a0: 5820 84bc 02ce ae3d 7b97 91bd 48a2 f1bb
000003b0: c9ca 003d bd46 b4bc 480c 90bd a77c 8cbc
000003c0: a192 943d ab54 edbd 706d 60bf 6b1b 55be
000003d0: 8981 2c3d 7aff e63c 7d72 a83d 2c58 493c
000003e0: 47db 5dbe f5c7 903c 882b b6bc 828e 2f3e
000003f0: 1aa6 21be a8bc 163e 1e24 50bd 352e 38bf
0.015320594 0.05878436 0.1355115 0.039135635 0.24057771 -0.020202992 0.016696727 0.17553467
0.011130318 0.023734704 0.09528593 0.16847998 -0.19943917 0.023154436 0.085565 0.19248669
0.07802018 0.12297946 0.28767723 -0.015772102 -0.0777491 0.028342439 0.07537249 0.08871889
0.2748399 0.05293022 0.123940155 -0.013304921 0.14697948 -0.00065243914 -0.041487735 0.046487976
0.00086597237 0.025434941 -0.05219783 0.035008755 0.043162197 0.10151494 -0.5102261 0.007125188
-0.35796607 0.014186795 0.040029492 0.044549834 0.08290467 0.09892854 0.022047395 0.115228325
0.01842247 -0.007842316 0.16012713 0.0060527087 0.39362624 0.02528577 0.43887487 0.1153456
0.22204496 -0.0061204806 -0.046058636 0.07881657 0.049447693 0.15333793 -0.02953572 0.028477296
0.09888506 0.26563975 -0.07263205 0.056912247 0.07619273 0.01960787 -0.014718921 0.049323127
-0.27670053 0.1069137 0.09381907 0.09695368 0.00050132384 -0.081862815 -0.043871906 -0.012183262
0.018280076 0.029992055 0.06412102 0.20939094 0.027617956 0.02248212 0.1724128 0.051562086
0.04635601 0.13480209 0.090309255 0.13095064 0.0014288519 -0.05447442 0.027193999 0.12144964
0.019037306 0.22314401 -0.3207951 0.35041124 0.013965727 0.029555453 -0.0108632725 0.02573895
-0.0628417 -0.048116613 0.08478198 0.022816835 0.014252883 -0.08247847 0.0068133394 0.12148575
-0.013140995 0.04789676 0.6084664 0.03684115 0.017148973 -0.20704252 -0.025999494 0.083150156
0.0180485 0.016313257 0.008560518 0.13134867 0.08076606 0.120394304 0.09549493 0.15655178
-0.01833549 0.008578822 -0.15620524 0.013941292 -0.25356907 -0.07674403 0.004945964 -0.128253
0.06174424 0.00882536 -0.058098596 -0.024446595 0.05033956 0.08778778 0.075403884 -0.12563187
-0.06798547 -0.16614108 0.12577869 -0.049849678 -0.081662185 -0.05476977 0.13325506 0.01468525
0.02786775 0.14842385 0.061934818 0.082057245 -0.033333108 -0.038720798 0.17476103 0.067871526
-0.021493183 0.08615713 0.046569496 0.07688778 -0.07510089 -0.054095957 0.08909318 0.04683989
0.13699952 -0.020615209 0.023262046 0.009493193 0.2859848 -0.020160833 0.025394361 0.066252165
-0.08399217 0.00048391958 0.03624205 -0.016027045 0.25329897 -0.054736886 0.30873498 0.09601383
0.14221916 0.15633321 -0.07281288 -0.008243698 0.13397309 -0.0880819 0.041243766 0.06846701
-0.090830706 -0.50861824 0.07980103 -0.0071389913 -0.052609432 -0.051353343 -0.081340626 -0.017198853
-0.102921575 -0.01927744 -0.010466616 0.028877378 -0.06798233 -0.015701734 -0.028003704 0.031217648
-0.050534815 -0.021404652 0.10303549 -0.0049022757 -0.110301785 -0.09095347 0.040247884 0.062264193
0.037051093 0.040910278 0.03524798 -0.041208006 0.005917175 -0.069431536 0.0019317692 0.06732159
-0.0051657893 -0.08715298 0.12812775 0.29650652 0.06247736 -0.042257737 -0.08511305 -0.04616923
-0.016128704 0.085353866 -0.07108971 -0.0073740818 0.03144339 -0.022006387 -0.070335925 -0.017149283
0.0725453 -0.11588415 -0.8766699 -0.2081124 0.04211572 0.028197993 0.08224962 0.012289088
-0.21665679 0.017673472 -0.022237554 0.17144206 -0.15786019 0.14720404 -0.050815694 -0.71945506

layer2.bias f4 [256]
00000000: b539 f23d bc29 1b3d d7b5 b83d 65c6 07bd
00000010: 8e8e 0f3d 1750 f2bb 6b58 a83d 5a15 163b
00000020: ba3d b73d f482 963a 1c82 963d e504 8cbd
00000030: 8183 f73c 2cc4 813b ab80 57bd afd9 cd3d
00000040: 94b6 96bd ea38 093d b366 96bd c584 d23c
00000050: af67 343c 2a8f 9a3d 302f 57ba e7c3 da3c
00000060: 526e bc3d 4796 523d 4f02 c73d fafc cc3c
00000070: cd84 79bd 5d0d d13d 8a74 933d 7318 1a3d
00000080: ea8d dc3d af74 b3bc a115 0f3d de12 8cbd
00000090: 8ef3 443b 26f6 713b 34ab 403d 9ebb d23d
000000a0: 50fe f33c 68b9 a63d 00ef 94bd bbfd a2bc
000000b0: d8cf 313d b6f3 793d 32a8 2bbb 7fa5 9cbd
000000c0: 7662 85bd 7d8b c8bc 7d89 63bc 57ee f13c
000000d0: a196 8b3d 71c7 483d 30dc a33d 9fb2 fb3d
000000e0: 562c df3d ae9e ce3d 29d8 4bbc 9472 8ebd
000000f0: a969 9b3d 2903 e63d f681 fbbb 293e 26bd
00000100: 5eda 0a3c 8e02 803d 2f0b 7ebd e5f4 403d
00000110: c16c 82bd 650c 8d3d 067c 59bd 719c ac3d
00000120: d6a6 be3d 77ae 423c 8a95 1abc 5462 08bd
00000130: 2e18 5abd a4c6 19bd 20f7 ba3d 5aac 9cbd
00000140: 3aa4 04bd ac0e 263d f1b2 b23d 82a6 1e3c
00000150: 8ce3 4d3c aab7 98bb 6871 d8bc 8325 243c
00000160: b454 ac3b b141 6e3d 8eb5 adbc d822 34bc
00000170: 7cea 9d3d b932 e6bb fe5a 023d 6beb bc3d
00000180: 5942 65bd 41cf 8abd 91ce f83c 44f2 18bd
00000190: 9135 4fbd cfee 56bd edd9 08bd 4e7b 303d
000001a0: b523 7e3d c922 5e3d 09a2 8dbc a37e 793a
000001b0: 34b2 3cbc ab52 f5bb 93fe b83c 9427 003d
000001c0: fbe0 c7bb f65d 7c3d e7f4 723d 0b05 28bc
000001d0: 4a9c 1f3d 2ac5 71bd 660c e23c d7c0 dbbc
000001e0: 72c4 3ebd edaa a3bc b152 adbd 6640 3dbd
000001f0: f3ff bdbc 0778 c2bc cd76 74bd da83 9c3d
00000200: c8b7 5ebd 1e56 823d c063 793a a6dd 83bc
00000210: 81a2 9c3d 2d0a 71bc a204 90bd 50a7 94bc
00000220: d96a c7bb 3f73 843d 3583 a83c 99bd 843d
00000230: a9f4 7c3d a316 4bbd df95 353c d08e 8abd
00000240: 27f0 8f3d 3143 3abd 8658 ddbb aaf1 a8bc
00000250: 78f8 713d 979f 713d 9984 d1ba bb2f 4e3c
00000260: 1322 de3d 74cd 363d ac13 c03d b5d9 49bd
00000270: 9218 b43d 9c6f a43b 7ea4 103d 1a98 663d
00000280: a5b6 9a3c 7dbf 51bc afd7 c83c 341c 68bd
00000290: 3258 5f3d 0bf9 4abd ae9a 923d a6c6 b33d
000002a0: c78a eeb9 7c2a 8d3d 5b72 20bc 1de0 56bd
000002b0: e419 26bc e81f 8e3d 91d4 083d 1ce6 1d3d
000002c0: a718 843d c737 6b3d aeb9 8bbd c900 3cbd
000002d0: 9056 d13a 04cd 09bd fd6a 4cba 5d2e 9abc
000002e0: 0f14 4d3d af31 923d 7422 5e3b 0a3f 4b3c
000002f0: 99a1 91bd 5fea c33c 1d5a a93d 2c62 a93d
00000300: 174d e93c 2727 003d 5694 943d 52f6 083c
00000310: 69b9 4d3d f9d4 c43d 666f 953d 4971 8dbb
00000320: 223a 3e3d e627 5abd 1167 9cbc 6276 9c3d
00000330: bdcf 603d e2d2 b6bd fe0b 5abd 8ccc a7bd
00000340: da9e 563d 7cf9 1b3d 647e 05bc 6e49 0fbd
00000350: 53ea e0bc 4b1a af3d e25e d33c 79c4 f13d
00000360: dc5d 3f3d 5d0f e03d a203 b13d 92e9 483d
00000370: a025 88bc 411e 663d 4198 ebbb d0d9 f1bc
00000380: ee29 97bd 7bc1 9fba 386d aa3d 872e a6bc
00000390: eb65 9ebd d537 043d a8ed 97bc cef5 853d
000003a0: a10c 8ebc 3d5b 883d e17f 49bc 1fcd 2bbd
000003b0: 6f1d 30bd 6f5f b53d f822 7ebc 66ac a13d
000003c0: 84f8 663b 6a62 f5bc cd9f cb3d 1f10 673c
000003d0: 09de 643d 8685 bdbc 20bc 42bc 0beb 1fbd
000003e0: 8680 4bbd 0bd2 0e3d 53a6 4c3d f9ef 8db9
000003f0: 63b0 ee3c abfa a1bd c5aa fabc e3f3 b93d
0.11827413 0.037881598 0.09019058 -0.03314819 0.03504806 -0.0073948014 0.082199894 0.002290091
0.0894732 0.0011483119 0.07349035 -0.06836871 0.030214073 0.003960153 -0.05261294 0.100512855
-0.07359043 0.033501543 -0.07343807 0.025698075 0.011011048 0.07546838 -0.00082086306 0.026704742
0.092007294 0.051412847 0.09717237 0.025022972 -0.060917664 0.10207627 0.071999624 0.037620973
0.107692555 -0.021906225 0.034932736 -0.06839536 0.0030052396 0.0036920398 0.047038272 0.102896914
0.029784352 0.08140832 -0.07272148 -0.019896379 0.043411106 0.061023436 -0.0026192782 -0.076487534
-0.065129206 -0.024480576 -0.01388776 0.029532595 0.068158396 0.049018327 0.08000982 0.12289929
0.10897128 0.100888595 -0.012441673 -0.06955448 0.075885125 0.112310715 -0.0076754047 -0.040586624
0.008474914 0.06250487 -0.062022384 0.04710855 -0.063683994 0.0688713 -0.053096794 0.08428276
0.09309165 0.011882416 -0.009435067 -0.033296898 -0.053245716 -0.037542954 0.091291666 -0.07650061
-0.03238318 0.040541336 0.087255366 0.009683253 0.012566458 -0.0046605663 -0.026421264 0.010018709
0.005259121 0.058168117 -0.021204736 -0.0109946355 0.0771074 -0.0070250896 0.03182506 0.0922459
-0.055971477 -0.06777812 0.030371936 -0.037340418 -0.050588194 -0.05247384 -0.033410955 0.043086343
0.06204577 0.054232392 -0.017289178 0.00095174665 -0.011517096 -0.0074866614 0.022582328 0.031287745
-0.006099818 0.061613046 0.05931559 -0.010255109 0.03896741 -0.05902592 0.027593803 -0.026825352
-0.046574064 -0.019978965 -0.08463038 -0.046203993 -0.023193335 -0.023738874 -0.05968361 0.07642336
-0.054374486 0.06364082 0.000951346 -0.016096901 0.07648183 -0.014711899 -0.07032134 -0.018146187
-0.0060857353 0.06467294 0.020570377 0.064814754 0.061756764 -0.049582135 0.011083095 -0.067655206
0.07028227 -0.045474235 -0.0067549376 -0.020623047 0.05907485 0.058990087 -0.0015984952 0.012584622
0.10846343 0.04462953 0.09378752 -0.049279887 0.08793749 0.0050181877 0.035313122 0.0562974
0.01888592 -0.012802002 0.024516908 -0.05666752 0.05452747 -0.049553912 0.07158409 0.087781236
-0.00045498295 0.06892869 -0.0097928895 -0.052459825 -0.010138009 0.069396794 0.033405844 0.038549528
0.064500146 0.05742624 -0.06822525 -0.045899186 0.0015971232 -0.033642784 -0.0007797925 -0.018820936
0.050067957 0.07138383 0.0033895047 0.012405166 -0.071109004 0.023915468 0.08269141 0.08270678
0.028479142 0.03128734 0.07254855 0.008359509 0.05022565 0.09610934 0.07296638 -0.004316483
0.04644216 -0.053260706 -0.019092115 0.07639767 0.054885615 -0.089269415 -0.053234093 -0.08193311
0.052397586 0.038079724 -0.00814781 -0.034982137 -0.027455484 0.08549937 0.02580208 0.11805052
0.04672037 0.1094043 0.08643271 0.049050875 -0.016619503 0.056181196 -0.007189781 -0.029522806
-0.07381044 -0.0012188399 0.08321613 -0.020285858 -0.07734283 0.032279808 -0.01854594 0.06541024
-0.017340006 0.06658027 -0.012298555 -0.041943666 -0.04299682 0.08856093 -0.015511267 0.078942105
0.0035243342 -0.029954154 0.09942589 0.014102965 0.05587581 -0.023134958 -0.011885673 -0.039042514
-0.049683116 0.03486828 0.049963307 -0.0002707241 0.029136842 -0.07909139 -0.030599007 0.09079721

layer3.weight f4 [5, 256]
00000000: 8b77 003e a1ef 8ebe 343f c33d dda4 c73b
00000010: 09d0 043d a2a8 27bd 6813 2ebd d8d7 233d
00000020: d71f 62bf 003c bbb8 9e59 8a3d ea23 06bd
00000030: f318 a93d 711a 1d3c b543 3f3d 378f 853d
00000040: f546 20bd bd5e 98be 40b2 5b3d c905 e33d
00000050: 4217 73bd 7011 41bd 3cc9 20be 19cd fb3d
00000060: 80e4 75bf 99aa 22be bdaf bf3d b240 6d3d
00000070: a64a 0a3d b2de a53d 9fc5 bf3d 4ab7 e1bd
00000080: 41e2 11bf 702a 013d 5421 a43d c8da bb3d
00000090: 19f8 be3c 81fe a6bc d79a a5bf fcdc a3bf
000000a0: 846c f13d 6c50 c53d 0888 45bc 2aba 1d3d
000000b0: 3c6c 6f3d ac70 b93d c276 9cbe 4641 63bd
000000c0: 6e42 1a3d c0fe 323d c893 193e caae c73e
000000d0: 2c06 0e3c da9a 0e3e 7e3f 993d 4db2 8cbf
000000e0: 2a11 ff3d 884f a1be cdbd e93d 1259 5abd
000000f0: a77d 9cbf e45f 6bbf 16b7 5f3d 7e60 1e3d
00000100: 1ef7 0fbf 2663 063e 76eb 8cbe e09e 123d
00000110: e012 f63d 08c4 d6bc 5014 f2be e2e2 e83d
00000120: 31d0 b83c 69ee c3bc 8478 d63d 9383 d2bc
00000130: 28ca ebbc 5287 acbc 50c0 053e 679c e2bd
00000140: 10bc c7be 51c7 5ebd 60af fd3c 9df8 5e3d
00000150: 25e5 123d 03bc c53d 3ffe f03d 6364 13bd
00000160: fc89 bb3d 1435 92bc 4a85 353d 24aa d1bc
00000170: 0629 cf3d 1dcd d6ba c926 9e3c 8d84 c63c
00000180: e00a f7bc a007 fabb d466 2c3d 59d5 bf3d
00000190: 2f98 5abd b934 02bd cd98 6d3e 602e 243b
000001a0: 7d25 7d3d 88b4 7e3d 581a 13bf ceed 903d
000001b0: 69e2 87bc 031e 2a3d ceb3 873d 6c81 a138
000001c0: ca57 c93d 4473 db3c 002b 08bd 799f 09bf
000001d0: ac3a 8bbc acd0 bfbc 8bbe 68bf 5e4f 0bbe
000001e0: 6ed3 ed3d f18a 063e 50c8 d3bb c34f 453c
000001f0: 7eb6 143d 0a22 2b3d 4965 793d 28d9 403e
00000200: 049b c2be 4ea6 e53d 7998 bdbe b30c 173e
00000210: 01b0 88bf 005d 7b3e b4d2 b53c 590d e83d
00000220: 9efc c43d 4422 753c df98 30bd 4347 923d
00000230: e45c f1be 133a e23c 0de5 f73d 90a1 adbb
00000240: 456d c2be 5d88 ef3d aa3b b4bf e171 71bf
00000250: ed97 e93d 484d 0dbc 547b d73d 2386 31bf
00000260: 5dec c43d 7821 10bd 1bf5 0a3e 9816 0b3b
00000270: b73e a0bf b6b1 473d 2b34 a3bb b154 66bb
00000280: d6e1 053e 4290 c1bc c882 593e f2a1 20bd
00000290: 2cc6 cd3d b84f 373c c385 843e ba42 013e
000002a0: 1904 ec3d 86d9 c1be ccae 163e 67d6 823d
000002b0: c650 ed3d 4ccf 383d 39c9 863d 0494 e13d
000002c0: 9115 033e dc5b 0e3d b2af 1a3d cc1e 10bd
000002d0: 60c3 493d a1d8 853d dea5 ed3b b6ad 4f3d
000002e0: 6d7c e83d feb8 9ebe 1c54 1cbf 2005 4fbd
000002f0: 6aa6 00bd 7225 94ba 09cd 093e 65d4 8e3d
00000300: ee1b 213d 9916 973d 1699 8a3d d382 e83d
00000310: 402b 583d d58e 7b3d e88c bf3c a956 933d
00000320: b44c 823c 2813 5dbd 7352 c3be 0cbb 1ebf
00000330: 23d1 d93d ca54 793c 37c8 2bbd 009b 483d
00000340: c593 633d 4d83 b9be 0eb6 04bf c67d 1b3d
00000350: 6afd 373d 083e 933d de02 0ebd d21d 553d
00000360: 395a 883d 060f 2f3d d84c 203d aeec 3c3d
00000370: 04fe dbbc da7b 343e 5032 563c 7a1a a33c
00000380: 402e 51bb fe2f bc3d 89cf 9d3c 2e6c 653d
00000390: 4430 0c3d 28ac 993d ecf9 1c3d e3a2 ea3d
000003a0: 1e7d 95bf b176 b23d 77a8 373e fa24 2d3d
000003b0: 4b86 19be ce00 553d 6d64 4d3d dc90 483d
000003c0: a004 17bb 3cf6 42bd 3be5 d23d 8c88 0cbd
000003d0: 37ff 10bf e7cb b03d e8f9 b439 f8a6 f1bd
000003e0: b8b8 2c3d 3cb5 053e 3096 47bd 909e 92be
000003f0: ad81 723c fea1 fe3c b069 973d 05c0 f13d
0.12545602 -0.27917197 0.095335394 0.0060926513 0.03242496 -0.040932305 -0.042498976 0.040000767
-0.88329834 -8.928031e-05 0.06755374 -0.032749094 0.08256712 0.009588824 0.04669543 0.06521457
-0.03913017 -0.2975978 0.05363679 0.11085088 -0.059348352 -0.04713577 -0.15701765 0.12294979
-0.9605179 -0.1588539 0.09359691 0.057923026 0.033762597 0.080991164 0.09363865 -0.11021288
-0.5698586 0.031534612 0.08014169 0.091725886 0.023311662 -0.020385029 -1.2937878 -1.2801814
0.11788276 0.0963448 -0.012056358 0.038507618 0.05845283 0.090546936 -0.30559355 -0.05548217
0.03766101 0.04369998 0.1499778 0.3900054 0.008668464 0.13926259 0.07482813 -1.0991913
0.12454446 -0.3150599 0.11413155 -0.0533076 -1.2225846 -0.9194319 0.054617964 0.03866624
-0.56236446 0.1312376 -0.27523392 0.035796046 0.12015319 -0.026216522 -0.47281122 0.113713995
0.02256021 -0.023917394 0.10472205 -0.025697505 -0.028782919 -0.02106062 0.13061643 -0.11064988
-0.39010668 -0.0543893 0.030967414 0.054436315 0.03586306 0.09655001 0.117672436 -0.035984408
0.09157178 -0.017847575 0.044316567 -0.025593825 0.101152465 -0.0016388033 0.019305604 0.024233127
-0.030156553 -0.0076303035 0.042090252 0.09366865 -0.05336779 -0.03178856 0.2320282 0.0025052056
0.06180333 0.062183887 -0.5746207 0.07076608 -0.016587453 0.041532528 0.06626092 7.701185e-05
0.098311976 0.026788361 -0.033244133 -0.5375896 -0.01699575 -0.023414932 -0.90915745 -0.13604495
0.11612593 0.1313894 -0.006463088 0.012042942 0.03630685 0.04178051 0.06088761 0.18832839
-0.38008893 0.11213361 -0.3703039 0.14750938 -1.0678712 0.24547195 0.022195198 0.11330671
0.096184954 0.014961783 -0.04311454 0.07142498 -0.47141182 0.027615583 0.12104235 -0.0052988008
-0.3797399 0.11695931 -1.4080708 -0.9431439 0.11405931 -0.008624382 0.1052157 -0.693453
0.09615395 -0.03518817 0.13570063 0.0021223184 -1.2519139 0.048753463 -0.004980584 -0.0035145695
0.13074431 -0.023628358 0.21241295 -0.039216943 0.10047564 0.01118844 0.25883302 0.1262311
0.11524219 -0.3786127 0.14715117 0.0638855 0.11587672 0.04511957 0.06581349 0.1101456
0.12801196 0.034755573 0.037765212 -0.03518562 0.04925859 0.06535459 0.007252439 0.050702773
0.11351857 -0.31000513 -0.6106584 -0.050541997 -0.031408705 -0.0011302663 0.13457121 0.06974105
0.039333276 0.07377357 0.0676748 0.11353078 0.05277562 0.061415512 0.023382619 0.071942635
0.015905716 -0.053973347 -0.3814884 -0.6200416 0.10635593 0.015217969 -0.041938987 0.048975945
0.055560846 -0.36232987 -0.51840293 0.037961744 0.04491941 0.07189566 -0.034670703 0.052030392
0.066578336 0.042738937 0.039135784 0.046124153 -0.026854523 0.1762537 0.013073519 0.019910086
-0.0031918436 0.09188841 0.019264 0.05601137 0.034225717 0.07503539 0.03832428 0.114568494
-1.1678808 0.08714045 0.17935358 0.04227159 -0.14992635 0.05200272 0.0501446 0.048966274
-0.0023043528 -0.04759811 0.102976285 -0.03430991 -0.56639427 0.08632641 0.0003451847 -0.11799425
0.04216835 0.13057417 -0.048727214 -0.286366 0.014801425 0.031083103 0.07393205 0.11804203

layer3.bias f4 [5]
00000000: 1b73 aab7 7e45 b0bc b5f3 c9bc 04a2 69bc
00000010: 7e4f 703d
-2.031918e-05 -0.021517511 -0.024652341 -0.014259819 0.05866956
