DDQN_Champion1.pth (torch, 176270 bytes, 6 tensors)

layer1.weight f4 [128, 70]
00000000: c9c5 513d f9fa ed3d 08bc 90bd a0a6 07bd
00000010: dec8 83bd 07c3 ac3d fe61 ba3b de66 163e
00000020: b948 48be 13ed 2cbd 462a 10be 4e75 11bc
00000030: 04a0 80bd 6f9f 10be 3d07 3a3b a4e1 c63d
00000040: 6ebc 903d fbc5 f53d 2f47 0ebd 0c00 b338
00000050: ded8 d73d d0fd 1a3e d71b a43c 6642 de3d
00000060: ba71 0ebd 92c7 113d 6962 243e d744 e3bd
00000070: c786 bdbc d581 9a3c 6877 19bd 7635 b93d
00000080: 2fd7 9bbd 13fd 32bb 5ec9 04be 2d12 75bd
00000090: 7eb2 fcbc 6bbf 123e d8a2 533d b71f 7d3d
000000a0: 7fe8 6f3d 02f1 e3bd 7855 883d 1b14 87bd
000000b0: 94c8 8dbd 9060 8fbd 9241 d13d b9ec ed3d
000000c0: 05e8 02bd 398c 1b3d 66a4 e63d f5c9 073e
000000d0: c076 543d 4ccd 013d 2f2b fa3d f31b 23bd
000000e0: ce30 183d c4ca a1bd c048 8cbd 8136 87bd
000000f0: d0b9 b03d a5ab 803d d1e7 b4bc e90c 5b3d
00000100: 5431 b63d 4254 7a3c 5131 1a3c 922d abbc
00000110: 96d9 bc3d 359e b63c aaa2 bcbd 3769 33bd
00000120: 7667 403d 8dd0 ca3d 0503 d53d 5cfc d73d
00000130: 83dc c23c e1db d4bd 3d25 343c 2f23 99bd
00000140: 5920 e4bd d97c d93d 7d1f ba3d 7e2d f4bd
00000150: 1a44 b73c c9f1 a4bc 8120 a1bc 1f1a 60bd
00000160: f743 3c3d 59fc 90bd 7478 333d cb93 773d
00000170: aa3b af3d d60d 373d 2b45 f2bd 34ca 9ebd
00000180: 8e72 743d faee cc3c 80f3 bebd 62f3 8cbd
00000190: 7e47 e63d 65f0 a43d 8376 55bd b56e f6bc
000001a0: fe2d e9bd d6ca 0cbb fd55 b8bd 9bd0 bcbd
000001b0: 8bcc d7bb 0003 933c f17d 48bd a73f 913d
000001c0: bdf5 94bd ce1b de3d e8bf a73d d26b cebd
000001d0: c0b0 f3bc 51b9 b03b 38db 8e3c 8939 e83c
000001e0: 911e 403d ba99 ea3b 87df 6ebd 36a8 673d
000001f0: c2ce eabd 9c15 91bd 151b f5bc 5679 6ebd
00000200: 3344 2bbd 1aa1 c8bd ac46 d0bc ae4b d13c
00000210: b777 9fbd 5afe c8bb 5d3a af3d 544f 49bc
00000220: a4b2 593b eaef 28bc 6e28 c63c 80a4 9b3d
00000230: 26f9 2d3e 65bb 073e 29ad 173e 3784 4a3d
00000240: c0d9 05be 98ab 81b9 3083 ae3d 34fa 643d
00000250: eefe 36be e856 2abe 6019 50be 7dbc 81bd
00000260: 2594 023d ec39 9c3d 1c6a f83d 4b9b 1e3d
00000270: 056c 873d 2780 adbc c122 983c 159c 083c
00000280: 722e b33c 5407 083d 57c2 55bd 4c67 b2bd
00000290: 539e 2dbd 9c2e a03c 18f5 2e3b 9eda d63b
000002a0: e47c 50bd 1c60 713d d79f d53d ba85 5fbd
000002b0: c1ae f93d fb53 cd3d a0a3 d7bd 9379 073e
000002c0: f69d 3c3d 1e71 1fbd edfc c43d 3978 73bd
000002d0: 4d77 8e3d 4908 5f3d 31a2 0b3e 83d4 be3d
000002e0: 3e74 c83d d98d 843d df0f 753a 0f0e d23c
000002f0: f905 c1bd 7f10 e43d 0af7 113e 5d89 a73d
00000300: 24ab a3bd 58d6 bf3c 642e 1bbd 69d0 5fbd
00000310: ec22 57bd 2770 863d c2f9 94bd d096 2e3b
00000320: 4b09 2c3d 0e65 c03d 1d6b 40bd f507 85bd
00000330: 8358 30bd e68d e43d c609 27bd 56e5 e43d
00000340: 351f 7a3d da54 4abd c30f ec3c 3206 c63b
00000350: 1a8a 0f3d a04b d0bc c68d 3c3d d9b4 373d
00000360: ac26 31bc 3eec 06bd 1730 163e c060 b2be
00000370: 36cb d33d 529f 8b3d 5033 943d 44c4 2cbd
00000380: 0e4b 97bd 6a61 0f3e c43d 02be 16d1 423e
00000390: 8f67 10bd acee 3f3c 57dc 3b3e 605e 033e
000003a0: 7d93 443d b615 5b3d aa82 633e 94da afbd
000003b0: 0d96 aa3d 0ac8 933d 73a1 abbc e47f 923d
000003c0: 450e 603d 5ce5 663e 6a73 c7bd b08c f73c
000003d0: fd07 e03c b8e3 afbd 7726 043e 5529 d8bd
000003e0: 63c3 3e3e aa0a 98bd a9d8 06bd 8e7e 13bc
000003f0: 553f fa3d b1f0 30bc 6ac9 0ebe d37d ff3d
0.051214013 0.11620135 -0.07067114 -0.03311789 -0.06434797 0.08435636 0.005687951 0.14687678
-0.19558991 -0.04221828 -0.14078626 -0.008878065 -0.062805206 -0.14123319 0.0028385662 0.09711006
0.0706719 0.120006524 -0.034735855 8.535394e-05 0.10539411 0.15135884 0.020032806 0.10852508
-0.034776427 0.035590716 0.16053165 -0.110971145 -0.023135556 0.018860737 -0.03746739 0.090434
-0.076094024 -0.0027311489 -0.1296744 -0.059831787 -0.03084683 0.14330833 0.05166897 0.061797824
0.058571335 -0.11129953 0.06656927 -0.06595632 -0.06923023 -0.0700084 0.10217585 0.11617417
-0.031959552 0.037975524 0.11261825 0.13260634 0.05187106 0.031689927 0.12215268 -0.039821576
0.03715592 -0.079000026 -0.068498135 -0.06602193 0.08629191 0.062827386 -0.022083195 0.05347911
0.08896127 0.015278878 0.009411172 -0.020895753 0.09221189 0.022292236 -0.09210713 -0.043801513
0.046973668 0.09903059 0.104009666 0.105461806 0.023786789 -0.10393501 0.010995206 -0.07477414
-0.11138982 0.10619516 0.09088037 -0.119227394 0.02237134 -0.020134823 -0.01966882 -0.05471241
0.045963254 -0.070793815 0.043816045 0.06044368 0.08556302 0.04469093 -0.11829599 -0.07753411
0.05967956 0.025016297 -0.09323788 -0.06882359 0.11244105 0.08053664 -0.052114975 -0.030082086
-0.113857254 -0.0021483204 -0.09000776 -0.09219476 -0.0065856627 0.017945766 -0.048948232 0.07092219
-0.07273433 0.10845147 0.081909 -0.10079159 -0.029747367 0.005393185 0.017438516 0.028347747
0.04690415 0.007159439 -0.05831864 0.056556903 -0.11465217 -0.070842 -0.02992014 -0.058221184
-0.041813087 -0.09796353 -0.025424324 0.025548782 -0.07786506 -0.0061338367 0.08556054 -0.01228698
0.003321805 -0.010311106 0.0241892 0.07599735 0.16989574 0.13255079 0.14812149 0.049442496
-0.13071346 -0.00024732645 0.08521116 0.055902675 -0.17870685 -0.16634715 -0.2032218 -0.063347794
0.031879563 0.07628235 0.12129614 0.038722318 0.066124 -0.021179272 0.01857126 0.008337994
0.021872733 0.033210114 -0.05218729 -0.087111086 -0.042387318 0.019553475 0.002669638 0.006556823
-0.050900355 0.058929548 0.10430878 -0.05457089 0.12191535 0.10025784 -0.10529256 0.1322997
0.04604908 -0.038926236 0.09618554 -0.059440825 0.069563486 0.05445126 0.1363609 0.09317877
0.097877964 0.06472368 0.0009348373 0.02564147 -0.09424967 0.11135959 0.14254394 0.08180497
-0.07991627 0.023417637 -0.03788604 -0.054642115 -0.05252354 0.0656436 -0.072742 0.0026640184
0.04200105 0.09394275 -0.04697715 -0.06495658 -0.04305316 0.111598775 -0.040780805 0.11176555
0.061064918 -0.049397327 0.02881611 0.006043219 0.035043813 -0.025426686 0.046033643 0.044850204
-0.010812443 -0.03294014 0.14666782 -0.3483944 0.10341494 0.06817497 0.072363496 -0.04217936
-0.073873624 0.14002004 -0.12718874 0.19025072 -0.03525501 0.011714619 0.18345772 0.1282897
0.04799222 0.053487502 0.22217813 -0.08586612 0.08329401 0.07215889 -0.020951008 0.071532995
0.05470111 0.22548431 -0.0973881 0.030218452 0.02734756 -0.08588356 0.12905298 -0.105547585
0.18629222 -0.07423909 -0.032921467 -0.009002341 0.12219111 -0.010799573 -0.13944021 0.12475171

layer1.bias f4 [128]
00000000: c901 883d f32e bebd ae22 113e 8521 4ebd
00000010: 6e6a 533d c35e 263e 78b8 de3d 67de 853d
00000020: aa60 d13d 09d4 1e3d caee f63d ebca 7e3d
00000030: 472b a0bd 6430 d83d eb4e b8bd ac87 483e
00000040: 23f6 d73b 18f2 a23d e759 a53d 2de6 d33d
00000050: b1cc a63d c77f 57bd 0cd1 fa3d f72c bb3c
00000060: 9329 38bd 65b2 9dbd 91d6 903d 2a87 153e
00000070: 48bb 8cbd 3cfb c53d 2b42 de3d 1924 57bd
00000080: 3d95 ad3d 7ebc 81ba e4f8 983c a840 743c
00000090: 1b02 c73d 1cb5 39bd c346 453d 0f25 38bd
000000a0: 274a 003d dff3 8e3d 8734 4bbd d7e8 43bb
000000b0: e3cf 853d 10ba 813d 6a3d 16bd a956 023e
000000c0: ca49 f0bc 09e1 81bd f516 ef3d 372b 52bc
000000d0: 6b8e 983d d75c fb3d 6d7e 3abd 04d5 ba3d
000000e0: e609 293e c318 ad3d 5cf3 263e 5e3b e63d
000000f0: e311 153e 2658 213e a738 933d 0c83 bc3d
00000100: 3380 f63d 1da2 0b3e abfd 1f3d fcb6 a63c
00000110: 851d 2e3c 5e9a 803d bf6c bc3d 683f 19bc
00000120: 3854 35bd e61d af3d 286c 583d 960b a13d
00000130: fa32 063d 7d2f 9bba 6146 58bc 602e 1f3e
00000140: b490 9cbc f80a 04bd c34b 203d 1d94 d93c
00000150: 63e0 0c3e f9d3 b23d 1f0c 0a3d 919f e7bd
00000160: 6432 67bd 4fb6 ac3d 1c90 863c ed42 1cbc
00000170: 2be4 f63c 1837 033e f1e3 703c c433 163e
00000180: ba93 233e 6f4b 943d e38a d83d 6b50 e53d
00000190: c97b d03d 1a71 d03d b7da ecbd 8428 d13d
000001a0: 7aff ee3d 85a1 b63c 646d a23b 6d31 0b3d
000001b0: 8044 c0bd 935d 593c dcbe e73d c16b e43d
000001c0: d6bf 283e bf8c 53bc 253e bf3d 5532 0d3d
000001d0: e3ca 0ebd d0b5 27bd 35af a3bd b2c4 a83d
000001e0: 2ac6 263d 3336 9c3d 52cb 70bd 3f3f 573c
000001f0: d3d0 f93d 2753 c1bc 3e44 293e 3d02 82bd
0.066409655 -0.092862986 0.14173386 -0.050324935 0.05161517 0.16247086 0.10875028 0.065365605
0.10223515 0.03877643 0.12057264 0.062205236 -0.078207545 0.10556105 -0.089994274 0.19583005
0.006590621 0.07956332 0.08073788 0.10346637 0.081445105 -0.052612092 0.12246904 0.02284859
-0.044961523 -0.07700042 0.07072175 0.14602342 -0.068716586 0.0966706 0.10852464 -0.05252466
0.084757306 -0.0009898094 0.018673368 0.014907993 0.097171985 -0.045338735 0.048163187 -0.044957217
0.031320717 0.069801085 -0.04961064 -0.0029893422 0.06533792 0.06334317 -0.036679663 0.1272837
-0.02933206 -0.0634175 0.116743006 -0.012827686 0.07449039 0.12273567 -0.045530725 0.09122661
0.16507682 0.084519885 0.16303772 0.11241792 0.14557604 0.15756282 0.0718854 0.09204683
0.12036171 0.1363606 0.039060276 0.020350926 0.010627155 0.06279443 0.09200429 -0.009353496
-0.04426977 0.085506245 0.05283752 0.07863538 0.03276346 -0.0011839714 -0.013200373 0.15545034
-0.019111969 -0.032237023 0.039134752 0.026559884 0.13757472 0.08731837 0.033702966 -0.11309732
-0.05644454 0.0843321 0.016426139 -0.009537441 0.030138096 0.12813985 0.014702783 0.14668185
0.15974322 0.0724095 0.105733655 0.11196979 0.1017986 0.101778224 -0.11565154 0.10212806
0.11669822 0.022293815 0.004956888 0.033982683 -0.09388065 0.013266939 0.113157004 0.11153365
0.1647943 -0.012911974 0.09338025 0.03447183 -0.034861457 -0.040944874 -0.079924025 0.08240642
0.040716328 0.07627525 -0.05878765 0.013137638 0.12198033 -0.02359922 0.16529939 -0.06348083

layer2.weight f4 [256, 128]
00000000: 6d77 b2bb dec7 703d 2e00 023e ef4c 403e
00000010: 2b7b 2c3e 14b8 59bc 93c7 883c e66a b33e
00000020: c100 a83c 4493 393d 4130 b23d e9d7 ba3c
00000030: 6381 5c3d 5fae bd3c b43c af3d 4177 3f3c
00000040: 0bc9 9f3d 0a6e 333e 7393 eb3d 7f08 ecbc
00000050: ec3a 9fbd 956f 973c 2f74 6c3d ad34 bb3d
00000060: 1a4a 1a3e 193b 8e3e 27e2 f73d f3b0 aebc
00000070: ae5e f03d c694 1ebb 0705 acbc e16e db3d
00000080: fd57 8aba f839 5f3c 64cd 55bd 8a6e 043d
00000090: d8ca 303d e98e f53d c164 b0bd 697a e93b
000000a0: 337c 8ebd 9da1 213b 64e9 f23c 1b59 263d
000000b0: a9d7 cb3d 3982 cb3d 20dd 853e 6274 f53d
000000c0: 4a3c a83d 0f7d 00bc 5f7a 123e cd55 c63b
000000d0: c35c 353e 3d35 223c 756f 5b3e 00d5 e33d
000000e0: cdfb 0c3e 640e 8b3b 9e64 0abd b2b6 973d
000000f0: 915b 303d 117a 0a3e e5f4 f1bc 2e1e 833c
00000100: cfaa 9f3d 1f73 8abb 4652 0f3e d11c 693d
00000110: 6450 973d a125 cf3d 70f2 d63d 0c07 4a3d
00000120: ee48 e8bd 4ee1 a63d 6656 ae3d c99d bc3d
00000130: e0ac 62bc b1a7 a7bd efaa 0f3e 8792 b7bc
00000140: 3386 aebc 88dc fd3c 745b 593d 44ec 003e
00000150: 1b34 123c f8ff 0abc eed2 1d3d c432 533d
00000160: cddf 3d3d 11d1 063e e718 ad3d 4da1 fb3d
00000170: 5048 bb3a 351d 123e f3c5 de3c 9a40 063e
00000180: 72f2 cf3c 79bf b73d 51b0 1cbe 9be9 093e
00000190: d742 0d3b 348c c23c ddad 1bbe 7810 743c
000001a0: e06a c03d ed15 45bd 0f0c b03d 4dd4 623c
000001b0: ed84 693c d08b a2bd a970 b63d 611b 023e
000001c0: 8b96 efbb eaac 1f3d e718 5fbe 1089 873d
000001d0: 017c 8c3c 856a 343e e4fc d4bc 3eca b13d
000001e0: 92b4 d9bb ed6f 3e3a dc8f 2fbc 46a7 af3d
000001f0: 378a aa3d 181e 0d3e 497c 9e3d 1788 003e
00000200: 2679 0fbd 308e 0c3c 227f 33bd 6f46 2bbd
00000210: bb91 75bd 9c6f 77bd c111 a23b dee9 68bc
00000220: e12f 86bc bed9 2f3d 6681 c5bd f26f 91bc
00000230: 0155 10be 14ca b33d 5a6d 9a3d 6f76 37bd
00000240: f73b 8bbd 52f8 1ebe 9f80 723d 7390 313c
00000250: 813e a7bd 12e7 56bc 4a27 7f3d 841b 7e3b
00000260: 3311 a8bd 909f cbbc 1417 b43d 1888 993d
00000270: e029 2c3c a1c4 babc 03a4 083c 1523 d03d
00000280: f8d1 073d bb66 96bd a8bf 3e3d 9694 633d
00000290: 7fce 99bd da0e 58bd a970 303d 2fdb 3f3d
000002a0: 189f 9fbd 920f 8d3c 5ca3 3a3d 5231 4a3c
000002b0: 3c41 2e3d b6b4 c13c bc46 1fbe e3a2 423d
000002c0: 5af6 f5b9 96b6 fd39 6e78 fbbb 264b 83bc
000002d0: 5af4 653d 1e91 29bd 6204 2fbd 2ed8 983d
000002e0: ff25 4e3d b66a ad3d 8ee9 01bc 2a7b 16bd
000002f0: fca0 943d c00e 70bd 39ef 283d 7bc3 8b3d
00000300: 7fe6 56bd 3238 00bc bb2d 723d 33ee e9bb
00000310: e203 a9bd c67a cebc b057 c8bd 9ce4 8cbc
00000320: ff4b 903d f729 99bc 6d69 a3bc b832 1c3c
00000330: 073a 43bc eca0 80bc f0f5 c7bd e8d9 fc3b
00000340: 3cd8 55bc 5558 50bc 3579 bebc 9b59 ff3c
00000350: 3f1e 0fbd def5 58bc fa40 7bbc bd08 7f3d
00000360: e3c2 173d b864 013d 91ca abbb be43 59bd
00000370: dde4 c13b 7664 34bd 6b33 fd3a bfd5 a83d
00000380: 97a8 69bc 1a96 c13d 5fac 93bd 8175 bd3d
00000390: 88e3 093d 2b06 29bd 3fd2 28be 99c6 2bbd
000003a0: ddc2 273d 02ce ae3d 7b97 91bd 42c7 39bd
000003b0: c9ca 003d 34a4 9bbc 2756 82bd 58cb 1fbd
000003c0: 40d1 ab3c 599c c1bd ff4d 9fbc d2b1 623d
000003d0: 8981 2c3d a57d 07bd 7d72 a83d 6609 023c
000003e0: 1c1c 4b3d e59e 89bc 2648 24bd 4595 9d3d
000003f0: 0367 abbd a9da ae3c b8a4 3fbd ff0f 81bd
-0.0054463656 0.05878436 0.12695381 0.18779348 0.1684386 -0.013288517 0.016696727 0.35042495
0.020508172 0.04530646 0.0870061 0.022808032 0.05383433 0.023154436 0.085565 0.011686147
0.07802018 0.17522445 0.11502733 -0.028812645 -0.0777491 0.018485824 0.05772799 0.091409065
0.1506733 0.27779463 0.12103682 -0.02132461 0.11736809 -0.0024197563 -0.020998491 0.10714508
-0.0010554787 0.013624661 -0.05219783 0.03233198 0.043162197 0.119901486 -0.08612967 0.007125188
-0.06957283 0.002466298 0.029652305 0.04061232 0.09953243 0.099369474 0.26145267 0.11985089
0.08214624 -0.007842316 0.14304493 0.0060527087 0.17711167 0.009900388 0.21429236 0.11124611
0.1376793 0.004243659 -0.033787362 0.07407893 0.043056075 0.13523127 -0.02953572 0.016005602
0.07796251 -0.0042251493 0.13996229 0.056912247 0.0738838 0.10114599 0.1049546 0.049323127
-0.11342035 0.08148442 0.08512573 0.09209783 -0.013835162 -0.081862815 0.1403005 -0.022408737
-0.021304226 0.030988947 0.053065732 0.12590128 0.008923556 -0.008483879 0.038531236 0.051562086
0.04635601 0.1316569 0.08452015 0.12286625 0.0014288519 0.14268954 0.027193999 0.13110581
0.025384162 0.089720674 -0.15301634 0.1346802 0.0021554732 0.023748495 -0.15203042 0.014896505
0.09395385 -0.048116613 0.0859605 0.013844562 0.014252883 -0.07936823 0.08908207 0.12705757
-0.0073116473 0.038983263 -0.21786843 0.066179395 0.017148973 0.17618759 -0.025999494 0.08681153
-0.00664384 0.0007264603 -0.010715451 0.08576827 0.08327144 0.13781011 0.07738549 0.12551914
-0.035027646 0.008578822 -0.043822415 -0.041815218 -0.059953433 -0.060409173 0.004945964 -0.0142159145
-0.016380252 0.042932265 -0.096438214 -0.017753575 -0.14094926 0.08778778 0.075403884 -0.04479068
-0.06798547 -0.15524414 0.059204694 0.010837662 -0.081662185 -0.013116615 0.06229333 0.0038773725
-0.082064055 -0.024856359 0.08793464 0.07496661 0.010508031 -0.022798838 0.008339885 0.10162941
0.033159226 -0.07343813 0.046569496 0.055561624 -0.07510089 -0.05274854 0.04307619 0.04683989
-0.077940166 0.017219339 0.045565948 0.01234086 0.04254268 0.02364574 -0.15554327 0.047518622
-0.00046913588 0.00048391958 -0.0076742684 -0.016027045 0.056141235 -0.04139816 -0.04272879 0.07463108
0.050329205 0.08467619 -0.007929219 -0.036738552 0.07257268 -0.058607817 0.041243766 0.06824394
-0.052465912 -0.007825898 0.059125643 -0.0071389913 -0.08252694 -0.025205027 -0.0978235 -0.017198853
0.07045745 -0.018696768 -0.019947732 0.009533577 -0.01191569 -0.015701734 -0.09763706 0.007716406
-0.013052043 -0.0127163725 -0.023251155 0.031170657 -0.034940954 -0.013242213 -0.015335316 0.062264193
0.037051093 0.031590194 -0.0052426537 -0.05304312 0.005917175 -0.04404112 0.0019317692 0.08243894
-0.014261386 0.09452458 -0.072106116 0.09250928 0.033664256 -0.041265648 -0.16486453 -0.041937444
0.04095732 0.085353866 -0.07108971 -0.045356043 0.03144339 -0.018999197 -0.063640885 -0.039012283
0.020973802 -0.09453649 -0.019446371 0.055345364 0.04211572 -0.03307881 0.08224962 0.007936811
0.049587354 -0.0167994 -0.04010787 0.076944865 -0.08369257 0.0213445 -0.046787947 -0.06301879

layer2.bias f4 [256]
00000000: f972 0b3e 463a 993c ac8e e23d 2aae 8bbc
00000010: 26a2 463d 1750 f2bb a6e7 a33d 5a15 163b
00000020: 76f8 f83c 5818 44b8 d989 be3d e504 8cbd
00000030: ce92 5a3d 2d57 8f3b 29af 23bd 5aaa f13d
00000040: 0572 4abd 8e02 6abc b366 96bd ae22 e1bb
00000050: 443f 2f3c 5662 b63d fdd8 b6bc 1ea3 2f3d
00000060: 02a9 2f3d e29a 0a3d 07c7 ec3d 256f 213d
00000070: f81d 2fbd cf29 f03d 96a7 c23d 699e 163c
00000080: 09e4 893d af74 b3bc eb45 573d 5064 54bd
00000090: 421b 033d 9b82 873d 440f edbb 2db9 1c3d
000000a0: 52e1 383d f6c0 c93d 2583 8ebd bbfd a2bc
000000b0: d8cf 313d 4cd4 233d 7d39 c3bc be24 9bbd
000000c0: 7662 85bd 7d8b c8bc afd1 733c 73d8 883c
000000d0: d71b 983d 74f5 9f3d 2fdf d03d 5b5a a73d
000000e0: a3c7 053e 8cd4 993d 0cce d83b 9472 8ebd
000000f0: 22fb 003c 79fa b43d f681 fbbb 293e 26bd
00000100: d75f 4cbd 16dc b43d c2bd 8bbd d8c8 7c3d
00000110: 0db1 2fbd 650c 8d3d dbe8 b3bc bf22 e63d
00000120: 3972 c93d 82b3 493c 4f3b 743c e8b7 9fbd
00000130: 2e18 5abd 5cc1 11bd e53c e93d 6bd9 4fbd
00000140: 6191 7fbd 471f c03d f1b2 b23d 0384 e43c
00000150: 89c6 843c 428a 7d3c e3b9 f8bb ddf7 313c
00000160: a455 023d e9b6 813d 07e2 eebb c809 443d
00000170: dd99 d63d 393a 96bb 9ef6 443d 7946 da3d
00000180: 5942 65bd 41cf 8abd a694 4c3d f51c 31bc
00000190: 9791 4ebd 75f3 10bd ac99 3cbd 4e7b 303d
000001a0: ceea a53d c922 5e3d e68e 10bd d834 983a
000001b0: fe0f 6ebc e7ca 8c3b 9254 453d f23c 4a3d
000001c0: 243b 3e3c d25a ac3d 1a06 6c3d df20 96bc
000001d0: 03f0 ae3c 2ac5 71bd 336f 86bc 5293 2ebd
000001e0: cfcd b5bc c390 30bd b152 adbd 9b81 023c
000001f0: ffa4 b2bc 0778 c2bc 60cd 6fbd 7e88 293d
00000200: e883 88bd 01d7 a03d 3c96 c9bc d489 52bd
00000210: b943 973c 979b dd3b 8cab 3fbd 29e8 18ba
00000220: a563 4f3c befb 843d b9cd dd3a fbaa b33d
00000230: 158e 463d bdce 12bd 9051 d33c d08e 8abd
00000240: ee86 953d 6026 ffbc 4c24 98bd 03e8 48bb
00000250: 6bc6 953d 1552 693d ca72 a93c 2f32 20bd
00000260: 06be 023e 2180 333d b557 e43d 0cae 4cbd
00000270: 9510 123d 0d75 8e3c 7634 35ba f57d 663d
00000280: 0d88 2c3d 2b5e 7abc 10c9 583d 341c 68bd
00000290: 81bb 973d e796 55bd 2fe1 e53d b078 d63d
000002a0: add7 9d3c 988a 2a3d 4988 1e3c bad3 13bd
000002b0: 95d8 793c 6347 883d 60ba 4d3d db10 4d3d
000002c0: 4266 ae3d c737 6b3d aeb9 8bbd b52f a9bd
000002d0: 9056 d13a ddb4 84ba aa67 1c3c 9a8c c5ba
000002e0: 49d3 7d3d 89c4 0e3d b5a1 403c 0a3f 4b3c
000002f0: 99a1 91bd ccb3 133d 6f12 c03d 0bbc cf3d
00000300: 174d e93c 136c 453d 198b b13d eae1 cd3c
00000310: dd52 943d a6f3 ed3d 666f 953d f335 9b3c
00000320: 223a 3e3d e627 5abd ab9a 33bd 4207 4c3d
00000330: 1967 913d 1c49 22bd cdee 3abc 8ccc a7bd
00000340: 674e 9c3d c233 31bc b883 debc 6330 08bd
00000350: cee6 efbb 4cf6 cd3d e25e d33c 27cc 0e3e
00000360: 5ed0 433d 3cb8 013e fd71 cd3d b3bd 9b3d
00000370: a025 88bc fb81 ab3d 9d4d 73bd 3c38 e2bb
00000380: ee29 97bd b834 963c 63e1 cb3d 872e a6bc
00000390: dba5 9ebd 05ab 5b3d 916a b0bc dadc a53d
000003a0: 6487 a0bd 011f af3d 1e02 413c 149e efbc
000003b0: 42fa 5c3c a758 db3d b015 45ba 5767 db3d
000003c0: c84c ad3c 6a62 f5bc 2688 ef3d d664 4c3c
000003d0: 6fd5 183d a708 14bb f79d 813b b7e7 00bd
000003e0: d16c 48bd 075e 5b3d 53a6 4c3d fe9b df3b
000003f0: 84fc 413d af30 53bd 3f61 56bc 4814 da3d
0.13618077 0.018704545 0.11062369 -0.017050821 0.04849448 -0.0073948014 0.08003168 0.002290091
0.030391913 -4.6752713e-05 0.09303636 -0.06836871 0.05336266 0.004374406 -0.039961968 0.1180007
-0.049425144 -0.014282836 -0.07343807 -0.006870589 0.010696236 0.08905475 -0.022320265 0.04288017
0.042885788 0.033839114 0.11561399 0.039412636 -0.04275319 0.11726724 0.09504621 0.009193041
0.067329474 -0.021906225 0.052556913 -0.051853478 0.032008417 0.06616708 -0.007234486 0.038262535
0.045136757 0.098512575 -0.069586076 -0.019896379 0.043411106 0.039997384 -0.023831123 -0.075753674
-0.065129206 -0.024480576 0.014881535 0.016704774 0.07427185 0.07810488 0.10198819 0.08171531
0.13064437 0.07511243 0.0066163596 -0.06955448 0.007872375 0.08836836 -0.0076754047 -0.040586624
-0.049896087 0.088310406 -0.06823303 0.061714977 -0.04289346 0.0688713 -0.02196162 0.11237096
0.09836239 0.012310864 0.014906718 -0.07798749 -0.053245716 -0.035584792 0.11388568 -0.050744455
-0.062394504 0.09380966 0.087255366 0.02789498 0.01620795 0.015474858 -0.007590519 0.010862318
0.031819955 0.063337155 -0.007290128 0.04786089 0.10478566 -0.0045845774 0.048086755 0.10657973
-0.055971477 -0.06777812 0.04994645 -0.010810127 -0.050431814 -0.03538843 -0.04604499 0.043086343
0.08101426 0.054232392 -0.03529253 0.0011612428 -0.01453018 0.004296649 0.048176356 0.04937453
0.01161078 0.0841576 0.057623006 -0.018326221 0.02135468 -0.05902592 -0.016410446 -0.042620964
-0.022192864 -0.043106806 -0.08463038 0.007965471 -0.021807192 -0.023738874 -0.05854547 0.041389935
-0.06665784 0.07853509 -0.02460777 -0.051400974 0.01846491 0.0067629325 -0.04679446 -0.00058329344
0.012658034 0.064933285 0.0016922272 0.08772846 0.048475344 -0.035841692 0.025795728 -0.067655206
0.073011264 -0.031146228 -0.07428798 -0.0030655868 0.07313236 0.056963045 0.020684619 -0.03911036
0.127678 0.043823365 0.11149541 -0.04997067 0.035660345 0.017389799 -0.00069124193 0.056272466
0.042121936 -0.01528124 0.052926123 -0.05666752 0.074088104 -0.052145865 0.11224591 0.10472238
0.019267881 0.04163608 0.009676048 -0.03609059 0.015249391 0.06654241 0.05022657 0.050064903
0.08515598 0.05742624 -0.06822525 -0.082610525 0.0015971232 -0.0010124702 0.0095462 -0.001507181
0.061969075 0.0348554 0.011757304 0.012405166 -0.071109004 0.03606014 0.09378516 0.10143288
0.028479142 0.04819877 0.08669109 0.025132138 0.072423674 0.11618738 0.07296638 0.018946623
0.04644216 -0.053260706 -0.043848675 0.04981161 0.070997424 -0.039620504 -0.011409474 -0.08193311
0.076321416 -0.010815563 -0.027162418 -0.03324927 -0.0073212152 0.10056743 0.02580208 0.13945065
0.047806136 0.12667936 0.10031507 0.07604542 -0.016619503 0.08374401 -0.05940019 -0.0069036763
-0.07381044 0.018335685 0.099550985 -0.020285858 -0.07746478 0.053629894 -0.02153519 0.08098765
-0.07838324 0.085508354 0.01178029 -0.029250182 0.0134874005 0.107102685 -0.00075181853 0.1071307
0.021154776 -0.029954154 0.1169589 0.012475213 0.03731292 -0.0022588165 0.0039555985 -0.03147098
-0.0489319 0.05355647 0.049963307 0.0068240156 0.04735996 -0.0515601 -0.013084709 0.106483996

layer3.weight f4 [5, 256]
00000000: b11d b43d f087 ccbc a796 923d 2dcc a53b
00000010: a0db 0b3d a2a8 27bd 6813 2ebd d8d7 233d
00000020: 5f66 743d 003c bbb8 3043 1d3d ea23 06bd
00000030: d9b3 693d f516 1c3c e2b6 8d3c 10c4 483d
00000040: ee7b 53bc 390e e83d 40b2 5b3d c185 1d3c
00000050: 3760 72bd 9207 87be 27b2 e8bb aefa d73d
00000060: 2bb8 eabc 64e0 32bd a9af 7c3d d5b6 153d
00000070: 3e34 743c 2d63 853d 58e6 873d b8b2 d73d
00000080: a32e c3bd 702a 013d d7c9 3c3d c519 9b3d
00000090: dcb4 ed3b 26bc 1c3d f364 34bd 5836 21bd
000000a0: dc0a cd3d 1fc3 993d 0888 45bc 2aba 1d3d
000000b0: 3c6c 6f3d 6c9a cc3c e0cc 0d3b ec5a 62bd
000000c0: 6e42 1a3d c0fe 323d eb03 da3d 106e 7f3a
000000d0: e3d0 e83c ac1c e83d 9ef5 623d f541 48be
000000e0: f8c4 d03d 581a 05bc 1296 c33d 1259 5abd
000000f0: d6ba 0cbb 9612 42be 16b7 5f3d 7e60 1e3d
00000100: 3ba4 f63c 91c4 cb3d ca5b 71bd c47f f63c
00000110: 862b cf3d 08c4 d6bc 9b6d 9d3c f857 b73d
00000120: e674 623c dafe 173d a3e4 b93d 7b7d 10bd
00000130: 28ca ebbc d478 94bc 9615 da3d 5c43 673b
00000140: c7fb 32be 515a 62bb 60af fd3c c560 063d
00000150: 5c6a 9e3c 1689 9a3d 41f9 b53d 341d 16bd
00000160: a794 283d d240 87bc 3cb2 c73c 300b ea3c
00000170: f092 a93d 42a3 223b 3976 963c bb75 013c
00000180: e00a f7bc a007 fabb d64e 053d 4f88 a13d
00000190: 3865 5abd 0e31 b93c b840 1bbc 602e 243b
000001a0: 4fa5 363d 88b4 7e3d c3b0 4cbd ba85 333b
000001b0: 9a20 bcbc ad5c 2d3d df7c 1c3d d545 b3bb
000001c0: 1a2d a93d 2415 fd3b f66c 01bd 174b cfbc
000001d0: 78fa 22be acd0 bfbc baeb 98bd 4f08 6fbb
000001e0: 9e6b ac3d 9434 a23c 50c8 d3bb 10da 813d
000001f0: 7eb6 143d 0a22 2b3d 14a1 703d 09fd 26bd
00000200: bdd8 febd 3cbd c13d c7ec 1dbb f194 403d
00000210: e098 54bd d55a 823e 29fe adba b02a ca3d
00000220: 7f71 2e3d e03b 7f3c 6f9a 103d 84fc 663d
00000230: e586 1abc 02c8 643c edbd d13d 90a1 adbb
00000240: 7960 8b3c ab0a 303d 5a2a aebe 4619 9dbd
00000250: f1c2 ca3d 2d96 bfbb f297 aa3d 9ff6 08bd
00000260: c8ee 8a3d db3c 0dbd f6a0 e23d f2a2 303b
00000270: cfb3 44bd 46ee e43c 2e15 43bd 0656 55bb
00000280: 80de c83d 6a92 2cbd 676d a63d f2a1 20bd
00000290: 6c6e 973d 354d 0d3c aa08 cd3d 1a4a de3d
000002a0: 6717 d63d 2fb0 d4bd a3af eb3d aba0 4a3d
000002b0: 9306 c53d 4ccf 383d c710 6a3d 9add bb3d
000002c0: 067b d03d dc5b 0e3d b2af 1a3d de53 403d
000002d0: 60c3 493d 4e97 8a3b 79ee 703c a834 cd3c
000002e0: b1f8 c63d b951 d1bb 7b6c 93bd 2005 4fbd
000002f0: 6aa6 00bd 5c1e afbb 8299 aa3d 9a3d 913d
00000300: ee1b 213d 1774 673d fda9 4d3d b94a 243d
00000310: 5615 0d3d addc 5c3d e88c bf3c b641 533d
00000320: b44c 823c 2813 5dbd c118 38bd 560f a4bd
00000330: 07de b23d 12ad d63d 4e09 48bc 009b 483d
00000340: 8fb7 3f3d 2ea3 a73d 63b8 47bd bf3b 193d
00000350: 56ea e83c a29f 2e3d de02 0ebd fc71 063d
00000360: 32d8 273d 0926 0b3d 51e3 d53c 999a e43c
00000370: 04fe dbbc 6a8c b13d 35c3 473e 0207 26bb
00000380: 402e 51bb 73c2 893d c40c 1abc 2e6c 653d
00000390: b1be 183d 7fe1 513d df1d 0d3d 093b ae3d
000003a0: 42b4 55bd e068 773d ed6c f13d 19bc d63c
000003b0: 39e0 2b3d a4e1 273d ade8 023d a95d 303d
000003c0: 12e0 bb3d 3cf6 42bd eab8 9f3d a1f5 04bd
000003d0: 53ed b3bd b279 8f3d 5e9a 4bbc 3b48 b4b9
000003e0: 8e70 2e3d 68e4 d53d 3096 47bd ddce 893c
000003f0: c7a7 38bb b9ce 783d ed8f 923d 69e2 c03d
0.08794726 -0.024967164 0.07157641 0.00505974 0.034144998 -0.040932305 -0.042498976 0.040000767
0.05966794 -8.928031e-05 0.038394153 -0.032749094 0.05705628 0.009526958 0.01729912 0.049015105
-0.012907965 0.11330838 0.05363679 0.009614409 -0.05917379 -0.26372963 -0.0071013155 0.1054586
-0.028652271 -0.043671027 0.06169096 0.036551315 0.014905034 0.06513057 0.066357315 0.10532135
-0.095303796 0.031534612 0.046090927 0.075732745 0.007254226 0.03826537 -0.044041585 -0.039358467
0.10011837 0.075079195 -0.012056358 0.038507618 0.05845283 0.024975978 0.0021637008 -0.05526249
0.03766101 0.04369998 0.106452785 0.00097438786 0.028419917 0.11333594 0.05541002 -0.1955641
0.10193819 -0.008123957 0.09550108 -0.0533076 -0.0021473668 -0.18952402 0.054617964 0.03866624
0.030107608 0.099496014 -0.058925427 0.03009022 0.10115723 -0.026216522 0.019217303 0.089523256
0.013821816 0.03710828 0.09076812 -0.035275918 -0.028782919 -0.018124022 0.106486484 0.0035287952
-0.17478858 -0.0034538696 0.030967414 0.03280713 0.019337825 0.07545678 0.08885432 -0.036648944
0.04115739 -0.0165104 0.024376981 0.028569788 0.08279979 0.0024816548 0.01836692 0.007901604
-0.030156553 -0.0076303035 0.032545887 0.07887327 -0.053319186 0.022606399 -0.009475879 0.0025052056
0.044591244 0.062183887 -0.04997326 0.002739294 -0.022964764 0.04232471 0.038205024 -0.005470971
0.082605556 0.0077234674 -0.031598054 -0.02530436 -0.15915859 -0.023414932 -0.07466836 -0.0036473458
0.08418964 0.019800462 -0.006463088 0.0634042 0.03630685 0.04178051 0.058747366 -0.040768657
-0.12443683 0.09459922 -0.002409743 0.04701704 -0.051903605 0.25459924 -0.0013274598 0.09871423
0.042588707 0.01557824 0.03530353 0.05639316 -0.009431575 0.013963701 0.102413036 -0.0052988008
0.017013775 0.042978924 -0.34016687 -0.07670836 0.09900463 -0.00584676 0.083297625 -0.03343832
0.06783825 -0.034481864 0.11065857 0.0026952592 -0.04802304 0.027945649 -0.04762762 -0.0032552495
0.098080635 -0.04213182 0.081263356 -0.039216943 0.07394108 0.008624365 0.10011418 0.108539775
0.104536824 -0.10385167 0.115081094 0.04946963 0.096203946 0.04511957 0.057144906 0.091731265
0.10179715 0.034755573 0.037765212 0.046954982 0.04925859 0.0042294627 0.014705294 0.025049523
0.09715403 -0.006387916 -0.071984254 -0.050541997 -0.031408705 -0.0053441953 0.083300605 0.07091828
0.039333276 0.056507196 0.05021094 0.040110324 0.034444176 0.05392139 0.023382619 0.05157634
0.015905716 -0.053973347 -0.044945482 -0.080107376 0.087337546 0.10482229 -0.01220925 0.048975945
0.046805914 0.08185421 -0.04875983 0.037410494 0.028432053 0.042632706 -0.034670703 0.032823548
0.040977664 0.03397182 0.02610937 0.02790575 -0.026854523 0.0866936 0.1950806 -0.0025333767
-0.0031918436 0.06726541 -0.009402458 0.05601137 0.037291232 0.05124044 0.034452315 0.08507354
-0.05217386 0.06040275 0.11788354 0.026212739 0.041961882 0.040986672 0.03196018 0.04305807
0.091735974 -0.04759811 0.077989414 -0.032460812 -0.087855004 0.070056334 -0.012426941 -0.0003438609
0.04258781 0.10443956 -0.048727214 0.016822273 -0.0028176175 0.06074402 0.07156358 0.09418184

layer3.bias f4 [5]
00000000: 01f8 fe3b 0f87 99bc a6de 9bbc 2a0e 82bb
00000010: 534b 7b3d
0.007781029 -0.018741159 -0.019027065 -0.0039689736 0.06135113
