DDQN_Champion.pth (torch, 176260 bytes, 6 tensors)

layer1.weight f4 [128, 70]
000000 ac 3e 55 3c 03 99 9f 3d ec 01 87 be ca 44 87 bd
       0.01301543 0.077928565 -0.26368654 -0.06604917
000010 cf a7 e6 bc 72 d0 38 3d 9f 09 42 3d 11 93 de 3d
       -0.02815619 0.045120664 0.047372457 0.108678944
000020 3f ce c7 be cb 25 a5 bd 0b af 71 be 69 94 98 bd
       -0.3902454 -0.08063849 -0.2360193 -0.07450182
000030 a5 b0 cb bd 0d 62 18 be 3e d5 10 bd 6e 21 d9 bd
       -0.09945802 -0.14881153 -0.035359614 -0.10602079
000040 5f 11 41 be 74 84 ef 3c 13 c7 fb bd 9d da 20 bd
       -0.18854283 0.029237963 -0.1229383 -0.039270986
000050 fb f6 63 bd e3 c0 e7 3d 10 b7 d3 3d 04 9d 09 3e
       -0.05565546 0.11316087 0.10337651 0.13438803
000060 69 2a 5b bc 51 eb ee bb 33 a4 fa 3d 9f a4 7a bd
       -0.013376811 -0.0072912355 0.1223835 -0.06119215
000070 04 39 7b bd 53 f8 7f 3b d8 8c 9a bd 5f 0b 03 3e
       -0.06133367 0.0039057925 -0.07546395 0.12797306
000080 9b ea ae bd 6a 7a 28 bd f9 d1 67 bd e9 c3 c8 bd
       -0.08540841 -0.04113237 -0.05659673 -0.09802992
000090 3f ee 2f bd 4d b9 14 3e 9b 31 ef 3c ba ef fa 3c
       -0.04295182 0.14523812 0.029198458 0.030631889
0000a0 dc 91 a0 3c e2 1f d8 bd e8 cd 0b 3d fe 91 97 bd
       0.019600801 -0.10552956 0.034131914 -0.07400893
0000b0 04 57 b4 bd 15 d4 ab bd fe 96 9d 3d c6 e0 ab 3d
       -0.088056594 -0.08390061 0.07694815 0.083924815
0000c0 4c f7 ca 39 5b 6d 9f 3b 2e ab e9 3d d7 e4 f0 3d
       0.00038712693 0.004865331 0.11409603 0.11762398
0000d0 36 71 6b 3c db 8f da 3b c8 e8 b6 3d 8a 28 21 bd
       0.014370253 0.006669981 0.08931118 -0.0393453
0000e0 bd 14 e9 3c 25 3a 78 bd bf 3b ab bd f5 f9 65 bd
       0.028452272 -0.060602326 -0.08361005 -0.05614658
0000f0 7c b2 17 3d 8f 7f 5d 3d 18 67 65 bd 13 81 2e 3d
       0.03703545 0.054076727 -0.05600652 0.042603564
000100 5b 87 cc 3d b1 61 a2 3c 8e 68 18 3d 36 64 48 3e
       0.099867545 0.019821974 0.037209086 0.19569477
000110 b5 8c a5 3d 9c a4 9c 3d aa a2 bc bd 37 69 33 bd
       0.08083478 0.07648584 -0.09210713 -0.043801513
000120 76 67 40 3d 8d d0 ca 3d 05 03 d5 3d 5c fc d7 3d
       0.046973668 0.09903059 0.104009666 0.105461806
000130 83 dc c2 3c e1 db d4 bd 3d 25 34 3c 2f 23 99 bd
       0.023786789 -0.10393501 0.010995206 -0.07477414
000140 59 20 e4 bd d9 7c d9 3d 7d 1f ba 3d 7e 2d f4 bd
       -0.11138982 0.10619516 0.09088037 -0.119227394
000150 1a 44 b7 3c c9 f1 a4 bc 81 20 a1 bc 1f 1a 60 bd
       0.02237134 -0.020134823 -0.01966882 -0.05471241
000160 f7 43 3c 3d 59 fc 90 bd 74 78 33 3d cb 93 77 3d
       0.045963254 -0.070793815 0.043816045 0.06044368
000170 aa 3b af 3d d6 0d 37 3d 2b 45 f2 bd 34 ca 9e bd
       0.08556302 0.04469093 -0.11829599 -0.07753411
000180 8e 72 74 3d fa ee cc 3c 80 f3 be bd 62 f3 8c bd
       0.05967956 0.025016297 -0.09323788 -0.06882359
000190 7e 47 e6 3d 65 f0 a4 3d 83 76 55 bd b5 6e f6 bc
       0.11244105 0.08053664 -0.052114975 -0.030082086
0001a0 fe 2d e9 bd d6 ca 0c bb fd 55 b8 bd 9b d0 bc bd
       -0.113857254 -0.0021483204 -0.09000776 -0.09219476
0001b0 8b cc d7 bb 00 03 93 3c f1 7d 48 bd a7 3f 91 3d
       -0.0065856627 0.017945766 -0.048948232 0.07092219
0001c0 bd f5 94 bd ce 1b de 3d e8 bf a7 3d d2 6b ce bd
       -0.07273433 0.10845147 0.081909 -0.10079159
0001d0 c0 b0 f3 bc 51 b9 b0 3b 38 db 8e 3c 89 39 e8 3c
       -0.029747367 0.005393185 0.017438516 0.028347747
0001e0 91 1e 40 3d ba 99 ea 3b 87 df 6e bd 36 a8 67 3d
       0.04690415 0.007159439 -0.05831864 0.056556903
0001f0 c2 ce ea bd 9c 15 91 bd 15 1b f5 bc 56 79 6e bd
       -0.11465217 -0.070842 -0.02992014 -0.058221184
000200 33 44 2b bd 1a a1 c8 bd ac 46 d0 bc ae 4b d1 3c
       -0.041813087 -0.09796353 -0.025424324 0.025548782
000210 b7 77 9f bd 5a fe c8 bb 5d 3a af 3d 54 4f 49 bc
       -0.07786506 -0.0061338367 0.08556054 -0.01228698
000220 a4 b2 59 3b ea ef 28 bc 6e 28 c6 3c 80 a4 9b 3d
       0.003321805 -0.010311106 0.0241892 0.07599735
000230 95 56 0d 3e 45 1e ce 3d 0f 8b cc 3d 39 89 93 3c
       0.1380256 0.10064367 0.09987461 0.018009769
000240 bd dc b1 bd ee 2e 04 bd d3 2b b1 3d 5a e1 c4 3c
       -0.086846806 -0.03227132 0.08650937 0.024033237
000250 31 ca a2 be ee f1 b4 be d7 16 9e be ed 1c 1e be
       -0.31794885 -0.35340828 -0.308768 -0.15440722
000260 75 b7 2f 3a 7e 09 0f 3c 82 25 b7 3d ea 6a ce bd
       0.00067030574 0.00873029 0.08942701 -0.10078986
000270 86 80 c5 3b f2 4c 91 bd b0 07 c7 bc da bc c8 bc
       0.006027284 -0.07094754 -0.024295658 -0.024504114
000280 f3 a4 42 3d 60 b6 af 3a bc 0e 5f 3d 60 3b ab bd
       0.04752059 0.0013405792 0.05445741 -0.08360934
000290 45 c1 96 3c b3 ad d3 ba 3c 89 ef bc 57 af d9 3d
       0.018402705 -0.0016149789 -0.029240243 0.106291465
0002a0 10 83 a9 bd b1 6f 69 3d 15 4f 18 3e 88 10 8c 3b
       -0.08276951 0.056991283 0.14873917 0.0042744316
0002b0 30 45 bc 3d dc cc 8a 3d 16 b5 c1 bd 2a ae cd 3d
       0.09192884 0.06777355 -0.094583675 0.10042985
0002c0 bb ed 0e 3d 02 b4 32 bc 5b ce 9e 3d ed 68 be bd
       0.034894686 -0.010907175 0.07754203 -0.09297357
0002d0 d0 d9 17 3d 92 c6 93 3d 00 9c e1 3d 7d 47 a1 3d
       0.037072957 0.07215609 0.11016083 0.078749634
0002e0 d4 98 a1 3c 55 2d 87 3d 80 f3 f8 bc df 96 9b b9
       0.019726194 0.06600443 -0.030389547 -0.00029676312
0002f0 f9 fd 8e 3c bc 3f 9f 3d 0c a6 16 3e da 51 57 3d
       0.017455088 0.07775828 0.1471178 0.052568294
000300 5c c3 ca bd b6 34 9e 3b 4b 2d 92 bd 81 e7 bd bd
       -0.09900543 0.004828061 -0.07137545 -0.092726715
000310 c6 29 74 bd 82 ab b2 3d 43 53 ad bd c7 c0 fd 3b
       -0.05961015 0.08724119 -0.084631465 0.007743928
000320 c2 ec 2c 3a c9 74 b1 3d 78 7d 9f bb 36 8a a1 bd
       0.0006596559 0.08664853 -0.004867252 -0.0788769
000330 08 89 01 bd 1c 59 22 3d 18 cf d4 bb 1e e1 e7 3d
       -0.031624824 0.039635763 -0.006494414 0.113222346
000340 9f a2 3f 3d ee 90 94 bd 1c d3 52 ba c1 3d c0 bc
       0.046785947 -0.07254206 -0.0008042322 -0.023466947
000350 01 de b5 3d 12 90 94 bc 86 74 06 3e cf 6b 89 3c
       0.088802345 -0.018135104 0.13130388 0.01677504
000360 aa 90 ad 3c 9c 1f 80 bd 5a 03 be be 03 ab 9b bd
       0.021187145 -0.06256029 -0.37111932 -0.07600977
000370 8b ad 6a bd 54 6e 58 3b 69 99 2e 3d a3 d5 09 bd
       -0.05729441 0.0033024745 0.042626772 -0.033651005
000380 c6 f4 d3 bd 88 d7 18 3f 87 42 de be b2 2d b9 3c
       -0.10349421 0.59703875 -0.4341013 0.022604797
000390 4a 0a 5b be 09 7b 91 bc 29 11 1f be e4 12 ca 3d
       -0.21390644 -0.017758863 -0.1553389 0.09866884
0003a0 79 c1 d8 bc 7f 56 dc 3d ee dc f6 bc 24 07 d3 bd
       -0.026459442 0.10758685 -0.030134644 -0.10304096
0003b0 75 86 5b 3d 2a 28 65 3e df 23 4f bd 0d 2c 7b 3d
       0.053595025 0.22378603 -0.05057132 0.061321307
0003c0 c0 d6 95 3c 3e 68 65 3d 5a fc 21 be 62 37 13 b9
       0.018290877 0.056007616 -0.1581892 -0.00014039644
0003d0 ab cd 3c 3d 70 8d ec bd 25 bb ff 3d 7f 96 5c 3d
       0.046094578 -0.115504146 0.12486867 0.05385446
0003e0 0c 8a 5c bd c2 fc a9 bd b0 5f 80 bd fc 37 37 3e
       -0.05384259 -0.08300163 -0.06268251 0.1789245
0003f0 30 97 ca 3d c9 a4 a4 bc e9 df 9b bc 48 5f b9 bd
       0.09892118 -0.020098107 -0.019027667 -0.090513766

layer1.bias f4 [128]
000000 67 1b e7 3c f3 2e be bd 2d 00 e1 3d 42 ba a3 bd
       0.028211309 -0.092862986 0.10986362 -0.0799451
000010 05 1f 6a 3d e2 7c 0f 3e 78 b8 de 3d 0d 7c 47 3d
       0.05715849 0.14012483 0.10875028 0.04870229
000020 fa 2c 73 3d 68 57 f3 3c b2 19 e5 3d a6 5f 12 bb
       0.059369065 0.029704764 0.111865416 -0.0022334843
000030 8c 5b c5 bd 64 30 d8 3d eb 4e b8 bd b1 73 05 3e
       -0.09636602 0.10556105 -0.089994274 0.13032414
000040 23 f6 d7 3b 7c a3 8c 3d 67 a1 5c 3c 19 90 7f 3d
       0.006590621 0.0686712 0.013466216 0.06239328
000050 b1 cc a6 3d dc 50 4c bd cb 02 c6 3d 4f 3b 96 bc
       0.081445105 -0.0498818 0.096685015 -0.018338827
000060 d3 c5 ac bd d0 02 b8 bd 4e 69 5f 3d b2 f0 08 3e
       -0.084361695 -0.089849114 0.054543786 0.13373068
000070 14 cd d5 bd f6 1c 91 3d 26 0c 94 3d 75 30 d9 bd
       -0.10439506 0.07085602 0.0722888 -0.106049456
000080 f3 4d 8b 3d f2 23 43 bd e4 f8 98 3c bc 2d 86 bc
       0.06801977 -0.047641702 0.018673368 -0.01637923
000090 1b 02 c7 3d 63 e7 9f bd d3 83 80 3d 0f 25 38 bd
       0.097171985 -0.078078054 0.062751435 -0.044957217
0000a0 be 1e f7 3c b0 c7 1f 3d c1 91 82 bd c1 4f f5 bc
       0.030166026 0.039008796 -0.063754566 -0.029945256
0000b0 b7 30 49 3d 54 28 09 3d d5 ab 77 bd 84 44 d4 3d
       0.049118724 0.033485726 -0.060466606 0.10364631
0000c0 d9 ab 5c bd 09 e1 81 bd 78 b1 b0 3d 37 2b 52 bc
       -0.053874824 -0.0634175 0.086275995 -0.012827686
0000d0 93 33 2b 3d 90 48 d2 3d 8d f3 49 bd 69 b7 85 3d
       0.041797232 0.102677464 -0.049304534 0.06529123
0000e0 72 32 1b 3e ad 68 45 3d fb 9c fb 3d 9f e8 c4 3d
       0.15155962 0.04819553 0.12285801 0.096146815
0000f0 3a 5d e9 3d 64 b2 09 3e a7 38 93 3d cd 91 72 3d
       0.11394735 0.13446957 0.0718854 0.059221078
000100 f7 4b a4 3d 26 1a b3 3d 15 64 04 3c fc b6 a6 3c
       0.08022302 0.08745222 0.008080502 0.020350926
000110 6e 8d b1 bc f1 32 09 3a 67 e2 b6 3d 68 3f 19 bc
       -0.021673884 0.0005233726 0.089299016 -0.009353496
000120 43 2a 2c bd 06 c9 87 3d 6b 55 08 3d 93 36 51 3d
       -0.04203249 0.06630139 0.033284586 0.051077437
000130 37 c8 b3 bc 7d 2f 9b ba 43 60 b0 bc 14 71 04 3e
       -0.021946056 -0.0011839714 -0.021530276 0.12933761
000140 ea e8 64 bd 90 29 2f bd c0 fe 44 3c 34 64 d8 3c
       -0.055886187 -0.042764246 0.012023628 0.026414968
000150 20 c9 d0 3d c1 fc 1d 3d 37 0e 0d bc 91 9f e7 bd
       0.101946115 0.038571123 -0.008609346 -0.11309732
000160 64 32 67 bd a1 c3 94 3d 75 f6 2c 3c 2d 63 50 bc
       -0.05644454 0.07263876 0.010556807 -0.012718958
000170 2b e4 f6 3c db e6 f0 3d f1 e3 70 3c d0 c7 00 3e
       0.030138096 0.11762782 0.014702783 0.12576222
000180 6d 47 24 3e 59 92 33 3c 1e e7 04 3e 27 72 22 3d
       0.16042872 0.010960185 0.12978789 0.039659645
000190 d4 ff 94 3d 6b fa b0 3d 2e 06 e8 bd 5f 0c be 3d
       0.07275358 0.086415134 -0.11329304 0.09279703
0001a0 a8 e1 de 3d 85 a1 b6 3c b9 5a db 3c 24 1b 44 3c
       0.10882884 0.022293815 0.026776658 0.011969361
0001b0 80 44 c0 bd 75 8e 29 3c 79 41 3b 3d cf ee cc 3d
       -0.09388065 0.010348906 0.045716736 0.100064866
0001c0 6b 3e 1a 3e 77 15 12 bd 8e 53 c3 3d c2 0d f7 3b
       0.15062873 -0.035665 0.09537421 0.007539482
0001d0 e3 ca 0e bd 84 5d 4a bd 35 af a3 bd dd 17 5f 3d
       -0.034861457 -0.04940559 -0.079924025 0.054466117
0001e0 ff 02 b8 bc 7e 94 49 3d 70 af cc bd 17 3e 0f bd
       -0.022462366 0.04921388 -0.099943995 -0.034971323
0001f0 ab ec b0 3d aa a8 8d bc 31 f6 12 3e 82 6f 94 bd
       0.08638891 -0.01729234 0.14351727 -0.07247831

layer2.weight f4 [256, 128]
000000 22 0b a1 bb de c7 70 3d 9e eb ef 3d 7d 31 07 bf
       -0.004914657 0.05878436 0.11714862 -0.5280989
000010 34 ad dd 3d 19 9e bc bc 93 c7 88 3c a0 40 8d 3e
       0.108240515 -0.023024606 0.016696727 0.27588367
000020 75 c8 99 3b bd e2 78 be e4 c9 b5 3d bf 4f 2d 3e
       0.004693086 -0.24305244 0.08876398 0.16924952
000030 44 68 12 3e 5f ae bd 3c b4 3c af 3d 09 76 6c 3e
       0.14297587 0.023154436 0.085565 0.23091902
000040 0b c9 9f 3d 29 49 0b 3f 06 58 3d 3e 8b 0e 20 bd
       0.07802018 0.5440851 0.1849061 -0.03907637
000050 ec 3a 9f bd e2 3e 95 3b a9 07 49 3d ce aa a3 3d
       -0.0777491 0.0045546154 0.04907957 0.07991563
000060 e2 d7 6d 3e 7a 96 8b 3e 0c 61 ec 3d e2 cb b6 bc
       0.23226884 0.27263242 0.11541948 -0.022314016
000070 78 78 f0 3d 78 60 8b bc 29 df 1a bd 87 56 d2 3d
       0.117417276 -0.017013773 -0.03781048 0.1027041
000080 57 33 08 bc 80 ab 3c 3b 64 cd 55 bd 08 ce bd 3c
       -0.008313022 0.0028788745 -0.05219783 0.023169532
000090 d8 ca 30 3d e9 7b da 3d ac 0f 78 bc 69 7a e9 3b
       0.043162197 0.10668165 -0.015140455 0.007125188
0000a0 a6 86 93 bd 2e bd 0a bc f3 35 c2 3c 9a 3a 0d 3d
       -0.072034165 -0.0084679555 0.023707366 0.034479715
0000b0 75 87 c0 3d 77 00 bd 3d bd 9c b4 3c 4b 0c e9 3d
       0.094008364 0.09228604 0.022047395 0.11379298
0000c0 4f 76 ac 3c 0f 7d 00 bc 94 2c 17 3e cd 55 c6 3b
       0.021052508 -0.007842316 0.14763099 0.0060527087
0000d0 b6 b3 4b 3e cd 08 d4 3b ef 2b 49 3e 6b a4 cd 3d
       0.19892773 0.0064707757 0.19645666 0.10041126
0000e0 6d 06 e3 3d b7 0f f9 bb be a7 36 bd 2f 93 89 3d
       0.1108521 -0.0076007503 -0.044593565 0.06717526
0000f0 e3 37 20 3d d0 e0 05 3e e5 f4 f1 bc a1 ad 99 3c
       0.039115798 0.1307404 -0.02953572 0.01875955
000100 83 1f 89 3d a9 01 a3 be 1d c0 94 bd d1 1c 69 3d
       0.066954635 -0.31837204 -0.07263205 0.056912247
000110 95 d4 80 3d b1 66 2f 3e 0a 27 ce 3e 0c 07 4a 3d
       0.06290547 0.17129017 0.4026416 0.049323127
000120 e6 97 a3 be 9d ef ac 3d 16 1f b5 3d 54 d6 8c 3d
       -0.31951827 0.0844414 0.0884382 0.06876817
000130 ea 05 91 bc b1 a7 a7 bd 0b 85 0b 3e a4 6a cc bc
       -0.017703015 -0.081862815 0.1362497 -0.024953194
000140 71 18 12 bc 4e 79 9b 3c b2 6d 59 3d 49 68 13 3e
       -0.00891696 0.018978741 0.05308313 0.1439525
000150 c0 b5 1a 3c 50 61 cc 3c 49 3c d8 3d c4 32 53 3d
       0.009442747 0.024948746 0.105583735 0.051562086
000160 cd df 3d 3d 2e 83 04 3e 0d 9a a7 3d 8e e7 f2 3d
       0.04635601 0.12940666 0.0818368 0.11860572
000170 50 48 bb 3a 07 b9 d2 3d f3 c5 de 3c cd 9f f9 3d
       0.0014288519 0.102891974 0.027193999 0.12188683
000180 50 32 78 3c ef 65 34 3e de 9e 86 be 21 90 88 3e
       0.015148714 0.1761701 -0.2629308 0.26672462
000190 03 cb 9b 3a dc 13 4d 3c c6 d0 34 3b 70 f7 3b 3c
       0.0011886064 0.012516942 0.002759026 0.011472568
0001a0 cb 13 6c 3d ed 15 45 bd 12 0a 5e be 9a c8 e6 3b
       0.057636064 -0.048116613 -0.21683529 0.0070429565
0001b0 ed 84 69 3c 80 ab a9 bd e8 48 39 3c f5 fa c6 3d
       0.014252883 -0.08284664 0.011308886 0.09715835
0001c0 f1 3c 31 bc f7 2b 00 3d 49 43 ef 3e ca 22 6b 3d
       -0.010817752 0.03129193 0.46731022 0.057406224
0001d0 01 7c 8c 3c 53 17 d8 be e4 fc d4 bc e3 06 97 3d
       0.017148973 -0.42205295 -0.025999494 0.073743604
0001e0 f1 ec fd 3d 96 61 f1 ba 95 55 75 bb 4a 2a 08 3e
       0.123987086 -0.0018415924 -0.0037435044 0.13297382
0001f0 96 8b 6a 3d 10 3a 07 3e 95 02 a6 3d 16 72 80 3e
       0.057262026 0.13205743 0.08105961 0.2508704
000200 b2 4c 0c bd 30 8e 0c 3c 62 61 9a bd 8b c7 08 3f
       -0.03425283 0.008578822 -0.075381055 0.5342948
000210 52 37 f9 bd 73 69 8e bd c1 11 a2 3b ad 23 bd bd
       -0.12168755 -0.069537066 0.004945964 -0.0923532
000220 61 28 2c 3d e5 56 83 3e ac 74 95 bd bc 38 68 be
       0.042030696 0.25652233 -0.07297644 -0.22677892
000230 72 61 ab be 14 ca b3 3d 5a 6d 9a 3d d6 f1 86 be
       -0.33472782 0.08778778 0.075403884 -0.2635638
000240 f7 3b 8b bd be 92 1a bf 7f a9 63 bd f4 c3 c9 3c
       -0.06798547 -0.6038016 -0.055581566 0.02462957
000250 81 3e a7 bd 09 b3 9d bb c6 b3 d9 3d 47 b8 e0 bc
       -0.081662185 -0.0048126024 0.10629992 -0.02743162
000260 30 51 80 be 84 33 43 be f0 3d 9d 3d 49 fa a5 3d
       -0.2506194 -0.1906262 0.07677829 0.08104379
000270 3f d9 f0 bc c3 6b 68 bd 56 03 13 3e 81 20 bb be
       -0.029400466 -0.056743395 0.14356741 -0.36548236
000280 6c f6 e8 bb 16 7a 82 bc a8 bf 3e 3d a4 c2 73 3d
       -0.007109454 -0.015927356 0.046569496 0.059511796
000290 7f ce 99 bd 7b f2 4c bd 62 44 b9 3d 2f db 3f 3d
       -0.07510089 -0.050035935 0.09046246 0.04683989
0002a0 e3 56 9e bd 76 73 b9 bb 83 a9 3e 3d f8 91 ac bb
       -0.07731416 -0.005659516 0.046548378 -0.0052664243
0002b0 d3 3e be 3d 3f ff b1 bc d6 07 d0 3c cb e5 77 3d
       0.092893265 -0.021728156 0.025394361 0.060521882
0002c0 4e 27 6c bc 96 b6 fd 39 c7 a2 7e 3c 26 4b 83 bc
       -0.014413668 0.00048391958 0.015541739 -0.016027045
0002d0 74 1f 75 3d a0 74 0f bd 34 5b 13 3e 6b 8b c8 3d
       0.05984445 -0.03502333 0.1439026 0.09792217
0002e0 a6 41 2a 3e c9 8f f8 3d ef 09 68 bd e6 f2 c1 bc
       0.16626605 0.121368 -0.0566501 -0.023675393
0002f0 6f 4d f5 3d 55 fb af bd 39 ef 28 3d 48 6e 92 3d
       0.1197766 -0.0859286 0.041243766 0.07149941
000300 10 bd d1 bd f2 a7 5b 3d b9 6e a3 3d 33 ee e9 bb
       -0.10241139 0.053626962 0.07980103 -0.0071389913
000310 1b b0 92 bd 14 b8 17 be 75 c1 52 bd 9c e4 8c bc
       -0.07162496 -0.14816314 -0.051454026 -0.017198853
000320 fb 54 26 bc 1a 40 c7 bc 02 b3 ad 3c 4b dc b4 3c
       -0.010152097 -0.024322558 0.021203522 0.0220777
000330 fb e3 0e be ec a0 80 bc b1 f1 a5 3d 72 08 3c 3c
       -0.13954155 -0.015701734 0.081027396 0.011476623
000340 49 1e 45 bc 8f 5b a7 3b 76 da a8 3d 36 a2 cd bd
       -0.012031146 0.00510735 0.08244793 -0.10040705
000350 a9 fb bd bd a1 17 0b bd 3a c8 4a be bd 08 7f 3d
       -0.09276516 -0.03395808 -0.19802943 0.062264193
000360 e3 c2 17 3d 5d b3 13 3d 3b 1b ce 3c ab 86 57 bc
       0.037051093 0.036059726 0.025159469 -0.013154666
000370 dd e4 c1 3b 90 54 2a be 6b 33 fd 3a 5a 5b a6 3d
       0.005917175 -0.1663382 0.0019317692 0.08122893
000380 10 17 31 3b d1 da 97 3c 94 57 41 3e 0e 5a 42 3d
       0.0027021803 0.018536957 0.18881065 0.047449164
000390 1d 60 6f 3d 01 17 25 bd cd 9d b6 bd 6f 85 8a bc
       0.05844127 -0.04030514 -0.08916817 -0.01690933
0003a0 43 a8 a5 bd 02 ce ae 3d 52 16 c2 3e 7e b1 3d bc
       -0.08088734 0.085353866 0.37907654 -0.011577962
0003b0 c9 ca 00 3d df a1 b5 bc 9c 4a 9a bd 99 02 23 bd
       0.03144339 -0.022171913 -0.07533762 -0.0397974
0003c0 30 91 65 3d 0c 15 eb bd 8f c6 c5 bd 1b b0 c7 3a
       0.056046665 -0.11478624 -0.09657013 0.0015234979
0003d0 89 81 2c 3d 6c 5a 7d 3e 7d 72 a8 3d 59 3b 99 3c
       0.04211572 0.24741524 0.08224962 0.018705057
0003e0 af 6c 57 be e8 a5 6a 3b 4e 96 1d bd 2c b9 01 be
       -0.21037553 0.0035804454 -0.03847342 -0.12668294
0003f0 45 b5 01 be 2e 98 a1 3d e9 d9 2b bd 17 ec 9d 3d
       -0.12666805 0.07890354 -0.041955862 0.07711046

layer2.bias f4 [256]
000000 82 ea 00 3e 06 2e dc 3c 79 0c c4 3d 77 17 cd bc
       0.12589458 0.026877414 0.095726915 -0.025035603
000010 5d 4d 1b 3d 17 50 f2 bb 6b 58 a8 3d 5a 15 16 3b
       0.037915576 -0.0073948014 0.082199894 0.002290091
000020 2f 47 7c 3d f4 82 96 3a 01 33 8e 3d e5 04 8c bd
       0.061591323 0.0011483119 0.06943322 -0.06836871
000030 4a 2c 05 3d 2e c2 70 3b 66 d2 51 bd e2 b6 e4 3d
       0.03251294 0.0036736834 -0.051226042 0.11167695
000040 13 e6 52 bd 54 01 7f 3c b3 66 96 bd 13 cd b8 3c
       -0.051488947 0.0155642815 -0.07343807 0.022558725
000050 32 84 32 3c 54 9f 9b 3d ea 1d bc 3b 0b 9a 18 3d
       0.010895776 0.07598749 0.0057408707 0.03725628
000060 99 a7 7a 3d d3 da 07 3d ae a9 d8 3d de 39 f2 3c
       0.06119499 0.03316767 0.10579239 0.029568609
000070 0f 58 6d bd ed 00 d9 3d e5 dd 9e 3d 87 bb 92 3c
       -0.057945307 0.1059588 0.07757167 0.017911686
000080 70 b7 a9 3d af 74 b3 bc dd a2 2d 3d fc 56 74 bd
       0.08286941 -0.021906225 0.042391647 -0.059653267
000090 03 9c c2 3b 88 6d 3e 3d 6b fb dc bb 51 3b a5 3d
       0.005939008 0.046491176 -0.0067438385 0.08067954
0000a0 57 ed 32 3d 26 a3 b2 3d 12 b3 94 bd 4c c1 bc bc
       0.043683376 0.08722524 -0.072607175 -0.02304139
0000b0 d8 cf 31 3d 50 4d 97 3d 7d 39 c3 bc 9a 01 38 bd
       0.043411106 0.07387793 -0.023831123 -0.044923402
0000c0 76 62 85 bd 37 43 dc bc d9 55 a7 bc 79 2a 8c 3c
       -0.065129206 -0.02688752 -0.020426678 0.017110096
0000d0 2f 55 aa 3d c2 7d 70 3d 54 a5 ac 3d e7 5e 00 3e
       0.08317029 0.058713682 0.08429971 0.12536202
0000e0 7e f0 f1 3d f9 68 97 3d 44 00 52 bb f0 e9 94 bd
       0.11813448 0.07393069 -0.0032043615 -0.072711825
0000f0 0e 4a c6 3b 43 5f 9c 3d f6 81 fb bb 34 a9 32 bd
       0.0060513085 0.07635357 -0.0076754047 -0.043618396
000100 f2 1e 50 bd a8 64 99 3d c2 bd 8b bd aa 21 5d 3d
       -0.05081076 0.07489902 -0.06823303 0.053987183
000110 72 98 52 bd 65 0c 8d 3d 23 f2 89 bd 20 6b b3 3d
       -0.051414914 0.0688713 -0.06735637 0.08760667
000120 31 1b d0 3d 68 b3 e6 3c 14 4c 6c 3b 70 88 7d bd
       0.10161436 0.02816172 0.0036056088 -0.061897695
000130 2e 18 5a bd 1a 71 b5 bb 69 59 d6 3d 99 ef 8e bd
       -0.053245716 -0.0055371644 0.104662724 -0.069792934
000140 0f 09 e6 bc d5 00 27 3d f1 b2 b2 3d d8 37 32 3c
       -0.028080491 0.040772278 0.087255366 0.010877572
000150 89 c6 84 3c 54 2c d1 3b 9b 70 72 bc dd f7 31 3c
       0.01620795 0.006383458 -0.014797355 0.010862318
000160 30 6d 01 bc c7 30 7b 3d 55 17 92 bc 6f 62 16 3d
       -0.0078995675 0.061325815 -0.017833391 0.036714967
000170 27 6b b2 3d 29 e5 5f bb 1f fb 13 3d 45 c7 c4 3d
       0.08711844 -0.003416369 0.03612816 0.0960832
000180 59 42 65 bd 41 cf 8a bd e0 28 15 3d 06 ae ec bc
       -0.055971477 -0.06777812 0.036415935 -0.028891575
000190 e9 68 4c bd d6 ff 52 bd c8 31 68 bc 4e 7b 30 3d
       -0.049904738 -0.051513515 -0.014172025 0.043086343
0001a0 e2 10 91 3d c9 22 5e 3d cb 44 0d bd 88 91 9f 3b
       0.07083298 0.054232392 -0.034489434 0.0048696436
0001b0 33 c2 44 bd 65 75 01 3b 95 b6 a1 3c d6 cf d3 3c
       -0.048036765 0.001975381 0.019740382 0.02585594
0001c0 64 0e d5 39 dd 7f 6c 3d fd 17 66 3d 2d a7 36 bb
       0.00040637248 0.057739127 0.05617522 -0.002787064
0001d0 13 c8 49 3d 2a c5 71 bd 71 e7 da 3c 8a 43 97 bc
       0.04926307 -0.05902592 0.026721688 -0.018464822
0001e0 b7 5e 15 bd 24 37 aa bb b1 52 ad bd 84 ff b1 bc
       -0.03646728 -0.0051945616 -0.08463038 -0.021728285
0001f0 a6 e8 c0 bc 07 78 c2 bc 60 cd 6f bd 0c 4a 0e 3d
       -0.023548435 -0.023738874 -0.05854547 0.034738585
000200 35 cb 3f bd 19 96 85 3d e6 34 98 3b f5 ea 07 bd
       -0.046824653 0.065227695 0.004644978 -0.033183057
000210 bb b2 15 3d 16 54 f8 bb 34 2f 9b bd bb 82 f9 bb
       0.036547404 -0.007578383 -0.07577363 -0.0076144612
000220 a9 40 79 bb cc 3a 84 3d ad 74 0f 3b 77 20 9d 3d
       -0.0038032925 0.06456527 0.0021889613 0.07672208
000230 ac 13 38 3d c2 c7 41 bd 78 2c 9d 3c d0 8e 8a bd
       0.044940636 -0.047309645 0.019186243 -0.067655206
000240 7f ac 7f 3d 50 23 01 bd 34 c5 f1 bc 41 4c 9f 3c
       0.062420364 -0.031527817 -0.02951298 0.01944554
000250 15 00 87 3d 97 9f 71 3d 0c 46 2e 3c 53 08 64 bd
       0.065918125 0.058990087 0.010636818 -0.055672
000260 35 cf ec 3d 74 cd 36 3d e0 09 d6 3d 20 f0 2b bc
       0.11562959 0.04462953 0.10451102 -0.010494262
000270 4c 98 fb 3c 98 94 1a 3c 2e 5a 18 3d de 53 8b 3d
       0.03071227 0.009434842 0.037195377 0.06803106
000280 d9 d0 b4 3c 8b 7d 86 3b b9 28 26 3d 34 1c 68 bd
       0.022072243 0.0041043214 0.04056618 -0.05666752
000290 79 f3 70 3d 0b f9 4a bd da d5 6a 3d 13 2c bf 3d
       0.058825944 -0.049553912 0.05733285 0.09334578
0002a0 4d 35 08 3c 7e 92 5e 3d 17 69 53 3a ec aa 3b bd
       0.008313489 0.054338925 0.0008064671 -0.0458173
0002b0 1a a4 42 3b e8 1f 8e 3d 6a 59 1c 3d 86 f6 57 3d
       0.0029699863 0.069396794 0.03817121 0.052725337
0002c0 51 27 8d 3d c7 37 6b 3d ae b9 8b bd 08 eb 86 bd
       0.06892265 0.05742624 -0.06822525 -0.065877974
0002d0 90 56 d1 3a 0f 3c da bc 9b b8 63 bb 27 c1 59 bc
       0.0015971232 -0.026639966 -0.0034747485 -0.01329068
0002e0 59 83 66 3d fc a9 7c 3d 02 19 97 3c 1a f4 e1 3b
       0.056277607 0.061685547 0.018444542 0.0068955543
0002f0 99 a1 91 bd f5 e6 f6 3c 29 bf 79 3d f5 40 b2 3d
       -0.071109004 0.030139426 0.06097332 0.08703796
000300 17 4d e9 3c 23 a9 0d 3d 19 c2 a1 3d 4f dc 40 bb
       0.028479142 0.03458513 0.07898349 -0.002942819
000310 c2 df 5d 3d 1d 4a cc 3d 66 6f 95 3d 92 1c 00 bd
       0.05416847 0.099750735 0.07296638 -0.031277247
000320 22 3a 3e 3d e6 27 5a bd 56 7e 33 bd fb 82 66 3d
       0.04644216 -0.053260706 -0.043821655 0.056277256
000330 77 22 83 3d 9b 5c 90 bd d3 6f 50 bd 8c cc a7 bd
       0.06403058 -0.07048913 -0.050887894 -0.08193311
000340 e8 d0 5f 3d 97 56 49 bb f7 40 da bc 3e 43 13 bd
       0.054642588 -0.0030721778 -0.026642306 -0.0359528
000350 67 56 c8 bc d6 7c b2 3d e2 5e d3 3c 01 86 fa 3d
       -0.024455262 0.08715217 0.02580208 0.122325905
000360 02 54 41 3d 8f 2f ee 3d 1e 89 b9 3d b7 64 53 3d
       0.047199257 0.11630165 0.09059356 0.05160972
000370 a0 25 88 bc a6 28 84 3d 68 67 eb bc 55 3c db bc
       -0.016619503 0.064530656 -0.028735831 -0.026762167
000380 ee 29 97 bd 73 d7 c1 3b 5c 8a ae 3d 87 2e a6 bc
       -0.07381044 0.005915576 0.08522484 -0.020285858
000390 93 e4 9e bd 82 e5 17 3d a8 ed 97 bc 84 f5 91 3d
       -0.07758441 0.03708411 -0.01854594 0.071269065
0003a0 97 9b 37 bd ed de a0 3d 59 13 bd bc c8 c6 1b bd
       -0.044826116 0.0785502 -0.023080515 -0.03803137
0003b0 da 75 35 bb bb bd bf 3d 3a 29 69 bc 66 c6 a7 3d
       -0.0027688653 0.0936236 -0.014231021 0.081921384
0003c0 e1 01 db 3b 6a 62 f5 bc 68 80 dc 3d c3 3e 61 3c
       0.0066835736 -0.029954154 0.10766679 0.013747874
0003d0 6e e6 f8 3c ee 34 54 bc 78 e6 22 bc 04 08 fd bc
       0.030383315 -0.012952073 -0.009942643 -0.030887611
0003e0 cc 2d 05 bd 42 ea 28 3d 53 a6 4c 3d da 90 3e bd
       -0.03251438 0.04123903 0.049963307 -0.04652486
0003f0 44 51 de 3c ec 36 a1 bd 5b 86 c3 bc 9a af b3 3d
       0.02713836 -0.07871804 -0.023867777 0.08773728

layer3.weight f4 [5, 256]
000000 b0 7e d2 3d 78 c2 88 be 93 25 d6 3d 33 7a a2 bb
       0.1027807 -0.26710868 0.104563855 -0.004958415
000010 13 c5 da 3c a2 a8 27 bd 68 13 2e bd d8 d7 23 3d
       0.0267053 -0.040932305 -0.042498976 0.040000767
000020 bc eb 01 b8 00 3c bb b8 88 71 7f 3d ea 23 06 bd
       -3.097554e-05 -8.928031e-05 0.06236413 -0.032749094
000030 00 9b 91 3d b0 5f 13 3c 30 00 d6 3c 71 be 4e 3d
       0.07109642 0.008994982 0.026123136 0.050474588
000040 38 71 94 bf 13 d7 a4 be 40 b2 5b 3d b8 f0 87 bd
       -1.1597052 -0.3219534 0.05363679 -0.0663771
000050 26 64 72 bd b3 36 39 bd 3d 44 98 be 1f 08 06 3e
       -0.05917754 -0.04521818 -0.29739562 0.13089035
000060 1c d9 a9 be 38 b1 c5 3d 17 29 94 3d 37 e3 30 3d
       -0.33173454 0.096529424 0.072344 0.04318544
000070 8b f5 f3 3a fe b7 bf 3d 48 83 9f 3d 4b e8 a9 3d
       0.0018612606 0.093612656 0.07788712 0.082962595
000080 00 7d b1 be 70 2a 01 3d eb b5 75 3d 86 7b b4 3d
       -0.3466568 0.031534612 0.059987944 0.08812623
000090 b9 72 be 3b 63 12 8c 3d 2e a3 39 bd 2f 08 41 bf
       0.005812016 0.068394445 -0.045321636 -0.7540311
0000a0 c8 e8 02 3e 5c d7 c1 3d 08 88 45 bc 2a ba 1d 3d
       0.12784111 0.09464905 -0.012056358 0.038507618
0000b0 3c 6c 6f 3d 8c 08 cc 3d e0 cc 0d 3b 9b f4 27 bf
       0.05845283 0.09962568 0.0021637008 -0.65607613
0000c0 6e 42 1a 3d d9 22 2d 3d 30 1e 8c 3d c6 16 36 3a
       0.03766101 0.04226956 0.06841695 0.00069461425
0000d0 6f bf 22 38 f8 50 00 3e 14 3f a6 3d a5 90 75 bf
       3.8802096e-05 0.12530887 0.081175 -0.95923835
0000e0 fe 81 0b 3e d6 2e 15 bd f3 c8 ec 3d c6 ef 4d bd
       0.13623807 -0.03642162 0.115617655 -0.050277494
0000f0 d2 0c 65 ba e2 7a 17 bd 16 b7 5f 3d 7e 60 1e 3d
       -0.0008737567 -0.036982425 0.054617964 0.03866624
000100 44 ca d7 3c 14 b6 f5 3d ca 5b 71 bd 20 83 13 3d
       0.026341565 0.11997619 -0.058925427 0.036013722
000110 c9 a6 f8 3d 08 c4 d6 bc 42 89 fc be 9a 23 0b 3e
       0.12141187 -0.026216522 -0.4932347 0.135878
000120 b8 16 8a 3c 5b fc 1a 3e df 60 ef 3d 53 5d e2 bd
       0.016856536 0.15135328 0.116883986 -0.110529564
000130 28 ca eb bc fd f8 66 3d dc cd 05 3e 92 37 e7 bc
       -0.028782919 0.056389797 0.1306681 -0.02822474
000140 86 a9 69 be 3b 19 4e bd 60 af fd 3c 14 e2 3b 3d
       -0.22818574 -0.05031703 0.030967414 0.0458699
000150 5c 6a 9e 3c cb 0d bd 3d 0e 91 db 3d 34 1d 16 bd
       0.019337825 0.092311464 0.10721026 -0.036648944
000160 c5 2e ee bb 14 35 92 bc ef fa f8 3c a8 67 5b 3d
       -0.007268759 -0.017847575 0.030393092 0.05356565
000170 58 09 dc 3d fd 17 be 3b 84 23 fe 3c 9d 74 2f 3b
       0.1074397 0.0058011995 0.031022795 0.0026772388
000180 e0 0a f7 bc a0 07 fa bb 77 c1 27 3d ca 3e d0 3d
       -0.030156553 -0.0076303035 0.040955987 0.10168226
000190 46 e9 45 bd 52 e6 01 bd 95 be ba 3d 60 2e 24 3b
       -0.04831817 -0.03171379 0.09118382 0.0025052056
0001a0 e1 e3 20 3d 88 b4 7e 3d 82 d3 53 bd 96 7a 73 be
       0.039279822 0.062183887 -0.05171538 -0.23777232
0001b0 e9 05 4c bb da 9e 2d 3d 0d 64 5b 3d 15 bb 8f bc
       -0.0031131452 0.04238782 0.053562213 -0.017545262
0001c0 bf f2 d8 3d 89 44 6b 3c 00 2b 08 bd a0 73 90 3b
       0.10593175 0.014359602 -0.033244133 0.004408315
0001d0 62 06 8f bf ac d0 bf bc 16 18 0b bf 71 af cd 3e
       -1.1173823 -0.023414932 -0.5433363 0.40172914
0001e0 55 17 d7 3d 43 d5 de 3d 50 c8 d3 bb 6f 0b e3 3d
       0.10502497 0.1088052 -0.006463088 0.11086165
0001f0 98 7e 22 3d 0a 22 2b 3d 14 a1 70 3d d5 71 b2 be
       0.03967151 0.04178051 0.058747366 -0.34852472
000200 6c 37 9a bd 7f a3 f6 3d 4a bf 04 bf ea 07 a1 3d
       -0.07530102 0.12042903 -0.51854384 0.078628376
000210 81 8e eb bd 92 da 1d 3d 0e 23 ba bc 33 b6 ef 3d
       -0.1150179 0.038538523 -0.022721794 0.117046736
000220 67 e8 4f 3d 11 35 76 3c cf 55 3d 3e 5c 7f 76 3d
       0.050758746 0.0150273 0.18489765 0.060180053
000230 ba d4 14 bf d3 68 6a 3c d2 e5 f6 3d 90 a1 ad bb
       -0.58137095 0.014307219 0.120555535 -0.0052988008
000240 81 ce 77 bd 1f bc 23 3d c2 80 5d bf 9a 1c 29 bc
       -0.06049967 0.039974328 -0.86524594 -0.010321761
000250 e7 d0 df 3d 48 4d 0d bc 0c c5 c5 3d 45 26 1a 3d
       0.10928517 -0.008624382 0.09656724 0.037634153
000260 12 76 b6 3d 78 21 10 bd 6b a3 04 3e 31 72 99 be
       0.08909239 -0.03518817 0.12952964 -0.29969934
000270 98 3f d7 be 2d a9 02 3d 7e df 86 bc 34 0d d8 bd
       -0.42040706 0.03189962 -0.016463991 -0.10549393
000280 da 8d f6 3d 07 78 0e 3d ff 74 66 3e f2 a1 20 bd
       0.12038775 0.034782436 0.22505568 -0.039216943
000290 95 f9 f6 3d b8 4f 37 3c 3c 41 0b 3f 7f 3c 01 3e
       0.12059323 0.01118844 0.54396415 0.12620734
0002a0 34 69 fc 3d a8 c6 f1 be 95 3f 10 3e ed 5d 6b 3d
       0.123247534 -0.47221875 0.14086755 0.05746262
0002b0 f4 d2 fa 3d 4c cf 38 3d 92 1b 94 3d 4e d9 e4 3d
       0.12247267 0.04511957 0.07231821 0.1117426
0002c0 de 5a e6 3d dc 5b 0e 3d b2 af 1a 3d 8a 23 d1 bc
       0.112478 0.034755573 0.037765212 -0.025529642
0002d0 60 c3 49 3d 0e d2 c2 bc 98 f7 3b be c5 b6 d7 3c
       0.04925859 -0.023781803 -0.18356168 0.026332268
0002e0 14 c5 ca 3d 55 7c df bd 14 eb da be 59 a3 40 bd
       0.09900871 -0.10912386 -0.42757475 -0.04703078
0002f0 6a a6 00 bd c7 59 ab bb ab 6d 88 3e 99 18 c7 3d
       -0.031408705 -0.005229208 0.2664617 0.097214885
000300 ee 1b 21 3d 5b 08 7f 3d 46 b9 77 3d 93 5d 5a bd
       0.039333276 0.062263828 0.060479425 -0.053311896
000310 37 07 04 3d b2 ff 75 3d e8 8c bf 3c 00 76 fe 39
       0.032233443 0.060058303 0.023382619 0.00048534572
000320 b4 4c 82 3c 28 13 5d bd e4 73 38 bd c1 fa 01 bf
       0.015905716 -0.053973347 -0.045032397 -0.50773245
000330 5f bc e0 3d 4f dd 8b 3e 56 bd 38 bd 00 9b 48 3d
       0.10973429 0.27317283 -0.04510244 0.048975945
000340 08 46 5e 3d 09 58 1e 3c b5 01 4c bd f4 b9 87 3d
       0.054266006 0.009664544 -0.049806315 0.066272646
000350 cd 23 59 3c 79 af 5c 3d de 02 0e bd 79 d2 6a 3d
       0.0132531645 0.05387828 -0.034670703 0.05732963
000360 0c b9 1f 3d f1 c8 36 3d 25 e5 bd 3c ec ad 50 3d
       0.038994834 0.044625226 0.023180554 0.050947115
000370 04 fe db bc 62 ff 3e 3e 9c 2a 4a be e6 9d ff bb
       -0.026854523 0.18652108 -0.19742817 -0.0078008054
000380 40 2e 51 bb 55 da a2 3d 8e 23 91 bc 2e 6c 65 3d
       -0.0031918436 0.079518 -0.01771715 0.05601137
000390 81 d2 1c 3d 93 e2 99 3d ec f9 1c 3d 0e 4b e4 3d
       0.03828669 0.07513919 0.03832428 0.11147128
0003a0 d6 b2 49 bf c1 e9 86 3d f7 c1 97 3e fa d4 9b 3c
       -0.78788507 0.06587554 0.2964017 0.019022454
0003b0 f7 f3 7e 3d 9b d4 2c 3d 67 0c 33 3d 7d 31 5e 3d
       0.06224438 0.042194944 0.043713 0.054246414
0003c0 a0 04 17 bb 3c f6 42 bd 02 d5 bd 3d ad af 08 bd
       -0.0023043528 -0.04759811 0.09269144 -0.033370662
0003d0 83 59 ed be 79 9b 9a 3d eb 16 b1 bc 77 1a a8 3b
       -0.46357355 0.07549185 -0.021617373 0.005130108
0003e0 55 91 76 3e 00 b1 05 3e 30 96 47 bd 8c 19 f0 bc
       0.24078877 0.13055801 -0.048727214 -0.029309057
0003f0 92 30 f3 ba dd f0 f9 3c ab 09 a0 3d 65 96 f2 3d
       -0.0018553904 0.03051036 0.07814344 0.11845092

layer3.bias f4 [5]
000000 dc aa 84 3b 34 3a c3 bc d1 32 a5 bc b8 61 94 bb
       0.0040486883 -0.023831464 -0.020165833 -0.0045282505
000010 d0 0a 54 3d
       0.051768124
