DDQN_policyNet.pth (torch, 176270 bytes, 6 tensors)

layer1.weight f4 [128, 70]
000000 95 c3 5d 3c f2 af a0 3d 13 d4 7f be f9 b2 86 bd
       0.0135354 0.07846059 -0.24983244 -0.06577105
000010 b4 6e f7 bc 2b e5 3a 3d ce da 2c 3d a3 a3 df 3d
       -0.030204155 0.045628708 0.042200856 0.10919883
000020 cd 34 c0 be fa 61 a2 bd 5e 8e 5f be 89 33 8c bd
       -0.37540284 -0.07928844 -0.21831653 -0.06845767
000030 47 f8 ca bd 3b 3f 10 be ef b3 0e bd 41 c7 90 bd
       -0.099106364 -0.1408662 -0.034839567 -0.07069255
000040 71 75 36 be 52 df 2a 3d 7b 11 f6 bd 6a 8b 1e bd
       -0.17818238 0.04171688 -0.12015053 -0.038707174
000050 c5 14 52 bd 75 d1 e8 3d 49 20 d8 3d 4a 97 01 3e
       -0.05128934 0.11368076 0.10553033 0.12655368
000060 1c 7a 84 bc e2 ec e7 ba 09 b7 fb 3d 85 69 41 bd
       -0.016171508 -0.0017694498 0.122907706 -0.047219772
000070 b5 17 79 bd 7b b6 df 3a 02 3f a9 bd 40 a9 fd 3d
       -0.060813624 0.0017067933 -0.08263971 0.123857975
000080 ff e1 a6 bd 7d 49 26 bd 63 dc 53 bd 57 b3 c7 bd
       -0.08148574 -0.040597428 -0.05172385 -0.09751003
000090 ba aa 37 bd ad 57 18 3e 73 f1 be 3c 23 08 11 3d
       -0.044840552 0.14877196 0.023308491 0.03540815
0000a0 46 44 a5 3c 26 e2 c3 bd 37 ef 0d 3d df cb 9b bd
       0.020174157 -0.09564619 0.03465196 -0.07607245
0000b0 0f 1c a8 bd 5d 7f af bd 65 59 a2 3d 23 df ac 3d
       -0.08208477 -0.085692145 0.07927207 0.084409975
0000c0 28 75 7b 3b 6a 0e c3 3b cf 74 e6 3d 54 00 00 3e
       0.003836939 0.005952646 0.11252748 0.12500125
0000d0 8a 06 2b 3c ed 36 23 3c 5c 11 b9 3d e8 e7 02 bd
       0.010438571 0.009961826 0.09036514 -0.031959444
0000e0 88 03 fc 3c 0e 25 78 bd cb 46 ac bd 3e 07 6c bd
       0.030763403 -0.060582213 -0.0841194 -0.057624094
0000f0 63 5f 1f 3d 44 cc 66 3d 6a f0 75 bd 57 24 33 3d
       0.038909327 0.056347147 -0.06004373 0.04373583
000100 67 0e c9 3d ae 43 c6 3c 98 62 05 3d 57 2a 45 3e
       0.098172 0.024202194 0.03256473 0.19254433
000110 8b d2 a7 3d 10 1a 9a 3d aa a2 bc bd 37 69 33 bd
       0.08194455 0.07524502 -0.09210713 -0.043801513
000120 76 67 40 3d 8d d0 ca 3d 05 03 d5 3d 5c fc d7 3d
       0.046973668 0.09903059 0.104009666 0.105461806
000130 83 dc c2 3c e1 db d4 bd 3d 25 34 3c 2f 23 99 bd
       0.023786789 -0.10393501 0.010995206 -0.07477414
000140 59 20 e4 bd d9 7c d9 3d 7d 1f ba 3d 7e 2d f4 bd
       -0.11138982 0.10619516 0.09088037 -0.119227394
000150 1a 44 b7 3c c9 f1 a4 bc 81 20 a1 bc 1f 1a 60 bd
       0.02237134 -0.020134823 -0.01966882 -0.05471241
000160 f7 43 3c 3d 59 fc 90 bd 74 78 33 3d cb 93 77 3d
       0.045963254 -0.070793815 0.043816045 0.06044368
000170 aa 3b af 3d d6 0d 37 3d 2b 45 f2 bd 34 ca 9e bd
       0.08556302 0.04469093 -0.11829599 -0.07753411
000180 8e 72 74 3d fa ee cc 3c 80 f3 be bd 62 f3 8c bd
       0.05967956 0.025016297 -0.09323788 -0.06882359
000190 7e 47 e6 3d 65 f0 a4 3d 83 76 55 bd b5 6e f6 bc
       0.11244105 0.08053664 -0.052114975 -0.030082086
0001a0 fe 2d e9 bd d6 ca 0c bb fd 55 b8 bd 9b d0 bc bd
       -0.113857254 -0.0021483204 -0.09000776 -0.09219476
0001b0 8b cc d7 bb 00 03 93 3c f1 7d 48 bd a7 3f 91 3d
       -0.0065856627 0.017945766 -0.048948232 0.07092219
0001c0 bd f5 94 bd ce 1b de 3d e8 bf a7 3d d2 6b ce bd
       -0.07273433 0.10845147 0.081909 -0.10079159
0001d0 c0 b0 f3 bc 51 b9 b0 3b 38 db 8e 3c 89 39 e8 3c
       -0.029747367 0.005393185 0.017438516 0.028347747
0001e0 91 1e 40 3d ba 99 ea 3b 87 df 6e bd 36 a8 67 3d
       0.04690415 0.007159439 -0.05831864 0.056556903
0001f0 c2 ce ea bd 9c 15 91 bd 15 1b f5 bc 56 79 6e bd
       -0.11465217 -0.070842 -0.02992014 -0.058221184
000200 33 44 2b bd 1a a1 c8 bd ac 46 d0 bc ae 4b d1 3c
       -0.041813087 -0.09796353 -0.025424324 0.025548782
000210 b7 77 9f bd 5a fe c8 bb 5d 3a af 3d 54 4f 49 bc
       -0.07786506 -0.0061338367 0.08556054 -0.01228698
000220 a4 b2 59 3b ea ef 28 bc 6e 28 c6 3c 80 a4 9b 3d
       0.003321805 -0.010311106 0.0241892 0.07599735
000230 83 62 0d 3e 68 3b ce 3d d6 04 bc 3d 02 24 93 3c
       0.1380711 0.100699246 0.0918061 0.017961506
000240 92 9b af bd 04 78 04 bd de 77 bd 3d 6d 41 c5 3c
       -0.085745946 -0.03234102 0.092513785 0.024079049
000250 9f 5a a0 be ff 9e b0 be 16 2b 94 be bb 86 1b be
       -0.31319138 -0.34496304 -0.28939122 -0.15188114
000260 0f 55 0a 3a 66 4c 90 3c 72 3d b7 3d d5 6b 99 bd
       0.0005276957 0.017614555 0.08947267 -0.074912705
000270 57 c1 df 3b 77 e4 84 bd be d3 df bc 66 19 c8 bc
       0.006828468 -0.06488889 -0.027322646 -0.024426173
000280 dd 22 2c 3d 82 b6 b5 3a 6a 7c 5a 3d f1 37 b2 bd
       0.042025436 0.0013863596 0.053341307 -0.08702076
000290 42 b5 01 3c 17 68 cf bb 16 e4 ee bc 07 44 cb 3d
       0.00791675 -0.006329547 -0.029161494 0.099250846
0002a0 20 6b a9 bd 48 97 5a 3d 5e 62 12 3e 8a b3 74 bb
       -0.082723856 0.05336693 0.14295337 -0.003733846
0002b0 d7 2d b8 3d ec fa 8a 3d 7f c7 ca bd 1a c6 cd 3d
       0.08993118 0.06786141 -0.09901332 0.100475505
0002c0 2a 9e 06 3d 73 df 9f bc d7 53 92 3d a3 76 c3 bd
       0.03286568 -0.019515729 0.071448974 -0.095441125
0002d0 1b fe 17 3d c1 f3 8d 3d f0 b3 e1 3d ee 36 9c 3d
       0.03710757 0.06931258 0.110206485 0.076276645
0002e0 7c d3 97 3c 21 48 76 3d 25 40 f8 bc ae cd aa b9
       0.01853346 0.06012738 -0.030304024 -0.0003257817
0002f0 98 5c ba 3c 3d 0c a1 3d 15 bb 14 3e e8 f8 61 3d
       0.02274923 0.078636624 0.14524491 0.055169016
000300 c4 f8 d3 bd 62 f2 2e 3b 82 82 90 bd a3 66 bf bd
       -0.10350183 0.0026694764 -0.070561424 -0.09345748
000310 86 1a 72 bd f5 90 ad 3d c3 7d b2 bd 8c 5e c3 3b
       -0.059107326 0.08474914 -0.087153934 0.0059621986
000320 0f 17 9d ba 5a 6f b2 3d 67 dc b3 bb 16 75 9d bd
       -0.0011985021 0.08712645 -0.0054889205 -0.07688348
000330 49 f2 03 bd 13 f9 1c 3d 41 36 3c bc f9 6f ee 3d
       -0.032213483 0.038323473 -0.0114875445 0.11642451
000340 1e d0 47 3d ad 33 a3 bd 68 e8 06 3a 73 84 b5 bc
       0.04878246 -0.07968841 0.00051463256 -0.022157883
000350 95 2a ab 3d c3 33 8a bc 5a 46 fd 3d 70 98 93 3c
       0.08357731 -0.016870385 0.12366934 0.018017024
000360 a4 63 81 3c 40 d8 7a bd 2b 87 9e be c1 5e 8b bd
       0.015794583 -0.06124139 -0.309625 -0.06805182
000370 15 80 67 bd f0 50 c9 3c ff 89 34 3d 55 b9 2e 3c
       -0.056518633 0.024574727 0.044076916 0.010664304
000380 4b 41 d1 bd a1 99 0a 3f e1 7d d1 be d0 72 71 ba
       -0.10217532 0.5414067 -0.4091635 -0.0009210529
000390 a9 c4 42 be 1b 5e 86 bc 97 4f d7 bd 5f c6 cc 3d
       -0.19020332 -0.016402295 -0.105132274 0.09998774
0003a0 b1 02 c0 bc 67 0c d3 3d c2 96 e5 bc 64 c3 c9 bd
       -0.023438783 0.103051 -0.028025988 -0.09851721
0003b0 3a eb 60 3d fc 53 5d 3e fc bc 49 bd 14 b3 81 3d
       0.05491183 0.21614069 -0.049252495 0.063329846
0003c0 9e a9 19 3c 30 5f 6b 3d b2 7d 1c be 68 4c 9c 3a
       0.009378819 0.057463825 -0.15282324 0.0011924626
0003d0 f1 9b 3e 3d f5 d9 e9 bd 02 ad 02 3e e6 60 46 3d
       0.046535436 -0.11418525 0.1276131 0.048432253
0003e0 d0 36 4b bd 50 6b 9f bd c8 a2 7b bd 63 15 32 3e
       -0.04961282 -0.0778414 -0.061434537 0.17390971
0003f0 ab 4a cd 3d 24 ef a3 bc 12 e1 94 bc 1f 4b b5 bd
       0.100240074 -0.020011492 -0.018173728 -0.08852219

layer1.bias f4 [128]
000000 bd 5d eb 3c f3 2e be bd 1e 18 e1 3d c9 06 a1 bd
       0.028731221 -0.092862986 0.10990928 -0.07862622
000010 78 e6 68 3d 6f cd 0e 3e 78 b8 de 3d db 5f 48 3d
       0.056860417 0.13945554 0.10875028 0.04891954
000020 27 a4 71 3d fe 62 ec 3c 8d 69 e2 3d c8 a0 3d bb
       0.05899444 0.028855797 0.110552885 -0.0028934944
000030 d3 be c2 bd 64 30 d8 3d eb 4e b8 bd 11 4d 05 3e
       -0.09509053 0.10556105 -0.089994274 0.1301768
000040 23 f6 d7 3b d3 3e 8f 3d b2 78 6f 3c 7c 8d 80 3d
       0.006590621 0.06994405 0.014616178 0.06276986
000050 b1 cc a6 3d 77 04 59 bd db 9e c6 3d e4 3d 92 bc
       0.081445105 -0.052982774 0.09698268 -0.017851777
000060 fb a5 ab bd f1 8f b5 bd 34 34 5a 3d c7 ea 07 3e
       -0.08381268 -0.08865345 0.05327244 0.13273154
000070 df 84 d4 bd 47 a5 8f 3d 33 7b 94 3d 5b 95 d8 bd
       -0.10376906 0.07013946 0.07250061 -0.10575362
000080 8f 5f 88 3d fc 01 44 bd e4 f8 98 3c d7 02 88 bc
       0.06658851 -0.047853455 0.018673368 -0.016602917
000090 1b 02 c7 3d 2d 2b a0 bd ff 24 80 3d 0f 25 38 bd
       0.097171985 -0.07820735 0.062570564 -0.044957217
0000a0 be 1e f7 3c f2 ae 21 3d eb 1e 85 bd a8 8e f9 bc
       0.030166026 0.03947348 -0.06500038 -0.030463532
0000b0 0f c7 45 3d dc 73 09 3d d5 ab 77 bd b4 9c d2 3d
       0.04828554 0.033557758 -0.060466606 0.10283795
0000c0 65 01 5c bd 09 e1 81 bd e5 aa b0 3d 37 2b 52 bc
       -0.053712267 -0.0634175 0.086263455 -0.012827686
0000d0 e8 37 2c 3d 04 3a d2 3d fd c2 48 bd d0 02 86 3d
       0.042045504 0.10264972 -0.04901408 0.06543505
0000e0 d9 43 18 3e c9 00 45 3d 31 37 fa 3d 57 e7 c2 3d
       0.14869632 0.048096452 0.12217558 0.09516781
0000f0 2f 54 ea 3d 58 76 08 3e a7 38 93 3d 90 8e 71 3d
       0.11441838 0.13326395 0.0718854 0.05897385
000100 c1 e8 a4 3d ae 64 b0 3d 15 64 04 3c fc b6 a6 3c
       0.08052207 0.08612953 0.008080502 0.020350926
000110 47 fd ad bc e5 2f 8c 3a 52 14 b7 3d 68 3f 19 bc
       -0.021238936 0.0010695426 0.08939423 -0.009353496
000120 db 8b 28 bd 25 2d 87 3d 6d e9 04 3d 5e af 4f 3d
       -0.041149 0.066004075 0.032449175 0.050704353
000130 12 2e b4 bc 7d 2f 9b ba c0 37 b0 bc 8a 66 04 3e
       -0.021994624 -0.0011839714 -0.021510959 0.1292974
000140 40 45 62 bd 64 e0 36 bd 08 82 3e 3c 57 66 d5 3c
       -0.055241823 -0.04464759 0.011627682 0.026049776
000150 4d ce d1 3d 68 34 1c 3d e6 75 08 bc 91 9f e7 bd
       0.10244427 0.038135916 -0.00832889 -0.11309732
000160 64 32 67 bd 7c 25 92 3d db e7 fb 3b 60 84 89 bc
       -0.05644454 0.07136056 0.0076875514 -0.016786754
000170 2b e4 f6 3c 31 2a ef 3d f1 e3 70 3c 81 65 00 3e
       0.030138096 0.11677969 0.014702783 0.1253872
000180 8b 62 20 3e a6 81 41 3c 68 b6 03 3e e6 fb 27 3d
       0.15662591 0.011810696 0.12862551 0.041011713
000190 fc 17 95 3d 26 d5 af 3d 2e 06 e8 bd a6 1d ba 3d
       0.07279965 0.08585577 -0.11329304 0.09087686
0001a0 50 db df 3d 85 a1 b6 3c e8 83 d3 3c 7c 84 43 3c
       0.109305024 0.022293815 0.025819734 0.011933442
0001b0 80 44 c0 bd 75 8e 29 3c 79 41 3b 3d 93 ad c8 3d
       -0.09388065 0.010348906 0.045716736 0.09798732
0001c0 91 7b 18 3e 8e 98 13 bd 47 f6 c5 3d de b0 cc 3b
       0.14890887 -0.03603416 0.09666114 0.00624667
0001d0 e3 ca 0e bd 37 79 50 bd 35 af a3 bd 5c 38 5e 3d
       -0.034861457 -0.05089685 -0.079924025 0.054252967
0001e0 b7 1b c0 bc 17 7d 4a 3d b4 42 cb bd fc 3f 0e bd
       -0.023450715 0.0494357 -0.09924832 -0.03472899
0001f0 85 64 b1 3d 1d c1 9f bc e7 73 12 3e 72 fe 90 bd
       0.08661751 -0.019501263 0.14302026 -0.070797816

layer2.weight f4 [256, 128]
000000 3b 60 06 bc de c7 70 3d 5b d8 ec 3d 11 98 ec be
       -0.008201654 0.05878436 0.11564704 -0.46209767
000010 72 dd d9 3d f3 06 c1 bc 93 c7 88 3c 73 c4 8a 3e
       0.106379405 -0.023562884 0.016696727 0.27103004
000020 99 ec 1f 3b e3 db 66 be 56 f8 af 3d c0 64 2e 3e
       0.0024402498 -0.22544818 0.08592288 0.1703062
000030 a0 41 0e 3e 5f ae bd 3c b4 3c af 3d 20 75 63 3e
       0.13892221 0.023154436 0.085565 0.22212648
000040 0b c9 9f 3d 1f 8b 03 3f 79 1d 3d 3e 31 fc 23 bd
       0.07802018 0.51384157 0.18468274 -0.04003543
000050 ec 3a 9f bd f3 bf 8b 3b e1 76 41 3d 11 c6 a1 3d
       -0.0777491 0.0042648255 0.047232512 0.07899106
000060 19 e1 69 3e 03 00 87 3e 91 26 e7 3d e6 4b c7 bc
       0.22839774 0.26367196 0.11286653 -0.024328183
000070 c7 9b e9 3d 28 96 95 bc 3f 25 28 bd bb cc c2 3d
       0.11406665 -0.018260077 -0.041051146 0.095117055
000080 50 0d 24 bc 73 74 51 3b 64 cd 55 bd 4c cb b3 3c
       -0.01001294 0.0031960278 -0.05219783 0.021947525
000090 d8 ca 30 3d 2c 79 d8 3d 4a 19 88 bc 69 7a e9 3b
       0.043162197 0.10569987 -0.016613621 0.007125188
0000a0 a6 86 93 bd 68 0f 1f bc 2d 1c bd 3c 8c 9b 07 3d
       -0.072034165 -0.009708263 0.023084724 0.033107325
0000b0 31 0c bb 3d c5 1d bc 3d bd 9c b4 3c 21 52 e6 3d
       0.09133185 0.091853656 0.022047395 0.112461336
0000c0 98 49 f6 3b 0f 7d 00 bc 92 6b 16 3e cd 55 c6 3b
       0.0075160973 -0.007842316 0.14689472 0.0060527087
0000d0 fb e7 43 3e 23 69 7e 3b f8 fa 53 3e fe 3a cb 3d
       0.19131462 0.003881999 0.20701206 0.09923361
0000e0 e5 c6 dd 3d 3e 98 0f bc 01 d7 40 bd 5d 30 88 3d
       0.10828952 -0.008764325 -0.047080044 0.066498496
0000f0 e1 80 18 3d da 16 04 3e e5 f4 f1 bc d4 99 88 3c
       0.037232284 0.12899342 -0.02953572 0.016674913
000100 46 90 86 3d cf b1 a3 be 1d c0 94 bd d1 1c 69 3d
       0.06570487 -0.31971595 -0.07263205 0.056912247
000110 57 d8 80 3d 73 f8 30 3e c0 b6 ad 3e 0c 07 4a 3d
       0.062912636 0.17282276 0.3392849 0.049323127
000120 c4 4e 9b be 5e 2a a7 3d fc e5 ae 3d c8 b1 87 3d
       -0.3033353 0.08162378 0.0853996 0.06625706
000130 62 ed 99 bc b1 a7 a7 bd 32 3d 08 3e 1e 0c dd bc
       -0.01878995 -0.081862815 0.13304594 -0.026983317
000140 fe 4e 34 bc a2 1f 90 3c 08 f4 45 3d 2d 01 0f 3e
       -0.011005161 0.017593209 0.04832843 0.13965292
000150 bb 58 0c 3c 8e 6a 97 3c a7 dc d9 3d c4 32 53 3d
       0.008566077 0.018483426 0.10637789 0.051562086
000160 cd df 3d 3d 12 08 03 3e d5 79 a2 3d 46 d5 ea 3d
       0.04635601 0.12796047 0.07933394 0.1146646
000170 50 48 bb 3a 8a 8b b3 3d f3 c5 de 3c a8 85 f6 3d
       0.0014288519 0.08766849 0.027193999 0.12037212
000180 a0 3c 5a 3c 5e 6d 33 3e e4 a6 82 be 8e 3d 86 3e
       0.013320118 0.17522189 -0.25517952 0.26218837
000190 70 b3 d3 ba 9b ae 2f 3c c6 d0 34 3b ca e9 06 3c
       -0.0016151499 0.0107227815 0.002759026 0.008234451
0001a0 a3 b6 5e 3d ed 15 45 bd 0a 27 53 be c0 c4 ad 3b
       0.054373395 -0.048116613 -0.20620361 0.0053029954
0001b0 ed 84 69 3c 80 ab a9 bd e8 48 39 3c 6f 8e c4 3d
       0.014252883 -0.08284664 0.011308886 0.095974796
0001c0 fa 23 45 bc 64 37 f6 3c 64 83 f4 3e 2a 86 60 3d
       -0.012032503 0.03005571 0.47756493 0.05481545
0001d0 01 7c 8c 3c 91 1a b5 be e4 fc d4 bc 85 b7 94 3d
       0.017148973 -0.3537183 -0.025999494 0.07261566
0001e0 b9 27 f8 3d dc 30 2c bb 04 09 86 bb e7 43 08 3e
       0.121169515 -0.002627424 -0.00409043 0.13307153
0001f0 d9 92 6a 3d 28 6b 04 3e 13 6e a3 3d 58 0a 7a 3e
       0.05726895 0.12931502 0.07979979 0.24418008
000200 53 5d 23 bd 30 8e 0c 3c a6 66 90 bd 6e 11 f0 3e
       -0.039883923 0.008578822 -0.07050829 0.46888298
000210 d3 57 f5 bd 98 e4 8b bd c1 11 a2 3b 8a 53 aa bd
       -0.11979642 -0.0683071 0.004945964 -0.08316715
000220 02 51 0a 3d 61 73 6c 3e 57 fe 96 bd 4f 37 5b be
       0.03376866 0.23090889 -0.0737273 -0.21407817
000230 12 75 93 be 14 ca b3 3d 5a 6d 9a 3d 4b dd 84 be
       -0.28800255 0.08778778 0.075403884 -0.25950083
000240 f7 3b 8b bd 0d 61 14 bf 78 b0 2c bd f7 35 c8 3c
       -0.06798547 -0.5796059 -0.04216048 0.024439795
000250 81 3e a7 bd 0f b4 91 bb 16 38 d7 3d ec e6 f6 bc
       -0.081662185 -0.0044465135 0.105087444 -0.030139409
000260 d9 90 70 be 13 96 1f be a6 ec 9d 3d 8a 1b a7 3d
       -0.23492755 -0.15584593 0.07711153 0.081595495
000270 76 0e e2 bc 42 44 65 bd e6 4e 0b 3e e1 5b a3 be
       -0.027594786 -0.0559733 0.13604316 -0.31906036
000280 24 70 4e bb 4f 31 ad bc a8 bf 3e 3d ad 23 75 3d
       -0.0031499946 -0.021141676 0.046569496 0.059848476
000290 7f ce 99 bd 8c 85 4f bd 16 9b ba 3d 2f db 3f 3d
       -0.07510089 -0.05066447 0.091116115 0.04683989
0002a0 e3 56 9e bd be 65 8e bb a4 b0 46 3d 2f 51 56 bb
       -0.07731416 -0.0043456247 0.0485083 -0.0032702198
0002b0 a5 d0 b6 3d 12 23 a0 bc d6 07 d0 3c 00 b4 70 3d
       0.089265145 -0.019547973 0.025394361 0.05876541
0002c0 83 e0 e2 bc 96 b6 fd 39 b6 74 4c 3c 26 4b 83 bc
       -0.027694946 0.00048391958 0.012478998 -0.016027045
0002d0 1f d0 81 3d 43 b3 07 bd f9 61 06 3e dc 97 c1 3d
       0.06338524 -0.03312994 0.13123311 0.09452793
0002e0 91 00 24 3e 66 5c f0 3d 53 96 5a bd 14 65 c4 bc
       0.16015841 0.117363736 -0.053366017 -0.023973979
0002f0 34 c1 ed 3d 77 5c ac bd 39 ef 28 3d 90 74 93 3d
       0.11609116 -0.08416074 0.041243766 0.07199967
000300 98 4f d2 bd 92 55 6b 3d b9 6e a3 3d 33 ee e9 bb
       -0.102690876 0.057454653 0.07980103 -0.0071389913
000310 af 75 90 bd 4c c1 ff bd 10 bf 32 bd 9c e4 8c bc
       -0.07053696 -0.1248804 -0.043639243 -0.017198853
000320 b4 59 18 3c 60 08 b9 bc 7f 1f 95 3c a8 1b a3 3c
       0.009298731 -0.022587001 0.018203495 0.019910648
000330 ec f1 01 be ec a0 80 bc e1 aa 9a 3d 94 4b 3c 3c
       -0.12689942 -0.015701734 0.07552124 0.011492629
000340 10 ad 12 bc 97 26 46 3b 4e 3a 96 3d 7d e8 ba bd
       -0.008952394 0.0030235404 0.073353395 -0.09126375
000350 79 6b b3 bd 66 88 ef bc a1 88 2e be bd 08 7f 3d
       -0.08760733 -0.029239845 -0.17044307 0.062264193
000360 e3 c2 17 3d b4 3f 13 3d 43 41 bb 3c 8e bb 82 bc
       0.037051093 0.035949424 0.022858268 -0.015958574
000370 dd e4 c1 3b 43 1c 09 be 6b 33 fd 3a 03 ed a5 3d
       0.005917175 -0.13389687 0.0019317692 0.08101847
000380 2f f2 8e 3a c8 dc a7 3c f2 e4 26 3e 4f ad 7b 3d
       0.0010905917 0.020491019 0.16298273 0.061444577
000390 d6 84 62 3d ca ab 29 bd cd 9d b6 bd 04 e2 a6 bc
       0.055302463 -0.041423596 -0.08916817 -0.020371445
0003a0 ea 99 a0 bd 02 ce ae 3d a9 c5 b1 3e 51 1c 5d bc
       -0.07841857 0.085353866 0.34721115 -0.013495521
0003b0 c9 ca 00 3d df a1 b5 bc 9c 4a 9a bd f1 0e 19 bd
       0.03144339 -0.022171913 -0.07533762 -0.037367765
0003c0 38 bf 5b 3d a5 5b e6 bd 21 72 b5 bd f7 0f 4e 3b
       0.053649157 -0.112479486 -0.08859659 0.0031442621
0003d0 89 81 2c 3d 4a e3 4e 3e 7d 72 a8 3d 41 c2 9e 3c
       0.04211572 0.20203891 0.08224962 0.019379737
0003e0 7f 20 44 be 1d 6b 3f 3b 94 d1 1f bd 18 b6 e4 bd
       -0.19153021 0.0029208132 -0.03901823 -0.11167544
0003f0 f1 15 fb bd b3 55 99 3d c2 ca 2b bd 5c 48 54 3d
       -0.12260044 0.07487049 -0.04194141 0.05182682

layer2.bias f4 [256]
000000 5b 68 00 3e a1 7c d9 3c 25 9d c2 3d ad ef cb bc
       0.12539808 0.026548686 0.09502629 -0.02489456
000010 44 65 18 3d 17 50 f2 bb 6b 58 a8 3d 5a 15 16 3b
       0.03720595 -0.0073948014 0.082199894 0.002290091
000020 66 8a 74 3d f4 82 96 3a ae 5a 8c 3d e5 04 8c bd
       0.0597023 0.0011483119 0.06853233 -0.06836871
000030 33 d3 01 3d 2e c2 70 3b 2f 6e 55 bd dd 28 e5 3d
       0.031695556 0.0036736834 -0.052107032 0.11189435
000040 cf 52 56 bd bf 31 49 3c b3 66 96 bd 96 fd a5 3c
       -0.052325066 0.012279927 -0.07343807 0.02026252
000050 32 84 32 3c 54 9f 9b 3d f9 fe 13 3b 3b e5 18 3d
       0.010895776 0.07598749 0.0022582395 0.037327986
000060 a3 5a 73 3d 3c ee 09 3d db 14 d8 3d 4b 23 f1 3c
       0.05941261 0.033674464 0.10550853 0.029435774
000070 1b eb 6e bd 54 de d7 3d f2 52 9c 3d 10 0a 82 3c
       -0.058329683 0.105404526 0.07633008 0.015873939
000080 01 43 a5 3d af 74 b3 bc dd 30 2b 3d 8d aa 77 bd
       0.080694206 -0.021906225 0.041794647 -0.060465384
000090 5f 71 92 3b 8d 2a 3b 3d 6b fb dc bb f7 0f 9f 3d
       0.0044690813 0.045694876 -0.0067438385 0.07766717
0000a0 da be 32 3d af 6e b1 3d 12 b3 94 bd 4c c1 bc bc
       0.04363904 0.08663689 -0.072607175 -0.02304139
0000b0 d8 cf 31 3d 7a 47 94 3d 7d 39 c3 bc 60 79 3d bd
       0.043411106 0.072401956 -0.023831123 -0.04625833
0000c0 76 62 85 bd 2e 97 d7 bc 67 d3 a3 bc 79 2a 8c 3c
       -0.065129206 -0.026317205 -0.019998265 0.017110096
0000d0 05 ae ab 3d 84 8e 6b 3d 3e 94 ab 3d 08 db f8 3d
       0.08382801 0.05750896 0.08377884 0.12151152
0000e0 82 9a f1 3d 3a c2 97 3d 29 2f 8e bb f0 e9 94 bd
       0.11797048 0.07410093 -0.004339118 -0.072711825
0000f0 0e 4a c6 3b 43 5f 9c 3d f6 81 fb bb 34 a9 32 bd
       0.0060513085 0.07635357 -0.0076754047 -0.043618396
000100 f2 1e 50 bd 4b 75 98 3d c2 bd 8b bd 07 50 5c 3d
       -0.05081076 0.07444247 -0.06823303 0.053787258
000110 90 06 54 bd 65 0c 8d 3d 40 16 8d bd 92 d3 b0 3d
       -0.05176407 0.0688713 -0.068890095 0.08634104
000120 5f 76 cf 3d 8b c7 cc 3c 7c 98 35 3b cb 17 7c bd
       0.10129999 0.024997493 0.0027709296 -0.06154613
000130 2e 18 5a bd c6 8c df bb 73 81 d3 3d 32 ab 90 bd
       -0.053245716 -0.0068222014 0.10327425 -0.07063903
000140 78 32 fd bc d5 00 27 3d f1 b2 b2 3d c8 5e 28 3c
       -0.030907854 0.040772278 0.087255366 0.010276504
000150 89 c6 84 3c c8 67 c0 3b 60 48 79 bc dd f7 31 3c
       0.01620795 0.0058717467 -0.015215009 0.010862318
000160 30 6d 01 bc c7 30 7b 3d 78 3a 97 bc c7 5a 12 3d
       -0.0078995675 0.061325815 -0.018460497 0.035731103
000170 f9 5e b1 3d 29 e5 5f bb 96 cb 11 3d 6a 6d c4 3d
       0.08660693 -0.003416369 0.035594545 0.095911816
000180 59 42 65 bd 41 cf 8a bd fb a5 12 3d 64 02 f1 bc
       -0.055971477 -0.06777812 0.035802823 -0.029420085
000190 e9 68 4c bd d6 ff 52 bd 61 04 80 bc 4e 7b 30 3d
       -0.049904738 -0.051513515 -0.015627088 0.043086343
0001a0 e9 b6 8f 3d c9 22 5e 3d cb 44 0d bd bb 7f 93 3b
       0.07017309 0.054232392 -0.034489434 0.0045013106
0001b0 46 8a 48 bd e6 41 99 3a 14 81 97 3c 1f dc cc 3c
       -0.048959993 0.0011692613 0.018494166 0.025007306
0001c0 20 2c 05 39 20 5c 66 3d fd 17 66 3d 8b de a7 bb
       0.00012700306 0.0562402 0.05617522 -0.0051229647
0001d0 13 5e 41 3d 2a c5 71 bd 79 4d bf 3c d3 52 b1 bc
       0.047208857 -0.05902592 0.023352372 -0.021645939
0001e0 90 21 1b bd 2b 42 d1 bb b1 52 ad bd df 33 c1 bc
       -0.037873805 -0.0063860617 -0.08463038 -0.023584304
0001f0 a6 e8 c0 bc 07 78 c2 bc 60 cd 6f bd fe f3 0c 3d
       -0.023548435 -0.023738874 -0.05854547 0.034412377
000200 6b b4 42 bd 37 74 82 3d 40 b9 00 3b c3 96 0c bd
       -0.04753534 0.063698225 0.0019641668 -0.034323465
000210 d1 af 04 3d 16 54 f8 bb 2e 40 9b bd 03 e4 06 bc
       0.032394234 -0.007578383 -0.07580601 -0.008233073
000220 a6 64 83 bb cc 3a 84 3d 5b 3a 15 3a 2f e6 9b 3d
       -0.004009801 0.06456527 0.00056925946 0.076122634
000230 85 7d 38 3d e7 d2 43 bd 1b d1 97 3c d0 8e 8a bd
       0.04504158 -0.047808554 0.018532326 -0.067655206
000240 d9 aa 7f 3d 50 23 01 bd f0 06 02 bd 5b 2d 8e 3c
       0.062418792 -0.031527817 -0.031744897 0.017355612
000250 5b 62 87 3d 97 9f 71 3d 62 ea 20 3c 8f 43 63 bd
       0.06610557 0.058990087 0.009821506 -0.05548435
000260 87 68 ea 3d 74 cd 36 3d fa da d4 3d 95 b8 5f bc
       0.11445718 0.04462953 0.10393329 -0.013654848
000270 fa 47 fb 3c 9f 75 19 3c 41 41 18 3d 4d e9 84 3d
       0.03067397 0.009366422 0.037171606 0.06489811
000280 f9 70 a7 3c 74 54 69 3b 38 e0 1f 3d 34 1c 68 bd
       0.020439612 0.0035603317 0.03903219 -0.05666752
000290 43 69 71 3d 0b f9 4a bd 02 2e 6d 3d 04 27 be 3d
       0.058938276 -0.049553912 0.057905205 0.092847854
0002a0 6b 04 f2 3b b1 2c 58 3d f1 c5 43 39 6e e1 3c bd
       0.0073857806 0.052776996 0.00018670388 -0.046113424
0002b0 58 5c 21 3b e8 1f 8e 3d 22 ed 1c 3d 86 7e 57 3d
       0.0024621692 0.069396794 0.038312085 0.052610897
0002c0 16 f9 89 3d c7 37 6b 3d ae b9 8b bd 3c 46 8a bd
       0.067369625 0.05742624 -0.06822525 -0.067516774
0002d0 90 56 d1 3a 0f 3c da bc b8 d1 b9 bb 26 6b 5c bc
       0.0015971232 -0.026639966 -0.0056707524 -0.013453281
0002e0 07 79 64 3d 1e 50 6f 3d fa fe a9 3c 1a f4 e1 3b
       0.055779483 0.058426015 0.020751465 0.0068955543
0002f0 99 a1 91 bd 1b af f4 3c a0 3d 78 3d 15 46 b2 3d
       -0.071109004 0.029868653 0.060605645 0.08704773
000300 17 4d e9 3c 72 0c 0c 3d 88 de a0 3d 6d c1 0e bb
       0.028479142 0.034191556 0.078549445 -0.0021782771
000310 6a 05 59 3d 49 91 ca 3d 66 6f 95 3d 92 1c 00 bd
       0.05298368 0.09890992 0.07296638 -0.031277247
000320 22 3a 3e 3d e6 27 5a bd 56 7e 33 bd c6 50 6c 3d
       0.04644216 -0.053260706 -0.043821655 0.05769422
000330 84 b3 82 3d b7 52 8e bd d3 6f 50 bd 8c cc a7 bd
       0.06381896 -0.0694937 -0.050887894 -0.08193311
000340 eb 6b 5d 3d 57 0c b0 bb f7 40 da bc 3e 43 13 bd
       0.054057997 -0.005372565 -0.026642306 -0.0359528
000350 e3 f3 c9 bc 68 7a af 3d e2 5e d3 3c c1 ee f8 3d
       -0.024652427 0.08568269 0.02580208 0.12154914
000360 02 54 41 3d 9e f6 ed 3d f6 4e b8 3d 59 22 52 3d
       0.047199257 0.11619304 0.089994356 0.051302288
000370 a0 25 88 bc be 13 80 3d cd 8b 00 bd 38 50 e2 bc
       -0.016619503 0.062537655 -0.031383324 -0.027626142
000380 ee 29 97 bd ae 30 9f 3b 20 78 ad 3d 87 2e a6 bc
       -0.07381044 0.004858098 0.08470178 -0.020285858
000390 93 e4 9e bd 10 3c 15 3d a8 ed 97 bc 93 f8 91 3d
       -0.07758441 0.036434233 -0.01854594 0.0712749
0003a0 4b f8 42 bd 68 b7 a0 3d c9 73 c8 bc 56 7a 1e bd
       -0.047600072 0.07847482 -0.024469273 -0.038690887
0003b0 5f 5a 48 bb 39 8f bd 3d 7c 8e 7d bc 7d c5 a6 3d
       -0.0030571443 0.09255833 -0.015475865 0.08143137
0003c0 e1 01 db 3b 6a 62 f5 bc 3b c7 db 3d c3 3e 61 3c
       0.0066835736 -0.029954154 0.107313596 0.013747874
0003d0 a4 c7 f4 3c 81 1e 66 bc 4e 85 2a bc 04 08 fd bc
       0.029880352 -0.014045359 -0.010407759 -0.030887611
0003e0 b9 de 09 bd df 45 24 3d 53 a6 4c 3d da 90 3e bd
       -0.03365967 0.040105697 0.049963307 -0.04652486
0003f0 0f 66 d4 3c ec 36 a1 bd 5e 66 ca bc 28 44 b0 3d
       0.025927572 -0.07871804 -0.024707016 0.0860675

layer3.weight f4 [5, 256]
000000 b2 d9 cd 3d 45 21 69 be 68 f6 ce 3d 96 db c0 bb
       0.10051288 -0.22766598 0.10105592 -0.0058855517
000010 db aa c7 3c a2 a8 27 bd 68 13 2e bd d8 d7 23 3d
       0.024373462 -0.040932305 -0.042498976 0.040000767
000020 6d 6b 3d 3c 00 3c bb b8 ec 54 6d 3d ea 23 06 bd
       0.011561257 -8.928031e-05 0.057942316 -0.032749094
000030 d3 1e 8d 3d b0 5f 13 3c e4 c3 c6 3c 14 8f 49 3d
       0.06890645 0.008994982 0.02426333 0.049208716
000040 ba b8 83 bf 80 96 83 be 40 b2 5b 3d 87 cf 86 bd
       -1.0290749 -0.2570076 0.05363679 -0.065825514
000050 26 64 72 bd b3 36 39 bd 8a 4a 82 be 13 a6 01 3e
       -0.05917754 -0.04521818 -0.25447494 0.12661009
000060 76 65 93 be 14 e6 b1 3d 79 fd 8e 3d df 58 26 3d
       -0.28788346 0.08686462 0.0698194 0.040612098
000070 ce 46 21 3a 62 df b9 3d 9f 23 9b 3d 79 7c a1 3d
       0.00061522133 0.0907581 0.075751536 0.078850694
000080 8c ba 97 be 70 2a 01 3d ec 5d 6e 3d 83 fb b0 3d
       -0.2963451 0.031534612 0.05819504 0.08641722
000090 ef 2e 95 3b 6c cc 86 3d 2e a3 39 bd 32 f4 2c bf
       0.004552714 0.06581959 -0.045321636 -0.6756011
0000a0 bc d9 ff 3d 11 db bc 3d 08 88 45 bc 2a ba 1d 3d
       0.124927014 0.09221471 -0.012056358 0.038507618
0000b0 3c 6c 6f 3d 5d 76 c8 3d e0 cc 0d 3b 54 80 10 bf
       0.05845283 0.09788201 0.0021637008 -0.56445813
0000c0 6e 42 1a 3d d9 22 2d 3d 3b 9f 85 3d c6 16 36 3a
       0.03766101 0.04226956 0.065245114 0.00069461425
0000d0 58 1f c6 39 88 e9 fd 3d 2e 9b 9f 3d a4 a4 56 bf
       0.00037788856 0.12398058 0.0779327 -0.8384497
0000e0 6c 6b 08 3e b8 bc 08 bd 94 00 e9 3d c6 ef 4d bd
       0.13322228 -0.0333831 0.113770634 -0.050277494
0000f0 d2 0c 65 ba e2 7a 17 bd 16 b7 5f 3d 7e 60 1e 3d
       -0.0008737567 -0.036982425 0.054617964 0.03866624
000100 44 ca d7 3c 18 dc f0 3d ca 5b 71 bd 48 5f 0b 3d
       0.026341565 0.117607296 -0.058925427 0.034026414
000110 44 71 f4 3d 08 c4 d6 bc 84 ca e9 be ee 00 05 3e
       0.11935666 -0.026216522 -0.4566232 0.12988636
000120 d5 5b 81 3c da 35 23 3e e3 87 e9 3d 58 0c db bd
       0.01579086 0.15938511 0.114028715 -0.10695714
000130 28 ca eb bc e6 26 5b 3d fe b2 02 3e b0 5d ed bc
       -0.028782919 0.053503893 0.12763593 -0.028975338
000140 e4 28 49 be 3b 19 4e bd 60 af fd 3c bc 05 33 3d
       -0.19644505 -0.05031703 0.030967414 0.04370664
000150 5c 6a 9e 3c 7b 6e b8 3d 94 9f d6 3d 34 1d 16 bd
       0.019337825 0.090054475 0.10479656 -0.036648944
000160 c5 2e ee bb 14 35 92 bc 1e 40 e8 3c ed ce 54 3d
       -0.007268759 -0.017847575 0.028350886 0.051955152
000170 68 78 d6 3d fd 17 be 3b 11 65 f5 3c 1f cb cf 3a
       0.104721844 0.0058011995 0.029955419 0.0015853381
000180 e0 0a f7 bc a0 07 fa bb 04 ca 1e 3d 38 4b c8 3d
       -0.030156553 -0.0076303035 0.038766876 0.09779972
000190 46 e9 45 bd 52 e6 01 bd 5f 60 b4 3d 60 2e 24 3b
       -0.04831817 -0.03171379 0.08807444 0.0025052056
0001a0 24 b0 18 3d 88 b4 7e 3d 82 d3 53 bd 64 e4 68 be
       0.037277356 0.062183887 -0.05171538 -0.22743374
0001b0 19 60 0f bd 1d 85 25 3d 9c b0 4b 3d 37 75 9d bc
       -0.035003755 0.04041015 0.049728975 -0.019220931
0001c0 cf 73 d2 3d ed ac 4d 3c 00 2b 08 bd ec 30 52 3d
       0.10275995 0.012553436 -0.033244133 0.051316187
0001d0 aa 16 7c bf ac d0 bf bc 9d 03 f5 be 87 0e c6 3e
       -0.9847208 -0.023414932 -0.4785432 0.38682958
0001e0 73 d4 d2 3d 96 4c da 3d 50 c8 d3 bb 9f 12 d8 3d
       0.10294428 0.10659139 -0.006463088 0.10550427
0001f0 98 7e 22 3d 0a 22 2b 3d 14 a1 70 3d 1e 39 a2 be
       0.03967151 0.04178051 0.058747366 -0.31684202
000200 3d 90 aa bd 95 e2 ef 3d ea 1a e0 be 2f 97 ae 3d
       -0.083282925 0.11713139 -0.43770534 0.0852493
000210 1c 36 a9 bd 92 da 1d 3d a8 3a c0 bc 3e ad eb 3d
       -0.08262274 0.038538523 -0.02346547 0.11507653
000220 ab d0 49 3d 11 35 76 3c de d6 38 3e 8f 6c 71 3d
       0.049271267 0.0150273 0.18050715 0.05894142
000230 d7 96 ee be ac f1 49 3c ae 18 f2 3d 90 a1 ad bb
       -0.46599457 0.0123256855 0.118211135 -0.0052988008
000240 c1 31 66 bd 1f bc 23 3d 75 0c 49 bf 8b c7 79 3c
       -0.056199793 0.039974328 -0.7853463 0.015245329
000250 e7 75 da 3d 48 4d 0d bc fa 10 c2 3d ce bb 78 3d
       0.10667019 -0.008624382 0.09475894 0.06072598
000260 73 74 b0 3d 78 21 10 bd 4c e8 02 3e 8c 65 85 be
       0.08615961 -0.03518817 0.12783927 -0.26054037
000270 3e 3c c5 be a1 e7 f7 3c 52 b3 90 bc a4 6c c8 bd
       -0.38522524 0.030261816 -0.017663632 -0.097863466
000280 43 91 f1 3d c6 8b fd 3c 15 37 61 3e f2 a1 20 bd
       0.117952846 0.030950438 0.21993668 -0.039216943
000290 f6 14 ee 3d b8 4f 37 3c 68 1b 00 3f f4 eb fa 3d
       0.11625092 0.01118844 0.5004182 0.12252036
0002a0 72 7e f8 3d 77 2d cb be 13 ae 0d 3e 37 35 66 3d
       0.121334925 -0.39683124 0.13835935 0.056203093
0002b0 49 50 f6 3d 4c cf 38 3d a3 89 8e 3d 43 6c e1 3d
       0.12027032 0.04511957 0.06959846 0.110069774
0002c0 f7 ae e1 3d dc 5b 0e 3d b2 af 1a 3d d6 45 9b bb
       0.110197 0.034755573 0.037765212 -0.0047385497
0002d0 60 c3 49 3d 0e d2 c2 bc 19 17 0d be 7a d9 c8 3c
       0.04925859 -0.023781803 -0.13778342 0.024517763
0002e0 4c 2f c6 3d cd 8a bf bd 47 a3 cb be 59 a3 40 bd
       0.0967699 -0.09352646 -0.39773008 -0.04703078
0002f0 6a a6 00 bd 72 82 d7 bb ee 0a 80 3e f8 28 be 3d
       -0.031408705 -0.0065768296 0.2500834 0.09285158
000300 ee 1b 21 3d c9 42 76 3d e4 53 6f 3d 5c 7c 18 bd
       0.039333276 0.060122285 0.058429614 -0.037227973
000310 fb 1b f9 3c be cd 67 3d e8 8c bf 3c 00 76 fe 39
       0.03040885 0.056592695 0.023382619 0.00048534572
000320 b4 4c 82 3c 28 13 5d bd e4 73 38 bd 54 05 e0 be
       0.015905716 -0.053973347 -0.045032397 -0.43754065
000330 e0 c9 db 3d e1 2a 85 3e 56 bd 38 bd 00 9b 48 3d
       0.10731864 0.26009277 -0.04510244 0.048975945
000340 17 c4 53 3d 96 55 45 3c b5 01 4c bd f4 b9 87 3d
       0.051700678 0.012044331 -0.049806315 0.066272646
000350 5f 19 41 3c 35 f3 53 3d de 02 0e bd 8b 80 64 3d
       0.011785834 0.051745612 -0.034670703 0.05578665
000360 0c b9 1f 3d 96 50 2d 3d 94 2b b0 3c e4 27 44 3d
       0.038994834 0.04231318 0.021505155 0.047889605
000370 04 fe db bc 9b 04 27 3e 29 48 12 be e8 85 0c bc
       -0.026854523 0.1631035 -0.1428534 -0.008576848
000380 40 2e 51 bb 30 43 9f 3d 64 8d 9d bc 2e 6c 65 3d
       -0.0031918436 0.07776487 -0.01923246 0.05601137
000390 81 d2 1c 3d 13 e7 94 3d ec f9 1c 3d 41 79 dd 3d
       0.03828669 0.072706364 0.03832428 0.10814143
0003a0 6c 1a 2c bf 20 cd 82 3d 35 05 91 3e e8 63 8e 3c
       -0.67227817 0.06386781 0.28324285 0.017381623
0003b0 3b 53 76 3d c3 61 26 3d 48 de 2c 3d 09 98 50 3d
       0.06013797 0.040620577 0.04220417 0.050926242
0003c0 a0 04 17 bb 3c f6 42 bd 43 ae b9 3d ad af 08 bd
       -0.0023043528 -0.04759811 0.09066441 -0.033370662
0003d0 e8 71 e2 be 86 84 95 3d 12 cd bb bc 77 1a a8 3b
       -0.4422753 0.073006675 -0.022924934 0.005130108
0003e0 35 e8 67 3e 91 9b 02 3e 30 96 47 bd 8c 19 f0 bc
       0.22647174 0.12754656 -0.048727214 -0.029309057
0003f0 d0 27 59 bb dd f0 f9 3c 28 36 98 3d ff 2d e9 3d
       -0.0033135302 0.03051036 0.074322045 0.11385726

layer3.bias f4 [5]
000000 36 07 41 3b fb 3e c4 bc ef 9c a9 bc d5 75 83 bb
       0.002945376 -0.023955813 -0.020704715 -0.0040118494
000010 f4 ff 4c 3d
       0.050048783
