DQN_policyNet.pth (torch, 166020 bytes, 6 tensors)

layer1.weight f4 [128, 50]
000000 fd 60 af 3d 32 6c 26 3e da e4 ad bd 70 ee a9 bc
       0.08563421 0.1625221 -0.084909156 -0.020743579
000010 ea 26 87 3b ab 36 ff 3d 7d cd 33 bd 62 c5 70 3e
       0.004124512 0.12461599 -0.04389714 0.23512796
000020 3e 6f 90 be bc 1a f5 3c 2b 08 34 3d 6d de 7e bd
       -0.2820987 0.029919975 0.043953102 -0.06222384
000030 58 6b 23 be 35 0a 74 be 21 b4 31 be b5 46 bc 3d
       -0.15958917 -0.23832019 -0.1735387 0.09193174
000040 42 c8 1a 3e 20 60 b1 3d 53 93 55 bd 75 f2 de bd
       0.15115455 0.086609125 -0.052142452 -0.10886089
000050 94 5f 0d 3e 50 fa 57 3e 59 cd 14 bd 95 62 f1 3d
       0.13805991 0.2109158 -0.036328647 0.11786381
000060 66 e9 d2 bd 9b 31 d0 3d f4 eb 37 3e 0a 2b 3b be
       -0.102984235 0.101657115 0.17961103 -0.18278137
000070 a2 79 cb bd ae 18 bc bd 5d 91 61 3c 62 aa 33 3e
       -0.09935309 -0.09184395 0.013767567 0.17545465
000080 8d cb 02 be a9 13 80 bd 35 0d e3 bd 9e 45 9a bd
       -0.12772961 -0.0625375 -0.110865034 -0.0753281
000090 b0 c6 2d bd ba fc bd 3d f4 c8 8f 3d 2d 45 51 bc
       -0.04242581 0.092767194 0.07020751 -0.01277284
0000a0 e9 75 36 3d 48 7a 21 bd 50 4e 26 bd 8f 6d 07 be
       0.04454604 -0.039423257 -0.04060203 -0.13225387
0000b0 a7 05 0a be a9 9b 8e bd 57 e0 b8 3d 5f 0a 38 3e
       -0.13478719 -0.069632836 0.090271644 0.17972706
0000c0 46 bc 0f bd 84 15 a1 bd 91 e2 2c 3e a3 30 60 3e
       -0.03509166 -0.07865432 0.16883303 0.21893553
0000d0 b4 d0 61 3d 79 7a b0 3d 2a 0c f3 3d 98 02 a0 bb
       0.055130675 0.0861711 0.118675545 -0.0048831217
0000e0 1e 34 ce bc 7a 7d 21 be ea 81 a6 be fe e9 f0 bd
       -0.025171336 -0.15770522 -0.32520992 -0.117633805
0000f0 c5 ca 11 3e c4 ac f3 3c e6 ad e5 bd aa 72 95 bd
       0.14237507 0.029745467 -0.11214809 -0.07297261
000100 62 d5 c4 3b df f4 77 3d c0 74 c1 3d 11 29 b8 3c
       0.0060068825 0.06053626 0.094460964 0.02248052
000110 7c 54 26 3e 40 91 f4 3d 92 a5 fa bc 06 a6 32 3d
       0.16243166 0.11941767 -0.030596528 0.043615364
000120 19 01 14 3d 3c cc 35 3e 48 2e a0 3d b9 0b 50 3e
       0.03613386 0.1775369 0.078213274 0.20316972
000130 c7 a7 a3 3d 44 e9 e8 bd 31 a0 7c 3d 1a a9 e7 bd
       0.07990985 -0.11372617 0.061676208 -0.113115504
000140 f8 b9 91 bd 66 8b 32 3e 8c c6 e9 3d fa 5d bc bd
       -0.07115549 0.17435989 0.11414823 -0.09197612
000150 7a 64 5f 3d b0 5c c7 3c ea d6 8a 3c 4a 86 bc bd
       0.05453918 0.024336189 0.016948182 -0.09205301
000160 6b 39 c9 3d 3a 7c 0b be 09 fe 9f 3d d1 02 ce 3d
       0.09825405 -0.13621607 0.07812125 0.10059131
000170 36 ed a3 3d 39 e8 d6 3d 78 43 1b be 74 d2 b5 bd
       0.08004229 0.10493512 -0.15162456 -0.088780314
000180 e3 7e a7 3d 76 0f 87 3b 46 b7 4d bd ad 57 0d be
       0.081784986 0.004121716 -0.05022361 -0.13802977
000190 55 55 12 3e 6f 37 d7 3d 85 c5 38 be 2f 25 13 bd
       0.14290364 0.1050862 -0.18044098 -0.035924133
0001a0 aa 34 47 3d c7 e8 ef 3b f3 ca 1d bf cc 17 ff be
       0.04863421 0.0073214504 -0.616378 -0.49822843
0001b0 4f 33 36 be 65 66 24 bf da d2 44 bd 25 9a c2 bd
       -0.1779301 -0.6421874 -0.048052646 -0.09502057
0001c0 5a 9e 1e be 14 f6 bd 3d cd a2 78 bd 7e 0a e0 bd
       -0.15490094 0.09275451 -0.060702134 -0.10939501
0001d0 0b af fd bd 6a 7e 1d be ee fc 8a 3d 94 69 60 be
       -0.123869024 -0.15380254 0.06786524 -0.21915275
0001e0 18 dc 85 3d 46 c7 04 3d f6 43 d0 bd 25 49 28 3e
       0.0653612 0.032416604 -0.101692125 0.16434152
0001f0 ea aa ae be 5e 77 97 bd 5a ba 95 bd 16 d4 24 3d
       -0.34114772 -0.07395814 -0.07310934 0.040241323
000200 79 ee 9a 3d c6 89 85 be a3 a2 a5 bc 73 5e ae bc
       0.07565016 -0.26081675 -0.020219153 -0.021285271
000210 67 d7 47 bd 70 a8 04 3d f6 2d 8a 3d 0b 64 19 bc
       -0.048789408 0.032387197 0.067470476 -0.009362231
000220 4b 29 a4 3c 57 ab e2 bb 3e 1e 01 3e 30 b0 94 bd
       0.020039221 -0.006917398 0.12609193 -0.072601676
000230 b0 51 ff 3d 6f 4c 84 3d 1c e8 b1 3d 2f 7f c7 3d
       0.124667525 0.06459891 0.086868495 0.09741055
000240 0b 3c 59 be c3 e7 5b bc db 8d 2a 3e b4 fe 01 bd
       -0.21214311 -0.0134219555 0.16655676 -0.031737044
000250 0f a0 94 bc 35 7a f5 bd e4 f8 3e bd 6f fa 09 bd
       -0.018142728 -0.119862 -0.04662408 -0.033686098
000260 4d c1 f3 bc ec 0d 1a 3e f5 b2 30 3e 06 87 4f bd
       -0.029755259 0.15044373 0.17255767 -0.050665878
000270 12 a0 de 3d 09 a6 22 be 46 4f 7e be bd 0d 89 be
       0.10870375 -0.1588365 -0.24834928 -0.26768294
000280 a2 8e 6f 3d 62 3f 1b bc e0 37 50 be 5d 14 66 be
       0.058485635 -0.009475561 -0.20333815 -0.22468705
000290 d5 46 2c be e2 4f b3 3d dc 29 05 3d 36 52 38 3c
       -0.16823895 0.08755471 0.032510623 0.011250069
0002a0 04 d0 a1 bd 13 1f b3 bd 17 23 57 3e aa 34 5c 3d
       -0.07901004 -0.08746161 0.2100948 0.053761162
0002b0 e9 66 05 3e 11 81 dc 3d e8 1e 77 be 43 68 33 3e
       0.13027538 0.10766805 -0.24132884 0.17520241
0002c0 99 d9 4a 3d 48 03 1a bd 0a 16 33 3e ca 1d 48 be
       0.049523924 -0.037600785 0.17488876 -0.19542614
0002d0 b6 be aa 3d 8e 3b 03 3d b7 58 fc 3d 2a bc c3 3d
       0.083371565 0.032039218 0.123216085 0.09557374
0002e0 11 e2 55 3d a0 bb d8 3d ef bf 9e 3c b4 82 88 bd
       0.052217547 0.10582662 0.01937863 -0.06665555
0002f0 b1 2b 9a bd 30 be 5b bd 24 f0 17 3e 80 19 12 3e
       -0.07527865 -0.053648174 0.148377 0.1426754
000300 f8 1c 27 be e7 6a 8e 3d 0f f0 19 be 80 a8 ad bd
       -0.16319644 0.06953984 -0.15032981 -0.084794044
000310 27 ed 9b bd e8 b4 9e 3d 0f 36 33 bd b2 3f 82 bd
       -0.076135926 0.07749349 -0.043752726 -0.06359805
000320 e9 e5 a8 3d 68 ad 2b 3e 8a 57 e1 bd 40 42 e7 bc
       0.08246977 0.16765368 -0.11003025 -0.028229833
000330 31 97 79 bd 95 b7 33 3e b5 c3 47 be 4b 8e fd 3d
       -0.060935203 0.175505 -0.1950825 0.12380656
000340 89 54 61 be 02 b4 64 bd bf 8e 9a 3d 44 eb 9c bd
       -0.22004904 -0.05583573 0.07546758 -0.07662061
000350 0a c0 99 3c 81 b4 14 be 24 15 b9 bd 37 ab c1 3d
       0.01876833 -0.14521982 -0.090372354 0.09456485
000360 85 86 04 bd a5 3b be bd c1 3d 23 3e 17 02 d8 bd
       -0.03235485 -0.0928872 0.15941526 -0.105472736
000370 8d ea 87 3d ff 6e 61 3e 64 99 ba 3d a3 1b 32 3d
       0.06636534 0.22014998 0.09111288 0.043483388
000380 3b a4 18 be 31 18 16 3e 11 9f 82 bd 43 27 a8 bd
       -0.14906399 0.14657666 -0.06377996 -0.082106136
000390 95 f7 a3 bc 96 99 c9 bb 48 39 78 3d 8c a3 22 3e
       -0.020015517 -0.006152342 0.060601503 0.158827
0003a0 72 fe b2 3b 44 d1 2d 3e 6e d9 b4 3d 16 3f 2f bd
       0.005462461 0.1697436 0.08830534 -0.042784773
0003b0 c5 66 ba 3d 57 77 0d be 84 0a c9 bc 40 b2 5e bc
       0.09101633 -0.13815056 -0.024541147 -0.013592303
0003c0 d2 aa 94 3d 9e 0b 06 3e 5c 18 9c bd 81 e0 24 3d
       0.07259144 0.13090369 -0.07621834 0.040253166
0003d0 b6 59 c4 3d f4 64 00 be e2 16 f1 3d da 16 c8 bd
       0.095874235 -0.1253851 0.11771943 -0.097699836
0003e0 be 45 09 3d f8 aa 2b bd ca 00 ac bd 3e 8c 16 3c
       0.033513777 -0.041911095 -0.08398588 0.00918871
0003f0 2b 0d dc 3d c2 1a 50 bd c2 f3 ab bd 7d 28 7d bd
       0.10744699 -0.05080677 -0.083961025 -0.06180619

layer1.bias f4 [128]
000000 05 1a 03 3e 82 58 ac 3c 2e 7e 01 bd f4 ef e0 3d
       0.12802894 0.021038298 -0.031614475 0.109832674
000010 cb 28 da 3d d0 6e e2 3d 5b 73 42 3e f5 18 c0 3d
       0.10652312 0.11056292 0.18989317 0.0937976
000020 de 37 08 3e cf 1e 92 3b a4 e6 a6 3d ef 34 ef bd
       0.13302562 0.004459239 0.0814946 -0.11680018
000030 ad 7b 03 3e 32 ac 7c 3d 14 21 46 bd 99 ff dc bd
       0.12840147 0.061687656 -0.04837139 -0.10790939
000040 72 1f 61 3d ae bb 4a bb 6c 20 b4 3c 83 40 fc bd
       0.05496163 -0.003093462 0.021988116 -0.12316992
000050 f8 7a 98 bd ec 2d 46 3e f5 72 8e bd c5 c7 6b 3d
       -0.074453294 0.19353455 -0.0695552 0.057563562
000060 4e aa 5e 3d a9 ec 6f 3d 0e 2f 0b 3e 96 91 42 3e
       0.054361634 0.058575306 0.13592169 0.19000849
000070 bb 6b 0e 3d f6 4a cc 3d c2 d5 f8 3d b1 0d b3 3d
       0.03477071 0.09975235 0.12150146 0.08742846
000080 8a 2d fb 3d 33 3f 61 3e 12 8f 92 bd 8a 66 14 3e
       0.12264545 0.21996765 -0.07156195 0.1449224
000090 1f 22 8b bd da 55 86 3d af 29 b2 bd dd 1b bf 3d
       -0.067936175 0.06559344 -0.08699357 0.093314864
0000a0 86 b7 dd bd 89 3d 01 3b da 2d df 3d 39 4b fe 3c
       -0.1082602 0.0019720516 0.10897417 0.031041728
0000b0 1d ba ce 3d 64 6d 5c 3e a0 16 00 be 19 5f b4 bd
       0.10094092 0.21526104 -0.12508631 -0.08807201
0000c0 c2 d4 ed bc 84 38 23 3e ed 55 7b 3c e7 89 ab bc
       -0.029032115 0.15939528 0.0153403105 -0.02093978
0000d0 a9 e3 fb bd 5d de 40 3e 06 fe 04 3e 97 bc d2 ba
       -0.12299282 0.18834825 0.12987527 -0.0016077933
0000e0 8d 41 14 3d 81 c6 c7 3c f6 8c 03 3e 16 3f f7 3b
       0.036195327 0.024386646 0.12846741 0.007545362
0000f0 3e f1 34 3e e9 79 6e 3e e3 db a4 3d a1 6d 75 3d
       0.17670152 0.23288693 0.080497526 0.059919003
000100 72 71 00 3e 8e e7 14 3e 6c 5e d0 3a a3 38 d4 3c
       0.12543276 0.14541456 0.001589728 0.025905913
000110 a4 8b 5d bd 83 93 cc 3d a0 6e 8f bc 02 d2 26 3e
       -0.05408825 0.09989073 -0.017508805 0.16291049
000120 58 3b e3 bc 9b 90 0c bd 30 7f 1b 3e 8c d9 98 bc
       -0.027738258 -0.034317594 0.15185237 -0.018658422
000130 72 5a c4 bd 6b 5f cf 3d 94 2d c9 3c ff 03 10 be
       -0.095875636 0.101256214 0.024557866 -0.14064024
000140 2a ac d7 bd 33 31 34 3d 80 cc d5 3d 18 96 f4 3c
       -0.105308846 0.043992233 0.10439396 0.029856727
000150 f5 b5 0b 3e 0b 54 35 bd f7 d6 bd bd 0f bd 85 3d
       0.1364363 -0.044269603 -0.09269517 0.06530201
000160 b4 54 c2 3c 96 84 45 3d b7 4b ac 3d f5 2c 0e 3e
       0.02372203 0.048222147 0.08412879 0.13884337
000170 34 36 ed bd 6e 95 5b 3e df 14 09 3e fd aa 5a bd
       -0.11582604 0.21443722 0.13386868 -0.053385723
000180 07 52 b6 bd 13 1b 9c bc e1 c8 19 bd 46 a5 93 3c
       -0.08902364 -0.019055879 -0.03754509 0.018023144
000190 8e a5 1f 3d ae 85 a8 3d e6 72 e0 3c 45 1c e2 bd
       0.038976245 0.082286224 0.027398538 -0.11040548
0001a0 34 09 25 3e 67 fb 55 3e 4a 25 dc 3d f4 8d f1 3d
       0.16116792 0.20896684 0.107493 0.117946535
0001b0 77 be 3c bd ed c8 05 ba a4 da 97 bd ba cf 58 3e
       -0.04608008 -0.00051034876 -0.07414749 0.21172991
0001c0 7d 9c 00 be 0d 45 51 3e 23 82 1c 3e 31 46 98 bd
       -0.12559696 0.20436497 0.15284018 -0.07435263
0001d0 6d b1 34 bd b9 46 07 3e 8c 01 e4 bc a1 9c 05 be
       -0.04411452 0.13210572 -0.027832769 -0.1304803
0001e0 3b 74 cf 3b 0c 34 3f 3e e4 f9 af bd 77 d4 67 bd
       0.0063309944 0.18672198 -0.08592585 -0.056599107
0001f0 4e 3f 64 bd c1 e8 2a 3e 7a 22 0f 3e 99 f6 0f 3e
       -0.055724435 0.16690351 0.13977996 0.14058913

layer2.weight f4 [256, 128]
000000 15 e1 b3 3c 28 f0 5f bd 3d 73 16 be 49 4e 1a 3d
       0.021957913 -0.05467239 -0.14692397 0.037672315
000010 49 26 be 3d e3 9e a9 bd 89 0c fa bd aa 66 8d 3d
       0.09284646 -0.08282258 -0.12209422 0.06904347
000020 5d 4b bb 3c ca 95 99 3d f0 3b 61 3c b3 7f b4 3d
       0.022863084 0.07499273 0.0137472 0.08813419
000030 f9 41 3a 3d 04 2a ce bd ce 12 8e 3d 80 3c be 3c
       0.045473073 -0.100666076 0.069371805 0.023222208
000040 bc 36 0a 3c a0 ba 22 be 53 7c 2f bd 1b f9 f3 3c
       0.008435901 -0.15891504 -0.042843174 0.029781869
000050 2e 3f c9 bd 54 d8 53 3d d9 c6 18 bd ac bc 55 bd
       -0.09826504 0.05171998 -0.03729901 -0.052181885
000060 f4 8b 7a be 74 8f 0a be 95 be c3 3d fe af 51 bd
       -0.2446745 -0.13531286 0.09557835 -0.05119323
000070 83 d0 0c bd a9 0f 92 3d 44 5e 40 3e 23 dc 1b be
       -0.03437854 0.07131893 0.1878596 -0.15220694
000080 fe a3 18 bd 77 04 15 3d 32 69 8d be e4 56 ab bd
       -0.03726577 0.03638121 -0.2761932 -0.083661824
000090 f4 df 91 bd b7 4d 3c bd 02 17 50 3d 83 8d 28 bd
       -0.07122794 -0.045972552 0.050803192 -0.04115058
0000a0 67 90 3a 3e cb d7 55 be e4 b2 16 3d ba b4 11 bd
       0.18219148 -0.208831 0.036791697 -0.035572745
0000b0 48 7b 9f 3c 38 80 52 bd 13 a9 6e bd ac 29 70 bd
       0.019467965 -0.05139181 -0.05826671 -0.05863349
0000c0 79 e4 49 3d ea 16 0c be bc 89 88 bd 7a b1 87 3d
       0.049290154 -0.13680616 -0.06666896 0.06625648
0000d0 02 02 64 bd f9 56 54 bd 38 01 d6 39 3f 1b b9 bd
       -0.055665977 -0.051840756 0.0004081817 -0.090384
0000e0 95 5b a4 bd 62 d3 1b be 52 be 6f bd fd 02 20 bd
       -0.080252804 -0.15217355 -0.058531113 -0.03906535
0000f0 64 5a ba 3d aa 9f 90 3d 65 1d b0 3d 63 5d 59 bd
       0.09099272 0.070617035 0.085993566 -0.053067576
000100 bc a9 b3 bd 6f e5 58 3d 14 29 81 3d 59 c5 1c bd
       -0.08772609 0.05295318 0.06306663 -0.038274143
000110 75 63 b6 3d 6f e8 38 bd cd b7 c1 3c 39 cb 18 bf
       0.08905689 -0.04514354 0.023647213 -0.59685093
000120 bb a7 3b 3d 95 56 4e be b7 d5 8f bd 01 54 3b 3d
       0.045814257 -0.20150216 -0.07023185 0.04573441
000130 37 df 04 bd d7 b5 c9 ba 13 5d f0 bc 16 50 18 3e
       -0.032439437 -0.0015389276 -0.029341256 0.148743
000140 77 6a da bc 39 9e 4e 3d d7 cf a9 3c 93 e8 9a 3d
       -0.026662095 0.05044386 0.020728989 0.07563891
000150 68 81 e2 ba 17 e2 08 ba 6f 13 8f bd 78 47 b3 3e
       -0.0017280998 -0.00052216783 -0.069861285 0.35015464
000160 94 21 a4 bd 09 f5 49 bd de d3 5d bd 56 5d 0c be
       -0.08014217 -0.04930595 -0.05415713 -0.1370748
000170 b0 1b 8f be 38 64 74 bd e8 f0 14 be c7 93 05 be
       -0.2795081 -0.05966589 -0.14545023 -0.13044654
000180 28 62 4d 3d 29 72 c8 3c 88 88 6d 3b 38 ae 9d bd
       0.050142437 0.024468498 0.003624471 -0.07699245
000190 7c f0 54 3d 4d 36 1e be 04 0b b3 3b 81 e8 6c 3d
       0.051987156 -0.15450402 0.0054639596 0.05783892
0001a0 af 56 db bd 79 c2 26 bb 78 b9 91 bd a2 0d b8 3c
       -0.10709893 -0.0025445505 -0.071154535 0.022467438
0001b0 19 2c e7 3c 47 5f 80 be 19 24 ed 3d 3b 93 96 3d
       0.02821927 -0.2507269 0.11579151 0.07352301
0001c0 07 ab 4d bd 57 ca f2 3d 56 a2 3c bd 35 c7 9b 3c
       -0.050211933 0.118549995 -0.046053253 0.019015888
0001d0 49 8a a1 3d 27 c1 e8 bc b5 fc 09 3d f4 72 45 bc
       0.07887704 -0.028412415 0.033688266 -0.012051333
0001e0 19 00 ee bc 75 6b ca 3c 53 db 79 3e e2 08 4a 3d
       -0.029052781 0.024709443 0.24400072 0.049324878
0001f0 0d 58 d3 3e ce 30 13 3d a5 98 90 3b 0a 0a 8b 3d
       0.41278115 0.035935216 0.004412728 0.06789024
000200 2d 2e ac 3d 5f cd d2 bc c1 84 90 3d c2 a8 56 bc
       0.08407245 -0.025732694 0.07056571 -0.013101758
000210 e1 99 64 3c 7a 71 3c 3b 0b 77 9f 3a 10 bc e0 bb
       0.013952703 0.002875416 0.0012166215 -0.0068583563
000220 c3 eb a5 bd 88 00 fc 3b 2e 1a a6 3d 8b 7e ed 3c
       -0.081016086 0.007690493 0.08110462 0.028991004
000230 f9 42 a7 bd 6f 2c 87 3c de 92 6a bc 6b 70 d5 3c
       -0.08167071 0.01650068 -0.014317242 0.026054582
000240 78 3d a6 bd 9f 15 72 3c d3 5e 81 bd 79 0e 4e 3c
       -0.08117193 0.014775663 -0.063169144 0.012576693
000250 95 e6 59 3d 2e 75 7d 3d 62 52 6f bc dd cc a0 3d
       0.053198416 0.06187933 -0.014607044 0.078515746
000260 f6 5b aa bb 75 5e 50 bd f2 37 29 3d 55 e2 7a 3b
       -0.005198951 -0.05087133 0.04131312 0.0038281877
000270 53 d2 8e bd f0 2f 66 3d be 73 ae 3d 0c 3e 46 3d
       -0.0697371 0.05619806 0.0851817 0.048399016
000280 40 99 66 bc b4 de 97 bd 0d 15 9b 3d 3c d1 40 bd
       -0.014074624 -0.07415524 0.075723745 -0.04707454
000290 2b 22 5a 3c 1c ca a3 bd ea 55 5f 3d 80 5e 91 3c
       0.01331381 -0.07997534 0.054525293 0.017745256
0002a0 a4 53 ac 3d 70 b1 2f 3d a3 e1 ac bd 4b 0b 8f 3d
       0.08414391 0.042893827 -0.08441474 0.06984576
0002b0 78 48 92 bd 84 08 2d bd 95 ed 3a 3d fe 09 45 bd
       -0.071427286 -0.04224445 0.045636732 -0.048105232
0002c0 47 de bd 3c 69 27 15 3c dd 2c cd 3b 79 a3 44 bd
       0.02317728 0.009103634 0.0062614516 -0.048007462
0002d0 ec 5f 7d 3d d2 29 50 3c f0 69 06 3d a9 9e 28 3c
       0.061859056 0.012705283 0.032815874 0.010291734
0002e0 96 1a 34 bd ed 13 08 bd 50 fe 70 3d 2d 23 9e bd
       -0.043970667 -0.033222128 0.05883628 -0.07721553
0002f0 e9 40 fa bc e7 b3 a5 bd 72 70 58 bd 05 9d 42 3c
       -0.03054853 -0.08090954 -0.05284161 0.011878257
000300 54 f4 a4 bc 3d 4a f1 3c 9f ee 89 3d f0 4c 98 3c
       -0.020136036 0.029454345 0.067349665 0.018591374
000310 91 eb ab 3d 9a db 74 b9 47 a3 ae 3d 77 a3 69 3c
       0.0839454 -0.00023351461 0.085272364 0.014260164
000320 25 ae 14 bb 54 5f ca 3c 4d ba 8e bd 85 9d 93 3d
       -0.0022686806 0.02470366 -0.06969128 0.07207779
000330 7f a1 a5 3d 41 33 9f bd 8c 78 57 bd 2b 11 8f 3d
       0.080874436 -0.07773448 -0.052605197 0.069856964
000340 20 00 b6 3c a1 e2 02 bd 31 62 34 bd 7c e7 a5 bc
       0.022216856 -0.03195441 -0.044038955 -0.020251982
000350 cd 48 88 bc fe fc a6 3d 6f 20 5c bd c4 a9 4b 3c
       -0.016636277 0.08153723 -0.05374187 0.012430612
000360 06 3c cd 3c b4 94 33 bd 33 96 b4 bb c9 e6 82 bc
       0.025053035 -0.043842986 -0.005511069 -0.015979188
000370 c3 1d 8a 3d 37 84 81 3d 35 bb 8b bb 97 87 39 bd
       0.06743958 0.06324046 -0.00426426 -0.045295324
000380 39 d9 4f bd fa 22 1a bd 34 09 9d 3d d8 26 93 3d
       -0.05074427 -0.037631012 0.07667771 0.07185143
000390 35 fa 8f 3c 10 a9 a8 bd 3d 3c e7 3c e2 92 86 bc
       0.017575363 -0.08235371 0.028226966 -0.016427461
0003a0 75 6b 4a 3d 8b 2c 3c 3d 9f dc 97 3d 3a e7 d2 3b
       0.049418885 0.045940917 0.07415127 0.0064362558
0003b0 05 a7 dd 3b d9 eb 27 3a c6 1e 7a 3d e3 af 88 3d
       0.006764295 0.00064056885 0.061064504 0.06674173
0003c0 25 95 2a 3d fd c8 90 bc 4b 36 d2 bc 87 bf a7 3d
       0.04164614 -0.017673964 -0.025660655 0.08190828
0003d0 85 47 3b bd ba 17 79 3c a1 a7 e3 3c d8 79 3b 3d
       -0.045722503 0.015203411 0.027789893 0.045770496
0003e0 f6 95 5b bd bf c9 8b bc 20 34 29 bb 92 17 04 bc
       -0.05360981 -0.017063973 -0.0025818422 -0.00806226
0003f0 2c 5c 9b bd 7d 38 1c 3d 2c 68 8a bd e1 d8 b6 bc
       -0.0758594 0.03813981 -0.067581505 -0.022320213

layer2.bias f4 [256]
000000 f7 62 9e 3d fd a0 46 bd 05 33 82 3d 1a 3d 10 bd
       0.0773372 -0.048493374 0.063573875 -0.03521452
000010 85 88 9e bd 57 da 30 3d b7 90 b6 bd 0f 29 8d 3c
       -0.07740883 0.043176975 -0.08914321 0.017231492
000020 18 90 8c bd 86 8d 37 3d b7 ce eb 3c 6e 5a 0a 3e
       -0.06863421 0.0448127 0.028785093 0.13511059
000030 fe 32 45 3d b2 cd 08 3c 41 dc ed 3d 4c 97 87 3d
       0.048144333 0.008349823 0.11614276 0.066206545
000040 13 52 23 bc 2b 33 14 3e 13 1a c6 3d 61 3a ef 3d
       -0.0099682985 0.14472644 0.09672942 0.11681057
000050 d0 31 f0 bc 71 d5 98 3d dd f3 9a 3c bd 37 46 3d
       -0.029320627 0.07462586 0.018915111 0.048393
000060 f7 90 c8 3d d9 a5 5f bc 04 80 25 3d ac 77 89 3d
       0.09793275 -0.013650381 0.04040529 0.06712279
000070 a2 4f 8a 3d 94 bd e9 3c 8e 8e 8f 3d bb 30 95 3d
       0.0675347 0.02853278 0.07009612 0.07284685
000080 08 88 d1 3a f6 d5 b6 bc 9e 28 dc 3c ed e1 3d 3d
       0.0015985975 -0.022318821 0.026874837 0.046358038
000090 14 12 b8 3c 4e 87 e6 bc 79 01 fa bb d9 4b 86 bd
       0.022469558 -0.02814069 -0.00762957 -0.065574355
0000a0 51 af 32 bd 20 5e bb bb 95 5d b9 3d 1b 5a 23 3d
       -0.043624226 -0.0057180077 0.090510525 0.039880853
0000b0 a0 dd bb bd 80 27 44 3d 67 31 0e 3e 1e 0d de 3d
       -0.09173131 0.047889233 0.13886033 0.10842346
0000c0 77 6c a3 bd 40 44 a8 3d 0b e7 1a 3e c6 f3 d8 3c
       -0.079796724 0.08216143 0.15127198 0.026483428
0000d0 fe 09 52 bd 54 07 45 bd 11 56 ce 3d 34 10 8a bd
       -0.05127906 -0.04810269 0.100750096 -0.06741372
0000e0 30 21 f5 39 eb 1a 06 bd e7 04 03 3c 6c 53 69 3d
       0.00046754768 -0.032740515 0.007996774 0.056964323
0000f0 ba 87 89 3d e8 b5 93 3c ab e9 7e bd 9c 12 de bc
       0.06715341 0.018031076 -0.062234562 -0.027108483
000100 51 3e ce 3d a4 92 34 3e 10 f5 c6 bd 52 8f 18 3e
       0.1007048 0.17634064 -0.09714711 0.14898422
000110 c4 a9 8e bd 17 11 96 bd c8 e6 fc 3d ab 13 43 bd
       -0.06965974 -0.073274784 0.123487055 -0.04762618
000120 a3 a7 1b 3d 97 fa b1 3d cb 7b 10 3c 2b 02 2d 3e
       0.038001668 0.08690374 0.008818577 0.16895358
000130 8f 03 13 bc d6 82 94 3d 46 47 8d bb 26 e9 7b bd
       -0.008973016 0.072515175 -0.004311475 -0.061501645
000140 2a 2a 6d 3d 6f bc 28 3e d0 6b 10 bd 74 00 86 3c
       0.05790154 0.16478132 -0.035259068 0.016357638
000150 28 4d 4e 3d 13 01 bc bd 61 8d e3 3d 1b 78 9d 3a
       0.05036655 -0.091798924 0.1111095 0.0012013944
000160 7a 62 01 bb f3 90 95 bc 6c 31 29 3d 6a a5 88 3d
       -0.0019742534 -0.018257594 0.041306898 0.06672175
000170 6d 38 b9 bd 32 60 02 bd 75 a0 c4 ba fd 58 c8 3d
       -0.090439655 -0.03183002 -0.0015001433 0.09782598
000180 5c 41 1f 3e ca 48 ae 3c 39 dc 7c bd d1 5a f5 3d
       0.15552276 0.021274943 -0.06173346 0.119802125
000190 cc 41 3e 3c b9 36 c2 3d af 22 aa bb 3b 4c 1b 3e
       0.011612367 0.09483094 -0.005192123 0.15165798
0001a0 69 21 90 bd 1f 42 9a 3d 77 99 23 3e 62 d1 6b bd
       -0.070376225 0.07532143 0.15976511 -0.05757273
0001b0 b7 82 78 3d d9 b5 b3 bc 5e 0f db 3d d9 fe 17 bc
       0.060671534 -0.021937298 0.106962904 -0.009277069
0001c0 f0 a1 44 bd 69 83 a7 3d 5b 72 7e 3d 1f 93 2d 3e
       -0.048005998 0.081793614 0.062120777 0.16950653
0001d0 92 d9 ad bd 26 68 0b bd 73 ce 2a 3c c5 34 eb 3c
       -0.08488764 -0.03403487 0.010425198 0.028711686
0001e0 e4 ec f3 3d af 3d da 3d 13 11 04 bc 34 fb f3 bc
       0.11910418 0.106562965 -0.008060711 -0.029782869
0001f0 02 45 16 3d 28 0c 9b bd 77 4d d0 3c 58 43 80 bc
       0.036686905 -0.07570678 0.025427563 -0.015657112
000200 9e 87 9c 3d da 28 bf 3d 30 9b 63 bd e9 64 e4 bc
       0.076430544 0.09333964 -0.05556792 -0.027880149
000210 d3 60 1f bd a5 ef 51 bd d8 92 db 3d 02 51 46 3d
       -0.0389107 -0.051253933 0.107213676 0.0484171
000220 5b be a5 3d 55 b7 94 bd 74 b0 9b 3d ec a7 bd bd
       0.08092948 -0.0726153 0.07602015 -0.09260544
000230 7f 97 2b 3e 9f c5 49 3c d5 3b 4d bd 0e 5f d5 bc
       0.1675701 0.012315183 -0.05010589 -0.026046302
000240 fe dd f3 bc 0a bd 17 3e 14 2e 82 3d eb 4c b7 3c
       -0.02976894 0.14818206 0.06356445 0.022375545
000250 2f 36 49 bc 59 eb 51 3d 8b 61 18 bc 75 bf 5b bd
       -0.012280985 0.051249836 -0.0093006 -0.053649385
000260 85 c8 b2 3d f1 03 6e bc 8b ca d6 3d 42 00 06 3e
       0.08729652 -0.014527307 0.10487851 0.13086036
000270 78 f8 34 3d 15 1a 8a 3d 0f 52 20 3d 96 3c 2a 3e
       0.04418227 0.06743256 0.039140757 0.16624674
000280 77 d2 be 3b 78 f9 a0 3c c8 b8 8a bd a8 bb 8f 3d
       0.005823429 0.019650206 -0.067735255 0.070182145
000290 8b 3a e6 3d 0c 19 bf 3b 51 bb 2f 3e ca af b6 3d
       0.11241635 0.0058318432 0.171613 0.08920248
0002a0 3b 58 57 3b 67 f8 be bd 48 8b a3 bc 7b 9d 0c 3e
       0.0032858986 -0.09324723 -0.019963875 0.13731949
0002b0 87 1a 40 3d 29 26 3b bd 1e 8b ab bd d8 95 7e bd
       0.0469003 -0.04569069 -0.08376144 -0.06215462
0002c0 b5 da 87 3a ef 66 34 3d a2 b2 5b bd 01 ab d6 3d
       0.0010364862 0.044043478 -0.053637154 0.10481835
0002d0 2d b7 a2 3c ea f1 79 bd 5c ed 8c 3d e6 d8 c1 bd
       0.019862736 -0.061021723 0.0688121 -0.09465198
0002e0 b9 a5 87 3d 28 b3 96 3c 3e 0c 95 3d e2 46 2a 3c
       0.06623406 0.018395975 0.07277726 0.010392876
0002f0 9e 15 bc bc a8 49 d1 3c 7a 42 3d bc ef d1 a8 3d
       -0.022959527 0.025547817 -0.011551494 0.08243167
000300 3f 1f 20 bd 61 9f c3 bd f5 ff 24 3d ec 26 81 3d
       -0.0390923 -0.095518835 0.040283162 0.06306252
000310 0b 65 2a bd 58 bc 78 bd 80 8d 37 bc 83 30 eb 3d
       -0.04160027 -0.060726494 -0.01120317 0.11483862
000320 87 49 46 3d 9b 07 73 3d 93 9e 56 3d 75 7a 10 3c
       0.048409965 0.059333425 0.052397322 0.0088182585
000330 18 e6 e4 3c c1 b4 ae 3d 3f de fb 3d a9 e1 e0 3d
       0.027941748 0.0853057 0.122982495 0.10980541
000340 85 82 5a 3d 40 72 29 3d 1e b8 ec 3d 03 fc 1e bd
       0.05334713 0.041368723 0.11558555 -0.038814556
000350 fc 61 96 3b ac 2b cf 3d a5 eb e1 38 3a 76 3e 3d
       0.0045893174 0.101157516 0.00010772728 0.04649947
000360 5c b9 92 3d 3e 26 1b 3d f5 96 a6 bc dd 33 82 3b
       0.07164261 0.037878267 -0.020335654 0.0039734677
000370 2d d3 19 3c 97 28 46 3d d9 f0 07 3e 20 29 1d bd
       0.009388727 0.048378553 0.1327547 -0.038369298
000380 3c 98 96 ba ae ef d9 3c 5f 47 8b bc 1c 17 10 3e
       -0.0011489461 0.026603546 -0.017001806 0.14071316
000390 bc 36 06 3d 2c 01 68 3d d9 f2 b0 3d 60 44 29 3e
       0.032767043 0.056641743 0.086400695 0.16529989
0003a0 ee c0 3a 3d de fd 42 bd 58 b0 ab ba 34 cf 7b 3d
       0.04559415 -0.047605388 -0.0013098819 0.0614769
0003b0 a3 6a fd 3d 9b ad b5 3d 18 53 16 3e 77 c5 e2 b9
       0.12373855 0.08871003 0.14680135 -0.00043253202
0003c0 72 9c 28 3d 1c f2 09 3e 37 93 b8 3c 2a d0 10 3e
       0.041164823 0.13471264 0.022531135 0.14141908
0003d0 29 a8 97 3c 54 09 ab bd 30 99 96 3d a7 99 3f 3c
       0.018512802 -0.083513886 0.07353437 0.011694348
0003e0 c2 37 9c 3d f8 4c f8 3d f7 aa 70 bc be 24 c2 bc
       0.076278225 0.121240556 -0.014689199 -0.02369916
0003f0 e1 0d 83 3d dd 5d 04 3e 5b 4f 0b 3d a4 8c 0d 3e
       0.063991316 0.12926431 0.034011226 0.13823181

layer3.weight f4 [5, 256]
000000 fb e8 1f bd 68 0f 65 3c 97 bf fd 3d e0 60 8d 3b
       -0.039040547 0.013980724 0.123900585 0.004314527
000010 a4 6c 85 3c 0b 30 37 bd ae c0 b0 be 72 09 31 3b
       0.016287155 -0.04472355 -0.34522003 0.0027013686
000020 16 43 d0 3c 6a 65 d0 39 dc e9 c2 3d 29 d7 e0 3d
       0.025422614 0.0003974841 0.095172614 0.109785385
000030 48 5e 98 bc 04 81 f7 bc 2d aa d2 3d 95 ad 0b 3d
       -0.018599644 -0.030212887 0.10286365 0.034101088
000040 fa 17 1a 3e 72 7f a9 3d cc 9e 53 3d 2e b0 18 3d
       0.15048209 0.082762614 0.051665112 0.037277393
000050 b0 ff d1 bc 80 59 54 3d 6e 1d fc 3b 3b 45 e6 bc
       -0.025634617 0.051843166 0.007693938 -0.028109184
000060 d9 b6 da 3d 00 0a b6 39 7c 89 7f 3b a7 6a f8 3d
       0.10679407 0.00034721196 0.003899186 0.12129717
000070 34 c2 4d bd e5 d4 2c 3e cd bb 83 3d 53 d0 02 bd
       -0.050234035 0.16878088 0.064323045 -0.031936955
000080 40 46 a7 3c d0 e4 23 bd 4c b2 19 3d c7 59 21 3d
       0.02041924 -0.040013134 0.037523553 0.03939226
000090 bd 79 36 3e 29 47 98 3d 2c c7 09 bd ce 9c 23 3b
       0.17819877 0.07435448 -0.03363721 0.002496529
0000a0 1d 97 89 3c c6 1f 1d bf 67 e0 aa 3d 69 8d 65 bd
       0.01679569 -0.6137661 0.083435826 -0.056043062
0000b0 02 8b 46 bd 2b 24 fb 3c b8 94 01 3e 24 7f 08 3e
       -0.048472412 0.030656895 0.12654388 0.1332975
0000c0 50 aa 1f bc ce 1a ae 3d 04 03 08 3c 4e 07 e9 3d
       -0.0097451955 0.08501206 0.0083015 0.113783464
0000d0 95 d2 38 3e 00 b2 6d bb 9f 3a 11 3e 9c f8 d2 3c
       0.1804908 -0.0036269426 0.14182518 0.025753312
0000e0 01 35 33 3d 32 a7 56 bd 08 ec ec 3c 19 10 eb 3d
       0.04375172 -0.052405544 0.028921142 0.1147768
0000f0 2d 6a 07 3d 1c 51 62 bd 37 96 26 3e 30 60 1c bc
       0.03306024 -0.055253133 0.1626824 -0.009544417
000100 53 10 55 3d 8f 51 ed 3c 28 54 28 3d 67 2f d9 3d
       0.05201752 0.028969554 0.041095883 0.106047444
000110 9a 77 2e bd 14 b2 81 bc dd 0d b0 3d 28 96 99 bc
       -0.04259453 -0.015831985 0.08596394 -0.018748358
000120 5b 6b 9a 3d 86 db 72 3d 4d 63 94 3d 2e e9 be 3d
       0.07540008 0.059291385 0.072455026 0.09321819
000130 0b 71 da 3d 97 20 9e 3c c0 14 f6 bb 44 64 0b 3d
       0.106660925 0.01930265 -0.007509798 0.034031168
000140 b2 8e 4c 3d 73 08 01 3d 97 71 0b bd 16 0e ba ba
       0.049940772 0.0315022 -0.034043875 -0.0014194872
000150 c6 7a 12 bf f4 bf 1e bc f0 b9 fc 3d 34 f1 99 bd
       -0.5721859 -0.00968932 0.12340152 -0.07516709
000160 23 be a2 3d 30 f5 69 3d 54 16 ca 3d 0d 16 ea 3d
       0.07946422 0.057118595 0.0986754 0.11429987
000170 15 d8 d0 bc c6 b1 d1 3e 7c 19 c8 3c c3 9e df 3d
       -0.025493661 0.40955943 0.024426214 0.10918953
000180 4a 3d 08 3e d8 d9 02 3e 64 cb 56 bd fb 1e 02 bd
       0.1330463 0.12778413 -0.052440062 -0.031767827
000190 35 2e 1b 3e 14 c7 f6 3d dc 81 8b 3c 95 d7 7d 3d
       0.15154345 0.1204969 0.017029695 0.061973173
0001a0 f8 a2 49 bd f2 b1 68 bd 49 c2 fd 3c fc 76 c2 bc
       -0.049227685 -0.056810327 0.030976431 -0.023738377
0001b0 3d 66 e1 3d cc 6f 5d bd b9 4c 04 3e d0 28 82 3d
       0.110058285 -0.054061696 0.12919892 0.063554406
0001c0 11 04 79 3d 23 2a a7 3d e3 4e 09 3e a8 80 b7 3d
       0.060794894 0.08162334 0.13408999 0.08960086
0001d0 60 fa d8 bb 4a 52 17 bc de 40 9e 3c 3e fc 37 3d
       -0.006621644 -0.009235928 0.01931804 0.04491829
0001e0 34 a3 ca 3d 59 4c 06 3e b6 07 7b 3d ec 0d 26 3d
       0.0989441 0.13115062 0.06128665 0.04054062
0001f0 00 cf 16 3d c0 65 23 bd f7 18 a5 3c b0 61 8a 3c
       0.036818504 -0.03989196 0.020153506 0.016892284
000200 9d 5c 41 3d 94 1c 5d 3d 4b 1a a0 bc 6e 14 53 3d
       0.047207464 0.053982332 -0.019543787 0.051533155
000210 98 2a 21 bc 30 1d 57 bd de e8 92 bc 91 c1 ec 3b
       -0.009836815 -0.05251807 -0.017933305 0.0072252234
000220 0c 5f 17 3e 82 ae e8 bc fc bb ba 3c 96 b7 61 bd
       0.14782351 -0.028403524 0.022794716 -0.05510672
000230 f3 36 f9 3d d1 f8 bc 3d 68 97 11 3c a6 c6 1e 3f
       0.12168684 0.092271455 0.008886196 0.62021863
000240 82 fc 74 3d 5b a2 88 3d 20 16 5a bd 27 be 1c 3e
       0.059811123 0.06671592 -0.053243756 0.15306912
000250 25 e3 a5 3d 90 8e bf be b2 e5 34 3d d9 b7 0e bd
       0.08099965 -0.37413454 0.044164367 -0.0348433
000260 70 59 f1 3d fa 8d f8 3d cd 85 cb 3d 8f 3e a4 3d
       0.11784637 0.12136455 0.0993763 0.080197446
000270 c5 0e 26 3d d7 ad ff 3b 5d 1c d6 be 6b 33 01 3e
       0.04054143 0.0078027057 -0.41818514 0.1261727
000280 61 74 3d 3b 2b 07 6e bb 25 a6 72 be d6 81 2c 3c
       0.0028908479 -0.003632019 -0.23696192 0.010529002
000290 74 d9 dc 3d fb 9c d3 3b b9 6f be 3d 69 e6 23 3d
       0.107836634 0.0064579225 0.09298653 0.040014658
0002a0 13 dc e0 3d cf a0 f7 3c 16 b3 03 bd 12 45 0d 3d
       0.10979476 0.030228047 -0.03215321 0.0344897
0002b0 20 e0 21 3d 1a 6b 33 3d 39 3f 8a ba 00 86 50 3c
       0.039520383 0.043803312 -0.0010547406 0.012727261
0002c0 38 56 db bc 80 3b e1 bd 7e 79 23 be 9d 60 b3 3d
       -0.02677451 -0.10997677 -0.15964314 0.08758662
0002d0 e0 8d 4a bd 3e 15 03 bd f2 e1 3b bd ac c6 23 3d
       -0.04945171 -0.03200268 -0.045869775 0.03998439
0002e0 df bf 03 bd c3 a4 18 3d d8 ee 0c bd ba 07 a5 3d
       -0.032165404 0.037266504 -0.034407467 0.08058114
0002f0 70 46 9c bc 9b 6a ca 3d 79 89 b1 bd b4 49 9b 3c
       -0.019076556 0.09883615 -0.08668799 0.018956043
000300 32 66 6b 3d 2d 69 16 3c 75 78 ad be 99 48 77 3d
       0.057470508 0.009180349 -0.33880964 0.06037197
000310 36 6c 72 3d b4 73 49 3d 30 bd 5c bc 0e fa 87 3d
       0.05918523 0.04918261 -0.01347284 0.06639491
000320 e2 fc 12 3e 3c 82 be 3d ef 9c 93 3d d7 1d ff 3d
       0.1435428 0.09302184 0.07207667 0.124568634
000330 76 79 c4 3d 01 1b af bb 0a 42 9c 3d 2d 55 f1 3d
       0.09593479 -0.0053437953 0.076297835 0.11783824
000340 1f 7d 0b 3e bc 82 85 3d f4 65 f2 3d c0 20 d9 ba
       0.13621949 0.06519076 0.11835852 -0.0016565546
000350 0c 64 80 3c f6 9e 9b 3d b0 32 f6 3c 16 51 ff 3d
       0.015672706 0.07598679 0.030053467 0.12466638
000360 7e 7a 68 bd 16 9a 80 be d4 8f a6 3c 64 b5 12 3d
       -0.056757443 -0.25117558 0.020332254 0.03581752
000370 fb 30 5d 3d 7b 2a 1d 3d 26 0e 56 3d da 45 50 3d
       0.05400179 0.03837059 0.052259587 0.050847866
000380 58 7f 75 be 93 f3 0b 3e 2b 71 88 bd 9a 3c 8c 3d
       -0.23974359 0.13667135 -0.0666221 0.06847496
000390 1a 1e ac 3e 08 9b 33 3e f8 25 7f 3d 93 a5 03 3e
       0.33616716 0.17539608 0.06229207 0.1285613
0003a0 2b df be 3b b5 c3 94 bd 70 cf a8 3c f2 7e 0f bd
       0.0058249435 -0.07263891 0.020606726 -0.035033174
0003b0 04 22 7c 3b 59 32 18 3e 3f 5f 92 3d 6e 1e 47 bd
       0.0038472423 0.14862956 0.07147073 -0.048613004
0003c0 0a 19 66 3d c2 05 cf 3d 20 d9 f1 bc 48 ae b9 3d
       0.056176223 0.1010852 -0.029522479 0.09066445
0003d0 e0 29 0b 3b b9 4a eb 3d 4a 15 ef bc e6 43 7a 3d
       0.0021234676 0.114888616 -0.029184956 0.06109991
0003e0 46 e6 21 be 89 49 06 3e 40 e4 2f 3c bb 4e 21 3d
       -0.15810499 0.13113989 0.010735571 0.039381724
0003f0 60 ea 5e 3d f2 59 d1 3d ef 88 f4 3d 43 eb 81 3d
       0.054422736 0.10222234 0.119401805 0.06343701

layer3.bias f4 [5]
000000 ab 5f 14 3d bf 73 95 3d 9c 10 bf 3c 33 0f b0 3d
       0.03622405 0.072974674 0.02332335 0.08596649
000010 73 32 c9 3d
       0.098240755
