HighestReward.pth (torch, 39688 bytes, 7 tensors)

Network.0.weight f4 [64, 70]
00000000: 2e86 e63c 50a6 bf3d 3c88 9dbd 8dfa 75bd
00000010: bd69 8bbd 4c5e 7a3d 9c91 ccbc a78c fd3d
00000020: b42b 8a3c 44b7 8e3d cf8f 72bd b566 a9ba
00000030: 645d aebd 388e 9fbd 16c4 a5bc ea62 063d
00000040: 68be a03d 45c9 463d 793b 71bd 877e bcbc
00000050: 670a 433d 3a5d 033e 244f 8a3b c35c f23d
00000060: 5f05 2dbd 7614 083d c18e 0c3e 65cb ecbd
00000070: c845 3dbd dabd 84ba eb18 33bc 186b a53d
00000080: 29ab 63bd b9d7 d4bc 1b80 a7bd 54ca a9bd
00000090: f337 26bd 644c 053e e78a ff3c e89d a03d
000000a0: a3ad 103d e13d 93bd 1cc1 493d 50ea a8bd
000000b0: 3c8a 55bd d9ec abbd 0455 c83d 05fe ca3d
000000c0: fc3c 4dbd 7986 ca3c 4055 d83d 9247 183e
000000d0: 0ace ca3c 05a3 1a3d 0a97 df3d 520f 95bd
000000e0: a727 523d 0ede 81bd 1ef0 49bd e282 abbd
000000f0: b3a4 993d b3e9 9d3d 3572 95bd 636a 853d
00000100: ce6f c23d b3fb 663c 0361 8ebc c110 4a3d
00000110: 0a54 d33d b14c e63d 9c18 01be 1439 a0bd
00000120: 3485 b13c 9898 873d 49db 033e 7358 923d
00000130: c045 493d 2f35 0dbe 8025 adbc af3a eabd
00000140: 755f abbd 89de a73d 0b14 693d ef7b f1bd
00000150: 16ec 3dbc 0a06 5abd d9c0 5abd 974b dcbc
00000160: 9128 ad3c 508c d6bd b6d8 1b3d 71ed d83c
00000170: 4e74 543d 7c4c 363c b2af b9bd 740e cfbd
00000180: cca2 d23c badd f73c 0341 02be e9b6 d2bd
00000190: 0410 973d 8259 dc3d 21fc 9dbd 4b2c 83bd
000001a0: d0c8 eabd bce9 13bd 6921 febd b2d8 fabd
000001b0: 8d98 a53c 2403 b4bb 89ce a9bd 472e ac3d
000001c0: 4684 dabd 0371 983d a212 393d 5820 97bd
000001d0: 2dea 60bd aa14 eabc aa62 873c 5c02 b8bb
000001e0: 22b4 513c b231 d9bc dc1b febc cc9f 033d
000001f0: 1f2f 18be 0a73 89bd 4cd5 82bd 1935 bdbd
00000200: 7340 9cbd d44b 92bd 2d4d 48bd aae8 09bc
00000210: 793a 97bd 843d 24bd 1f22 523d 08ff 30bd
00000220: 1f1d f43c dad8 0ebd 1c32 20bc 34c2 9e3d
00000230: 0757 943d fee0 0d3d 14ed aa3d 00ee 44bd
00000240: 0fbe a1bd 12ab c7bd f0b6 e03d a43b 2abd
00000250: 7574 c8bd f51f 0cbe 6475 a1bd 6b21 02be
00000260: 3534 85bd 16b5 863d 743d c33c 62c9 1ebe
00000270: 42c3 0b3d d6db 77bd e829 56bd 2dc9 b6bd
00000280: 4fa9 f2bc 4797 83bd 4b74 17be 3ad7 10be
00000290: 920e 643c 4096 cdbc 2dbd c2bd 1724 583d
000002a0: a0ec 17be 22b5 48bd 4ff7 773d 0e3e 8abc
000002b0: 8a25 a33d 898e 233b 4583 ddbd f8af 0e3d
000002c0: 86ff 5fbd 663e b6bd 0b4c 023e 92db fcbd
000002d0: a00e e5bc 8f00 26bc 9e8b 363d 41c4 f5bb
000002e0: 245d 7c3c cd12 983d c2c9 68bd e604 87bd
000002f0: a403 c6bd 036b c43c aff5 5c3d 61f3 2e3d
00000300: 7743 56bd 9222 bfbc 8b0b 00be bf81 80bd
00000310: 7b2a e2bd 886a c3b8 ea68 debd f1f8 eb3c
00000320: e4a8 b3bc 9982 143d 6266 acbd 2294 fbbd
00000330: 9b3b e2bd 9848 3e3d 28b8 3ebc 227b 943d
00000340: ae51 1f3b d94d 803c 273c f1bc a661 57bd
00000350: 6bc9 08bb 349c 5fbd d2e4 cd3c 91f5 5abc
00000360: 9271 8abd f0c8 babd b165 8d3d f0ce 0bbe
00000370: 7797 413c 13a1 be3d b947 6f3c 59a3 8cbb
00000380: 124f 07be 6a58 003d 3fac fcbd 0f32 5dbc
00000390: db99 84bd 6d7d 3dbd 3bc6 a53a 8269 8f3d
000003a0: 9c1b 5cbc 34f2 923d ef02 bf3d 22cd ccbd
000003b0: 662c cd3c 1624 9cbd 4e3b a2bd 6936 d03b
000003c0: f563 123b c182 de3d 1e86 83bd bf6f e8bc
000003d0: 6316 633d 679b 13be c70e 6c3d 1430 10be
000003e0: 96c2 aa3c bd61 3bbd a268 bbbd 8b16 c03c
000003f0: ceed 8f3d c342 82bd b286 ddbd 41d8 ccbc
0.028140154 0.093578935 -0.07692 -0.060053397 -0.06807277 0.061125085 -0.024971776 0.12380343
0.016866542 0.06968549 -0.059219178 -0.0012924286 -0.085139066 -0.07790798 -0.020235103 0.032809176
0.07848817 0.04853179 -0.05889461 -0.023009552 0.047617342 0.12828532 0.00422086 0.11834099
-0.04224145 0.033222638 0.13726331 -0.11562232 -0.046209127 -0.0010127381 -0.010931234 0.08077067
-0.055583153 -0.02598177 -0.08178731 -0.08290544 -0.0405807 0.13017422 0.031194163 0.07842618
0.035321843 -0.07189537 0.04925643 -0.082478166 -0.052133784 -0.083947845 0.097818404 0.09911732
-0.050106987 0.024722325 0.10563135 0.14871052 0.02475645 0.037753124 0.1091748 -0.07278313
0.051307347 -0.06341182 -0.04930126 -0.08374573 0.07502117 0.0771059 -0.07297174 0.06514432
0.09493981 0.014098096 -0.017380243 0.049332384 0.103187636 0.112450965 -0.12607044 -0.07823387
0.021669962 0.06620902 0.1287662 0.071457766 0.049138784 -0.13789819 -0.021136045 -0.11436974
-0.08367816 0.08196742 0.05690388 -0.117912166 -0.011591932 -0.053228416 -0.05340657 -0.026891513
0.021137508 -0.10475981 0.03804847 0.026480408 0.05186873 0.011126634 -0.09066714 -0.101101786
0.025712393 0.030257095 -0.12720113 -0.102887936 0.073761016 0.1075926 -0.077141054 -0.064049326
-0.11464083 -0.03611158 -0.12408716 -0.122483626 0.020214343 -0.0054935385 -0.082913466 0.08407264
-0.106697604 0.0744343 0.045183785 -0.07379216 -0.054910827 -0.028574307 0.016526539 -0.0056155156
0.012799295 -0.026512954 -0.031019144 0.032134816 -0.14861725 -0.06711395 -0.063883394 -0.09238643
-0.0762948 -0.07143369 -0.048901726 -0.008417288 -0.073842 -0.04009773 0.05130207 -0.043211967
0.029799042 -0.034874775 -0.009777572 0.07751885 0.07243162 0.034638397 0.08346 -0.048078537
-0.07897579 -0.09749426 0.109723926 -0.041560784 -0.097878374 -0.13684066 -0.078837186 -0.1270806
-0.06504098 0.06577508 0.023833014 -0.15506509 0.03412176 -0.060512386 -0.05228606 -0.0892509
-0.029621748 -0.06425338 -0.14790456 -0.14144602 0.013919489 -0.025096059 -0.09508739 0.052768793
-0.14836359 -0.049000867 0.060538586 -0.016875293 0.079661444 0.0024956784 -0.10816053 0.034835786
-0.054687046 -0.0889862 0.1272432 -0.12346567 -0.027961075 -0.010131969 0.044566743 -0.007500202
0.015403066 0.07425461 -0.056833036 -0.06592731 -0.09668663 0.023976808 0.05394524 0.042712573
-0.052310433 -0.023331914 -0.12504403 -0.06274747 -0.11043259 -9.3181676e-05 -0.108598545 0.028805228
-0.02193112 0.03625736 -0.084179655 -0.122841135 -0.11046525 0.04645595 -0.011640586 0.07250048
0.002431016 0.01566212 -0.029447628 -0.05258336 -0.0020872008 -0.054592326 0.025133524 -0.013364212
-0.06759943 -0.09120357 0.06904162 -0.13653159 0.011815897 0.09308066 0.014604502 -0.0042919335
-0.13213757 0.03133432 -0.12337541 -0.013500704 -0.06474658 -0.046262193 0.0012647578 0.07002546
-0.013434317 0.07175103 0.093267314 -0.100000635 0.025045585 -0.0762407 -0.07921468 0.0063541424
0.002233741 0.10864783 -0.06422065 -0.028373597 0.05544127 -0.1441475 0.05763128 -0.1408084
0.020844739 -0.045747507 -0.091508165 0.02344825 0.070277795 -0.0636039 -0.10816707 -0.025005462

Network.0.bias f4 [64]
00000000: de8a ff3c 3450 05be 1552 e2bd a07f 9cbd
00000010: 9c2f d8bc 6328 a33d 92d6 54bd 50d8 87bc
00000020: aec2 b53d ad45 13be 0a1b b93d 571a 35bd
00000030: 8514 e33d d068 673d a64e 9fbc ada7 d93b
00000040: 34ad 40bd 7539 603d 5b24 143d e2b8 823c
00000050: 847f 803c 3894 d73c 9a18 5b3d ee18 a53d
00000060: 05d4 f53d 8980 10be 8f87 173e aeef 9a3d
00000070: dfc3 b73d 4d69 883d 1609 2c3d 65e0 a03d
00000080: 61a6 b13c 38ac 0dbe c65a a53d cdb3 e93b
00000090: 1a0e b4bd 2c71 d43d 7444 d43d bd5c 8ebc
000000a0: 1bc6 1abd 00e1 883c b5b1 0f3e 4097 ce3d
000000b0: 4f0e 183d 4129 333d f643 cdbd c0b6 bb3c
000000c0: 96fa 0cbe 6a05 243d 6fd6 18be cf05 0cbe
000000d0: 704d 17be bf38 8a3d a1ca adbc 1716 193d
000000e0: dc2d 373d 65cf 93bd 49d8 21bc a87a f8bd
000000f0: d39d 723b 4a56 26bd b3c1 dcbc b022 fc3d
0.031194147 -0.13018876 -0.11050812 -0.0764153 -0.02638989 0.079666875 -0.051962443 -0.016582638
0.08875023 -0.14382048 0.090383604 -0.044214573 0.11087898 0.05649644 -0.019446682 0.006642303
-0.04704018 0.054742295 0.036167484 0.0159573 0.015685804 0.026315793 0.05349026 0.080613956
0.1200333 -0.14111532 0.14797805 0.075652465 0.08972906 0.066607095 0.042000853 0.078553
0.021685781 -0.13835227 0.08073954 0.0071320296 -0.08791752 0.10373148 0.10364619 -0.017378205
-0.037786584 0.01670885 0.14032634 0.100874424 0.03712302 0.043740515 -0.10022728 0.02291429
-0.13767466 0.040044226 -0.1492555 -0.13674091 -0.14775634 0.06749105 -0.021214785 0.037374582
0.04472147 -0.07217292 -0.009878227 -0.1213277 0.003702034 -0.040609635 -0.026947832 0.123113036

Network.2.weight f4 [64, 64]
00000000: 21db 1abe fd97 dd3d a9b1 37bd 6c7e 08ba
00000010: 42c0 983d 3cf6 a9bc ce32 153e 018a 0dbd
00000020: aae6 c5bd 705a 98ba 80f9 2bbd 14a5 40bd
00000030: f48c 14be 8e89 f9bb 4c74 553d 9484 1bbd
00000040: 86c1 1fbd 2d8e 0c3e bbbf 243e bf2f aabd
00000050: 64fb 6ebd 7325 cabd ccad c73d bef3 d8bb
00000060: df2f b9bd 6019 77bd d104 aabd ba67 9cbd
00000070: 23b8 da3c c2db ddbd 2971 fa3d 26dc 603d
00000080: 21ff 8abd 5221 74bd 77e4 2a3e a498 8ebd
00000090: 37a3 fb3d 5581 e7bd 9e85 2fbe 3aa6 64bd
000000a0: 9954 75bc cca9 b5bd 45b0 77bd 9109 6a3d
000000b0: 3244 9abd cd6e d63d 3844 1d3e eb68 21bd
000000c0: f979 cabc 7718 453d 3132 a03d 9114 d43d
000000d0: 5606 d83b 07b4 9ebd 4c8a e6bb 9e67 2dbe
000000e0: 5a0a f33b 4486 83bd 3b7f e9bd 1d51 3e3d
000000f0: f9c4 533d f1b3 813d 346e 40bd edfc 833d
00000100: 45e4 163e 9d78 893d 2aff f4bc 3f17 823d
00000110: b435 b13c bc62 7fbd 7be5 c0bd 328d 9b3c
00000120: b257 43bd 3652 9cbd 43d1 003e 2e5f c83c
00000130: e484 123e bc1c 00bd d4ce cbbd 716a 4e3d
00000140: 3311 18bc 5c94 68bc 23dc acbd 8f9c a53d
00000150: 9ffa 02be fa58 0f3e f610 903d 5964 ac3d
00000160: b76e 0f3e b5c2 1a3d 64a2 84bc 4abf 93bd
00000170: e8da 433d 14a6 eb3d f80c 53bd 820a 4bbc
00000180: 9096 013e c36b 243c af83 843d b1e4 573d
00000190: a13d 82bc 43c1 c93b eead 8f3c 4b3d c4bd
000001a0: 2a8f 3d3d 522c 1f3e 5454 983d 5cee 133d
000001b0: 5f5f 88bd cdce 1bbe 194d 77bd af31 89bd
000001c0: c021 09be e5fb 5fbd f456 79bd 9847 9cbb
000001d0: 7f8b f7bd 56d1 dd3d a3ae 20be ce9b b9bc
000001e0: 5dec f3bc ce3f 88bb 7231 b43d a6bb 94bd
000001f0: 996c 4d3d 0142 2d3c c01e a1bd 102a 443c
00000200: 4802 8fbc 5b43 a4bd b8f5 2ebd b14c 103e
00000210: 505b d13d fd75 1ebd 4c03 253d 82c1 2ebc
00000220: 7a4a 8abc 4095 30bd e8d4 8cbd 8ea7 96bd
00000230: a730 0fbe 45c7 863c fb7d cf3c 6283 0c3e
00000240: b784 3c3d 6160 b73c f46f 123d 2162 043d
00000250: 2d2d 893b 3fb1 8fbd 6281 943c ac0e 14be
00000260: 4537 86bd a2b0 90bd 7033 dabd 7577 fbbd
00000270: b4f7 5c3d 0f7c 1fbe 3fc2 273e dc16 a13d
00000280: 16d8 00be 4e81 1b3e 95a7 173c 7822 17be
00000290: ae0a a83c f61d 993c 8369 29be 4a71 e43c
000002a0: 52e1 c23d 8daf bfbd c7cb c9bc da8a b5bd
000002b0: ea44 4fbd 298e 083e 3002 39bd 2e7e 02bd
000002c0: aae5 b23d 9d43 03bd 0e76 d43d d187 84bd
000002d0: db4e 213e 3ca2 f93c 81cc fb3c 1cf7 16be
000002e0: 9dce c8bc 0621 8b3d 2f56 e5bd f93b eb3c
000002f0: 67e9 26be 61f7 2cbe b8ba c33c 5791 893d
00000300: 668f 24bd 053b 933d 2602 1dbc f3a9 afbb
00000310: 0720 c83c acb6 b6bd f2de d33d 66ff 803d
00000320: d3eb 0cbe cd7d 933d f9b0 99bd 0e09 21bd
00000330: 1bf8 45bd 9c72 febb 6d1b 16bd a46b 4a3d
00000340: fbcc b53d 6765 723c 749a af3c 18f2 99bc
00000350: dd11 9fbc b865 db3c e972 1d3e 4c18 4cbd
00000360: 7237 09bd 562c 0d3e 35ab 933d c93c 03be
00000370: ce35 b4bd ab68 22be 08e8 ea3d 8f59 f33d
00000380: 0832 a0bd 2ad6 a53d b657 6c3d e81b 10be
00000390: f2d2 a03d ca2c d83c 13c9 0ebd 467d 273d
000003a0: 55cf 853d cb52 493d 8e95 ab3d 4bed 57bc
000003b0: 5e74 9d3d dc68 aabb 7f05 e33d 2a80 8ebd
000003c0: 6702 80bd bfc6 b23d e4fa a63d e5c1 643d
000003d0: 1346 a83d 6f0e 27bb 369e ae3d e0da 7c3c
000003e0: 29a1 aabd 8055 653b 90be 80bc 3f04 a53c
000003f0: 95af 09be f0ae e2bc 4a36 d63d 4091 c2bd
-0.15122654 0.10820005 -0.044847164 -0.00052068266 0.07458545 -0.020747297 0.14570162 -0.03455544
-0.09663136 -0.0011623632 -0.04198599 -0.04703243 -0.14506894 -0.0076152747 0.052112862 -0.037968233
-0.039002918 0.13726111 0.16088764 -0.08309888 -0.058345214 -0.09870424 0.09749946 -0.006620853
-0.09042334 -0.060326934 -0.083017 -0.07636972 0.026699131 -0.10832931 0.12228615 0.05489745
-0.06786943 -0.05960209 0.16688715 -0.06962708 0.1228699 -0.11303965 -0.17140815 -0.05582259
-0.014973783 -0.08870277 -0.060470838 0.05713803 -0.075325385 0.10470352 0.15358055 -0.0394067
-0.024716364 0.048119035 0.07822073 0.10355485 0.006592552 -0.07749181 -0.0070355292 -0.16934058
0.0074170055 -0.064220935 -0.114012204 0.046464074 0.05170152 0.06333149 -0.046980098 0.06444726
0.14735515 0.06712458 -0.029906828 0.0635209 0.021632053 -0.06235002 -0.0941877 0.018988226
-0.047691055 -0.07632868 0.12579827 0.024459448 0.14308506 -0.031277403 -0.09951559 0.05039448
-0.009281444 -0.014195528 -0.08440425 0.08086502 -0.12790917 0.13998786 0.07034485 0.08417577
0.14007078 0.037783343 -0.016190715 -0.0721422 0.047816187 0.11506286 -0.05152604 -0.012392642
0.12655091 0.010035458 0.06470429 0.05270833 -0.015898528 0.006157072 0.01753899 -0.09582003
0.04627911 0.1554425 0.07437959 0.03611599 -0.066588156 -0.15215607 -0.06037626 -0.066989295
-0.13391781 -0.054683585 -0.06087394 -0.004769277 -0.12087154 0.10830943 -0.15691619 -0.022657301
-0.029775793 -0.0041579967 0.087984934 -0.072623536 0.050152395 0.010574819 -0.07867193 0.011972919
-0.017457142 -0.080206595 -0.042714804 0.14091755 0.102224946 -0.03868674 0.040286347 -0.010666253
-0.016881216 -0.043111086 -0.06876546 -0.07356177 -0.13983403 0.016452441 0.025328627 0.13721994
0.046025004 0.022384824 0.035751298 0.032320146 0.0041862936 -0.07016229 0.0181281 -0.14458722
-0.065535106 -0.0706494 -0.10654342 -0.12278644 0.053947166 -0.15574668 0.16382693 0.07865688
-0.1258243 0.15186045 0.009256263 -0.14759243 0.020512905 0.018691044 -0.16544156 0.027886052
0.09515633 -0.093596555 -0.024633301 -0.088643745 -0.05060283 0.1333548 -0.0451681 -0.031858616
0.08735211 -0.032046903 0.1037408 -0.064712174 0.15752737 0.030472867 0.030737163 -0.14742702
-0.024512583 0.06793408 -0.11198079 0.02871512 -0.16299973 -0.16891243 0.023892745 0.067171745
-0.040175818 0.071889915 -0.009583032 -0.0053608357 0.024429334 -0.08921561 0.10345258 0.062987134
-0.13761835 0.07201729 -0.07504458 -0.039315276 -0.048332315 -0.0077651273 -0.03664725 0.04941906
0.088769875 0.014794684 0.021435954 -0.018792197 -0.019417698 0.026781902 0.15375866 -0.04982786
-0.033500142 0.13786444 0.072103895 -0.12816156 -0.08799325 -0.1586024 0.11470038 0.11882316
-0.07822043 0.08097489 0.057700835 -0.14073145 0.078527346 0.026388545 -0.034859728 0.040890954
0.06533686 0.049151223 0.08378135 -0.013179134 0.07688211 -0.0052004885 0.11085033 -0.06958039
-0.06250458 0.08729314 0.08153322 0.055848975 0.082164906 -0.002549078 0.0852627 0.015433043
-0.0833152 0.003499359 -0.015715867 0.020143626 -0.13445885 -0.027671307 0.104595736 -0.095003605

Network.2.bias f4 [64]
00000000: c6a5 22bc 073a d53d 5822 8d3d bd18 12bd
00000010: 658e db3b 241c babd 8799 47bd 9fe0 a5bd
00000020: b539 93bd 133d 2c3d f8ac 773d 8297 adbd
00000030: 7cf9 373d c123 aebc ed82 b1bc b83e 9a3d
00000040: 0213 13bd 9e63 4bbd 8b88 843d 5a77 693d
00000050: f650 d63d eec5 39bd 32e8 1ebc 35cb d63d
00000060: 2946 493d 8147 df3d a551 b63d 399c 983d
00000070: bebf bb3d dc58 80bd 554f afbd 51db c0bd
00000080: 93fe 073e b6fc c2bd 4c68 8bbd 1e42 1f3d
00000090: 6de3 a53b a566 9e3d 4938 7fbd f70d 8a3d
000000a0: dfbe b0bd 6d16 c3bd 91c2 0d3e a892 c4bc
000000b0: bc55 df3b 9699 973d e0a5 06bc 0836 e0bd
000000c0: 70ae 55bc 47fe d0bd b1be 0c3e 7fbc 4ebc
000000d0: 6c58 013e 91d8 7f3d dfd6 be3c d87a 913d
000000e0: 47d2 2d3d 12f3 2fbd d415 933d 5e78 5abd
000000f0: adf8 f23d b6cf a53c 2aa0 b43d 4e68 eb3d
-0.009927219 0.104114585 0.06891316 -0.035668124 0.0067003244 -0.09087399 -0.0487304 -0.08099484
-0.07188741 0.042050432 0.06046769 -0.084761634 0.04491566 -0.021257283 -0.021668876 0.07531494
-0.0359068 -0.04965555 0.06471356 0.05699859 0.10464661 -0.045354776 -0.009698914 0.104879774
0.049139176 0.1090231 0.08902291 0.07451672 0.09167431 -0.062669486 -0.08560053 -0.09416831
0.13280706 -0.09520857 -0.068070024 0.038881414 0.0050625117 0.07734422 -0.062309537 0.06740945
-0.08630156 -0.09525762 0.13843752 -0.023995712 0.0068156403 0.07402341 -0.008218259 -0.10947806
-0.013042077 -0.102047496 0.13744618 -0.012618183 0.12631387 0.062462393 0.023295818 0.07103509
0.042436864 -0.04295642 0.07181898 -0.053337447 0.118638374 0.020240646 0.08819611 0.11494504

Actor.weight f4 [5, 64]
00000000: ca67 c93c db0e cfbc 32bb 3b3d 8ce0 febd
00000010: 3181 12bc b68e cebc effa c3bd 3fb6 c0bb
00000020: 10c8 c73c 3728 ffbd 80dc d13d 65b7 8f3d
00000030: 616a f43d 4005 56bd e67a b6bd e871 9a3d
00000040: 498e ef3d 975a 97bd ca1f 9fbd 33fc 16bc
00000050: 260e e03d a234 9bbc d3b1 f7bd 9937 53bd
00000060: 149e 92bd fc9f c13d 7f00 b9bd 1268 bc3d
00000070: c2b8 3e3d 7ab6 3ebc 634e ffbc 4f79 903d
00000080: 1a5d 93bd 9eda 46bd d51e e63d 2833 45bd
00000090: b5cb 843c d98c d33d 4188 c9bd d314 943c
000000a0: 1cbf f83b 58ee 78bd 291d d83d 6a7e ab3d
000000b0: e0b7 23bc 0b3e 00bc 6d7b a33d df5e 47bd
000000c0: 0066 863d b44b abbd a708 cdbd 6c80 a23d
000000d0: b5ff b73d 0de8 c9bd 6322 ebbc 1c7c 583d
000000e0: 6b15 8a3d 9209 973d 8fcd af3d d6c1 6fbd
000000f0: cc48 d83c 0ddd dd3d 3245 cabd a7ff a53d
00000100: b292 003d c692 d03b c8a4 ff3d 235c 58bd
00000110: 2122 0cbd 62d8 bfbd af2a d53d 63e4 bdbd
00000120: 91d0 e13d 9202 bcbd c8ea 943d 1f02 83bd
00000130: 686a df3d 17e7 acbd 4dff aabd b892 13bd
00000140: ad02 c8bd e1d7 f13d 2c6a 343d 7118 91bd
00000150: fa29 bbbd 0aa3 32bd 8009 953c 6a5f 61bd
00000160: c508 953d d5fe 75bd 66a4 193d 9222 be3d
00000170: 0293 b3bd 97f6 c5bd 5dc3 f4bd ec65 bb3c
00000180: fd67 d23d ca30 a5bd 0b95 90bc 6476 a13d
00000190: 4b54 c63d 7f9f 883d bab9 1e3d aa9c b33c
000001a0: 6062 1a3c 814c e03d c6b0 e43b 4601 4a3d
000001b0: c230 39bc 4767 cd3d 47af 00be 7b58 24bd
000001c0: cc2c f6bd 496c e83c e539 e2bc be95 d4bd
000001d0: 6c45 bebd 8b5c 0a3d e6bd bd3d 781c db3d
000001e0: a6ce ad3d d6e4 c6bd 5d86 cd3d 4d68 f23d
000001f0: 9a17 f43b c1dd f1bd 320b b4bd 0674 e1bd
00000200: d776 313d 59cb af3d d858 d13d 1a1b 38bd
00000210: d7d0 9cbd 5323 403d 3145 51bd 79d2 b73b
00000220: c606 763d c103 c8bc f67b f03c 6d85 2e3b
00000230: 72ff 0a3e 171c aebd 7ea5 f93d a528 833d
00000240: 764a f8bd 8522 3f3d 9427 e13b 2e75 a13d
00000250: eccb 9a3d 5952 38bd ccf5 5dbd 2d7f d9bd
00000260: a824 8c3d c196 f6bd bf43 ccbd 9a0d be3d
00000270: e78e 463d a467 8e3d d964 b83d 3bcb 01be
00000280: f13d 0bbd 0279 dd3b 6d78 c63d a00d 59bd
00000290: 619e eebc 7f27 543d 07b0 a93d c9d0 7fbd
000002a0: 9b42 07be 243b 8cbd 09b8 873c dba0 cd3d
000002b0: d755 9a3d 61b6 5c3d a237 6f3d d54b 36bc
000002c0: de05 fbba 9091 f63d eea2 cc3b 8753 413d
000002d0: ec65 643d d4f3 e23d b6dd 663d bf90 edbc
000002e0: ca56 0ebd 9095 a2bd 4cc0 31bd b25c f53d
000002f0: 96ba a93d 594d b6bd d6a3 ac3d a9b3 42bd
00000300: 079a 60bc c37f af3c 0d28 b0bd a2e7 67bd
00000310: 2d19 10bd 6b57 afbc 8ca0 a43d e4de 30bc
00000320: 56d1 aebd ba1a b7bd ae7c d53d faa1 983d
00000330: 1518 dabd f580 aabd 7bf6 72bd ace6 c03d
00000340: 51df 6e3d 6654 723d e4e5 bb3d 7735 1f3d
00000350: ad4b 973d 38e6 a9bd fffe ec3d 93f2 243d
00000360: 8da3 c03c cf41 803d 407a 2dbd 52b4 9bbd
00000370: ae4b 51bd 829f e4bd 90ee 8cbc ef68 403d
00000380: 023e a63c a024 663c 2878 fc3c 1305 07be
00000390: 2aeb d0bd dcc5 00be c42c 143e a004 c3bd
000003a0: 88c3 1f3d 5b4a 923d a932 58bd a791 1fbd
000003b0: 49f8 fa3d aec7 f0bd c38f d4bd 9e5e b937
000003c0: 44fc fa3a aa91 0ebd 2b35 27bc 4f91 af3d
000003d0: a0f2 523d de42 653d c06b df3d 5b1b 9bbd
000003e0: 7397 dc3c 1026 1b3d 927d 753d 3096 d3bc
000003f0: 4b97 aa3d 95a4 e8bd 61e9 a2bd 50a2 0bbe
0.024585623 -0.025275638 0.04583282 -0.12445173 -0.008941934 -0.025214534 -0.09569346 -0.0058811004
0.02438739 -0.12458842 0.10247135 0.070174016 0.11934353 -0.0522511 -0.0891016 0.07541257
0.116970606 -0.073903255 -0.07769735 -0.009215402 0.109401986 -0.018945996 -0.12094464 -0.051566694
-0.07159057 0.09454343 -0.09033298 0.09199537 0.046562918 -0.0116401855 -0.031165307 0.07054388
-0.07195492 -0.048548333 0.112363495 -0.04814449 0.016210416 0.10329599 -0.098404415 0.018076336
0.0075911414 -0.060774177 0.10552437 0.08373721 -0.00999257 -0.007827292 0.07982526 -0.04867446
0.06562424 -0.083640486 -0.10011416 0.07934651 0.08984319 -0.09858713 -0.02870292 0.052852735
0.067423664 0.07374872 0.08584129 -0.058534466 0.0264019 0.10833178 -0.09876479 0.081054024
0.0313899 0.006365153 0.124826014 -0.052822243 -0.034212235 -0.093674436 0.10408532 -0.09272077
0.11026109 -0.09180178 0.072713435 -0.06396889 0.10908967 -0.084425144 -0.08349476 -0.036028594
-0.09766135 0.11808754 0.044046566 -0.0708474 -0.09138866 -0.043612517 0.018193007 -0.055022635
0.07277063 -0.06005748 0.0375103 0.092839375 -0.08768274 -0.09666174 -0.11951325 0.022875749
0.102737404 -0.080659464 -0.017649194 0.07883909 0.09684046 0.066710465 0.03875134 0.02192529
0.0094228685 0.10952092 0.006979081 0.04931762 -0.011303129 0.10029464 -0.12566863 -0.040123444
-0.12020263 0.028371947 -0.027615497 -0.103801236 -0.09290585 0.033779662 0.09264736 0.10698789
0.08486681 -0.09711616 0.100353934 0.118363 0.0074491026 -0.11809874 -0.08791198 -0.11008458
0.043326225 0.08583707 0.10222024 -0.04494772 -0.076570205 0.046908688 -0.051091377 0.005609807
0.060065053 -0.024415853 0.029355984 0.002662982 0.13574007 -0.085014515 0.12189768 0.06404237
-0.12123577 0.04666378 0.006871173 0.078836784 0.07558426 -0.045000408 -0.05418949 -0.1061996
0.06842929 -0.12040473 -0.09973859 0.09279938 0.048476126 0.06953362 0.0900361 -0.12675183
-0.03399462 0.00675881 0.09690938 -0.05299151 -0.029128255 0.05179548 0.08285528 -0.062454972
-0.13209002 -0.06847218 0.016567247 0.10040446 0.07535904 0.053884868 0.058402665 -0.011126478
-0.0019151529 0.120394826 0.0062450087 0.0471988 0.055761263 0.11081663 0.056363784 -0.028999684
-0.034750737 -0.07938683 -0.04339628 0.11980571 0.082875416 -0.08901472 0.08429687 -0.04753462
-0.013708598 0.021423226 -0.08601389 -0.056617387 -0.03518026 -0.021403989 0.080384344 -0.010795329
-0.085360214 -0.089406446 0.104241714 0.074527696 -0.106491245 -0.08325378 -0.059317093 0.09418997
0.05831844 0.05916252 0.091747075 0.038869347 0.07387481 -0.08295864 0.11572074 0.0402704
0.023515487 0.06262552 -0.042352915 -0.07602753 -0.051097564 -0.11163236 -0.0172036 0.046975072
0.02029324 0.014046818 0.030819014 -0.1318553 -0.10201104 -0.12575477 0.14470202 -0.095223665
0.039004833 0.071430884 -0.05278269 -0.038957264 0.12254388 -0.11756836 -0.10378983 2.2097778e-05
0.0019148667 -0.034806885 -0.010205547 0.08572637 0.051500916 0.055971973 0.109092236 -0.07573577
0.026927685 0.037878096 0.059934206 -0.02582845 0.08329638 -0.113595165 -0.0795467 -0.13636136

Actor.bias f4 [5]
00000000: c178 7f3d ad04 9e3d 3b4c 6bbb b895 f43b
00000010: da5f e0bc
0.06237102 0.077157356 -0.0035903591 0.007464137 -0.027389456

Critic.weight f4 [1, 64]
00000000: bb70 85bd 2ef7 f93d 2a6a 7dbd fbfd c0bd
00000010: ce3c b03d 370d 7dbd 1817 30bd 8d63 afbd
00000020: ddab 81bd 35ce bcbd bb0d 213e 42cf 0ebe
00000030: ccc2 16be 1722 aebd d220 43bd f350 153e
00000040: 1992 8a3d 2b85 73bd d237 3bbe ce5d eebd
00000050: d75b 963d bf03 c7bd 6582 06be 047e ab3d
00000060: 147b 193e 75b3 823d bc87 183e 8a0a 263e
00000070: 41ee 6a3d 6cd8 393e 27a2 cb3d b120 bb3d
00000080: 663e 803d 51cf 31be 3f0b d13d 17e4 253e
00000090: dc36 b03d 240d 773d 3f9e a8bd 99ea 1abe
000000a0: 05f3 a33d 113d d93d 815b dd3d b752 333e
000000b0: 98f2 08be caff 1f3e c506 b9bd 57ee b1bd
000000c0: 54f7 e3bd 020c 0abe 40be b43d 63d0 a5bd
000000d0: 5c63 8a3d 8ced 35be 2ee0 d6bd dd90 f53d
000000e0: aa6a efbd e62a 093e 344e 11be 6260 05be
000000f0: 7912 0f3e 99e2 273e e248 f73d 4f72 f23d
-0.06515642 0.12205349 -0.061868824 -0.09423443 0.086053476 -0.06178018 -0.042990774 -0.0856391
-0.063316084 -0.09219018 0.15727894 -0.1394625 -0.14722747 -0.08502596 -0.04763872 0.14581661
0.06766147 -0.05945317 -0.18283013 -0.116389856 0.07341736 -0.097175114 -0.13135679 0.08373645
0.14988357 0.06381885 0.14895529 0.16214958 0.057356123 0.18148965 0.099430375 0.09137095
0.062619016 -0.17364241 0.10207223 0.1620029 0.086042136 0.060315266 -0.08233308 -0.15128554
0.08005337 0.106073506 0.108084686 0.17512022 -0.13373792 0.1562492 -0.09034494 -0.08688038
-0.111311585 -0.13481143 0.0882535 -0.08096387 0.067572325 -0.17766398 -0.10491978 0.11990521
-0.116902664 0.1339527 -0.14189988 -0.13025048 0.1397189 0.16395034 0.12074448 0.11838209
