HighestReward1.pth (torch, 39700 bytes, 7 tensors)

Network.0.weight f4 [64, 70]
0	0x3badf1ad	0.005308351
1	0x3d9005f4	0.070323855
2	0xbdbd2384	-0.0923529
3	0xbda7770e	-0.08177005
4	0xbd41d4cb	-0.047322076
5	0x3d1cb084	0.038254276
6	0xbb670edc	-0.003525666
7	0x3dceca36	0.100971624
8	0xbb904b57	-0.0044035125
9	0x3d1b4081	0.037903313
10	0xbcf513d8	-0.029916689
11	0xbca7b356	-0.020471256
12	0xbddd258f	-0.10798179
13	0xbd9b521f	-0.07584023
14	0xbd3066e9	-0.043066893
15	0x3c2e2c97	0.010630748
16	0x3d5ad711	0.05342776
17	0x3d9f8edf	0.077909224
18	0xbda7fb73	-0.08202257
19	0xbd3bc704	-0.045844093
20	0x3d2d379d	0.042289365
21	0x3dd7f808	0.10545355
22	0xbc96b054	-0.018394627
23	0x3dc3f427	0.09568053
24	0xbc55e42e	-0.013054891
25	0x3c355e3f	0.011069833
26	0x3dea5986	0.114428565
27	0xbde66600	-0.11249924
28	0xbd8d655a	-0.06904097
29	0xbcc510bf	-0.024055837
30	0xbd264d76	-0.040601216
31	0x3de02a59	0.10945577
32	0xbda2ccf8	-0.07949251
33	0xbd47f4a1	-0.04881728
34	0xbdafbd7b	-0.085810624
35	0xbdd88cc5	-0.10573725
36	0xbd822f7b	-0.063567124
37	0x3dded863	0.10881116
38	0x3d73d154	0.059525803
39	0x3d70f994	0.058831766
40	0x3c4ca1a7	0.012489713
41	0xbd735b47	-0.05941322
42	0x3cd8787b	0.026424637
43	0xbdd7d928	-0.10539466
44	0xbda3960c	-0.079876035
45	0xbd62fe89	-0.055418525
46	0x3d992476	0.074776575
47	0x3d9c39f7	0.076282434
48	0xbd5b60be	-0.053559057
49	0x3af7cb87	0.001890526
50	0x3da941f4	0.08264533
51	0x3e0004ad	0.12501784
52	0x3d5bcb77	0.053660836
53	0x3c63a0fc	0.013893362
54	0x3db0d3ed	0.08634172
55	0xbd95311e	-0.07284759
56	0x3ce94599	0.02847557
57	0xbdb113ca	-0.086463526
58	0xbd9d574e	-0.07682668
59	0xbd6381e7	-0.055543806
60	0x3d600f0a	0.054701842
61	0x3d5e4b31	0.054270927
62	0xbd8fa17d	-0.07013223
63	0x3d2d4f3e	0.0423119
64	0x3d931545	0.07181791
65	0xbc104853	-0.008806306
66	0x3c305f21	0.010764868
67	0x3ce49f45	0.027907977
68	0x3da49031	0.08035315
69	0x3deb97e6	0.11503582
70	0xbdcaaf02	-0.09896661
71	0xbd4f8498	-0.05066356
72	0x3d24eff2	0.040267892
73	0x3dbcc736	0.09217684
74	0x3dd8ca3d	0.10585449
75	0x3dc9efae	0.098601684
76	0x3cd102da	0.025514055
77	0xbde2e839	-0.11079449
78	0x3b8783c1	0.0041355793
79	0xbda75d5b	-0.08172103
80	0xbdf22db4	-0.118251234
81	0x3dd599de	0.104297385
82	0x3dac12a8	0.08401996
83	0xbdf8ec1f	-0.121544115
84	0x3c7e258b	0.015511881
85	0xbcdd231d	-0.026994282
86	0xbcd92999	-0.026509093
87	0xbd7c2bc9	-0.061565194
88	0x3d3e4c8b	0.046459716
89	0xbd9f08dc	-0.07765362
90	0x3d356a88	0.04429105
91	0x3d5b7b21	0.05358422
92	0x3da12f52	0.07870354
93	0x3d1ae5c5	0.03781678
94	0xbe002ab8	-0.12516296
95	0xbd9b4152	-0.07580818
96	0x3d5859a2	0.052819856
97	0x3cdc0a1f	0.026860295
98	0xbdccffd8	-0.10009736
99	0xbd9affba	-0.07568307
100	0x3dd89694	0.105755955
101	0x3d96ead2	0.07369007
102	0xbd4c30cd	-0.049851228
103	0xbd174fdf	-0.036941405
104	0xbde42308	-0.11139494
105	0xbc139561	-0.009007783
106	0xbdc66255	-0.09686724
107	0xbdca9ee4	-0.09893587
108	0xbc5c2739	-0.013437086
109	0x3c9ce419	0.019151734
110	0xbd649719	-0.05580816
111	0x3d909cfe	0.07061194
112	0xbda30215	-0.079593815
113	0x3dd00f76	0.10159199
114	0x3d995192	0.074862614
115	0xbddc7832	-0.10765113
116	0xbce2d577	-0.027689679
117	0xbac03c9b	-0.0014666499
118	0x3c9f724f	0.019463686
119	0x3cb00835	0.021488288
120	0x3d2405e7	0.04004469
121	0x399af669	0.0002955676
122	0xbd85847d	-0.06519411
123	0x3d7028df	0.058632728
124	0xbdf8db13	-0.1215116
125	0xbd8c7603	-0.068584464
126	0xbd16a634	-0.036779597
127	0xbd854901	-0.06508065
128	0xbd46af2b	-0.048506897
129	0xbdd6aa8d	-0.10481749
130	0xbcd39a2f	-0.025830356
131	0x3c9919b3	0.018689012
132	0xbda05b88	-0.07829958
133	0xbc54e1d5	-0.012993296
134	0x3da12e05	0.07870106
135	0xbc9d375a	-0.019191433
136	0xbb67d91d	-0.0035377212
137	0xbc3a7e1e	-0.011382608
138	0x3c8df5d5	0.017329136
139	0x3d99336f	0.07480513
140	0x3dda486c	0.106583446
141	0x3d8ddb92	0.06926645
142	0x3ddb255e	0.107004866
143	0xbc7a1b55	-0.0152653055
144	0xbddd9d8d	-0.10821066
145	0xbd81a1cf	-0.06329691
146	0x3da4d745	0.08048872
147	0xbbf2c6a9	-0.007408936
148	0xbd874169	-0.06604273
149	0xbdc93d2c	-0.09826121
150	0xbdf2ab2d	-0.118490554
151	0xbdd4c1e7	-0.103885464
152	0xbcfcf4a3	-0.03087837
153	0x3d7e8dbd	0.06214689
154	0x3d6d8182	0.057984836
155	0xbdf9a9be	-0.12190579
156	0x3d8b1ab9	0.06792206
157	0xbdcd1e0d	-0.10015497
158	0xbcca3620	-0.024684012
159	0xbd61ae41	-0.055097822
160	0xbcb5cb38	-0.022191629
161	0xbcf69792	-0.030101571
162	0xbde93e18	-0.113887966
163	0xbde1099e	-0.109881625
164	0xbccf9b7e	-0.0253427
165	0x3b570ee5	0.0032815274
166	0xbd79923f	-0.060930487
167	0x3d3fb931	0.04680747
168	0xbde9e7d1	-0.114211686
169	0xbc70d9f2	-0.0147004
170	0x3dca132d	0.09866939
171	0xbd62ce50	-0.055372536
172	0x3de08a0f	0.109638326
173	0x3d16200a	0.03665165
174	0xbdd8aa55	-0.10579363
175	0x3d8d4968	0.06898767
176	0xbca75548	-0.020426407
177	0xbd7548a6	-0.059883736
178	0x3db62c58	0.08895177
179	0xbdc8103d	-0.09768722
180	0x3bcadade	0.006190642
181	0xbcdcc464	-0.026949115
182	0x3da1373f	0.078718655
183	0x3cdaf8ed	0.026730025
184	0x3d4f07ad	0.05054443
185	0x3d11bcdb	0.035580497
186	0xbcec98b6	-0.028881412
187	0xbd022221	-0.03177083
188	0xbdca16f2	-0.09867658
189	0x3d6e184a	0.058128633
190	0x3db4c3f8	0.088264406
191	0x3d99de7e	0.0751314
192	0xbdba49b3	-0.09096088
193	0x3be8193c	0.0070830863
194	0xbdba247b	-0.09088989
195	0xbd82ad61	-0.06380726
196	0xbd9c3916	-0.07628076
197	0x3d0c221d	0.03421222
198	0xbd9f083e	-0.07765244
199	0xbc1767cf	-0.0092410585
200	0x3babd9d5	0.0052444735
201	0x3d90348c	0.070412725
202	0xbdb8ba3a	-0.09019895
203	0xbdb5a213	-0.08868804
204	0xbd9bb901	-0.07603646
205	0x3d9d9650	0.076946855
206	0xbd4b23ca	-0.049594678
207	0x3dce624a	0.10077341
208	0x3d15dabc	0.036585554
209	0x3c71f037	0.014766744
210	0x3ba8cfed	0.00515174
211	0xbc9007aa	-0.01758178
212	0x3caac214	0.020844497
213	0xbcae3236	-0.021264177
214	0xbae76817	-0.0017654923
215	0x3cae6c1d	0.021291787
216	0xbdc10b13	-0.0942594
217	0xbd67d9d6	-0.05660423
218	0x3dd208bb	0.102555715
219	0xbdba2762	-0.09089543
220	0xbb268d60	-0.0025413856
221	0x3df7df9d	0.12103198
222	0x3d49997a	0.049218632
223	0x3bd57ba3	0.006514983
224	0xbdc7c220	-0.09753823
225	0x3d85a208	0.06525046
226	0xbda1f844	-0.07908681
227	0xbce484f5	-0.02789543
228	0xbd272e85	-0.04081585
229	0xbc3f0079	-0.0116578275
230	0x3a1a7caf	0.0005893213
231	0x3dd6458a	0.10462482
232	0x3cabb9b3	0.020962572
233	0x3de7aabe	0.11311863
234	0x3da21f39	0.079161115
235	0xbd9d4291	-0.07678712
236	0x3d745188	0.059648067
237	0xbdb00f3f	-0.08596658
238	0xbd36be92	-0.044615336
239	0x3d28bcfa	0.041195847
240	0x3d396d59	0.045270298
241	0x3dc3fb30	0.095693946
242	0xbd21d3f0	-0.03950876
243	0x3bcc3b92	0.0062326873
244	0x3d768219	0.060182665
245	0xbde05ac9	-0.10954816
246	0x3dbd589e	0.09245418
247	0xbdbe402f	-0.09289586
248	0x3bfb9653	0.007677832
249	0xbca35993	-0.019940173
250	0xbd6917ae	-0.05690735
251	0x3c8c6eb5	0.017142633
252	0x3dd6c9d6	0.10487716
253	0xbcecba3e	-0.028897401
254	0xbd84576d	-0.06461988
255	0xbd1c56ce	-0.03816872

Network.0.bias f4 [64]
0	0x3c090239	0.008362346
1	0xbdd31e40	-0.10308504
2	0xbd9c60b0	-0.07635629
3	0xbd2b4735	-0.041815955
4	0x3bbd583a	0.0057783397
5	0x3d4813b6	0.048846923
6	0xbce898f2	-0.028393243
7	0xbd2a33d3	-0.04155333
8	0x3d70d514	0.058796957
9	0xbde53cf4	-0.111932665
10	0x3d9fb109	0.07797439
11	0xbca7c4c9	-0.020479577
12	0x3db6c4a9	0.08924229
13	0x3dac19a8	0.08403331
14	0x3c6c3c7c	0.0144187175
15	0x3d245e82	0.040129192
16	0xbd7c7a61	-0.061640147
17	0x3da2a0ca	0.07940824
18	0x3d81bc75	0.063347735
19	0xbc44871f	-0.011995106
20	0x3d4c86e6	0.049933337
21	0xb9c2cf34	-0.00037156942
22	0x3db17541	0.086649425
23	0x3d634664	0.05548705
24	0x3dbf49d1	0.09340251
25	0xbdeb6998	-0.1149475
26	0x3dfb7067	0.122772984
27	0x3d4ff483	0.050770294
28	0x3d8400de	0.06445478
29	0x3d042d2c	0.03226964
30	0x3d93d674	0.07218638
31	0x3dda1db7	0.10650199
32	0xbb72c091	-0.0037041048
33	0xbdd73b54	-0.10509363
34	0x3dd44787	0.10365205
35	0xbc9afa3e	-0.018918153
36	0xbd831bb9	-0.06401772
37	0x3da33b5b	0.079703055
38	0x3d74f847	0.05980709
39	0x3c13bf71	0.009017811
40	0xbc5ed5da	-0.013600791
41	0xbc873f35	-0.016509632
42	0x3dede6a7	0.11616259
43	0x3d8ed0bd	0.069734074
44	0x3d853e87	0.06506067
45	0x3d8fc2dc	0.07019588
46	0xbd8b7bed	-0.06810746
47	0x3c9c9b6d	0.019117082
48	0xbdc627a9	-0.09675533
49	0x3d8124d3	0.06305852
50	0xbdfee66c	-0.12446293
51	0xbde9dca4	-0.11419037
52	0xbdfe96c6	-0.124311015
53	0x3d8bedb3	0.06832447
54	0x3bc659ae	0.006053171
55	0x3bdd5a52	0.006755152
56	0x3cca8d92	0.02472571
57	0xbd524ee9	-0.051344786
58	0xbd2f71b2	-0.042833038
59	0xbdb2a5f6	-0.08723061
60	0xbcb83b62	-0.022489253
61	0xbd89e5bf	-0.06733274
62	0xbb50de4e	-0.0031870785
63	0x3dcd26f5	0.10017196

Network.2.weight f4 [64, 64]
0	0xbde1a128	-0.11017066
1	0x3d8b12c7	0.06790691
2	0xbdb0c1df	-0.08630728
3	0xbd5e98c4	-0.054344907
4	0x3cff86f2	0.031192277
5	0x3c7da450	0.01548107
6	0x3ddea674	0.10871592
7	0x3b97fb95	0.004638145
8	0xbd5e64d1	-0.054295365
9	0xbd4284a7	-0.04748979
10	0xba092e3f	-0.00052330265
11	0xbdb1feae	-0.086911544
12	0xbdd5b307	-0.104345374
13	0xbd419417	-0.04726037
14	0x3c0c6717	0.0085695
15	0xbda106d8	-0.078626335
16	0xbd860d82	-0.06545545
17	0x3dc52d42	0.09627773
18	0x3df9e5d3	0.122020386
19	0xbd39bb76	-0.045344792
20	0xbdcfe476	-0.10150997
21	0xbd5fb0b3	-0.054611873
22	0x3d6cdfe5	0.05783071
23	0x3d07f334	0.03319092
24	0xbd389d53	-0.04507191
25	0xbdd2d062	-0.10293652
26	0xbd34d4a1	-0.04414809
27	0xbd0cd00d	-0.0343781
28	0x3d86178e	0.065474615
29	0xbd7bffd0	-0.06152326
30	0x3da7e8f6	0.08198731
31	0x3c96fd80	0.018431425
32	0xbce0fe33	-0.027464962
33	0xbdd68988	-0.10475451
34	0x3e04aefc	0.12957376
35	0xbceb0a69	-0.028691487
36	0x3daddfe6	0.08489971
37	0xbd91d602	-0.07120897
38	0xbdee13a2	-0.116248384
39	0xbdbef55d	-0.09324143
40	0xbd6b6763	-0.057471644
41	0xbd3e008c	-0.04638724
42	0xbcc34cfd	-0.023840422
43	0x3dc9acc0	0.098474026
44	0xbde4d5c0	-0.11173582
45	0x3d87ad00	0.06624794
46	0x3de56882	0.11201574
47	0xbb9c51b0	-0.00477048
48	0xbdae4693	-0.08509555
49	0x3c2619e6	0.010138011
50	0x3d131fd7	0.035919037
51	0x3d79f630	0.0610258
52	0xbd01c7c6	-0.03168466
53	0xbd4460c0	-0.04794383
54	0xbd5ba43e	-0.05362343
55	0xbe0244fc	-0.12721628
56	0x3d4897a4	0.04897274
57	0xbdb410fa	-0.087923005
58	0xbd578d31	-0.052624885
59	0x3bc1558f	0.005900092
60	0x3db80c77	0.089867525
61	0x3dd4d080	0.10391331
62	0xbdad61fe	-0.08465956
63	0x3dd12d01	0.10213662
64	0x3df337bd	0.118758656
65	0x3dc19b12	0.094534054
66	0x3b89e207	0.0042078528
67	0x3dd318aa	0.10307439
68	0x3d5d4108	0.054017097
69	0xbdab3a61	-0.08360744
70	0xbd93b4be	-0.07212208
71	0xbb29c0db	-0.0025902304
72	0xbda7bf36	-0.081907675
73	0xbd3b2dd9	-0.04569802
74	0x3dd7b959	0.10533399
75	0x3d528db6	0.051404677
76	0x3debf58c	0.11521444
77	0xbbad5a76	-0.005290325
78	0xbd8dccde	-0.06923841
79	0x3d9d6114	0.07684532
80	0x3b54d48a	0.0032475316
81	0x3c667f72	0.014068471
82	0xbd73799e	-0.059442155
83	0x3d6bcf62	0.057570823
84	0xbdc8ff23	-0.098142885
85	0x3dda062f	0.10645711
86	0x3dd1225d	0.102116324
87	0x3d568024	0.0523683
88	0x3dd45539	0.103678174
89	0x3d8ceee9	0.06881506
90	0xbd28b73c	-0.04119037
91	0xbdd0d890	-0.10197556
92	0x3cbc091c	0.022953562
93	0x3d9f1504	0.0776768
94	0xbca13a12	-0.01968101
95	0x3c17d42d	0.009266895
96	0x3dcb13f8	0.09915918
97	0x3d3839d5	0.044977028
98	0x3db2afb1	0.08724917
99	0x3ccadf0d	0.024764562
100	0x3bfd8a29	0.0077374172
101	0xbcbf417a	-0.023346651
102	0xbcd971fd	-0.026543612
103	0xbd952f9b	-0.07284471
104	0x3d9db39d	0.07700274
105	0x3df6f33c	0.12058112
106	0x3d577c52	0.052608795
107	0x3c1a5872	0.009420501
108	0xbd396a74	-0.045267537
109	0xbe025568	-0.12727892
110	0xbcf6151f	-0.030039368
111	0xbdaa1456	-0.0830466
112	0xbdae9914	-0.08525291
113	0xbcfd64c0	-0.03093183
114	0xbcfcf621	-0.030879082
115	0x3c9f01ad	0.019409979
116	0xbdc68102	-0.09692575
117	0x3dc2ad98	0.09505767
118	0xbdf3fe10	-0.11913693
119	0xbd588774	-0.052863553
120	0xbd57f06c	-0.05271952
121	0x39e37294	0.0004338218
122	0x3d35c631	0.044378463
123	0xbd23f626	-0.040029667
124	0x3cd5200c	0.026016258
125	0xbcb7fc79	-0.022459256
126	0xbd631f01	-0.05544949
127	0xbc374769	-0.011186459
128	0x3c97e250	0.018540531
129	0xbdebed3b	-0.115198575
130	0xbda4fba7	-0.080558114
131	0x3dc3332a	0.09531243
132	0x3d812701	0.063062675
133	0xbc164c3b	-0.009173448
134	0x3c22f642	0.009946408
135	0x3cb34b9e	0.021886643
136	0x3cb91a6d	0.022595609
137	0xbda62570	-0.081126094
138	0xbd1cd020	-0.03828442
139	0xbddd7011	-0.108123906
140	0xbdd5cf51	-0.10439933
141	0xbc8f6997	-0.017506404
142	0xbc393660	-0.011304468
143	0x3dd3b606	0.103374526
144	0x3cdf15ee	0.027232137
145	0xbc5bfab5	-0.013426472
146	0x3b34fdd9	0.0027617125
147	0x3d82b70b	0.06382569
148	0xbd046680	-0.032324314
149	0xbcf4ebf9	-0.029897677
150	0xbc929341	-0.017892482
151	0xbddd0b6e	-0.10793196
152	0xbcc12596	-0.023577493
153	0xbdde73d7	-0.108619384
154	0xbd96996b	-0.07353481
155	0xbdafab87	-0.08577638
156	0x3db1c582	0.0868025
157	0xbde9fbf3	-0.114250086
158	0x3e024252	0.12720612
159	0x3d437902	0.047722824
160	0xbdb9ee0e	-0.090786085
161	0x3de14a53	0.11000504
162	0xbcb0d8b6	-0.02158771
163	0xbde582f1	-0.11206616
164	0xbc396022	-0.011314424
165	0x3d630e1e	0.055433385
166	0xbdedbdd4	-0.116084725
167	0xbb4ff0b5	-0.0031729166
168	0x3d6a7e89	0.05724958
169	0xbd61a849	-0.05509213
170	0x3bb11e42	0.0054052183
171	0xbd5f8b61	-0.05457628
172	0xbda4b3e1	-0.08042122
173	0x3dd07e6c	0.10180363
174	0xbda80a97	-0.08205145
175	0xbbe0ccdb	-0.006860358
176	0x3d0e260f	0.034704264
177	0xbd82eabc	-0.06392428
178	0x3d880363	0.06641271
179	0xbdc944c4	-0.09827569
180	0x3e007f04	0.12548453
181	0x3d4fd617	0.05074128
182	0xbc4e0e0c	-0.012576591
183	0xbde1769b	-0.1100895
184	0x3c1068b4	0.008814026
185	0x3d4f35c4	0.050588384
186	0xbd78b368	-0.06071797
187	0xbc0f901f	-0.0087623885
188	0xbe05fd83	-0.13084988
189	0xbe072c6f	-0.13200544
190	0xbbf69f95	-0.007526348
191	0x3dc9c90c	0.098528
192	0xbc4d8441	-0.012543739
193	0x3d3a4e59	0.045484874
194	0xbd31e5a8	-0.043431908
195	0xbd320377	-0.043460336
196	0xbbea936e	-0.0071586883
197	0xbd8d8cd4	-0.069116265
198	0x3da91a2e	0.082569465
199	0x3da97706	0.08274655
200	0xbdd466d1	-0.10371173
201	0x3d2f2387	0.04275849
202	0xbd65a772	-0.05606789
203	0xbd859178	-0.065218866
204	0xbcafbd37	-0.02145253
205	0xbd05d8fe	-0.032677643
206	0xbd86dabc	-0.06584689
207	0x3cc5c309	0.024140852
208	0x3d9e0218	0.07715243
209	0xbc4b7fd6	-0.012420615
210	0xbb1a8639	-0.0023578538
211	0x3b5acb97	0.003338551
212	0xbd44dd15	-0.048062403
213	0x3d742032	0.059601016
214	0x3dfadc92	0.12249102
215	0xbc985ded	-0.018599475
216	0x3b179254	0.002312799
217	0x3ddc806b	0.10766681
218	0x3dc48ffe	0.09597777
219	0xbdcb52d6	-0.09927909
220	0xbd83954b	-0.0642496
221	0xbdf928bb	-0.12165972
222	0x3daaae2c	0.08334002
223	0x3dca0c91	0.09865678
224	0xbd546b90	-0.051860392
225	0x3d3ed929	0.04659382
226	0x3d14c58d	0.03632121
227	0xbde91233	-0.11380424
228	0x3d65869d	0.05603658
229	0x3d60fb62	0.054927237
230	0x3c047d68	0.00808654
231	0x3c9c4bf8	0.019079193
232	0x3d11503a	0.0354769
233	0x3dab3fd9	0.08361787
234	0x3dd5c779	0.10438437
235	0x3c48f406	0.012265211
236	0x3d69e8f3	0.057106923
237	0xbcec3ece	-0.028838541
238	0x3da67f0e	0.081297025
239	0xbd600b78	-0.054698437
240	0xbde13102	-0.109956756
241	0x3d847116	0.06466882
242	0x3d5705f7	0.052495923
243	0x3d07d0ad	0.033157993
244	0x3d731d95	0.059354383
245	0x3c207f62	0.009795995
246	0x3d439441	0.047748808
247	0x3d374d5d	0.044751514
248	0xbd7f4a36	-0.062326632
249	0x39e93681	0.00044481832
250	0x3cd5456f	0.026034085
251	0xbc446c8a	-0.011988768
252	0xbde4440e	-0.11145793
253	0x3b9dfb99	0.0048212525
254	0x3da9019d	0.08252261
255	0xbd957d9e	-0.0729935

Network.2.bias f4 [64]
0	0x3cc976b3	0.024592733
1	0x3dae630f	0.08514988
2	0x3dc4e5cf	0.09614145
3	0xbc925f15	-0.017867604
4	0xbca226bd	-0.019793862
5	0xbd656191	-0.05600125
6	0xbcee8988	-0.029118314
7	0xbd72e5bc	-0.059301123
8	0xbd19f343	-0.037585508
9	0x3d89894e	0.06715642
10	0x3d3215c8	0.043477803
11	0xbd851f9a	-0.06500168
12	0x3d8469fe	0.06465529
13	0x3ba69c61	0.00508456
14	0x3c28908d	0.01028837
15	0x3d5eb087	0.05436757
16	0xbd83552e	-0.06412731
17	0xbca2bd36	-0.019865613
18	0x3db6d7fb	0.08927914
19	0x3d99bfa5	0.075072564
20	0x3d9c7eef	0.07641398
21	0xbcc1b940	-0.023647904
22	0x3bd6b467	0.0065522674
23	0x3db24e4a	0.08706339
24	0x3ce3de87	0.02781607
25	0x3d98bcce	0.07457887
26	0x3d8e1920	0.06938386
27	0x3d7857f9	0.060630772
28	0x3d85fbf0	0.06542194
29	0xbd9f2e63	-0.077725194
30	0xbdd468df	-0.10371565
31	0xbdf15cc7	-0.11785274
32	0x3dd49e6c	0.10381779
33	0xbd9a96df	-0.075483076
34	0xbdbcef42	-0.09225322
35	0x3cb363dd	0.021898204
36	0xbc922487	-0.017839683
37	0x3d36bcb7	0.044613566
38	0xbd1f1478	-0.03883788
39	0x3db9f3e3	0.09079721
40	0xbde5bdb5	-0.11217824
41	0xbdefef4a	-0.11715563
42	0x3de8b6f8	0.113630235
43	0xbd45a4ea	-0.048252977
44	0x3ccaf9d7	0.024777336
45	0x3d534216	0.051576696
46	0x3c5c179f	0.013433366
47	0xbdadeb85	-0.084921874
48	0x3bf5615a	0.007488412
49	0xbdb35f8f	-0.08758461
50	0x3de4bd0a	0.11168869
51	0x3c571bae	0.013129158
52	0x3dc4d6db	0.09611293
53	0x3da874e1	0.08225418
54	0x3d40f957	0.04711279
55	0x3d4d89fc	0.05018042
56	0x3d83fef5	0.064451136
57	0xbd96c6d7	-0.073621444
58	0x3db4eaf3	0.088338755
59	0xbd0708c0	-0.03296733
60	0x3dd1febd	0.102536656
61	0xbb1ccb75	-0.002392498
62	0x3d833fa7	0.06408625
63	0x3dc9432e	0.09827267

Actor.weight f4 [5, 64]
0	0x3cd632fe	0.026147362
1	0xbcc56aec	-0.024098836
2	0x3d57ea43	0.052713644
3	0xbe00056c	-0.12502068
4	0xbc4da410	-0.012551323
5	0xbcd33a6d	-0.025784696
6	0xbdc549e8	-0.09633237
7	0xbbd1f66e	-0.0064075505
8	0x3cea2a5c	0.028584652
9	0xbdf5716b	-0.119845234
10	0x3dd3281a	0.10310383
11	0x3d91d9d9	0.07121629
12	0x3dfe3edd	0.12414334
13	0xbd5c2086	-0.053741954
14	0xbdb6e26b	-0.089299046
15	0x3d9c9083	0.07644751
16	0x3deec352	0.11658348
17	0xbd96b4ea	-0.07358725
18	0xbd983dd6	-0.07433669
19	0xbc20a7f5	-0.009805669
20	0x3dd719c9	0.10502965
21	0xbca07223	-0.019585675
22	0xbdf66658	-0.12031239
23	0xbd517d09	-0.051144633
24	0xbd93f6c3	-0.072248004
25	0x3dbe740b	0.09299477
26	0xbdbf9943	-0.09355404
27	0x3dc0b16c	0.094088405
28	0x3d422068	0.047394186
29	0xbc29fc61	-0.010375113
30	0xbcfcfd17	-0.030882401
31	0x3d89a6d3	0.06721272
32	0xbd92939d	-0.07157061
33	0xbd48022c	-0.048830196
34	0x3ddd1fb1	0.1079706
35	0xbd43bc42	-0.04778696
36	0x3c5c0a53	0.013430196
37	0x3dcd35f9	0.1002006
38	0xbdca4f57	-0.09878414
39	0x3cb2f319	0.021844434
40	0x3b7b2410	0.0038321055
41	0xbd85c624	-0.06531933
42	0x3dcf54e2	0.10123612
43	0x3db0ef74	0.08639422
44	0xbc10739d	-0.008816627
45	0xbc65fe35	-0.014037658
46	0x3d9f0a14	0.07765594
47	0xbd26bc3a	-0.04070685
48	0x3d921162	0.07132222
49	0xbdabf35e	-0.08396028
50	0xbdd04fbd	-0.10171459
51	0x3dab53bd	0.08365581
52	0x3daccd8b	0.08437642
53	0xbdc369a2	-0.09541632
54	0xbcd99d03	-0.026564127
55	0x3d5a57a7	0.053306248
56	0x3d8cfac5	0.06883768
57	0x3d973c70	0.073845744
58	0x3db1dcb7	0.08684676
59	0xbd6c25ed	-0.057653356
60	0x3cde000b	0.02709963
61	0x3ddc61cc	0.10760841
62	0xbdd40041	-0.10351611
63	0x3da71a43	0.08159306
64	0x3cff7deb	0.031187972
65	0x3b8b664d	0.0042541386
66	0x3dfa1683	0.12211325
67	0xbd50c1d8	-0.050966114
68	0xbd0bd144	-0.034135118
69	0xbdbce79b	-0.09223863
70	0x3dd97ba8	0.10619289
71	0xbdb8ea65	-0.09029082
72	0x3de65e8d	0.11248503
73	0xbdbe5cf7	-0.092950754
74	0x3d904814	0.07044998
75	0xbd813579	-0.06309027
76	0x3de02931	0.10945357
77	0xbda9beec	-0.082883686
78	0xbda3576f	-0.07975661
79	0xbd1974f3	-0.037465047
80	0xbdcb99b6	-0.099414274
81	0x3df56512	0.11982168
82	0x3d42383f	0.04741692
83	0xbd895728	-0.06706077
84	0xbdbf525f	-0.09341883
85	0xbd253f99	-0.040343855
86	0x3ca14139	0.01968442
87	0xbd6afc22	-0.05736936
88	0x3d9561d6	0.07294051
89	0xbd76f4c2	-0.060292013
90	0x3d1f0961	0.038827304
91	0x3db5787b	0.088608705
92	0xbdb79068	-0.0896309
93	0xbdc9f4ba	-0.09861131
94	0xbdf7a5af	-0.120921485
95	0x3cc90e2e	0.024542894
96	0x3dcb6d67	0.09932976
97	0xbda11ae4	-0.07866457
98	0xbc7c5127	-0.015400208
99	0x3d9e228c	0.07721433
100	0x3dc4629e	0.09589122
101	0x3d8f6eea	0.07003577
102	0x3d28f11b	0.04124556
103	0x3ca96d68	0.020682052
104	0x3c14e34f	0.009087398
105	0x3de0618f	0.10956108
106	0x3bb42849	0.0054979664
107	0x3d434498	0.047672838
108	0xbc02cdf1	-0.007983671
109	0x3dccdf38	0.10003513
110	0xbdfb5242	-0.12271549
111	0xbd274ab3	-0.040842723
112	0xbdf784ac	-0.12085852
113	0x3cf9b372	0.030481074
114	0xbcea4268	-0.028596118
115	0xbdd4f209	-0.10397727
116	0xbdc1d0d9	-0.09463663
117	0x3d0ea479	0.034824822
118	0x3dc01193	0.09378352
119	0x3dd86e2b	0.10567888
120	0x3dacaa0c	0.08430871
121	0xbdcc955c	-0.099894255
122	0x3dd73184	0.10507491
123	0x3df7c2d4	0.120977074
124	0x3ba368de	0.0049868664
125	0xbdf7d968	-0.12102014
126	0xbdb6930c	-0.08914766
127	0xbde47c89	-0.11156566
128	0x3c9e68b4	0.019337036
129	0x3dcec9cd	0.10097084
130	0x3da5b339	0.08090825
131	0xbd70debd	-0.05880617
132	0xbd5f6040	-0.05453515
133	0x3d00539e	0.031329744
134	0xbd856b75	-0.065146364
135	0xbc20e4dc	-0.009820189
136	0x3d2024b4	0.039097503
137	0xbd3ede9e	-0.046599023
138	0x3d2ed45e	0.042682998
139	0xbc8adc9e	-0.016950902
140	0x3deca005	0.11553959
141	0xbdcedc90	-0.10100663
142	0x3ddbf069	0.10739214
143	0x3da83834	0.08213845
144	0xbde0d870	-0.10978782
145	0x3d01679b	0.031592946
146	0xbc549e01	-0.012977124
147	0x3d79b26d	0.060961176
148	0x3dbbf30d	0.09177218
149	0xbd84cd33	-0.06484451
150	0xbd8d31ca	-0.06894262
151	0xbdbe30bf	-0.09286641
152	0x3db83cb4	0.08995953
153	0xbdd36614	-0.10322204
154	0xbd9f3241	-0.07773257
155	0x3de24ad6	0.1104943
156	0x3d7f87c2	0.062385328
157	0x3dab4bd6	0.08364074
158	0x3dd7eff8	0.10543817
159	0xbddda595	-0.10822598
160	0xbcecdd4e	-0.02891412
161	0xbc08510c	-0.008320104
162	0x3def3030	0.11679113
163	0xbd194990	-0.03742367
164	0xbc305e5c	-0.0107646845
165	0x3d9477d1	0.07249416
166	0x3d89ecb8	0.06734604
167	0xbda95bdc	-0.08269474
168	0xbde4cd69	-0.111719914
169	0xbd400063	-0.04687537
170	0x3d23b1ed	0.039964605
171	0x3defc9c7	0.11708408
172	0x3d6fe5ca	0.058568753
173	0x3d989349	0.074499674
174	0x3d26383a	0.040580966
175	0xbd04f4fb	-0.032460194
176	0xbca89e7e	-0.020583387
177	0x3ddb9aa7	0.10722857
178	0x3cc008a9	0.02344163
179	0x3cdfc55c	0.027315788
180	0x3d985b4f	0.07439291
181	0x3db8386f	0.08995139
182	0x3d1d5625	0.038412232
183	0xbc68bc93	-0.014205116
184	0xbd6271a1	-0.055284146
185	0xbd97733f	-0.07395028
186	0xbd76991b	-0.060204607
187	0x3dd6473c	0.10462806
188	0x3dc7bf85	0.09753326
189	0xbd8b27f7	-0.06794732
190	0x3dd294d9	0.10282297
191	0xbd0cbc5a	-0.034359314
192	0xbcf57ffe	-0.029968258
193	0x3d1a5d4e	0.03768664
194	0xbdd108ed	-0.102067806
195	0xbd93d160	-0.072176695
196	0xbc9b403a	-0.018951524
197	0xbd17c7ad	-0.03705566
198	0x3d8482c1	0.06470252
199	0xbce562b0	-0.02800116
200	0xbdd775dd	-0.105205275
201	0xbde0dc81	-0.10979558
202	0x3df3eb18	0.11910075
203	0x3d6b2828	0.057411343
204	0xbdffa51b	-0.12482663
205	0xbdcdd078	-0.10049528
206	0xbd9efecc	-0.077634424
207	0x3de369cb	0.11104163
208	0x3d8e3164	0.06943014
209	0x3d2d72d8	0.04234585
210	0x3d92f191	0.071749814
211	0x3cbbdf5f	0.02293366
212	0x3db89ada	0.090139106
213	0xbdcaaf56	-0.09896724
214	0x3dccaaf5	0.09993545
215	0x3d636091	0.055512015
216	0x3d2b8e87	0.04188397
217	0x3da54e0c	0.08071527
218	0xbcd20c5f	-0.025640665
219	0xbd7af1d4	-0.06126578
220	0xbd1292a8	-0.035784394
221	0xbdc36d8f	-0.09542381
222	0xbad0fa6e	-0.0015943774
223	0x3d84420f	0.06457912
224	0x3ccc10a0	0.024910271
225	0xbb2ed568	-0.0026677493
226	0x3d3ae2af	0.04562634
227	0xbdecd39a	-0.11563797
228	0xbdab770e	-0.08372317
229	0xbddd2d3c	-0.107996434
230	0x3e00de82	0.1258488
231	0xbdeac360	-0.11463046
232	0x3d6ebee7	0.058287527
233	0x3dbb84a2	0.09156157
234	0xbd09b383	-0.03361846
235	0xbcb24b74	-0.021764494
236	0x3dd59b75	0.10430042
237	0xbdcea6b2	-0.10090388
238	0xbdfbbd45	-0.1229196
239	0xbca18b76	-0.01971982
240	0xbc88b2d7	-0.01668684
241	0xbd4acbd3	-0.04951079
242	0x3c0e393f	0.008680641
243	0x3d89eda6	0.06734781
244	0x3d8c11f1	0.068393596
245	0x3d1e24e1	0.03860939
246	0x3db42191	0.08795465
247	0xbd7673f7	-0.060169186
248	0x3c202a1f	0.009775667
249	0x3d315d61	0.043301944
250	0x3d2c3735	0.042044837
251	0xbd350850	-0.04419738
252	0x3dcbc842	0.099503055
253	0xbdc7bd67	-0.097529225
254	0xbd74e315	-0.059786875
255	0xbdf9113e	-0.12161492

Actor.bias f4 [5]
0	0x3d8194b8	0.06327194
1	0x3d9a9f24	0.07549885
2	0x3bd7a0b6	0.0065804375
3	0x3ca13682	0.019679312
4	0xbd34a88d	-0.044106055

Critic.weight f4 [1, 64]
0	0xbbd24266	-0.0064166067
1	0x3d90c3d7	0.070686035
2	0xbc2749c3	-0.010210457
3	0xbd3f78c9	-0.04674605
4	0x3d14f4d9	0.036366317
5	0xbc2c5531	-0.010518358
6	0x3b908424	0.0044102836
7	0xbd09b48d	-0.033619452
8	0xbc0aa49e	-0.008462099
9	0xbcd4daea	-0.025983293
10	0x3de45d9f	0.11150669
11	0xbdb44873	-0.08802881
12	0xbdc465f3	-0.09589758
13	0xbcff820e	-0.031189945
14	0x3b6d73f3	0.0036232441
15	0x3db6cb16	0.08925454
16	0x3cea1377	0.028573735
17	0xbc0d00a9	-0.008606114
18	0xbe002a62	-0.12516168
19	0xbd87250a	-0.065988615
20	0x3cea5047	0.028602732
21	0xbd417a1e	-0.0472356
22	0xbdaa3dd9	-0.08312578
23	0x3d1ad23e	0.03779816
24	0x3db8f80a	0.09031685
25	0x3c3df221	0.011593373
26	0x3dc28bbf	0.09499311
27	0x3deb9a37	0.115040235
28	0x3c1cc2bd	0.009567914
29	0x3e06f13b	0.1317796
30	0x3d45d8d9	0.048302505
31	0x3d244441	0.040104154
32	0x3d1f145c	0.038837776
33	0xbdfa97e3	-0.12236001
34	0x3d556659	0.05209956
35	0x3de46d40	0.1115365
36	0x3cf5a340	0.02998507
37	0x3b382107	0.0028095858
38	0xbce42d60	-0.027853668
39	0xbdc16a53	-0.09444108
40	0x3cbd44f6	0.023104172
41	0x3d40fb00	0.047114372
42	0x3d32940f	0.04359823
43	0x3df68c42	0.12038471
44	0xbda6c6f9	-0.0814342
45	0x3dd52721	0.10407854
46	0xbd0f4bbf	-0.034984346
47	0xbd040798	-0.032233804
48	0xbd7a4408	-0.061100036
49	0xbdb86fdb	-0.0900571
50	0x3d0c3377	0.03422877
51	0xbd020be7	-0.031749632
52	0x3c94b5ac	0.018153034
53	0xbe0127ee	-0.12612888
54	0xbd350c65	-0.044201273
55	0x3d9175e9	0.07102568
56	0xbd809498	-0.06278342
57	0x3de0600c	0.109558195
58	0xbdb85c73	-0.09002008
59	0xbda2337a	-0.079199746
60	0x3db7ea78	0.08980268
61	0x3deb602d	0.114929534
62	0x3d805c21	0.06267572
63	0x3d954027	0.07287627
