HighestReward1.pth (torch, 39700 bytes, 7 tensors)

Network.0.weight f4 [64, 70]
0	0xbce2d1d7	-0.02768795
1	0xbda1bba6	-0.07897119
2	0xbdbdf076	-0.0927438
3	0x3dd652d8	0.1046502
4	0x3e3f65f5	0.18691237
5	0xbd596ccc	-0.053082272
6	0xbec73af7	-0.38912174
7	0x3de071ce	0.109592065
8	0x3d905eaf	0.070493095
9	0x3e913ab9	0.28365114
10	0xbc0c5a32	-0.008566426
11	0x3dd68de3	0.104762815
12	0x3e1a4552	0.15065506
13	0x3e6bbb45	0.23020656
14	0xbd00e811	-0.031471316
15	0x3e36b0bb	0.17840855
16	0xbd8e51f9	-0.06949229
17	0x3ea7281c	0.3264779
18	0xbe88873c	-0.26665676
19	0xbdff0a2a	-0.124531105
20	0x3c840ed2	0.016120348
21	0xbb01eee0	-0.0019826218
22	0x3daf6708	0.085645735
23	0xbe734cc7	-0.23759757
24	0x3dd16add	0.10225461
25	0x3e037da3	0.12840895
26	0x3ebcc592	0.36869484
27	0x3dd7e273	0.10541239
28	0xbd87e43a	-0.06635328
29	0x3e1c76df	0.1527972
30	0xbe86b889	-0.26312664
31	0xbde29695	-0.110638775
32	0x3bed22ce	0.007236815
33	0xbd03941f	-0.03212368
34	0xbf02cbfd	-0.5109251
35	0x3e2276e0	0.1586566
36	0x3ea23d50	0.31687403
37	0xb9c05f0c	-0.0003669191
38	0x3ccfc27a	0.025361288
39	0xbda877a5	-0.082259454
40	0x3e3cd522	0.18440679
41	0x3d4d255c	0.050084457
42	0x3e78a23d	0.24280639
43	0xbdbaac07	-0.09114843
44	0x3da1b991	0.07896722
45	0xbe076327	-0.13221417
46	0xbc6202e2	-0.013794633
47	0xbada09ed	-0.0016635038
48	0xbd53fe46	-0.051756166
49	0x3e1e1152	0.15436295
50	0xbc78fe24	-0.015197311
51	0xbe917e21	-0.2841654
52	0x3dfd607a	0.12371917
53	0x3e18c659	0.14919414
54	0x3dbae55a	0.091257766
55	0x3cf23ef6	0.029571038
56	0xbdd1ff66	-0.102537915
57	0x3e18343b	0.14863674
58	0x3e7c6eb3	0.24651603
59	0x3c1691df	0.009190052
60	0xbdde1b1a	-0.10845013
61	0xbd5de290	-0.054171145
62	0x3dd791d9	0.10525865
63	0xbc569448	-0.013096876
64	0x3e86f5ed	0.263595
65	0xbe4975e9	-0.19673885
66	0x3e3b2577	0.1827601
67	0xbd2952e8	-0.04133883
68	0x3e89ef08	0.2694018
69	0xbdc8f611	-0.098125584
70	0x3bd9c0a3	0.0066452785
71	0x3dd94bb8	0.10610145
72	0x3eab733b	0.3348635
73	0x3e9b8c38	0.30380416
74	0xbe0f2564	-0.13979107
75	0xbeb67045	-0.3563253
76	0xbd90dc3e	-0.07073258
77	0xbc5972cf	-0.013272001
78	0x3def8173	0.11694612
79	0xbe519124	-0.20465523
80	0x3e25b8ae	0.16183731
81	0x3d8190f9	0.063264795
82	0xbd8675af	-0.06565415
83	0x3e5f96f9	0.21834935
84	0xbda13bc4	-0.078727275
85	0x3dfced3d	0.12349937
86	0xbebda2b1	-0.37038186
87	0xbe8eeeae	-0.27916473
88	0xbddc0376	-0.107428476
89	0xbe4b8985	-0.19876678
90	0x3e03454d	0.12819405
91	0x3ddb62dc	0.10712215
92	0xbd3672b7	-0.044542994
93	0xbe9e3aff	-0.30904385
94	0x3dec3d4c	0.11535129
95	0xbda3007f	-0.07959079
96	0x3e0ac07c	0.1354999
97	0x3e79b9ba	0.24387255
98	0xbe03d227	-0.12873136
99	0xbe70a9f7	-0.23502336
100	0xbdaa1b1d	-0.08305953
101	0x3e3488ec	0.17630357
102	0xbe169232	-0.14704207
103	0x3da180e3	0.07885911
104	0xbe79480e	-0.24343893
105	0xbdb47a2f	-0.08812367
106	0xbeb215fa	-0.34782392
107	0xbca0beb5	-0.019622186
108	0x3e3b304a	0.1828014
109	0x3c735d74	0.014853824
110	0x3d9f0e84	0.077664405
111	0x3dbd79cc	0.092517465
112	0xbd6b5cb6	-0.057461463
113	0xbe227a03	-0.15866856
114	0xbd5d0a7b	-0.053965073
115	0xbe10f99b	-0.14157717
116	0xbda33c5f	-0.07970499
117	0xbe7bfd8d	-0.2460844
118	0xbc3e430a	-0.011612663
119	0xbe0a4584	-0.1350308
120	0x3dad7165	0.08468894
121	0xbb8ddaba	-0.0043290528
122	0xbe359f96	-0.17736658
123	0x3e1d514c	0.15363044
124	0xbd56e8c2	-0.05246807
125	0x3e64ed8b	0.2235624
126	0x3d700e1e	0.058607213
127	0x3d28d628	0.04121986
128	0xbe480b8e	-0.19535658
129	0x3c7032f4	0.014660586
130	0xbd57a2a5	-0.052645344
131	0x3eb2ba86	0.3490793
132	0x3e4f14a2	0.20222715
133	0xbe248725	-0.16067179
134	0xbe59d719	-0.2127346
135	0x3e422d5d	0.18962617
136	0xbe2f2de8	-0.17107356
137	0x3ce77b9e	0.028257187
138	0x3d3d246b	0.04617731
139	0x3dce2a06	0.10066609
140	0x3e421ca3	0.18956237
141	0x3e0ac83e	0.13552949
142	0x3e0269cc	0.12735671
143	0xbe095bda	-0.13413945
144	0xbe8089a4	-0.2510501
145	0x3e254fff	0.16143797
146	0x3d4872cd	0.048937608
147	0x3e00433b	0.12525646
148	0x3e001e64	0.12511593
149	0x3e144ff1	0.1448362
150	0x3e4f18d7	0.2022432
151	0xbd0e033a	-0.034671046
152	0x3db4201f	0.08795189
153	0x3d42144a	0.04738263
154	0x3e564061	0.20922996
155	0x3e959595	0.29215685
156	0xbe1b2ffd	-0.15155025
157	0xbb4c2f09	-0.0031155965
158	0xbc2d6bf3	-0.010584819
159	0xbdafc724	-0.08582905
160	0xbcb32ee7	-0.02187295
161	0xbe05e4a8	-0.13075507
162	0xbe40f2b2	-0.18842581
163	0xbd0afc03	-0.033931743
164	0x3dd43d16	0.10363214
165	0x3e64bc31	0.22337414
166	0x3b3710e6	0.0027933656
167	0xbe46e4ff	-0.19423293
168	0xbde6836d	-0.11255536
169	0x3eb674d8	0.3563602
170	0xbd21be3e	-0.03948807
171	0x3dc125d2	0.09431042
172	0x3e204bc0	0.15653896
173	0xbe3dd14a	-0.18536869
174	0x3d2d3991	0.042291228
175	0xbc4a3b42	-0.01234323
176	0xbea9253d	-0.33036223
177	0xbd74c91b	-0.0597621
178	0x3d6414ef	0.055684026
179	0xbd84c1c6	-0.06482272
180	0x3f01b63e	0.50668705
181	0x3e9b368b	0.3031505
182	0xbe56f62d	-0.20992346
183	0x3d7a2121	0.06106675
184	0xbd19fc93	-0.03759439
185	0xbdf705b5	-0.120616354
186	0x3e9896b2	0.2980247
187	0x3c0c8d10	0.008578554
188	0x3c0ad8e7	0.008474565
189	0xbcc0e6bf	-0.023547528
190	0x3d99274b	0.07478198
191	0xbc8a9f96	-0.0169218
192	0x3e0c7ee0	0.13720274
193	0xbe1d323f	-0.15351199
194	0xbd5dd1b2	-0.05415506
195	0x3d699b79	0.057033036
196	0xbe32e499	-0.17470016
197	0xbdb1a248	-0.08673531
198	0x3d16ca25	0.036813874
199	0xbe9be56c	-0.30448472
200	0x3e0fa715	0.1402858
201	0xbe417d39	-0.18895425
202	0x3e257ed9	0.1616167
203	0x3e1ac5ea	0.1511456
204	0x3d15f0a7	0.036606457
205	0x3e17cf19	0.14825095
206	0x3e99edf2	0.3006435
207	0xbe16210b	-0.14661042
208	0xbeac44e4	-0.3364631
209	0x3e34febb	0.17675297
210	0x3e1d902d	0.1538703
211	0x3e15f99c	0.14646
212	0x392f3401	0.00016708674
213	0x3ea94185	0.330578
214	0x3e274af4	0.16337186
215	0x3dda607c	0.10662934
216	0xbdcd01da	-0.10010119
217	0xbdcf8d02	-0.10134317
218	0xbdbf80cd	-0.09350739
219	0x3e1bf685	0.15230758
220	0x3e150fa2	0.14556745
221	0x3d020d8f	0.03175121
222	0xbed1fa5b	-0.4101132
223	0xbdb30760	-0.08741641
224	0xbe041a99	-0.12900771
225	0x3e3238e0	0.17404509
226	0x3e46740d	0.19380207
227	0xbd6f7175	-0.05845781
228	0xbdb6f5c3	-0.08933594
229	0xbe5dac81	-0.21647836
230	0x3d97a633	0.07404747
231	0xbd6daef1	-0.058028165
232	0xbdba5909	-0.09099013
233	0xbe726c57	-0.23674141
234	0xbd94c6ae	-0.07264458
235	0xbd0c4f7f	-0.0342555
236	0xbe636250	-0.22205472
237	0x3e79e28d	0.24402829
238	0xbe552016	-0.20813021
239	0x3e3c9268	0.18415225
240	0xbc7d816e	-0.015472753
241	0xbe8c06b5	-0.27348867
242	0xbe806c3c	-0.25082576
243	0xbe4ba957	-0.19888817
244	0x3e3803ec	0.17970246
245	0xbe53365c	-0.20626205
246	0x3dc0b29c	0.09409067
247	0x3cf4d1d1	0.029885205
248	0x3db4fa10	0.08836758
249	0x3d370ff4	0.04469295
250	0xbdf2aa02	-0.11848833
251	0x3dde7059	0.10861272
252	0x3e1ad4c0	0.1512022
253	0xbdb212bb	-0.08694979
254	0xbe7437d3	-0.2384942
255	0x3e80191f	0.25019166

Network.0.bias f4 [64]
0	0x00000000	0.0
1	0x00000000	0.0
2	0x00000000	0.0
3	0x00000000	0.0
4	0x00000000	0.0
5	0x00000000	0.0
6	0x00000000	0.0
7	0x00000000	0.0
8	0x00000000	0.0
9	0x00000000	0.0
10	0x00000000	0.0
11	0x00000000	0.0
12	0x00000000	0.0
13	0x00000000	0.0
14	0x00000000	0.0
15	0x00000000	0.0
16	0xbc024032	-0.007949876
17	0x00000000	0.0
18	0x00000000	0.0
19	0x00000000	0.0
20	0x39a3108e	0.00031102117
21	0x00000000	0.0
22	0x00000000	0.0
23	0x00000000	0.0
24	0x00000000	0.0
25	0xbb6ae9b9	-0.0035844876
26	0x00000000	0.0
27	0x00000000	0.0
28	0x00000000	0.0
29	0x00000000	0.0
30	0x00000000	0.0
31	0x00000000	0.0
32	0x00000000	0.0
33	0x00000000	0.0
34	0xbbc0d6e8	-0.005884994
35	0x00000000	0.0
36	0x3c2f64c8	0.0107051805
37	0x00000000	0.0
38	0x00000000	0.0
39	0x00000000	0.0
40	0x00000000	0.0
41	0x00000000	0.0
42	0x00000000	0.0
43	0x00000000	0.0
44	0x00000000	0.0
45	0x00000000	0.0
46	0x00000000	0.0
47	0x00000000	0.0
48	0x00000000	0.0
49	0x00000000	0.0
50	0xbb52e6eb	-0.0032181095
51	0x00000000	0.0
52	0x00000000	0.0
53	0xbaab6030	-0.0013074931
54	0x00000000	0.0
55	0x00000000	0.0
56	0x00000000	0.0
57	0x00000000	0.0
58	0x00000000	0.0
59	0x3b8452eb	0.004038205
60	0x3c0b217b	0.008491869
61	0x00000000	0.0
62	0x00000000	0.0
63	0x3b976a70	0.0046208426

Network.2.weight f4 [64, 64]
0	0xbb43637e	-0.002981394
1	0x3ed8cc19	0.42343214
2	0xbe4ffb75	-0.20310767
3	0xbb39a9db	-0.0028330002
4	0x3e865b43	0.26241502
5	0x3da5c363	0.08093908
6	0xbd10dfe3	-0.035369765
7	0x3d53f5e2	0.051748164
8	0xbdee6bb2	-0.11641635
9	0x3e277ad7	0.16355453
10	0x3e8626d5	0.262015
11	0xbde531e5	-0.11191157
12	0xbd80c637	-0.062878065
13	0xbe770cbd	-0.24125953
14	0xbdb4d172	-0.08829011
15	0x3d362412	0.044467993
16	0x3dc4b0af	0.09604012
17	0x3e3395d6	0.17537627
18	0x3e90e534	0.28299868
19	0xbd624cb9	-0.05524895
20	0xba9ef88f	-0.001212852
21	0x3d8217a1	0.06352163
22	0xbe008bc6	-0.1255332
23	0xbd63fd2e	-0.055661373
24	0x3c4580d7	0.012054644
25	0x3d0e45ef	0.034734663
26	0xbf182d5c	-0.5944421
27	0x3e3d432a	0.18482652
28	0x3cd360d7	0.025803013
29	0xbe20983e	-0.15683076
30	0x3cae246d	0.021257604
31	0x3e962f3e	0.29332918
32	0xbe0b980a	-0.13632217
33	0x3d9442a1	0.07239271
34	0x3dd34582	0.10315992
35	0xbd42c5af	-0.047551807
36	0x3d998da7	0.07497721
37	0x3e369c02	0.1783295
38	0x3d92ba2c	0.07164416
39	0x3bfa5908	0.007640008
40	0x3e280a72	0.16410235
41	0x3bdb46b1	0.0066917767
42	0xbc229597	-0.00992336
43	0xbd9d1da8	-0.07671672
44	0x3da28d19	0.079370685
45	0x3e09baa6	0.13450107
46	0xbe859cde	-0.26096243
47	0xbeceadde	-0.40367025
48	0x3e772f5a	0.24139157
49	0xbe87b9d5	-0.26508966
50	0x3e1927c3	0.14956574
51	0xbe011a8b	-0.12607782
52	0x3e2ed946	0.1707507
53	0x3d2ff0f2	0.042954393
54	0xbe893b93	-0.26803264
55	0xbcdcb718	-0.026942775
56	0xbe759fd9	-0.23986758
57	0x3df406bc	0.11915347
58	0x3db7f2a5	0.08981828
59	0xbeb90fb8	-0.36144805
60	0xbe53fb61	-0.20701362
61	0xbe19d2fc	-0.1502189
62	0xbdb09ed7	-0.08624046
63	0xbe5f86a1	-0.218287
64	0xbe5c0e98	-0.21489942
65	0xbdaefa9c	-0.08543894
66	0xbe45843a	-0.19288722
67	0x3f0309a9	0.51186615
68	0x3ea3eaf2	0.32015187
69	0xbe11a7df	-0.14224194
70	0xbdd3e81e	-0.10347007
71	0xbe85783e	-0.260683
72	0xbdaac6a3	-0.08338668
73	0x3cfdf7f8	0.03100203
74	0x3d7f4b06	0.062327407
75	0xbed700bc	-0.41992748
76	0xbca4cd57	-0.020117445
77	0x3e5b2b76	0.21403298
78	0xbdef1a4e	-0.11674939
79	0x3efd9092	0.4952436
80	0xbda16328	-0.07880241
81	0x3dee1687	0.116253905
82	0xbd125ce7	-0.03573313
83	0x3c2ce2c2	0.01055211
84	0x3cf08038	0.029358014
85	0x3dcd07bb	0.1001124
86	0x3dccdf62	0.100035444
87	0xbd5afc3e	-0.053463213
88	0xbe6412ff	-0.22272871
89	0x3d845cad	0.06462989
90	0xbe82b36e	-0.2552752
91	0xbe3adedb	-0.18249075
92	0xbd1d5bad	-0.038417507
93	0x3e915a4d	0.28389207
94	0xbe9caa66	-0.30598754
95	0x3dd4ffab	0.10400327
96	0x3e0b9ca7	0.13633977
97	0xbd9a9a43	-0.07548954
98	0x3c8aff86	0.016967546
99	0xbe8a9700	-0.2706833
100	0x3db960b0	0.09051645
101	0xbe138159	-0.14404811
102	0x3ba99aeb	0.0051759384
103	0x3d1041dd	0.035219062
104	0x3d50ea15	0.051004488
105	0x3e72c044	0.23706156
106	0x3e29e474	0.16591054
107	0x3dea8dca	0.11452825
108	0x3daea799	0.085280605
109	0xbe461433	-0.19343643
110	0x3e8df313	0.27724513
111	0x3e568450	0.2094891
112	0x3e65cd83	0.22441678
113	0x3d8e06dc	0.06934902
114	0x3cb5ac74	0.022176959
115	0x3e317d2f	0.1733291
116	0xbde6b371	-0.112646945
117	0xbe5b65f8	-0.21425617
118	0x3d22e527	0.039769318
119	0x3de70c55	0.11281649
120	0xbd820835	-0.063492216
121	0x3d3f08f3	0.046639394
122	0xbd1fc45f	-0.039005633
123	0x3e9a6c9d	0.3016099
124	0x3e08b6ec	0.13351029
125	0xbd2acd4b	-0.04169969
126	0xbe327790	-0.17428422
127	0x3de39079	0.1111154
128	0x3e4c694d	0.19962044
129	0x3d851933	0.06498947
130	0x3e9c0097	0.304692
131	0x3d13c334	0.036074832
132	0x3dddd26f	0.10831153
133	0xbd51e744	-0.051245943
134	0xbd3b9062	-0.04579199
135	0xbdcaf87e	-0.099106774
136	0x3df42176	0.11920445
137	0xbdbbede4	-0.091762334
138	0x3dc6247f	0.0967493
139	0xbead06c8	-0.33794236
140	0xbc8ad424	-0.01694686
141	0xbe49268e	-0.19643614
142	0xbd8cff88	-0.06884676
143	0xbc4cbe9b	-0.012496616
144	0xbdeedcc4	-0.116632015
145	0xbe8fc763	-0.28081807
146	0x3c8d3ee5	0.017241905
147	0xbeed8ed5	-0.46398035
148	0xbc17c826	-0.009264028
149	0xbe286ce4	-0.16447788
150	0x3d4bfa56	0.049799286
151	0x3e61fa80	0.22068214
152	0x3e8b0f0e	0.27159923
153	0xbeca1054	-0.39465582
154	0x3a425457	0.00074130803
155	0xbd39aa0b	-0.04532818
156	0xbedc221f	-0.42994782
157	0x3ec5ddaa	0.3864568
158	0x3c1cbb9a	0.009566212
159	0xbdfadf45	-0.122496165
160	0xbe7dac7e	-0.24772832
161	0xbcc23a63	-0.023709482
162	0x3bd94c56	0.0066314144
163	0x3e5d5d17	0.21617542
164	0xbe796a27	-0.243569
165	0x3e4fec34	0.20304948
166	0x3c79edff	0.015254497
167	0x3adb0129	0.001670872
168	0x3d9ecd3b	0.07753988
169	0x3df6d819	0.12052936
170	0xbdb871b4	-0.09006062
171	0x3d60bf75	0.054870088
172	0x3e86cb89	0.2632716
173	0x3cdb0216	0.026734393
174	0x3d8d3ed5	0.0689675
175	0x3dd65f25	0.10467366
176	0x3e890cdb	0.2676762
177	0xbddf8c17	-0.10915392
178	0x3cf7ae44	0.030234464
179	0x3ebdab23	0.3704463
180	0xbd9301e9	-0.07178099
181	0xbdbc4a9e	-0.091939196
182	0x3ef09053	0.4698511
183	0xbc674ab5	-0.014116933
184	0x3d62d337	0.05537721
185	0x3e11ecc2	0.14250472
186	0xbe9a9f20	-0.30199528
187	0xba841111	-0.0010075887
188	0x3c44aa8c	0.012003552
189	0xbd054826	-0.03253951
190	0xbd9c249b	-0.076241694
191	0x3de98931	0.1140312
192	0xbdd9172d	-0.106001236
193	0x3e15a070	0.14611983
194	0x3d439179	0.047746155
195	0xbe312c1d	-0.17301984
196	0x3e99ee21	0.3006449
197	0x3e8a866e	0.27055687
198	0xbd9c0b31	-0.07619322
199	0xbdae77ad	-0.0851892
200	0x3db70d17	0.089380436
201	0x3e0a377b	0.13497727
202	0x3ea7dbce	0.32784885
203	0x3e701e98	0.2344917
204	0xbd175b31	-0.0369522
205	0xbdcca1af	-0.09991776
206	0x3dbeb467	0.09311753
207	0x3dc24db9	0.09487481
208	0xbce0a117	-0.027420564
209	0x3e029fee	0.12756321
210	0x3e6427fc	0.22280878
211	0x3d99add9	0.07503862
212	0x3db11205	0.08646015
213	0x3e418e98	0.18902051
214	0xbed510a5	-0.4161426
215	0xbe901224	-0.2813884
216	0x3dde701f	0.10861229
217	0x3eab9660	0.33513165
218	0x3e9789b6	0.29597253
219	0x3e265640	0.1624384
220	0xbc2884a8	-0.010285534
221	0x3dc3b535	0.09556047
222	0x3d4ac3a4	0.049502984
223	0xbbbdb4c8	-0.005789373
224	0x3ea3e632	0.32011563
225	0xbd15ad25	-0.036542077
226	0xbd2cd845	-0.04219844
227	0x3d8337b3	0.06407108
228	0xbd6a590e	-0.057213835
229	0x3da9ea25	0.08296613
230	0x3e6331e6	0.22187003
231	0xbdb7c322	-0.089727655
232	0xbd8999e3	-0.06718805
233	0x3c84211f	0.016129075
234	0xbe1e39a8	-0.15451682
235	0xbe58be43	-0.21166329
236	0xbe2eecc6	-0.1708251
237	0x3e261289	0.16218008
238	0xbcade78f	-0.02122858
239	0x3e64b14c	0.22333258
240	0x3aadd865	0.0013263343
241	0x3e292f75	0.1652201
242	0x3d5378c0	0.051628828
243	0x3e875528	0.26432157
244	0xbe49c569	-0.19704212
245	0x3cbc3737	0.022975547
246	0x3e813746	0.25237483
247	0xbec2f23f	-0.38075444
248	0xbe819f7a	-0.25316983
249	0xbe18da1e	-0.14926955
250	0x3ed17132	0.40906674
251	0xba20ae3c	-0.00061294786
252	0xbe29c289	-0.16578116
253	0x3e22b68b	0.15889947
254	0xbe8b376c	-0.2719072
255	0xbe2fb1db	-0.1715769

Network.2.bias f4 [64]
0	0xbd8e047f	-0.06934451
1	0x3d60b298	0.05485782
2	0x3d3952c0	0.045244932
3	0xbd9030a6	-0.07040529
4	0xbd6d2829	-0.057899628
5	0xbd225c87	-0.039639022
6	0x3d7522e6	0.059847735
7	0x3d4bf4ac	0.049793884
8	0xbd3cb572	-0.046071477
9	0xbd8b1868	-0.067917645
10	0xbd5e3095	-0.05424555
11	0xbd3877c6	-0.0450361
12	0x3d5a45f9	0.053289387
13	0x3d53f6e5	0.05174913
14	0x3d607451	0.054798428
15	0xbd4edefd	-0.050505627
16	0x3d095de0	0.03353679
17	0x3d51f8ef	0.051262792
18	0xbd3d7980	-0.04625845
19	0xbd9a9019	-0.07547016
20	0x3d918c7f	0.07106876
21	0x3d386ad7	0.045023765
22	0x3d9e9ac5	0.07744364
23	0xbd594e88	-0.05305341
24	0x3d2cd4a7	0.04219499
25	0x3d47fc8d	0.048824836
26	0x3d40c1d6	0.047059856
27	0xbd7c4e05	-0.061597843
28	0xbd854d91	-0.06508935
29	0x3dac2855	0.0840613
30	0xbd9d7fc2	-0.076903835
31	0x3d6b61d0	0.05746633
32	0x3d32e484	0.04367496
33	0x3d6baba8	0.05753675
34	0xbd80137f	-0.062537186
35	0x3d764334	0.060122684
36	0xbda17c72	-0.07885064
37	0x3dca9bf7	0.09893029
38	0xbd415aa4	-0.047205582
39	0xbd3eb866	-0.046562575
40	0xbd611643	-0.05495287
41	0x3d5a1394	0.053241327
42	0x3d6036e9	0.054739866
43	0x3d0b74bb	0.03404687
44	0xbd48fa19	-0.049066637
45	0xbd559c8b	-0.052151244
46	0xbd419e21	-0.047269944
47	0xbd797004	-0.060897842
48	0xbd5290c8	-0.051407605
49	0x3dc1ef46	0.09469466
50	0x3d86272d	0.06550441
51	0xbd1ddd15	-0.03854092
52	0x3d4f0f04	0.05055143
53	0x3d83d231	0.06436575
54	0xbd2f81f9	-0.04284856
55	0x3d80e883	0.06294348
56	0xbd1aca98	-0.037790865
57	0xbd627202	-0.055284508
58	0xbd734c58	-0.05939898
59	0x3d74201c	0.059600934
60	0xbda322fe	-0.079656586
61	0x3d417b04	0.047236457
62	0xbd843a18	-0.06456393
63	0xbd41dbe5	-0.04732885

Actor.weight f4 [5, 64]
0	0x3cca558e	0.024698999
1	0xbccaa4c8	-0.024736777
2	0xbcc45518	-0.023966357
3	0x3cd20192	0.025635514
4	0x3cd7e173	0.02635262
5	0x3cdfce05	0.027319917
6	0xbcefead5	-0.029286781
7	0xbcd0af28	-0.025474146
8	0x3cbfe863	0.02342624
9	0x3ca5eb62	0.02025384
10	0x3cd361a0	0.025803387
11	0x3d03a0fe	0.032135956
12	0xbd008423	-0.031376015
13	0xbcf56fce	-0.02996054
14	0xbce9c6ca	-0.028537173
15	0x3ce56f5c	0.028007202
16	0xbccfb087	-0.02535273
17	0xbcfb0449	-0.030641692
18	0x3cd89478	0.026437983
19	0x3cb81715	0.022471944
20	0xbca827ae	-0.020526733
21	0xbcd54f55	-0.026038805
22	0xbca35a44	-0.019940503
23	0x3ceae2d6	0.028672617
24	0xbce0e4d7	-0.02745287
25	0xbce278c1	-0.02764547
26	0xbcc96aa3	-0.024586981
27	0x3cd8b687	0.026454223
28	0x3cfef0ac	0.03112062
29	0xbc9ec76d	-0.019382203
30	0x3ca30396	0.01989917
31	0xbceff259	-0.029290365
32	0xbcc694d4	-0.024240889
33	0xbcdcb942	-0.026943807
34	0x3cdda529	0.027056294
35	0xbccc9cc5	-0.024977097
36	0x3ca99708	0.0207019
37	0xbc4944f8	-0.01228451
38	0x3cd89b59	0.026441263
39	0x3cd09ddf	0.025465904
40	0x3cbbd053	0.022926485
41	0xbcef118b	-0.02918317
42	0xbcf537b7	-0.029933793
43	0xbcbe5acc	-0.023236655
44	0x3cedd797	0.029033465
45	0x3cd31138	0.025765046
46	0x3cdb0ed9	0.026740478
47	0x3ce7faf2	0.028317902
48	0x3cdb187e	0.026745077
49	0xbc8d3809	-0.017238634
50	0xbc9594c0	-0.018259406
51	0x3cd76346	0.026292454
52	0xbcc7b9ea	-0.024380643
53	0xbcc57fbd	-0.024108762
54	0x3cc31cad	0.023817385
55	0xbcade6a6	-0.021228146
56	0x3cd1195d	0.02552479
57	0x3cd38220	0.025818884
58	0x3cf85e52	0.030318413
59	0xbce5fd24	-0.028074808
60	0x3c7b468b	0.015336643
61	0xbce5d832	-0.028057192
62	0x3cd6e39e	0.026231583
63	0x3cfd1540	0.030893922
64	0xbc452046	-0.01203162
65	0x3c35a496	0.011086604
66	0x3c2e1677	0.010625473
67	0xbc2d2690	-0.010568276
68	0xbc41e555	-0.011834462
69	0xbc55223c	-0.01300865
70	0x3c4f22c2	0.012642564
71	0x3c367f2f	0.011138721
72	0xbc437c85	-0.011931543
73	0xbc374cb5	-0.011187722
74	0xbc35abdc	-0.011088338
75	0xbc47e266	-0.012199974
76	0x3c30d343	0.010792556
77	0x3c2945b2	0.010331558
78	0x3c344bb3	0.011004376
79	0xbc5e13e0	-0.013554543
80	0x3c2c8e8f	0.0105320355
81	0x3c33f27e	0.010983108
82	0xbc03c251	-0.008041934
83	0xbc2b593f	-0.01045829
84	0x3c1b907b	0.009494896
85	0x3c124a33	0.008928823
86	0x3c572115	0.013130446
87	0xbc45d8fd	-0.01207566
88	0x3c37d7a3	0.011220845
89	0x3c32a63b	0.01090389
90	0x3c333b58	0.010939442
91	0xbc2d91c9	-0.01059384
92	0xbc3da6eb	-0.011575441
93	0x3c2f1704	0.01068664
94	0xbc2e2be3	-0.010630581
95	0x3c435058	0.011921011
96	0x3c0433d6	0.008068999
97	0x3c1929c5	0.009348338
98	0xbc1994e0	-0.0093738735
99	0x3c0dd914	0.0086577125
100	0xbbfc1831	-0.0076933135
101	0x3c326ba1	0.010889919
102	0xbc0f5a3e	-0.008749543
103	0xbc28efba	-0.0103110615
104	0xbc5baf49	-0.01340849
105	0x3c31c0d2	0.010849195
106	0x3c316d8c	0.010829341
107	0x3bf197b1	0.0073728194
108	0xbc502047	-0.012703008
109	0xbc146da4	-0.0090593435
110	0xbc179714	-0.009252328
111	0xbc549439	-0.012974792
112	0xbc380de5	-0.011233781
113	0x3c2422d7	0.010018072
114	0x3c37b98c	0.011213671
115	0xbc276302	-0.010216476
116	0x3c35817b	0.011078234
117	0x3c48facb	0.012266825
118	0xbc2aa421	-0.010415108
119	0x3c16f63f	0.009213983
120	0xbc373711	-0.011182562
121	0xbc3b4998	-0.01143112
122	0xbc10d4da	-0.00883981
123	0x3c31ad87	0.010844595
124	0xbbf051da	-0.007333976
125	0x3c10a948	0.008829422
126	0xbc340b02	-0.010988953
127	0xbc078411	-0.008271233
128	0xbc8efb1a	-0.017453719
129	0x3c999845	0.018749366
130	0x3c16d236	0.009205392
131	0xbc971edb	-0.01844733
132	0xbc94a288	-0.018143907
133	0xbc4a9cd7	-0.012366495
134	0x3c907f36	0.017638784
135	0x3c1cdd29	0.009574213
136	0xbc4232ca	-0.011852929
137	0xbc90af31	-0.017661663
138	0xbc0289ff	-0.007967471
139	0xbc8804cb	-0.016603848
140	0x3c67935e	0.014134256
141	0x3c879cb5	0.016554216
142	0x3c7647d8	0.015031777
143	0xbc4fba83	-0.012678745
144	0x3c4db9a0	0.0125564635
145	0x3c8bcfa9	0.017066794
146	0xbc1cbf58	-0.009567104
147	0xbc8fdeb9	-0.017562257
148	0x3c85f35c	0.016351394
149	0x3c3f44e9	0.011674144
150	0x3c857cde	0.016294893
151	0xbc37c805	-0.011217122
152	0x3c441310	0.0119674355
153	0x3c5529f2	0.013010489
154	0x3c16b6f2	0.009198891
155	0xbc2a1345	-0.010380571
156	0xbc4b6925	-0.012415205
157	0x3c73809e	0.014862208
158	0xbc6bf3cd	-0.014401388
159	0x3c90ba65	0.017667005
160	0x3c37124b	0.011173795
161	0x3c37ff79	0.011230343
162	0xbc17a673	-0.009255993
163	0x3c924221	0.017853798
164	0xbc62e818	-0.013849281
165	0x3c05f3d0	0.008175805
166	0xbc1fbb04	-0.009749178
167	0xbc409f26	-0.011756694
168	0xbc8a3be0	-0.016874254
169	0x3c398424	0.011323009
170	0x3c1746fe	0.009233234
171	0x3c002802	0.007822039
172	0xbc6813e0	-0.014164895
173	0xbc181730	-0.009282872
174	0xbc594c43	-0.013262811
175	0xbc8a6ccf	-0.016897587
176	0xbc84fc5a	-0.016233612
177	0x3c61ab63	0.013773772
178	0x3c88bba0	0.01669103
179	0xbc0d27ac	-0.008615416
180	0x3c3d9fd8	0.011573754
181	0x3c75cf14	0.015002985
182	0xbc2a97ad	-0.010412139
183	0x3c81d1e0	0.015847147
184	0xbc28b951	-0.010298089
185	0xbc7642e3	-0.0150305955
186	0xbc837a46	-0.016049515
187	0x3c3469b9	0.011011534
188	0xbc8589ec	-0.016301118
189	0x3c447e4e	0.011993004
190	0xbc962b33	-0.018331146
191	0xbc2f2d0b	-0.010691891
192	0x3c5f596b	0.013632159
193	0xbcbfdb26	-0.023419928
194	0xbcd30720	-0.025760233
195	0x3c9e9214	0.019356765
196	0x3cb5d988	0.022198454
197	0x3cce4c1d	0.025182778
198	0xbcd6e9a7	-0.026234461
199	0xbccddf08	-0.025130764
200	0x3cbf440b	0.023347875
201	0x3c10e91f	0.008844643
202	0x3cb83eba	0.022490848
203	0x3ccca143	0.02497924
204	0xbcea7525	-0.028620312
205	0xbd0152d5	-0.031573135
206	0xbcef64f4	-0.029222943
207	0x3cf7300c	0.030174278
208	0xbcc46eb6	-0.023978572
209	0xbcfcacc9	-0.03084411
210	0x3ccd0608	0.02502729
211	0x3c7956d2	0.0152184535
212	0xbbddf97a	-0.0067741247
213	0xbcd597f5	-0.026073435
214	0xbbfdeba5	-0.0077490383
215	0x3cc62f25	0.024192402
216	0xbce5e0cf	-0.028061299
217	0xbcd47c25	-0.025938103
218	0xbcc3d374	-0.02390454
219	0x3cbdddf7	0.02317713
220	0x3cfa4b89	0.030553596
221	0xbbb76534	-0.005596781
222	0x3c0a966c	0.008458715
223	0xbcce2459	-0.025163816
224	0xbcc64a0e	-0.024205234
225	0xbcbe3230	-0.02321729
226	0x3cc5da12	0.024151836
227	0xbc9c3870	-0.01906988
228	0x3bf65bc6	0.0075182645
229	0x3b71c9da	0.0036893995
230	0x3cd4b8b5	0.025966981
231	0x3cc8e622	0.024523798
232	0x3cbef512	0.023310218
233	0xbcda46cb	-0.026645085
234	0xbce0b400	-0.02742958
235	0xbccd3f37	-0.025054557
236	0x3cedb4fe	0.029016968
237	0x3cb85d97	0.022505565
238	0x3ccc68ce	0.024952319
239	0x3ce8941e	0.02839094
240	0x3cb7f3e9	0.022455173
241	0xbb031831	-0.0020003433
242	0xbc702726	-0.014657771
243	0x3cc7a035	0.024368385
244	0xbcc72a86	-0.024312269
245	0xbcc0ed39	-0.023550617
246	0x3cc51fff	0.024063108
247	0xbc9a2522	-0.018816534
248	0x3cc6b9e6	0.024258565
249	0x3cbc9459	0.023019956
250	0x3cd45007	0.025917066
251	0xbccef1cd	-0.025261784
252	0x3c121419	0.0089159245
253	0xbcc50d1f	-0.024054108
254	0x3cbb9e94	0.022902764
255	0x3ce65a4d	0.02811923

Actor.bias f4 [5]
0	0xbccd0f43	-0.025031691
1	0x3c1fd959	0.00975641
2	0x3c275b68	0.010214664
3	0xbcc32313	-0.023820436
4	0x3c9409f8	0.01807116

Critic.weight f4 [1, 64]
0	0xbe8f50f5	-0.27991453
1	0x3ea6872c	0.32525003
2	0x3ea7ed3c	0.32798183
3	0xbe4e188e	-0.20126554
4	0xbeb4c0d3	-0.35303363
5	0xbea7ca2a	-0.32771426
6	0x3e635a6b	0.2220246
7	0x3e32c5ab	0.17458217
8	0xbe823f0b	-0.25438723
9	0xbe81b045	-0.25329795
10	0xbe3c744d	-0.1840374
11	0xbe3c2b95	-0.18376
12	0x3e9ec5b1	0.31010202
13	0x3ea43d97	0.3207824
14	0x3e6dcedb	0.2322344
15	0xbeb0f113	-0.34558925
16	0x3f0a0b89	0.5392385
17	0x3edc5cb9	0.43039492
18	0xbe5ae3a7	-0.21375905
19	0xbe4e8538	-0.20168006
20	0x3e6ebf82	0.23315242
21	0x3ea0f1a8	0.3143437
22	0x3e48df83	0.19616513
23	0xbe494280	-0.19654274
24	0x3eae6fe2	0.34069735
25	0x3ebbdd51	0.3669229
26	0x3e62db29	0.22153915
27	0xbe3f6c32	-0.18693617
28	0xbe52a47f	-0.20570563
29	0x3e313316	0.17304644
30	0xbe890484	-0.26761258
31	0x3e6713df	0.22566174
32	0x3e8b869b	0.27251133
33	0x3e3736c3	0.17891984
34	0xbe3fa01f	-0.18713425
35	0x3e9a9ac4	0.30196202
36	0xbe87676a	-0.26446086
37	0x3e347d4e	0.17625925
38	0xbe8b7168	-0.2723496
39	0xbe4aad99	-0.19792785
40	0xbf171a89	-0.59024864
41	0x3e7bc64b	0.24587362
42	0x3e79d1ad	0.24396391
43	0x3e708dc8	0.23491585
44	0xbeb57a35	-0.354448
45	0xbe441689	-0.19149221
46	0xbe8d3c32	-0.27584988
47	0xbe7d6ba8	-0.24748099
48	0xbea444a0	-0.32083607
49	0x3e73fa32	0.2382591
50	0x3e984a6a	0.29744273
51	0xbef207ac	-0.47271478
52	0x3e57e007	0.21081553
53	0x3e5c9f34	0.21545106
54	0xbeab3268	-0.33436894
55	0x3e6e2fc7	0.23260413
56	0xbed23f01	-0.41063693
57	0xbe9351ee	-0.28773445
58	0xbe8bc55f	-0.2729902
59	0x3e371194	0.178778
60	0xbe858764	-0.26079857
61	0x3e4ac1c0	0.19800472
62	0xbe6f6554	-0.23378497
63	0xbeca21ab	-0.39478812
