HighestReward1.pth (torch, 680212 bytes, 7 tensors)

Network.0.weight f4 [512, 70]
0	0x3deb3c8e	0.11486159
1	0xbd2bbbcd	-0.041927148
2	0x3c13bf6c	0.0090178065
3	0x3d459753	0.048240017
4	0x3c9bd7e7	0.019023849
5	0xbbe4bd71	-0.006980591
6	0x3d8feb69	0.07027323
7	0xbcc2fe6d	-0.02380296
8	0x3d184c48	0.037182122
9	0xbd1cb31a	-0.038256742
10	0xbd14fb21	-0.036372308
11	0xbd52eca4	-0.05149521
12	0x3e31ebbe	0.17375085
13	0x3ce8eb3c	0.028432481
14	0x3cc5db1d	0.024152333
15	0xbc42e2bc	-0.011894878
16	0xbd4f0f47	-0.05055168
17	0xbbff2e6a	-0.0077875154
18	0x3d884976	0.066546366
19	0xbda2923c	-0.07938048
20	0x3d0269f0	0.03183931
21	0x3d2ffaf0	0.042963922
22	0xbd412f65	-0.04716434
23	0x3d21e0b7	0.039520945
24	0x3dc2cb67	0.09511452
25	0x3db58aa5	0.08864335
26	0xbdb683b1	-0.08911837
27	0x3dc1cb5d	0.094626166
28	0x3d7bf0fd	0.06150912
29	0x3c10a7f7	0.008829108
30	0xbdb92ca9	-0.090417214
31	0x3dc59d28	0.09649116
32	0x3c4180ff	0.01181054
33	0xbb97c24b	-0.004631316
34	0x3d6f431b	0.058413606
35	0x3ca45e65	0.020064542
36	0x3d4c23c9	0.049838815
37	0x3c0975d1	0.008389906
38	0x3d2e69c5	0.04258134
39	0x3cc4030b	0.023927232
40	0x3d8be6af	0.06831109
41	0xbd2a6ff0	-0.04161066
42	0x3b62c3dc	0.0034601605
43	0x3ca0720a	0.019585628
44	0xbd883eec	-0.066526264
45	0xbc8d2da8	-0.017233685
46	0xbda7b552	-0.08188881
47	0x3d7a21e6	0.061067484
48	0x3d9a1cb5	0.07525007
49	0xbda3a6f5	-0.07990829
50	0x3dbcdd53	0.09221902
51	0xbd8c19b6	-0.068408415
52	0xbd2342a8	-0.03985849
53	0xbd7bde79	-0.061491463
54	0xbc983920	-0.018581927
55	0xbdb91fa5	-0.09039239
56	0x3cedd5e2	0.029032651
57	0xbd0b6aa9	-0.034037266
58	0x3d4934cb	0.049122613
59	0xbc9d7410	-0.019220382
60	0x3e178d5a	0.14800015
61	0xbe2fd0b4	-0.17169458
62	0x3dd4a693	0.10383334
63	0xbcf5b430	-0.029993147
64	0xbd0af694	-0.03392656
65	0x3ca279ac	0.019833408
66	0xbd80de54	-0.06292406
67	0x3b331137	0.0027323493
68	0x3cd156d3	0.025554096
69	0x3bc69d8a	0.0060612606
70	0xbc3fbf42	-0.011703314
71	0x3cc15cc8	0.023603812
72	0xbe40a082	-0.18811229
73	0xbdc4a43b	-0.09601637
74	0x3d7bd4ad	0.06148212
75	0xbda99d05	-0.08281902
76	0xbb279a5f	-0.002557419
77	0x3d69583b	0.05696891
78	0xbd98fe99	-0.07470436
79	0x3d3896f6	0.045065843
80	0xbb36fd8e	-0.0027922126
81	0xbd01a7a3	-0.03165401
82	0xbdc38247	-0.09546333
83	0xbc8cc5e6	-0.01718421
84	0x3db54637	0.08851283
85	0xbd1e1812	-0.038597174
86	0xbc84d41d	-0.016214425
87	0x3989f98a	0.00026316597
88	0x3db6f8cf	0.08934175
89	0x3d8af935	0.06785814
90	0xba40133a	-0.0007327084
91	0xbd66616e	-0.05624526
92	0xbd0acb94	-0.033885553
93	0x3c812f26	0.015769552
94	0x3be2b70f	0.006918795
95	0xbb97da96	-0.004634212
96	0x3de44c05	0.11147312
97	0xbc3c8673	-0.011506665
98	0xbd363a58	-0.044489235
99	0x3cd5759f	0.026057063
100	0xbd618fd6	-0.055068813
101	0x3a475d21	0.0007605125
102	0xbd16f305	-0.036852855
103	0x3d891820	0.066940546
104	0xbd1ed9b5	-0.03878184
105	0xbd94b940	-0.07261896
106	0x3cc6e693	0.024279868
107	0xbdb2601b	-0.08709737
108	0xbc581610	-0.013188854
109	0x3c4b6c16	0.012415906
110	0xbd3320f4	-0.0437326
111	0x3d9101f2	0.07080449
112	0xbd350c71	-0.04420132
113	0x3e0a4299	0.13501967
114	0x3d18e25e	0.037325256
115	0x3dc5d658	0.096600235
116	0x3c48d012	0.012256639
117	0xbd596e43	-0.05308367
118	0xbc88ff8d	-0.016723419
119	0xbc75f668	-0.015012361
120	0xbe08feb8	-0.13378417
121	0x3c3cd6b3	0.011525798
122	0xbc81a0dd	-0.015823776
123	0x3ba49464	0.0050225724
124	0x3dd22942	0.102617756
125	0x3d0804f3	0.033207845
126	0x3d08dccd	0.033413697
127	0x3a9938f9	0.0011689953
128	0x3cb2d225	0.02182872
129	0x3d8d92f3	0.06912794
130	0xbdba3bd6	-0.09093444
131	0x3cf3c044	0.029754765
132	0xbdaf9a56	-0.08574359
133	0xbd898130	-0.06714094
134	0x3c2a30b2	0.010387586
135	0x3d2a102d	0.041519333
136	0x3cf8a3ea	0.030351598
137	0xbc7e63c7	-0.015526718
138	0xbb8eb1a7	-0.004354674
139	0xbd42e6b0	-0.047583282
140	0x3df6317a	0.12021156
141	0x3d825241	0.06363345
142	0x3cf420b6	0.029800754
143	0xbe1c9209	-0.15290083
144	0x3befceb5	0.0073183426
145	0x3ddc7f0a	0.10766418
146	0xbb7594db	-0.0037472758
147	0x3d5c4d28	0.05378452
148	0x3d280df0	0.041028917
149	0x3c15c0d2	0.00914021
150	0x3d1ff2db	0.039049964
151	0x3dcc4a73	0.099751376
152	0xbd4a13e9	-0.049335394
153	0x3d4ef09e	0.05052244
154	0x3d280f74	0.041030362
155	0x3cd4cee0	0.025977552
156	0xbd80ac2f	-0.062828414
157	0xbd931fea	-0.071838215
158	0xbd4b4e01	-0.049634937
159	0x3db88fa0	0.09011769
160	0xbd3c2054	-0.045929268
161	0x3c07fea0	0.008300453
162	0xbe34fbf0	-0.17674232
163	0xbdb30d69	-0.08742792
164	0x3b0c4f19	0.002140945
165	0xbc890088	-0.016723886
166	0xbcf4108a	-0.029793043
167	0x3b591907	0.003312649
168	0x3db639f4	0.088977724
169	0x3c807721	0.015681805
170	0xbcc68e94	-0.024237908
171	0xbde610a1	-0.112336405
172	0x3d04ac5f	0.03239095
173	0xbdc2028e	-0.094731435
174	0xbc530693	-0.012879985
175	0x3de53e84	0.111935645
176	0x3e287d63	0.16454081
177	0xbce7e1e5	-0.028305957
178	0x3d99cf24	0.07510212
179	0x3d5e1e91	0.05422837
180	0xbe279ee5	-0.16369207
181	0xbabda87a	-0.0014469766
182	0x3d0f9ca5	0.035061497
183	0x3e01c5c5	0.126731
184	0xbd4be5fd	-0.04977988
185	0x3d281c50	0.041042626
186	0xbd9fa823	-0.077957414
187	0x3d403ee3	0.046934973
188	0x3dfae4b6	0.122506544
189	0xbd923765	-0.07139472
190	0xbdba517f	-0.090975754
191	0xbcf53545	-0.029932627
192	0xbd707f96	-0.058715425
193	0x3d9815dd	0.07426045
194	0x3c8d1f2a	0.017226774
195	0x3c0d7ca8	0.008635677
196	0xbdfb0d84	-0.12258437
197	0x3ca9012c	0.020630442
198	0xbb8bbbec	-0.0042643454
199	0xbc932804	-0.017963417
200	0xbcddf473	-0.027094102
201	0x3d382ee1	0.044966582
202	0x3d74b416	0.059742056
203	0x3b0f7c9a	0.0021894337
204	0x3cc1ea03	0.023671156
205	0x3dda4eb8	0.10659546
206	0x3da02caa	0.07821019
207	0x3c9ea03c	0.019363515
208	0xbcfc1ce2	-0.030775491
209	0x3d5bf5b6	0.053701125
210	0xbdd250e6	-0.102693364
211	0xbb15bc40	-0.0022847801
212	0x3d212449	0.039341245
213	0xbce8b3e8	-0.028406098
214	0xbc8e81fe	-0.01739597
215	0x3d2dc8af	0.042427715
216	0xbd3cdeef	-0.046111044
217	0x3c08e62e	0.00835566
218	0xbd81b918	-0.06334132
219	0x3a17af63	0.00057863275
220	0xbdc38599	-0.09546966
221	0xbd7c96ca	-0.06166724
222	0x3c159f5e	0.009132234
223	0xbe0000da	-0.12500325
224	0x3d364eeb	0.044508856
225	0x3dacc647	0.08436256
226	0x3d669762	0.056296714
227	0x3db4571d	0.08805678
228	0x3c3ec06e	0.0116425585
229	0xbcd331d6	-0.0257806
230	0x3c73f495	0.014889856
231	0xbc2b7e0b	-0.010467063
232	0xbdf880e8	-0.12133962
233	0x3c059bb3	0.008154797
234	0x3c974a59	0.018468069
235	0x3ddbd15e	0.10733293
236	0x3bf74548	0.0075461008
237	0xbd0c2e76	-0.034223996
238	0x3d1326a3	0.03592552
239	0x3cd68c2e	0.02618989
240	0x3caa5ce9	0.020796256
241	0xbcaa76cc	-0.0208086
242	0x3c1d4f0b	0.009601365
243	0xbd38fb6a	-0.045161642
244	0x3bebcd5e	0.0071961125
245	0xbdd50c8c	-0.10402784
246	0xbd58e3a2	-0.052951463
247	0xbc81650d	-0.015795255
248	0x3d2049f3	0.039133023
249	0x3bdbc8f2	0.006707304
250	0x3ce17d6c	0.027525626
251	0x3d31a106	0.043366455
252	0xbd5e8cda	-0.054333545
253	0x3c400b18	0.011721395
254	0x3c9e339d	0.01931172
255	0x3cba8626	0.022769045

Network.0.bias f4 [512]
0	0xba931b02	-0.0011223259
1	0xbb1c41c9	-0.0023842922
2	0x00000000	0.0
3	0x00000000	0.0
4	0xba9ef980	-0.00121288
5	0xbb114948	-0.0022168923
6	0x3af4315b	0.0018630432
7	0x00000000	0.0
8	0x00000000	0.0
9	0x39b3f008	0.00034320378
10	0x39bb164d	0.00035684035
11	0x00000000	0.0
12	0x00000000	0.0
13	0x3b419a46	0.0029541417
14	0x00000000	0.0
15	0x3ab3a4f6	0.0013705778
16	0x00000000	0.0
17	0x00000000	0.0
18	0x00000000	0.0
19	0xbabe1e29	-0.0014504838
20	0xbb1ffad2	-0.0024410975
21	0xbb2a5c4c	-0.0025994955
22	0x00000000	0.0
23	0x00000000	0.0
24	0x00000000	0.0
25	0xbaa8455b	-0.0012838052
26	0xbb235e58	-0.002492806
27	0x3b19643b	0.002340569
28	0x00000000	0.0
29	0xba9cb5f7	-0.0011956085
30	0x3ade61ba	0.0016966381
31	0x00000000	0.0
32	0x00000000	0.0
33	0xbb150a95	-0.0022741903
34	0x3b2407c7	0.002502905
35	0x00000000	0.0
36	0x00000000	0.0
37	0xbb3fbc35	-0.0029256467
38	0x3aadbc4c	0.0013254969
39	0x39553082	0.00020331334
40	0xbb2ae115	-0.00260741
41	0x00000000	0.0
42	0x3b0165fa	0.001974462
43	0x00000000	0.0
44	0xbb27ad99	-0.002558565
45	0x00000000	0.0
46	0x00000000	0.0
47	0x00000000	0.0
48	0x00000000	0.0
49	0x00000000	0.0
50	0xbb20b19b	-0.0024519924
51	0x375bc12c	1.30983935e-05
52	0xbb00bb2c	-0.0019642813
53	0x3757e553	1.2868392e-05
54	0x3a88aecf	0.0010428074
55	0x00000000	0.0
56	0xbae03dbc	-0.0017108242
57	0xbb18c63e	-0.002331152
58	0x3a7d49be	0.00096621725
59	0x00000000	0.0
60	0x00000000	0.0
61	0x00000000	0.0
62	0x3af3ef7d	0.0018610802
63	0x00000000	0.0
64	0x00000000	0.0
65	0x00000000	0.0
66	0x00000000	0.0
67	0xbb02fed1	-0.0019988308
68	0xbb134602	-0.0022472148
69	0x3a86849a	0.0010262907
70	0x3b2527a1	0.0025200623
71	0x3b07c4f4	0.0020716758
72	0xba856b1f	-0.0010179019
73	0x3b13b808	0.002254011
74	0xba5e84cc	-0.0008488416
75	0x00000000	0.0
76	0x00000000	0.0
77	0x00000000	0.0
78	0x00000000	0.0
79	0xb8c566a7	-9.4128125e-05
80	0x39e70c3d	0.00044068872
81	0x3b12b237	0.0022384056
82	0x00000000	0.0
83	0x38f206e6	0.00011540744
84	0x00000000	0.0
85	0x3b33d74b	0.0027441557
86	0x3985b99d	0.0002550603
87	0x00000000	0.0
88	0x3b3c5662	0.0028738012
89	0x3b1d02b1	0.0023957903
90	0x00000000	0.0
91	0x39ada906	0.00033123064
92	0x39f583d2	0.00046828255
93	0xbb2fd100	-0.0026827455
94	0x3a5c62b0	0.00084070396
95	0xba91717b	-0.0011096442
96	0xbb24634b	-0.0025083597
97	0xbb27e6ce	-0.0025619748
98	0x00000000	0.0
99	0x00000000	0.0
100	0x00000000	0.0
101	0x00000000	0.0
102	0xb5870740	-1.0060394e-06
103	0x00000000	0.0
104	0x3a9ba79a	0.0011875511
105	0x00000000	0.0
106	0x3ac0fbaf	0.0014723445
107	0x00000000	0.0
108	0xba6afd89	-0.0008964171
109	0x00000000	0.0
110	0x3767e146	1.38211235e-05
111	0x3a6c2892	0.0009008731
112	0x3aeaf581	0.0017925949
113	0x3b1f91d2	0.002434839
114	0x3af29458	0.0018507345
115	0x3b19cad8	0.0023466852
116	0x00000000	0.0
117	0x00000000	0.0
118	0x00000000	0.0
119	0x00000000	0.0
120	0xbae66214	-0.0017576837
121	0x00000000	0.0
122	0xbae5dae7	-0.0017536551
123	0x3a10dcd9	0.0005526073
124	0x00000000	0.0
125	0x3af36fb5	0.001857272
126	0x3b0a6115	0.0021114994
127	0x00000000	0.0
128	0x37ecf36f	2.824675e-05
129	0x3b1b5674	0.0023702653
130	0xb779196a	-1.4847474e-05
131	0x3b357a2a	0.0027691224
132	0xb92c82b6	-0.00016451892
133	0xbb0dfff1	-0.0021667446
134	0x00000000	0.0
135	0xbaa9f320	-0.0012966134
136	0xbb0d826e	-0.0021592635
137	0x3b1d0cb3	0.0023963868
138	0x3a5b9184	0.00083758705
139	0xba93d8f5	-0.0011279868
140	0xbaee56e3	-0.0018183853
141	0xbb3d8999	-0.0028921126
142	0x3b282233	0.002565515
143	0x00000000	0.0
144	0x3b32c77f	0.0027279553
145	0xbb1fb7a7	-0.002437094
146	0x00000000	0.0
147	0x00000000	0.0
148	0x00000000	0.0
149	0xbafa837a	-0.0019112669
150	0x3ae761dd	0.0017653067
151	0x3af7575d	0.0018870641
152	0x3b356157	0.0027676427
153	0x00000000	0.0
154	0x00000000	0.0
155	0x39f58114	0.00046826212
156	0x37225360	9.675365e-06
157	0x00000000	0.0
158	0x00000000	0.0
159	0x00000000	0.0
160	0x3b354074	0.0027656825
161	0x00000000	0.0
162	0x00000000	0.0
163	0x00000000	0.0
164	0x359d67c6	1.1727614e-06
165	0xba22238e	-0.00061851076
166	0x00000000	0.0
167	0xbb1c5688	-0.0023855288
168	0x3b0b7688	0.0021280367
169	0x00000000	0.0
170	0xbb407c42	-0.0029370938
171	0x3b25352a	0.002520869
172	0x3ad77be8	0.0016440125
173	0xb9acb279	-0.0003293937
174	0x3a58511f	0.0008251834
175	0x3b19d297	0.0023471469
176	0x00000000	0.0
177	0xbb112464	-0.0022146935
178	0xbb2faa33	-0.0026804327
179	0x3b38f54a	0.0028222376
180	0xbae6554f	-0.0017573031
181	0xb9445903	-0.00018725176
182	0x00000000	0.0
183	0xbaa7e9cf	-0.0012810769
184	0x00000000	0.0
185	0x3abde89b	0.0014488877
186	0x00000000	0.0
187	0x00000000	0.0
188	0x00000000	0.0
189	0xbb1aaad4	-0.0023600357
190	0x3aaae6fd	0.001303881
191	0x3b12a9d0	0.0022379048
192	0x00000000	0.0
193	0x3b24b769	0.0025133735
194	0xb9f60c44	-0.00046929915
195	0x00000000	0.0
196	0x00000000	0.0
197	0x3b0825de	0.0020774524
198	0x3b14b2e4	0.0022689635
199	0x3a6f1404	0.0009120109
200	0x00000000	0.0
201	0x00000000	0.0
202	0x3a9819e6	0.0011604398
203	0x00000000	0.0
204	0x3ac95fa9	0.0015363592
205	0x00000000	0.0
206	0xba970b88	-0.0011523822
207	0xba5fee1d	-0.00085422565
208	0x00000000	0.0
209	0x00000000	0.0
210	0x00000000	0.0
211	0xba653cab	-0.0008744697
212	0xbb295a2a	-0.0025841095
213	0x00000000	0.0
214	0x00000000	0.0
215	0x00000000	0.0
216	0x00000000	0.0
217	0x00000000	0.0
218	0x3b415532	0.0029500243
219	0xba466c92	-0.0007569279
220	0xba6a3efc	-0.0008935777
221	0x00000000	0.0
222	0x3af72933	0.0018856883
223	0x3ac2a810	0.0014851112
224	0xba0e561f	-0.0005429703
225	0x00000000	0.0
226	0xbb237120	-0.0024939254
227	0x00000000	0.0
228	0x00000000	0.0
229	0xbafcd7b9	-0.0019290365
230	0x00000000	0.0
231	0x3b486bd7	0.0030581856
232	0xbb2c31ad	-0.0026274726
233	0x00000000	0.0
234	0x00000000	0.0
235	0x00000000	0.0
236	0x00000000	0.0
237	0x3b012ec7	0.001971172
238	0xbad26faf	-0.0016055013
239	0x00000000	0.0
240	0x00000000	0.0
241	0x00000000	0.0
242	0x00000000	0.0
243	0x00000000	0.0
244	0x00000000	0.0
245	0x00000000	0.0
246	0x00000000	0.0
247	0x39fd00ef	0.00048256616
248	0x00000000	0.0
249	0x00000000	0.0
250	0xb9cca607	-0.00039033612
251	0x3a782af2	0.00094668486
252	0x00000000	0.0
253	0x00000000	0.0
254	0x3ac068b3	0.001467964
255	0xbb18094d	-0.0023198903

Network.2.weight f4 [256, 512]
0	0xbda44829	-0.08021576
1	0xbc4ad2ac	-0.01237933
2	0xbe132cb9	-0.14372529
3	0xbdf8951f	-0.121378176
4	0xbd7b2b0e	-0.061320357
5	0x3c025d41	0.007956804
6	0xbc9e4035	-0.019317726
7	0x3c399f7a	0.011329526
8	0xbe2fe6be	-0.17177865
9	0xbc8ee39c	-0.017442517
10	0x3d0527d9	0.032508705
11	0x3cc138fe	0.023586746
12	0xbd38c681	-0.045111183
13	0xbd42bbe4	-0.047542468
14	0xbc91998c	-0.017773412
15	0xbcfe6886	-0.0310557
16	0x3b008526	0.0019610613
17	0x3e065736	0.13119206
18	0xbd0191e4	-0.031633273
19	0x3d41e74b	0.04733972
20	0x3d078d0e	0.033093505
21	0xbcc6d221	-0.02427012
22	0xbdccdf63	-0.10003545
23	0x3d672920	0.056435704
24	0x3d9c4bd4	0.076316506
25	0xbd7829e7	-0.060586836
26	0x3ddb9dd2	0.10723461
27	0x3cc39b76	0.02387784
28	0x3cc3a55b	0.023882559
29	0xbd01e290	-0.031710207
30	0x3d907fbd	0.07055614
31	0x3c6ac2b9	0.014328652
32	0x3e02722b	0.12738864
33	0x3d25be7e	0.04046487
34	0xbd5eaba7	-0.05436292
35	0x3d9c6b8f	0.07637703
36	0x3e103d78	0.14085948
37	0xbd79688f	-0.06089073
38	0xbce60ea9	-0.028083162
39	0xbd101efc	-0.0351858
40	0x3dd11f4f	0.1021105
41	0x3cd11bc5	0.025525937
42	0x3e0a41fa	0.1350173
43	0x3cb78e8e	0.022406843
44	0x3c89b7c7	0.016811265
45	0x3de5ac4e	0.11214505
46	0xbd910415	-0.07080857
47	0xbd044a22	-0.03229726
48	0xbd207732	-0.039176174
49	0xbc74d627	-0.014943636
50	0xbc23bfa4	-0.009994421
51	0x3cad5945	0.021160731
52	0xbd2364fe	-0.039891236
53	0x3cb91fa1	0.02259809
54	0x3dd79708	0.10526854
55	0xbbd07c95	-0.0063625076
56	0xbcddb4e7	-0.0270638
57	0xbdce3643	-0.10068943
58	0xbd98c08d	-0.07458601
59	0xbd0faab0	-0.03507489
60	0x3dd26bc0	0.10274458
61	0x3cc52ebe	0.02407014
62	0xbba92dba	-0.0051629217
63	0x3d623eba	0.055235602
64	0xbd7aea86	-0.061258815
65	0x3d10b257	0.035326328
66	0x3dd49008	0.10379034
67	0xbdca7b9d	-0.098868586
68	0x3d86d8ee	0.06584345
69	0x3c0f41df	0.008743732
70	0xbd0560fa	-0.032563187
71	0x3d88ec13	0.066856526
72	0xbc62c715	-0.01384141
73	0xbcaed432	-0.021341417
74	0xbc8dde21	-0.017317833
75	0xbb512bf2	-0.0031917063
76	0xbd3d56d0	-0.04622537
77	0xbc9b5720	-0.018962443
78	0x3deee433	0.11664619
79	0xbe41d585	-0.18929107
80	0x3ba836ef	0.0051335017
81	0x3c2c9f99	0.010536098
82	0x3cc26458	0.023729488
83	0x3d508832	0.050911136
84	0xbe032f4f	-0.12811016
85	0xbd9f88d9	-0.077897735
86	0x3c444519	0.011979365
87	0x3c231f65	0.0099562155
88	0x3d15cb9e	0.036571138
89	0x3da1ed88	0.079066336
90	0xbd49394f	-0.04912692
91	0x3de51efa	0.11187549
92	0xbdd5afc8	-0.10433918
93	0xbcc6ee17	-0.024283452
94	0x3b57f519	0.0032952486
95	0xbdf0bc75	-0.11754695
96	0x3d66f279	0.056383584
97	0xbdacf936	-0.08445971
98	0xbcfe5c2d	-0.031049812
99	0xbe0ad574	-0.13557988
100	0xbd7641db	-0.0601214
101	0xbd293aee	-0.041315965
102	0xbc446c2f	-0.011988684
103	0x3c0516f5	0.008123149
104	0x3b6a4d03	0.003575147
105	0x3d45c734	0.048285678
106	0xbce322e9	-0.027726607
107	0xbd6356fb	-0.055502873
108	0xbd90b457	-0.07065647
109	0xbd8d73f7	-0.06906884
110	0x3d26546d	0.04060786
111	0xbd96e7d7	-0.07368439
112	0xbc45ff53	-0.0120848
113	0x3dfcd799	0.123458095
114	0xbca73fb6	-0.020416122
115	0x3d94efeb	0.07272323
116	0xbd4bd662	-0.049765
117	0xbd0cef08	-0.034407645
118	0xbd5078b0	-0.050896347
119	0xbcb7b29a	-0.022424031
120	0x3dd5e164	0.104433805
121	0x3dd850fb	0.10562321
122	0xbb23127a	-0.002488284
123	0x3cd92d7a	0.026510943
124	0x3be730f0	0.0070553944
125	0xbd2ad28d	-0.041704703
126	0x3c84a447	0.016191615
127	0xbc602644	-0.013680998
128	0x3e00ee03	0.12590794
129	0x3da6d625	0.081463136
130	0xbd614b50	-0.055003464
131	0xbb86a67c	-0.004109202
132	0x3dae0966	0.08497886
133	0xbdd533fa	-0.10410304
134	0x3d8a0504	0.06739238
135	0xbcf79f65	-0.030227372
136	0x3cc3a2b9	0.023881303
137	0x3d224487	0.039616134
138	0xbbccc3fb	-0.0062489486
139	0x3be09452	0.0068536187
140	0xbd09f02a	-0.033676304
141	0x3d6124b2	0.054966636
142	0x3de405df	0.11133932
143	0x3d71027a	0.058840252
144	0xbdb98836	-0.09059183
145	0xbd7d4b4c	-0.061839387
146	0x3d4c28d4	0.049843624
147	0xbcb423dc	-0.021989755
148	0x3d53d592	0.05171735
149	0xbd004c74	-0.03132291
150	0x3daa55d2	0.0831715
151	0x3d9e423b	0.07727476
152	0xbd95a95a	-0.07307692
153	0xbc85bf54	-0.016326584
154	0xbb2634a4	-0.0025360966
155	0x3d77c555	0.060490925
156	0xbd914af3	-0.070943736
157	0xbd72d8cc	-0.059288785
158	0xbc4890e8	-0.01224158
159	0x3d1fd442	0.039020784
160	0x3d7fc15a	0.062440254
161	0x3dab43b5	0.083625235
162	0x3d59e296	0.053194605
163	0x3d4f357d	0.05058812
164	0xbd1872c2	-0.037218817
165	0x3ca4f67a	0.02013706
166	0x3c8c910c	0.017159007
167	0xbcc88b74	-0.024480559
168	0x3d750a77	0.059824433
169	0xbe122126	-0.14270458
170	0xbd39b6e8	-0.04534045
171	0x3db05823	0.08610561
172	0x3d59e69f	0.053198453
173	0xbddb073a	-0.10694738
174	0xbda6cce8	-0.081445515
175	0x3e05bd42	0.13060477
176	0xbdf6bd80	-0.12047863
177	0x3d455a21	0.048181657
178	0x3db991d1	0.090610154
179	0xbdcddb20	-0.100515604
180	0xbe0c97ac	-0.13729733
181	0xbdd26c7a	-0.102745965
182	0xbdb464d9	-0.08808298
183	0x3dadba1c	0.08482763
184	0xbd85c89d	-0.065324046
185	0x3cf98071	0.030456753
186	0x3dc1e3a9	0.09467251
187	0x3d1eb7df	0.038749572
188	0xbd067b0d	-0.032832194
189	0x3d36abc1	0.04459739
190	0xbc0a1edf	-0.008430212
191	0x3de335f9	0.11094279
192	0x3b2baaab	0.0026194255
193	0x3a568de6	0.00081845967
194	0x3df5cd57	0.12002056
195	0x3d4f9868	0.050682455
196	0x3db95080	0.09048557
197	0x3cc19c50	0.023634106
198	0x3d2a5d0a	0.041592635
199	0x3da7c305	0.08191494
200	0x3d96a7ae	0.07356201
201	0xbcf94c47	-0.03043188
202	0xbd232ad1	-0.039835755
203	0xbdc792ba	-0.09744783
204	0x3d64112a	0.05568043
205	0x3d41d141	0.0473187
206	0xbd060cc1	-0.032727007
207	0xbd3a1093	-0.045425963
208	0x3c9d3794	0.01919154
209	0xbad70626	-0.0016405031
210	0x3d841ee8	0.064512074
211	0x3ca64b96	0.020299714
212	0x3d04bba9	0.03240553
213	0xbd7a444f	-0.0611003
214	0xbbe3b19f	-0.0069486643
215	0x3d6185d9	0.055059288
216	0x3d0f064e	0.034918122
217	0xbd3e9044	-0.0465243
218	0xbd221084	-0.03956653
219	0xbd0fc092	-0.03509576
220	0xbc25fae4	-0.010130618
221	0xbdac2cb1	-0.08406962
222	0x3d91c9ae	0.071185455
223	0x3d46d6ed	0.048544813
224	0xbcd85064	-0.02640552
225	0x3dd9d5a2	0.1063645
226	0x3c9f15d7	0.019419594
227	0x39fe9c0c	0.0004856292
228	0x3bc01637	0.005862023
229	0xbbe40b98	-0.00695939
230	0xbb31554a	-0.0027058893
231	0x3ca7befb	0.020476809
232	0xbd877f5b	-0.06616088
233	0x3c6aa58b	0.014321695
234	0xbd07063d	-0.032964934
235	0xbd38a2be	-0.045077078
236	0xbe024b05	-0.1272393
237	0xbd840243	-0.06445744
238	0x3cbeba4a	0.023282189
239	0xbde515ea	-0.111858204
240	0x3d8c959f	0.068644755
241	0xbdc01427	-0.09378844
242	0x3ced8153	0.02899233
243	0xbd188882	-0.03723956
244	0x3d820530	0.06348646
245	0x3d953aea	0.072866276
246	0xbc8c9d77	-0.017164929
247	0xbdfe0c00	-0.124046326
248	0x3d146537	0.03622934
249	0xbdb0d088	-0.08633524
250	0xbd0a8917	-0.033822145
251	0x3d4dd8e5	0.050255675
252	0x3d2ac97a	0.04169605
253	0xbd3f2ad3	-0.0466717
254	0x3d0cdddf	0.03439128
255	0xbd36fd36	-0.044675075

Network.2.bias f4 [256]
0	0x3b4638c6	0.0030246242
1	0xbb3e7206	-0.0029059662
2	0x3b378820	0.002800472
3	0xb7f55bfb	-2.9249108e-05
4	0x3b3af429	0.0028526878
5	0x3b2cea03	0.00263846
6	0xbb4e9cc0	-0.0031526536
7	0xbb36c85b	-0.0027890417
8	0x3b34d263	0.002759122
9	0xbb2afd9a	-0.00260911
10	0x3b486bc4	0.0030581811
11	0x3b50116b	0.0031748663
12	0x3b1a3ce6	0.0023534833
13	0xbb47e907	-0.0030503885
14	0xbb4d9d0d	-0.0031374127
15	0x3b51995a	0.0031982274
16	0x3b28995b	0.0025726173
17	0xbb32acc4	-0.002726362
18	0xbb3c1698	-0.002869999
19	0x3acffe98	0.0015868722
20	0xbb454783	-0.0030102439
21	0x3b3ee235	0.002912653
22	0x3b35f9d0	0.0027767308
23	0x3b201fd0	0.0024433024
24	0x3b353c1a	0.0027654232
25	0xbb4eefd1	-0.0031576047
26	0x3b471624	0.0030378187
27	0x3b2c64e6	0.0026305257
28	0xbb3f9f89	-0.0029239377
29	0xb9f8c41a	-0.00047448353
30	0x3b49133b	0.0030681628
31	0x3b34b680	0.0027574599
32	0xbb4d1764	-0.003129446
33	0x3b44aef6	0.0030011511
34	0xbb3b5c01	-0.0028588774
35	0xbb3da7b0	-0.002893906
36	0x3b47c373	0.0030481487
37	0xbb498852	-0.003075142
38	0x3b3c0c77	0.0028693953
39	0xbb303902	-0.0026889448
40	0x3b48a1bf	0.0030613986
41	0x3b4c07cf	0.0031132584
42	0xbb395994	-0.0028282152
43	0xbb42fb4c	-0.0029751835
44	0x3b2c7196	0.002631282
45	0xbb3a952d	-0.0028470263
46	0x3b2f7561	0.0026772844
47	0xbb29efc4	-0.0025930265
48	0x3b3e4f59	0.0029038994
49	0xbb2cd765	-0.0026373502
50	0x3b3ab734	0.0028490545
51	0xbb424477	-0.002964286
52	0x3b2c65df	0.0026305837
53	0xbb38b8ed	-0.0028186396
54	0x3ad7d28f	0.001646595
55	0xbb30a281	-0.0026952329
56	0xbb5413fd	-0.0032360547
57	0xbb49ae7b	-0.0030774164
58	0x3b473ee8	0.0030402485
59	0xbae53b23	-0.0017488938
60	0x3b50f52e	0.003188442
61	0xbb2f1bfd	-0.0026719563
62	0x3b322267	0.002718115
63	0xbb30db2d	-0.0026986108
64	0x3b1d499c	0.0024000173
65	0xbb510044	-0.0031891027
66	0xbb498482	-0.0030749147
67	0x3b4e051e	0.0031436156
68	0x3b30cc5f	0.0026977283
69	0x3b326af2	0.002722439
70	0xbb453c4e	-0.003009576
71	0x3b3f1f33	0.0029162883
72	0xbb3245fd	-0.002720236
73	0x3b214413	0.0024607226
74	0x3b315e9e	0.0027064453
75	0xbac52cfc	-0.0015043314
76	0xbb22fe19	-0.0024870692
77	0x3b40cab3	0.0029417693
78	0xbb3c881f	-0.0028767658
79	0x3b28dc70	0.0025766157
80	0x3b530b33	0.003220272
81	0x3b53c4b2	0.0032313284
82	0xbb49b4fd	-0.0030778043
83	0xbb4cf301	-0.0031272771
84	0xbb3f9192	-0.0029231054
85	0x3b2029d2	0.002443899
86	0x3b38e6e1	0.0028213786
87	0xbb2a2b75	-0.0025965844
88	0xbb3dae6f	-0.0028943082
89	0x3b4b3bb8	0.0031010937
90	0x3a52dc52	0.00080436945
91	0x3b4bcf44	0.0031098882
92	0x3b3f9089	0.0029230437
93	0x3b43dfb9	0.0029887988
94	0x3b444279	0.0029946847
95	0xbb40f73e	-0.0029444243
96	0x3b25a871	0.00252774
97	0x3aa8125d	0.0012822855
98	0x3b269084	0.0025415728
99	0xbb290a4e	-0.0025793496
100	0x3b3c9c45	0.0028779667
101	0x3b2fbc2d	0.0026815042
102	0xbb278e60	-0.002556704
103	0x3b35a555	0.0027716954
104	0xbb2aa59e	-0.0026038657
105	0xbb400a8b	-0.002930316
106	0xbb22305b	-0.002474806
107	0x3b4a79d5	0.0030895371
108	0x3b462017	0.003023153
109	0x3b396c23	0.0028293214
110	0x3b229519	0.0024808107
111	0xbb359574	-0.002770749
112	0xbb41a230	-0.0029546134
113	0x3b22ddb4	0.0024851384
114	0xbb3f6a5e	-0.0029207687
115	0xbb412ebe	-0.0029477323
116	0xbb44e919	-0.0030046164
117	0x3b458325	0.0030137983
118	0xbb321b87	-0.0027177052
119	0xbb3db7e3	-0.0028948716
120	0x3b31bfdc	0.0027122414
121	0x3b3fd349	0.0029270223
122	0x3acadeee	0.0015477815
123	0xbb35e613	-0.0027755543
124	0xbb51cc7f	-0.0032012758
125	0x3b41e740	0.0029587299
126	0x3b51e892	0.0032029492
127	0xbb4708fb	-0.0030370343
128	0x3b359832	0.0027709124
129	0xbb25b507	-0.0025284903
130	0x3b1c5071	0.0023851658
131	0xbb4d3463	-0.0031311742
132	0xbb42fd6b	-0.00297531
133	0xbb45c8bd	-0.0030179464
134	0xbb309802	-0.0026946072
135	0xbb4ba0dd	-0.0031071224
136	0x3b436146	0.0029812618
137	0xba5b7cb8	-0.00083727716
138	0x3b1cc975	0.0023923789
139	0xbb3c534c	-0.0028736172
140	0x3b4ebaa5	0.0031544354
141	0x3b2be260	0.002622746
142	0xbb4d0aa2	-0.0031286855
143	0x3b4b7502	0.0031045084
144	0xbb5014c5	-0.003175066
145	0xbb50d09a	-0.0031862617
146	0x3b3b4520	0.0028575137
147	0xbb4cf166	-0.0031271814
148	0xbab71a3c	-0.001396961
149	0xbb45b249	-0.003016608
150	0xbb45d85f	-0.0030188782
151	0x3b43aa7c	0.0029856255
152	0xbb1512b6	-0.0022746748
153	0xbb4c82a5	-0.00312058
154	0xbb3ff50d	-0.0029290349
155	0x3b3bbc0e	0.0028646025
156	0x3b49fefa	0.0030822144
157	0xbb45bfcd	-0.0030174137
158	0x3b32670b	0.0027222063
159	0x3b3242b0	0.0027200393
160	0x3b4c0e72	0.003113654
161	0x3b52c021	0.0032157975
162	0xbb552422	-0.0032522758
163	0x3b49cfb3	0.0030793964
164	0xbb3a7f0a	-0.002845707
165	0xbb4da6aa	-0.0031379857
166	0xbb496920	-0.0030732825
167	0x3b0321dd	0.0020009198
168	0xbb4ab40f	-0.0030930077
169	0x3b31cf56	0.0027131638
170	0xbb34ae5d	-0.002756975
171	0xbb30758c	-0.0026925532
172	0x3af61e26	0.0018777295
173	0xbb41e422	-0.002958544
174	0xbb3b4b12	-0.002857868
175	0xbb4b9e20	-0.0031069592
176	0xbb087c2e	-0.002082597
177	0xbb3a260f	-0.0028404032
178	0xbb1bf330	-0.0023796074
179	0x3b45a3fb	0.0030157554
180	0xbb2675d9	-0.0025399833
181	0xbb45803d	-0.003013625
182	0xbb523164	-0.0032072896
183	0xbb29ed55	-0.0025928814
184	0x3b44f537	0.0030053386
185	0xbb4dc8cd	-0.0031400204
186	0x3b427fd9	0.0029678254
187	0x3b27f5cf	0.002562869
188	0xbb42f6a3	-0.0029749058
189	0x3b0dd2e5	0.0021640596
190	0x3b3c0586	0.0028689816
191	0xbb30e8fb	-0.0026994336
192	0x3b43d423	0.0029881082
193	0xbb2e8682	-0.0026630466
194	0x3b4900ac	0.0030670566
195	0x3b232b82	0.002489776
196	0x3b3d7d18	0.0028913673
197	0x3b27fa42	0.0025631343
198	0x3b2187ff	0.002464771
199	0x3b419242	0.002953664
200	0x3b38895a	0.002815804
201	0xbb415b57	-0.0029503906
202	0x3b47f253	0.0030509427
203	0x3b4222e7	0.0029622854
204	0x3b38613a	0.0028134123
205	0x3b2ca178	0.002634136
206	0xbb462cdf	-0.0030239148
207	0xbb4b770a	-0.0031046295
208	0xbb1c9300	-0.002389133
209	0x3b2eb97e	0.0026660855
210	0xbb36ded9	-0.0027903824
211	0xbb4bb380	-0.0031082332
212	0x3b4e44e8	0.0031474177
213	0x3b5289d5	0.0032125611
214	0xbb55339a	-0.0032531978
215	0x3b1d864d	0.0024036348
216	0x3b2f2c5b	0.0026729319
217	0x3b2a3a0a	0.0025974535
218	0xbb4c3ed5	-0.003116538
219	0x3b394375	0.0028268967
220	0x3b3b53df	0.0028583927
221	0x3b2a525a	0.0025989027
222	0xbb4b5b02	-0.0031029587
223	0xbb4358da	-0.0029807598
224	0xbb3da589	-0.0028937778
225	0xbb327482	-0.0027230089
226	0xbb4e01f0	-0.003143426
227	0x3b33835e	0.0027391533
228	0x3b48a038	0.0030613076
229	0x3b384415	0.0028116752
230	0x3b431e31	0.0029772634
231	0xbb36fa90	-0.0027920343
232	0x3b2c4fab	0.0026292603
233	0xbb31ed67	-0.002714956
234	0x3b5285e7	0.003212327
235	0xbb2541ba	-0.0025216178
236	0xbb445ff7	-0.0029964426
237	0x3b3f6601	0.0029205086
238	0x3b41d273	0.00295749
239	0x3b485f58	0.0030574407
240	0x3b25d70b	0.0025305178
241	0xbb31087b	-0.0027013111
242	0xbb2f20af	-0.0026722362
243	0xbb126eb0	-0.0022343807
244	0x3b526584	0.0032103965
245	0xbb3a70dc	-0.0028448617
246	0xbb4c5c51	-0.0031182955
247	0x3b47c21e	0.0030480693
248	0x3b376d31	0.0027988667
249	0xbb32cae6	-0.0027281581
250	0x3b383b53	0.0028111532
251	0x3b4155c1	0.0029500576
252	0x3acedc1a	0.0015782148
253	0xbb3b1ebb	-0.0028552252
254	0xba5a06e3	-0.0008317066
255	0x3b3e0000	0.00289917

Actor.weight f4 [5, 256]
0	0xbdbeb8ad	-0.09312568
1	0xbcc46a02	-0.02397633
2	0x3da09cd5	0.07842413
3	0x3d27d3a3	0.040973317
4	0xbbce2b88	-0.0062918104
5	0xbdaf3ec9	-0.08556897
6	0xbdbf2638	-0.093334615
7	0x3c4a12c7	0.012333578
8	0x3ce5d730	0.028056711
9	0xbd3ccc64	-0.04609336
10	0xbd2b76ac	-0.04186122
11	0xbd02452c	-0.03180425
12	0xbd392495	-0.045200903
13	0xbd0a5721	-0.0337745
14	0xbbfc83d0	-0.007706143
15	0xbdf33f38	-0.118772924
16	0xbd52d437	-0.051471915
17	0x3cb62478	0.022234187
18	0xbccc7187	-0.024956478
19	0x3d96c01e	0.07360862
20	0x3cee57f3	0.029094672
21	0xbb4b60df	-0.0031033081
22	0x3c51c592	0.012803452
23	0x3d811ba1	0.06304098
24	0x3d47d141	0.048783544
25	0xbd580fad	-0.052749325
26	0xbd9e7403	-0.07736971
27	0xbc26a5d3	-0.0101713715
28	0xbca25493	-0.019815719
29	0x3d93b741	0.07212687
30	0x3c62b184	0.013836268
31	0x3d9d74c0	0.07688284
32	0x3d8a51c6	0.06753878
33	0xbd32aad2	-0.04361994
34	0xbdf5f737	-0.12010043
35	0x3ceeca86	0.029149305
36	0x3dcce7e1	0.10005165
37	0xbc052962	-0.008127542
38	0xbd1ae8c0	-0.037819624
39	0xbd1e9f38	-0.03872606
40	0x3dfc1ec3	0.12310555
41	0x3d8502f2	0.064947024
42	0xbcec3783	-0.028835064
43	0x3d31f370	0.04344505
44	0x3e2118fb	0.15732186
45	0x3d1bd4af	0.038044628
46	0xbc74a66d	-0.014932257
47	0x3db60e99	0.08889503
48	0xbcb4bb1b	-0.022061875
49	0x3e01b0b9	0.1266507
50	0x3d98ab10	0.074545026
51	0x3ca7ecb1	0.020498605
52	0xbd059398	-0.03261146
53	0x3d3b7096	0.045761667
54	0x3d613b7c	0.05498837
55	0xbd932fbc	-0.07186839
56	0xbc892ec0	-0.016745925
57	0x3dafbd92	0.085810795
58	0x3b72b005	0.0037031185
59	0x3d45b154	0.048264816
60	0x3d7e950f	0.062153872
61	0xbd09ffa2	-0.033691056
62	0xbcc763c9	-0.024339573
63	0xbaaa26be	-0.0012981517
64	0x3d4ae34c	0.049533173
65	0xbdd00fa9	-0.10159237
66	0x3da7edf3	0.08199682
67	0x3d14a8bb	0.036293726
68	0xbd0f4d10	-0.034985602
69	0x3d770c40	0.060314417
70	0xbb4dbe8e	-0.0031394097
71	0x3d0bc13a	0.034119822
72	0x3cceb694	0.025233544
73	0x3dbb07fb	0.091323815
74	0x3d0b9932	0.034081645
75	0x3d403992	0.046929903
76	0x3cd7d820	0.026348174
77	0x3d5fa17a	0.054597355
78	0xbc853b71	-0.016263695
79	0xbdab7268	-0.08371431
80	0x3d47b773	0.048758935
81	0xbe66f929	-0.22555985
82	0xbe3b51fa	-0.1829299
83	0x3d258c95	0.040417273
84	0x3d7b221c	0.061311826
85	0x3cf44231	0.029816719
86	0xbc059593	-0.008153337
87	0x3ccbe108	0.024887577
88	0xbd0ef48e	-0.034901194
89	0xbcdd1b3c	-0.026990525
90	0xbc284e50	-0.010272577
91	0x3db06ab2	0.086141005
92	0xbcdef13f	-0.027214644
93	0x3cd78f4b	0.026313445
94	0xbc28c364	-0.010300491
95	0x3db17038	0.08663982
96	0x3cda9e35	0.026686767
97	0x3d78d76c	0.060752317
98	0xbcc17525	-0.02361543
99	0x3c6fa6c3	0.014627161
100	0xbdd86d41	-0.105677135
101	0x3d8d3665	0.068951406
102	0xbb96e13f	-0.004604488
103	0x3c77d0be	0.015125452
104	0x3dee0b30	0.116232276
105	0x3c879ad7	0.016553326
106	0x3d4988ed	0.04920285
107	0xbd8224ab	-0.0635465
108	0x3d137f96	0.036010347
109	0xbaa59e74	-0.0012635724
110	0xbd773757	-0.06035551
111	0xbc8f8e14	-0.017523803
112	0xbd907fe3	-0.070556425
113	0xbc109f7c	-0.008827087
114	0xbb8a112c	-0.004213473
115	0xbd9aa2c2	-0.07550575
116	0xbd47ce19	-0.048780534
117	0xbcb158d3	-0.0216488
118	0x3d91b891	0.071152814
119	0xbb2b4e51	-0.002613921
120	0xbd2bcf19	-0.04194555
121	0xbd7611f3	-0.06007571
122	0x3e6e5d5f	0.23277806
123	0xbd4d53a5	-0.050128598
124	0xbc6d7865	-0.014494036
125	0xbd31a295	-0.04336794
126	0xbc8f4ea8	-0.01749356
127	0x3dbd3dc1	0.09240294
128	0xbd73b5db	-0.059499603
129	0x3dc4257a	0.095774606
130	0x3d9389d4	0.07204023
131	0xbd612c45	-0.05497386
132	0x3cf9cbef	0.03049275
133	0xbdc9da80	-0.09856129
134	0x3bf35260	0.0074255913
135	0xbceb521e	-0.02872568
136	0x3d72b9b9	0.05925915
137	0xbd782449	-0.06058148
138	0x3d6aba29	0.057306442
139	0xbdb04530	-0.086069465
140	0xbda8dc2e	-0.08245121
141	0xbcb785b0	-0.022402614
142	0xbda2c4f3	-0.07947721
143	0xbceb78b6	-0.028744083
144	0xbc47d8fa	-0.012197727
145	0x3e0137fe	0.12619016
146	0x3da95cdd	0.082696654
147	0xbc3acdaa	-0.011401573
148	0x3e0f77d9	0.14010562
149	0x3d5b9823	0.053611886
150	0x3d7ba647	0.06143787
151	0x3d2bfb3f	0.041987654
152	0x3bda83f4	0.006668562
153	0x3d6e9d54	0.05825551
154	0x39acc5f2	0.00032953877
155	0x3d73d30e	0.05952745
156	0x3d5b3d17	0.053525057
157	0x3de35a72	0.111012354
158	0x3be1b504	0.006888034
159	0xbdfeb039	-0.124359556
160	0x3d1d0301	0.038332943
161	0x3d184947	0.037179258
162	0xbe2b230e	-0.16712591
163	0xbd26ad35	-0.040692527
164	0xbd030379	-0.031985734
165	0xbceeb453	-0.02913872
166	0xbd9502bb	-0.072759114
167	0x3cea1a5a	0.028577019
168	0x3d23d886	0.040001415
169	0xbd6859cb	-0.05672626
170	0xba91848a	-0.0011102122
171	0x3d9432b3	0.072362326
172	0xbdb81a7d	-0.08989427
173	0xbcb17a41	-0.02166474
174	0xbd8b7650	-0.06809676
175	0xbdad6652	-0.08466782
176	0xbc8f1ff2	-0.017471287
177	0x3cf1c9d5	0.029515186
178	0xbbece65c	-0.0072296094
179	0xbda9be8f	-0.08288299
180	0xbaecfdc2	-0.0018080997
181	0x3c3422ec	0.010994654
182	0x3d790095	0.06079157
183	0xbc04dd60	-0.008109421
184	0xbceec55c	-0.029146843
185	0xbc8fd555	-0.01755778
186	0x3df5bf16	0.119993374
187	0xbd1a66b7	-0.037695613
188	0x3da5c795	0.08094708
189	0xbcd60fdf	-0.026130615
190	0x3b910cf6	0.004426594
191	0xbd68eae5	-0.056864638
192	0x3dc0114d	0.093783
193	0x3bc024ee	0.0058637774
194	0x3d52222b	0.051302116
195	0x3d55a32c	0.052157566
196	0xbdaa02be	-0.08301304
197	0x3d22becf	0.03973275
198	0xbd1de4c4	-0.038548246
199	0x3d4a1886	0.049339794
200	0xbe1ff196	-0.15619501
201	0xbbe4a455	-0.0069775977
202	0xbd0b2172	-0.033967443
203	0x3d3df3c4	0.04637505
204	0x3e01915e	0.1265311
205	0xbdb912ff	-0.09036826
206	0x3b90c823	0.0044183894
207	0xbd7d8510	-0.061894476
208	0x3c8aac89	0.016927974
209	0xbdaa051a	-0.08301754
210	0xbd6bb2e9	-0.05754367
211	0xbca1e272	-0.019761298
212	0xbd3c2d0c	-0.045941398
213	0x3c979b4b	0.018506667
214	0xbc354183	-0.0110629825
215	0xbbea53c0	-0.007151097
216	0xbcbfc5e7	-0.023409797
217	0x3cf2d5ed	0.029643023
218	0xbd6b4137	-0.05743524
219	0xbd4a0d5f	-0.049329158
220	0xbd59549b	-0.0530592
221	0xbc883532	-0.016626928
222	0x3d8f48aa	0.069962814
223	0xbb8169b5	-0.003949369
224	0x3c1c2b49	0.009531804
225	0xbcb24001	-0.021759035
226	0xbd869354	-0.06571069
227	0xbc57be72	-0.013167964
228	0xbd14e742	-0.036353357
229	0xbd81dcf5	-0.06340972
230	0x3ce48079	0.027893292
231	0x3da06db3	0.078334235
232	0xbd8da2d1	-0.069158204
233	0x3dccc8e5	0.09999255
234	0x3d5a85f6	0.05335041
235	0x3d6196e3	0.055075537
236	0x3d694c08	0.056957275
237	0xbd2af86a	-0.041740812
238	0xbc37bff1	-0.011215196
239	0xbdd994d6	-0.10624091
240	0xbcb1d272	-0.021706793
241	0x3d88a3f5	0.06671897
242	0xbc85d0b5	-0.01633487
243	0x3cda3ea2	0.026641194
244	0xbd9427ab	-0.072341286
245	0x3cc4c292	0.02401856
246	0x3d451edb	0.04812513
247	0x3ccbb113	0.024864709
248	0x3ddd0178	0.10791296
249	0xbd2b9d8f	-0.041898306
250	0x3ca30c6a	0.01990338
251	0x3d5bdf6b	0.053679865
252	0xbd267948	-0.040643007
253	0x3d0100e5	0.031494994
254	0x3d7f1838	0.062278956
255	0x3cb59b4e	0.022168782

Actor.bias f4 [5]
0	0xb9d90e89	-0.00041400295
1	0x3a3f8351	0.00073056394
2	0x3a395c45	0.0007070939
3	0x3b13b274	0.0022536786
4	0xbb36b369	-0.0027877933

Critic.weight f4 [1, 256]
0	0x3dbad854	0.091232926
1	0xbc8a2a20	-0.01686579
2	0x3dc45ccc	0.09588012
3	0xbad5784e	-0.0016286464
4	0x3d7cf82f	0.061760124
5	0x3d8ed768	0.06974679
6	0xbbf0c71e	-0.0073479554
7	0xbd4778b8	-0.04869911
8	0x3d0f0e1b	0.03492556
9	0xbc2f6488	-0.010705121
10	0x3d06a2f4	0.032870248
11	0x3d18118c	0.03712611
12	0x3d1d821d	0.038454164
13	0xbc3c3c0c	-0.011488926
14	0xbd417246	-0.04722812
15	0x3d935bdf	0.071952574
16	0x3a88e149	0.0010443117
17	0xbd1c77a3	-0.038200032
18	0xbc4a3ef9	-0.012344115
19	0x3904f454	0.0001267952
20	0xbd1ff80a	-0.039054908
21	0x3c8ce6dd	0.017199928
22	0x3d33511f	0.043778535
23	0x3c75f1ef	0.015011295
24	0x3d46b56f	0.048512872
25	0xbc1f7833	-0.009733248
26	0x3c3f8da8	0.011691488
27	0x3d0b9727	0.034079697
28	0xbc3f9fe3	-0.011695835
29	0x3bfa8961	0.0076457714
30	0x3cf0f4b3	0.029413557
31	0x3db8013a	0.08984609
32	0xbd9efcc8	-0.07763058
33	0x3dbb088a	0.09132488
34	0xbdad58e1	-0.08464218
35	0xbc93b80e	-0.0180321
36	0x3d124279	0.035707925
37	0xbcc998d8	-0.024609014
38	0x3d0a427b	0.033754807
39	0xbd28f9d8	-0.041253895
40	0x3d4a0fc3	0.049331438
41	0x3cdc2038	0.026870832
42	0xbd90c124	-0.07068089
43	0xbd6a8554	-0.057256058
44	0x3ce3f052	0.027824555
45	0xbc7ffb87	-0.015623934
46	0x3d6b58ae	0.05745762
47	0xbc25d919	-0.010122561
48	0x3dce2af8	0.100667894
49	0xbd9eb7b6	-0.07749884
50	0x3ccd5377	0.025064213
51	0xbc043164	-0.008068416
52	0x3d960e4f	0.07326948
53	0xbd65b072	-0.056076474
54	0xbb765bdf	-0.003759138
55	0xbb9ef59d	-0.0048510567
56	0xbdb51a32	-0.08842887
57	0xbd664e08	-0.05622676
58	0x3c9133a5	0.017724821
59	0xbc4f1c1f	-0.012640982
60	0x3ca09b36	0.01960526
61	0xbdc0865b	-0.09400626
62	0x3c8c575b	0.017131498
63	0xbda61c69	-0.081108876
64	0x3dad3493	0.08457293
65	0xbe7a6e8b	-0.24456231
66	0xbcfe7fa5	-0.031066725
67	0x3c5d1d8d	0.013495815
68	0x3d548f2c	0.05189435
69	0x3d6ef6de	0.0583409
70	0xbbfed245	-0.007776531
71	0x3dc3d493	0.0956203
72	0xbd9e15e2	-0.077190176
73	0x3d89fda1	0.06737829
74	0x3becf856	0.0072317524
75	0xbafed07a	-0.0019440793
76	0xbe1697b7	-0.14706312
77	0x3b8951dc	0.0041906666
78	0xbcde03ac	-0.02710136
79	0x3ddd7f06	0.108152434
80	0x3e09861a	0.13430062
81	0x3db06932	0.086138144
82	0xbde32b2b	-0.11092218
83	0xbdca014a	-0.09863527
84	0xbd5ba3a2	-0.05362285
85	0x3d32863b	0.043585043
86	0x3c8b91c5	0.017037282
87	0xbd7a6402	-0.06113053
88	0xbda9a1b3	-0.08282795
89	0x3db462d1	0.0880791
90	0x3c0c6512	0.008569019
91	0x3e035811	0.12826563
92	0x3d1c8335	0.038211066
93	0x3d4eb25f	0.050463077
94	0x3d055331	0.03255004
95	0xbda15274	-0.07877055
96	0x3d41f44d	0.047352124
97	0xbba3e51d	-0.0050016777
98	0x3dfb7bd7	0.1227948
99	0xbe0693d1	-0.13142325
100	0x3c1cc9c3	0.009569588
101	0x3d3c2487	0.045933273
102	0xbdcbaa53	-0.09944596
103	0x3d8a00a7	0.06738406
104	0xbc8cc156	-0.017182034
105	0xbd2e6f51	-0.04258663
106	0xbd989d03	-0.074518226
107	0x3d5dfaf7	0.054194417
108	0x3c351aa2	0.011053713
109	0x3bb60c92	0.0055556977
110	0x3d230698	0.03980121
111	0xbc93c65b	-0.01803892
112	0xbd40114f	-0.046891507
113	0x3dfa2ed5	0.12215964
114	0xbd1c4a9e	-0.038157098
115	0xbdc4e59e	-0.096141085
116	0xbd3fad17	-0.04679593
117	0x3bf3d393	0.007440993
118	0xbd198396	-0.037479006
119	0xbd43d4f1	-0.0478105
120	0x3d9046a6	0.07044725
121	0x3ce8e8ad	0.028431261
122	0x3c17f6f5	0.009275188
123	0xbda133cc	-0.078712076
124	0xbdb634f4	-0.08896819
125	0x3c93bec0	0.018035293
126	0x3d21e718	0.03952703
127	0xbdab75ee	-0.08372103
128	0x3cca97f2	0.024730656
129	0xbd5b248f	-0.053501662
130	0x3c8d5d34	0.017256357
131	0xbda4c884	-0.08046058
132	0xbc28ac13	-0.010294932
133	0xbd9235d4	-0.07139173
134	0xbceff4eb	-0.02929159
135	0xbc861cb2	-0.016371105
136	0x3dbd6d14	0.092493206
137	0xbb2a43f8	-0.0025980454
138	0x3cfba22d	0.03071698
139	0xbda78e26	-0.081814095
140	0x3ceba4d5	0.028765121
141	0x3cd3f4d1	0.025873573
142	0xbcab0b5f	-0.020879446
143	0x3d748edd	0.059706558
144	0xbbf64895	-0.0075159767
145	0xbce5112f	-0.027962295
146	0x3cc78045	0.024353156
147	0xbd112474	-0.035435155
148	0xbc483101	-0.012218715
149	0xbe01772c	-0.12643117
150	0xbd54c84a	-0.051948823
151	0x3d8ee718	0.069776714
152	0xbdffc346	-0.12488417
153	0xbd67f21c	-0.056627378
154	0xbd71b95f	-0.059014674
155	0x3cd87bda	0.026426245
156	0x3e40cdbb	0.1882848
157	0xbda35c4f	-0.07976591
158	0x3d1a3039	0.037643645
159	0x3cb5b6c2	0.022181872
160	0x3d028427	0.03186431
161	0x3df0528d	0.11734495
162	0xbc905b13	-0.017621553
163	0x3cf7e6bc	0.03026139
164	0xbd94ba5f	-0.0726211
165	0xbd511300	-0.05104351
166	0xbdc1eb7d	-0.09468744
167	0xbb164e9f	-0.0022935045
168	0xbe17a6a6	-0.14809665
169	0x3d969385	0.07352356
170	0xbd8d67cd	-0.06904564
171	0xbd44d467	-0.048054125
172	0x3b88b944	0.004172476
173	0xbdaf0caa	-0.08547337
174	0xbc916315	-0.017747441
175	0xbddf2db8	-0.10897392
176	0xbc1d3ec2	-0.009597482
177	0xbd813ad2	-0.06310047
178	0x3a1d7d8c	0.00060077826
179	0x3ca138be	0.019680377
180	0xbdbe2ecf	-0.09286272
181	0xbdc8b9d6	-0.098010704
182	0xbd67c06b	-0.05657999
183	0xbd42b6a3	-0.047537457
184	0x3d9d97ee	0.07694994
185	0xbd5953f6	-0.053058587
186	0x3ddccf40	0.10781717
187	0x3d818ce6	0.06325702
188	0xbc9583b4	-0.018251278
189	0x3e0d8348	0.13819611
190	0x3d584f24	0.05280985
191	0xbd9fc6c4	-0.078015834
192	0x3c3181e1	0.010834188
193	0xbd61c070	-0.055115163
194	0x3d29fc81	0.041500572
195	0x3d87648b	0.06610974
196	0x3ddf09de	0.10890554
197	0x3d623f92	0.055236407
198	0x3d4fcf1a	0.050734617
199	0x3d76807c	0.060181126
200	0x3e132675	0.14370139
201	0xbcd77e5a	-0.026305366
202	0x3c301b57	0.010748706
203	0x3cc9bb58	0.024625465
204	0x3cdabc4f	0.02670112
205	0x3c03df17	0.008048794
206	0xbc8c28e0	-0.017109334
207	0xbdac3482	-0.084084526
208	0xbd4604e1	-0.048344497
209	0x3d96f976	0.073718
210	0xba4e38df	-0.0007866751
211	0xbc5eae0f	-0.0135913035
212	0x3d613b7d	0.054988373
213	0x3d1db6e2	0.03850449
214	0xbcc00373	-0.023439145
215	0x3c0dcf42	0.008655371
216	0x3c142c8b	0.009043823
217	0x3e0ff623	0.14058737
218	0xbdb90529	-0.09034187
219	0x3d263a7c	0.04058312
220	0x3e002c89	0.12516989
221	0x3ba0036b	0.00488322
222	0xbd3a0ab4	-0.045420364
223	0xbcd9d8e7	-0.026592685
224	0xbd4aef9b	-0.04954491
225	0xbc8faea9	-0.01753934
226	0xbc121091	-0.008915083
227	0x3b75953a	0.003747298
228	0x3de41afc	0.11137959
229	0x3c97b513	0.01851896
230	0x3d684976	0.056710683
231	0xbd00f93d	-0.031487692
232	0x3d55ed30	0.052228153
233	0xbdf529f1	-0.1197089
234	0x3d80ff9b	0.06298753
235	0xbda70851	-0.08155883
236	0xbd150fde	-0.036392085
237	0x3ca03ee7	0.019561244
238	0x3d005781	0.03133345
239	0x3cb4aee9	0.02205606
240	0x3dec166b	0.115277134
241	0xbdab0b8d	-0.083518125
242	0xbd31bdce	-0.043393902
243	0xbbf329ce	-0.007420755
244	0x3dbba8c6	0.0916305
245	0xbd3d1901	-0.046166424
246	0xbd8993e2	-0.067176595
247	0x3d152e46	0.036421083
248	0x3cae5c40	0.021284223
249	0xbd84e45b	-0.06488868
250	0x3cda189c	0.026623063
251	0x3d8723c6	0.0659862
252	0xba016ab3	-0.0004936859
253	0xbc895ec4	-0.01676882
254	0x3aa23911	0.0012376626
255	0x3d34f6c1	0.044180635
