HighestReward1.pth (torch, 39700 bytes, 7 tensors)

Network.0.weight f4 [64, 70]
00000000: 1c94 6aba eb4f 833d a277 c9bd 2e25 b4bd
00000010: f08e 3cbd d747 033d 9832 1bbb f215 c23d
00000020: bdc8 2dbc 938b 013d 01f4 13bd 9c76 c0bc
00000030: 58da e9bd 831d a2bd 6ecf 49bd 0315 913b
00000040: e38a 413d 12e0 923d c6f2 a5bd 0930 55bd
00000050: 91d1 313d c443 cb3d 6181 c9bc 822c b73d
00000060: d6d1 9dbc 3836 4f3c 20a5 dd3d e913 e3bd
00000070: 9e19 9abd cce1 f7bc 2ad5 3ebd 187e d33d
00000080: caa9 9ebd f85c 61bd e303 abbd 0941 e5bd
00000090: bfe3 8ebd 336a d23d 0474 5a3d 6e47 6d3d
000000a0: e7f9 cd3b 03fe 7abd 6ea7 a53c 6c8d e4bd
000000b0: 2fdf b0bd c262 7cbd 5971 9a3d 7885 8f3d
000000c0: b41e 59bd 4d51 8dbb b08d 9c3d c258 f33d
000000d0: c54c 423d 0d46 843c a01f a43d f220 90bd
000000e0: 8c74 b63c 0ec8 bdbd d4a7 a9bd cde6 7cbd
000000f0: e883 5d3d 48e2 443d 6aff 90bd b9e6 133d
00000100: 0161 863d b02a 77bc fa89 953b 8dde e23c
00000110: 87db 973d fd09 eb3d aaa2 bcbd 3769 33bd
00000120: 7667 403d 8dd0 ca3d 0503 d53d 5cfc d73d
00000130: 83dc c23c e1db d4bd 3d25 343c 2f23 99bd
00000140: 5920 e4bd d97c d93d 7d1f ba3d 7e2d f4bd
00000150: 1a44 b73c c9f1 a4bc 8120 a1bc 1f1a 60bd
00000160: f743 3c3d 59fc 90bd 7478 333d cb93 773d
00000170: aa3b af3d d60d 373d 2b45 f2bd 34ca 9ebd
00000180: 8e72 743d faee cc3c 80f3 bebd 62f3 8cbd
00000190: 7e47 e63d 65f0 a43d 8376 55bd b56e f6bc
000001a0: fe2d e9bd d6ca 0cbb fd55 b8bd 9bd0 bcbd
000001b0: 8bcc d7bb 0003 933c f17d 48bd a73f 913d
000001c0: bdf5 94bd ce1b de3d e8bf a73d d26b cebd
000001d0: c0b0 f3bc 51b9 b03b 38db 8e3c 8939 e83c
000001e0: 911e 403d ba99 ea3b 87df 6ebd 36a8 673d
000001f0: c2ce eabd 9c15 91bd 151b f5bc 5679 6ebd
00000200: 3344 2bbd 1aa1 c8bd ac46 d0bc ae4b d13c
00000210: b777 9fbd 5afe c8bb 5d3a af3d 544f 49bc
00000220: a4b2 593b eaef 28bc 6e28 c63c 80a4 9b3d
00000230: 9ede e73d 6673 9b3d 6f66 e83d f29f 0dbc
00000240: c8e4 dbbd 8817 68bd 85ac a63d 451c 4bba
00000250: 3a56 73bd 7894 bbbd 9c14 e5bd 4599 cebd
00000260: 939a c6bc 893d 863d f356 843d 8c13 ecbd
00000270: eeb0 983d 7d8b bfbd 99ff cebc 6781 46bd
00000280: 7c98 bcbc cb3e c0bc e6a7 dbbd d25a d3bd
00000290: c636 99bc cb98 ca3a bb65 5ebd 436b 383d
000002a0: 9f51 dcbd 6128 04bc 4b44 d73d 9eb0 47bd
000002b0: 260a dd3d 4d4c 313d 2de8 dcbd 9adf 9a3d
000002c0: 01f9 61bc a38b 5abd ccbd c33d cece c5bd
000002d0: 9821 523c dcff ccbc 71cd ae3d daa8 083d
000002e0: 293d 6b3d fde4 2c3d d074 ebbc a9ea cdbc
000002f0: 92b8 c9bd 57a2 843d 2a5a c23d 8a7c a73d
00000300: 1caa acbd 35ad ae3b 468e acbd c3bf 86bd
00000310: e4a2 8ebd 7f4e 273d 8bde 91bd 31e5 2abb
00000320: c8c2 a43b ebca 9d3d 4709 b9bd e10b a8bd
00000330: cf22 8ebd e954 ab3d 52fb 2fbd b778 ce3d
00000340: d807 313d 8cf7 773c d73c 69ba 628e c1bc
00000350: 30b2 753c 5594 dfbc 5527 5cba 55dc 793c
00000360: 6a78 bfbd 624c 80bd 0da9 c53d 16a7 c6bd
00000370: 899d 0cbc 0e26 f23d 68d9 303d 08c7 5d3b
00000380: 9821 d4bd 1f85 723d a65a aebd 5ef8 0abd
00000390: dc41 24bd 3bff 90bc 3d5c ab3a 12e6 c93d
000003a0: 9b77 743c 0e40 db3d 98bc 953d 4fc1 9abd
000003b0: 7b92 5b3d 3809 adbd 807d 4fbd 0cfe 0f3d
000003c0: 94a6 213d 98a4 b73d 5599 1dbd 52a2 4839
000003d0: 390a 7c3d 41ba ecbd 26f9 b03d 996a cabd
000003e0: 05eb d73a ff77 a6bc a5eb 80bd ad69 813c
000003f0: 5e6a ca3d 0f1c 0fbd 7c53 91bd 750f 35bd
-0.00089484616 0.064117275 -0.09837271 -0.08796154 -0.046034753 0.032050934 -0.002368128 0.09476842
-0.010606942 0.03162725 -0.036121372 -0.023494057 -0.11418599 -0.07915785 -0.049270086 0.0044275536
0.047251593 0.07171644 -0.08102946 -0.052047763 0.04341275 0.09925035 -0.024597825 0.08944036
-0.019265097 0.012647204 0.10822511 -0.11087782 -0.07524417 -0.030259036 -0.046590008 0.10326785
-0.077472284 -0.055020303 -0.08350351 -0.11194045 -0.06977033 0.10274162 0.053333297 0.05792945
0.006285894 -0.0612774 0.020221438 -0.111597866 -0.08636319 -0.06161762 0.075411506 0.07007879
-0.053007796 -0.0043126703 0.07644212 0.118821636 0.047436494 0.016146684 0.080138445 -0.07037534
0.02227237 -0.09266673 -0.08283964 -0.061743546 0.054080874 0.04806736 -0.07079966 0.036108706
0.06561471 -0.015085861 0.004563567 0.027694011 0.074149184 0.114765145 -0.09210713 -0.043801513
0.046973668 0.09903059 0.104009666 0.105461806 0.023786789 -0.10393501 0.010995206 -0.07477414
-0.11138982 0.10619516 0.09088037 -0.119227394 0.02237134 -0.020134823 -0.01966882 -0.05471241
0.045963254 -0.070793815 0.043816045 0.06044368 0.08556302 0.04469093 -0.11829599 -0.07753411
0.05967956 0.025016297 -0.09323788 -0.06882359 0.11244105 0.08053664 -0.052114975 -0.030082086
-0.113857254 -0.0021483204 -0.09000776 -0.09219476 -0.0065856627 0.017945766 -0.048948232 0.07092219
-0.07273433 0.10845147 0.081909 -0.10079159 -0.029747367 0.005393185 0.017438516 0.028347747
0.04690415 0.007159439 -0.05831864 0.056556903 -0.11465217 -0.070842 -0.02992014 -0.058221184
-0.041813087 -0.09796353 -0.025424324 0.025548782 -0.07786506 -0.0061338367 0.08556054 -0.01228698
0.003321805 -0.010311106 0.0241892 0.07599735 0.11321758 0.0759037 0.11347663 -0.008644091
-0.10736996 -0.056663066 0.08138374 -0.0007748048 -0.059408404 -0.091591775 -0.111855716 -0.100878276
-0.024243629 0.06554706 0.06461897 -0.11527166 0.07455622 -0.09352777 -0.025268363 -0.04846325
-0.023021929 -0.023467442 -0.107253835 -0.10320057 -0.018702876 0.0015456913 -0.054296236 0.045024168
-0.107577555 -0.008066268 0.10511073 -0.04875242 0.10792951 0.043285657 -0.107864715 0.0756218
-0.013792277 -0.053355824 0.09557685 -0.096585855 0.012825392 -0.025024347 0.085352786 0.033364154
0.057431374 0.042210568 -0.028742224 -0.025136309 -0.09849657 0.06476276 0.09489854 0.08178051
-0.08430883 0.0053307065 -0.08425574 -0.065795444 -0.06964663 0.040846344 -0.07122525 -0.002607655
0.0050281025 0.07704719 -0.09034973 -0.08205391 -0.06940233 0.08365805 -0.042964287 0.10081618
0.04322037 0.015134703 -0.00088973105 -0.023627464 0.0149960965 -0.02729241 -0.0008398195 0.015250285
-0.09349139 -0.06264569 0.096513845 -0.09699838 -0.008582481 0.118236646 0.043176085 0.0033840556
-0.1035797 0.059208985 -0.085133836 -0.033928268 -0.04010187 -0.017699828 0.0013073754 0.098583356
0.014921094 0.10705577 0.07311362 -0.07556402 0.05360649 -0.08449024 -0.050656796 0.035154387
0.039465502 0.08966941 -0.038476307 0.00019133955 0.061533187 -0.115589626 0.08641271 -0.09883613
0.001647324 -0.02032089 -0.062949456 0.01579746 0.09883569 -0.034938868 -0.070960015 -0.044204194

Network.0.bias f4 [64]
00000000: 8380 0d3b e811 c5bd 7eca 8ebd 2306 44bd
00000010: 72d9 503c 60ec 3c3d f5c2 b6bc fc39 29bd
00000020: 12d3 563d 1801 eebd b60c ab3d f413 a1bc
00000030: ba53 aa3d 18f6 b83d f431 513c eddc 1a3d
00000040: 6473 8abd 0c62 af3d 2b45 8f3d fec7 99bc
00000050: 4fd2 3e3d 9160 dbbb 133f bf3d cbdb 4f3d
00000060: 4a75 b23d 9f80 debd c407 ef3d 2d67 363d
00000070: 9b04 6e3d d72d da3c 2bc5 a03d 9e71 e63d
00000080: 40d3 26bc 6ad9 c8bd 6cc6 e03d 8e7d cebc
00000090: 1a1b 6cbd 4faf 963d a89b 883d e529 813c
000000a0: 64d9 f5bb 054f bbbc 9771 e03d 0728 953d
000000b0: e6c6 913d b817 9c3d 4ad5 86bd 1a70 cc3c
000000c0: 54c2 d3bd b936 8e3d 70a1 f2bd 11a3 f4bd
000000d0: a2f6 f1bd f847 8b3d d9cb 4b3c 4a80 8e39
000000e0: 49bc 9b3c d746 39bd c4a9 14bd 3fe2 a4bd
000000f0: d41e efbc b29f 96bd 27b1 493b d153 c03d
0.0021591492 -0.09622556 -0.06972216 -0.047857415 0.0127471555 0.046123862 -0.02230976 -0.041315064
0.052447386 -0.11621302 0.08352034 -0.019662835 0.08316751 0.09031314 0.012768257 0.037808347
-0.0676029 0.08563623 0.069956146 -0.018772122 0.046587285 -0.006694861 0.09338202 0.05074672
0.08713777 -0.10864376 0.11671403 0.04453199 0.05810986 0.026633186 0.07850107 0.112521395
-0.010182202 -0.098070934 0.10975346 -0.025206354 -0.057643034 0.07357656 0.06670314 0.015767047
-0.0075027216 -0.022864828 0.109591655 0.07283025 0.07118015 0.076217115 -0.065836504 0.024955798
-0.103397995 0.06944031 -0.11847198 -0.11945165 -0.118146196 0.06800836 0.012438738 0.00027179933
0.01901068 -0.045233574 -0.036294714 -0.080509655 -0.029189505 -0.07354678 0.0030775757 0.09390987

Network.2.weight f4 [64, 64]
00000000: a63c 6ebd fe83 853c 8dcb 43bd eb94 c6bd
00000010: f092 8e3d 99dc c1bc 173a 173e affa 1ebd
00000020: 5c04 bebd 6563 c6bd 4b0a 483d a638 6bbd
00000030: de9d 12be a525 08bc 85e0 2bbd cdbe 20bd
00000040: 9b79 d6bc 0ca6 093e 470f 903d f7b3 acbd
00000050: 073c 7ebd 7586 bebd c1eb ac3b 4c00 9cbb
00000060: eadf abbd 45fd 1ebe a97d a9bd 3fc1 95bd
00000070: 0fa0 db3c 1d75 dbbd 2f28 f63d cd06 803d
00000080: 1e70 c63c 99a0 87bd a1a0 2c3e eb29 8abd
00000090: ef96 fd3d 7bef e0bd 31c9 9cbd 2e16 5fbd
000000a0: 01ba 9abc e80a aebd 4caa 80bd 5bfc 713d
000000b0: 5b95 8fbd e349 dc3d 40f7 1a3e e8bb 35bd
000000c0: c92a fcbd c267 493d 6f3f 993d e3c8 cd3d
000000d0: 5d2d eb3b 10ce 99bc c049 d5bd 860f 2abe
000000e0: 976c b63d d20c 4abd e8be 73bc b2c2 333d
000000f0: d5ee 103e a31a 873d ff60 3bbd 1b45 1d3e
00000100: 973b 9a3d 50f2 0c3e 4f32 d3bc a158 0c3e
00000110: bd2d c53c 7237 59bd d904 d2bd 581c 093d
00000120: 84ab 54bd a758 93bb 894f 833d 2868 f23c
00000130: 1e04 153e b43f 12bd 55ca ddbc 38b1 3c3d
00000140: 47db e0bc 36ce 7fbc c584 85bc 9d3e b43d
00000150: d213 04be 3baf 0b3e ff85 153e 5f73 a83d
00000160: 7138 093e 9578 e63d 8278 35bc 3ff3 92bd
00000170: 528c 593d cfd2 eb3d 648d 4abd 0130 d6bc
00000180: 1e51 653d 5de8 743c 8e97 683d ce5a 613d
00000190: 2790 b9bc bfa3 dd3b be92 6cbd 7324 d3bd
000001a0: 2c23 403d 2949 1a3e b617 aa3d c5b8 243d
000001b0: 1798 9fbd 0dec 23be 749a 7ebd 4d4c 55bd
000001c0: f3d0 63bd f08e 7bbd 24e5 7abd e18f 3bbc
000001d0: 0952 02be 0063 913d 09fd 9dbd 859c b8bc
000001e0: 2f47 acbd 2137 edbc 5ee8 753c 218d 8ebd
000001f0: 9788 8cbc c0b9 e73b 4dc6 afbd 7aca 5dbd
00000200: e0db 813d 977d 23be 4abe 47bd 9e5e 733d
00000210: 2f13 c23d 0e52 2abd cdcc 2c3d 2e65 7cbc
00000220: ff85 16bc b918 fdbd 7f87 883b 6d12 adbd
00000230: 1bca 0bbe a82e 713c d33b 60bd b945 0b3e
00000240: 0ad2 743d 8e39 933c cad0 2abd 3751 013d
00000250: 5749 c439 9858 7cbd b6ab 81bd 50b1 0ebe
00000260: 7430 64bd 747c 1dbe 99eb d7bd 5b43 f1bd
00000270: 66c5 603d b611 1dbe 607d 223e 5d4d ae3d
00000280: 2160 3dbd 4b34 113e 593a 2f3c 5792 13be
00000290: 950e ab3c 2fcf c03c 2397 aabd 8786 ec3c
000002a0: 4a7a b63d d715 b2bd 9fff dbbc dba5 b2bd
000002b0: 79de 3abd 5166 0b3e 0b76 49bd 2ea2 22bd
000002c0: 9454 5e3b d77f 01bd 4cec c93d 2b48 86bd
000002d0: 7967 213e 7337 983d dc1d 65bd 0fa2 11be
000002e0: 9d6b 2c3d 0b1f a93d e9e1 f2bc a84d b83c
000002f0: d9ce b0bd a11e 27be 150d ca3c d342 123e
00000300: 9590 f63c 3a36 523b 2519 65bc e447 9dbd
00000310: 0d34 b63c 331b cbbd 1357 e63d 24b1 413d
00000320: 2b5a 08be c890 1a3b 8142 80bc 859d 33bd
00000330: d4d7 51bd 8fc5 36bb 3b74 dbbd 22d6 5e3d
00000340: e3ce db3d e8bf 883c e731 37bd f7b3 d9bc
00000350: 5855 91bc 755b f73c ff83 a23d 3cfe 43bd
00000360: 7e26 e1bc 0f94 843d 2ffd 873d 6d10 04be
00000370: 8d3e c0bd 6567 22be e77c e63d d7bf 083e
00000380: 99df 1bbc dcce 9b3d b0b3 873d 83f8 12be
00000390: 62eb af3d 9cb2 cf3c daa3 1e3d b0e2 473d
000003a0: 822d 853d 1178 5d3d 0381 983d 5a95 93bc
000003b0: d3cf b63d 3dd7 563b 7e02 e73d 5963 aebd
000003c0: a15a 0ebe 7acc c13d 15a3 a83d 9f09 823d
000003d0: 2e9c b63d 721d 043d 43fd d63b 6c01 753c
000003e0: 0cd1 00bd cee4 ef3c 068a 603d 064b 8b3c
000003f0: f38c 8dbd bd9f c5bc 5924 e63d a9df fcbc
-0.058163308 0.01629829 -0.047801543 -0.096963726 0.0696162 -0.02366476 0.14768253 -0.03881329
-0.09278175 -0.09686927 0.04883794 -0.05742707 -0.14318034 -0.008309756 -0.041962165 -0.03924446
-0.026181033 0.13442248 0.07034164 -0.08432763 -0.062068965 -0.093029894 0.0052771275 -0.0047607776
-0.083923176 -0.15526302 -0.08275921 -0.073122494 0.02680972 -0.10715697 0.12019383 0.06251297
0.024223384 -0.066224284 0.1685815 -0.067462765 0.12382304 -0.10983177 -0.07655562 -0.05446451
-0.018887522 -0.08498174 -0.062824816 0.059078556 -0.07010909 0.1075628 0.15133381 -0.044368654
-0.12312848 0.049171217 0.07482802 0.10048082 0.0071770386 -0.018775016 -0.10414457 -0.16607484
0.089074306 -0.049328633 -0.014877059 0.043886848 0.14153607 0.065968774 -0.0457468 0.15358393
0.07530897 0.1376431 -0.025780825 0.13705684 0.024069661 -0.053031392 -0.10254831 0.033474296
-0.051921383 -0.004496652 0.064116545 0.029590681 0.14552352 -0.035705283 -0.027074018 0.046067446
-0.02744831 -0.015613129 -0.016298661 0.08801005 -0.12898186 0.13641064 0.14601897 0.0822513
0.13400437 0.11253468 -0.011076095 -0.07175302 0.053112336 0.11514818 -0.049451247 -0.026145937
0.055985563 0.014947978 0.05678516 0.05501824 -0.022651745 0.006763905 -0.05775713 -0.103096865
0.046908543 0.15066971 0.08305304 0.040215272 -0.07792681 -0.16008015 -0.062159017 -0.05207472
-0.05561919 -0.061415613 -0.06125368 -0.011447878 -0.12726606 0.07098961 -0.07714278 -0.022535572
-0.08412015 -0.028956952 0.015009014 -0.06960512 -0.017154975 0.0070717037 -0.08582745 -0.054148175
0.06340766 -0.15965877 -0.04876546 0.059416406 0.09476315 -0.04158216 0.0421875 -0.0154049825
-0.009187221 -0.12358231 0.004166543 -0.0845078 -0.13651316 0.014720596 -0.054744553 0.13600816
0.05977062 0.01797178 -0.041703023 0.031571593 0.00037438676 -0.061607927 -0.063315794 -0.13934827
-0.05571027 -0.15379506 -0.105429836 -0.11780425 0.054875754 -0.15338787 0.1586814 0.085108496
-0.046234254 0.14180104 0.0106950635 -0.14411293 0.020880977 0.023536293 -0.08329608 0.028872741
0.089100435 -0.08695572 -0.026855288 -0.08723041 -0.045622323 0.1361325 -0.04918484 -0.039705448
0.0033924924 -0.03161606 0.09859523 -0.06556734 0.15762128 0.07432451 -0.05593668 -0.14221977
0.042094816 0.08257874 -0.029648738 0.022497967 -0.08633203 -0.16320278 0.024664441 0.14283304
0.030098239 0.0032075779 -0.013983046 -0.07679728 0.022241617 -0.09917297 0.11247077 0.047288075
-0.13315646 0.0023584832 -0.015656712 -0.043851394 -0.05123122 -0.002788875 -0.107155286 0.05440343
0.1073282 0.01669307 -0.044725325 -0.026575072 -0.01774089 0.030194977 0.079353325 -0.04784988
-0.027484175 0.064735524 0.06640088 -0.12896891 -0.093869306 -0.15859754 0.11254292 0.13354431
-0.009513759 0.07607815 0.066260695 -0.14352612 0.085898176 0.025353722 0.03873048 0.04880017
0.065028206 0.054069582 0.07446482 -0.018015552 0.08926358 0.00327821 0.11279772 -0.08515043
-0.1390176 0.09462829 0.082342304 0.06349491 0.08916508 0.032254644 0.006560953 0.014953952
-0.031449363 0.029283907 0.05481913 0.017003547 -0.069116496 -0.02412402 0.112374015 -0.030868368

Network.2.bias f4 [64]
00000000: c88a 6ebc 1709 ed3d 2d80 823d 8358 44bd
00000010: cb4f 413c 35c9 c3bd 14a4 7bbd 4cea bcbd
00000020: 153c 97bd ab63 dc3c e037 8b3d 9501 c3bd
00000030: 3c21 1d3d 8563 b5bc e75e 603d 0b82 aa3d
00000040: 28a2 e4bc 3a36 6dbd 01bc 833d 81e3 4f3d
00000050: aa6d d13d a6d6 44bd e967 dbbc 45fd ee3d
00000060: 3d73 6a3d ab4d e43d e0f2 cf3d f533 ae3d
00000070: a87d 813c 179d 4cbd 894f 9cbd 2146 b7bd
00000080: 0bc4 1a3e 08f4 c6bd 3784 84bd 0fad 323d
00000090: b016 593c 76db 763b 6dc4 8cbd 3490 703d
000000a0: f350 98bd 183d a9bd 5c01 113e 06d2 b5bc
000000b0: 2897 69ba b46f b23d 70c0 75bc 5480 f8bd
000000c0: 2c94 b5bc 3002 e0bd 5f89 143e 9bd7 3cbc
000000d0: 8bc8 023e 704e 513d 4deb 8e3c 5497 a23d
000000e0: 1c30 f23c a1e4 42bd bece 823d e648 86bd
000000f0: 91b6 043e ce57 a13c 9f45 c53d 324c fe3d
-0.014559455 0.115739994 0.06372104 -0.047935974 0.011798809 -0.095598616 -0.061435774 -0.09224376
-0.073845066 0.026902994 0.06797767 -0.09521786 0.038361773 -0.022142181 0.054778006 0.08325585
-0.027909353 -0.057913043 0.06432343 0.050754074 0.10225995 -0.048056267 -0.026782947 0.11669401
0.057238806 0.111476265 0.101537466 0.08506004 0.015806988 -0.0499545 -0.076323576 -0.08948923
0.15113847 -0.09714514 -0.064705305 0.043622073 0.013250038 0.003766743 -0.06873403 0.058731273
-0.07437315 -0.08263606 0.14160675 -0.022194874 -0.00089107687 0.08712712 -0.014999494 -0.12133852
-0.02216538 -0.10937917 0.14505528 -0.011526014 0.12771814 0.051100194 0.017446185 0.0793902
0.029563956 -0.04758132 0.06387089 -0.06556873 0.12960269 0.019695189 0.0963242 0.12416877

Actor.weight f4 [5, 64]
00000000: a466 913c 284a 9abc 2a76 3d3d 4228 05be
00000010: 9a9f 07bc ea19 f8bc 3cee cdbd 4efc 36bc
00000020: 8f6a bc3c bf0e fcbd 2f52 db3d a54c 893d
00000030: 6e6d f03d 152e 71bd 83fd afbd 6cc8 a13d
00000040: 887b fa3d 0b2f a0bd 4adf 9fbd f639 65bc
00000050: 908b e33d ec18 c3bc 865e fbbd a737 42bd
00000060: 7984 87bd bc94 c93d 3a5e adbd b418 c83d
00000070: 9faf 153d 8221 cbbb 8ef5 d4bc 3908 993d
00000080: dd3d 98bd f41e 58bd cf39 eb3d 6238 34bd
00000090: c7fa 8e3c 81a9 c53d 7e17 d2bd ba62 773c
000000a0: f998 043c a23a 7bbd 575d db3d 94b1 b93d
000000b0: b3e1 4dbc 7061 35bc c267 963d c4fe 37bd
000000c0: 6e8c 863d 5ac4 b3bd c521 c7bd 95b9 a13d
000000d0: 8782 b93d 9432 cfbd 72b8 04bd d696 6b3d
000000e0: 1fc0 833d 7ca5 a33d 586f a83d 4ee6 74bd
000000f0: 23f4 013d 4fb6 e43d 555f c7bd 832a af3d
00000100: a6a6 b83c b92b 733c 1e45 ec3d f826 79bd
00000110: 841a d0bc 185b d0bd 1391 c33d ae8a cdbd
00000120: 3192 d23d 2213 ccbd 45a3 a53d 6e3e 90bd
00000130: 77c6 cf3d e191 bdbd 76cc 96bd a0cb e0bc
00000140: 6013 bdbd 426a e13d 3b5a 1a3d 72fa 9cbd
00000150: 7dbf afbd 4eb0 4bbd c9bc 323c f9b5 44bd
00000160: 7006 a53d 318e 5cbd 12c1 2e3d 8968 c93d
00000170: d869 c5bd af90 b6bd 9bc1 e1bd 252c 063d
00000180: 640c db3d 4cad b4bd cd1e 07bc 583c b13d
00000190: 26b0 d83d e761 713d 9a2a 003d f839 853c
000001a0: 7ed8 7e3c 4709 ef3d 19c1 543c f356 6d3d
000001b0: 8880 90bc b4f4 da3d 35cb 07be 627b 40bd
000001c0: b439 04be d00f ac3c 3ab9 9dbc 6898 e3bd
000001d0: 6fff b0bd 2c5f e83c a4ec af3d 30c9 eb3d
000001e0: 9925 a03d 78ef bdbd dfa5 c33d a48e e33d
000001f0: bcc9 783c 9eea e4bd b35e aabd 1b13 d1bd
00000200: b743 313d 8417 a43d 8484 cc3d 5f54 20bd
00000210: a4ea 9bbd 171f 573d ab7c 3ebd 5d09 3d3c
00000220: 3b35 713d b5b1 0bbd 59af c13c 733b 5fb9
00000230: b481 0d3e fd80 a6bd 6186 bb3d 8ae3 863d
00000240: 77bd 09be 4bbf 573d df8e 7d3b f66e a33d
00000250: 8a8b 8f3d 1039 45bd e1a5 5ebd a80b e0bd
00000260: 6766 8f3d 1ef5 fbbd fce5 c4bd ec6d c03d
00000270: cce6 b93d c543 823d 0f63 b03d 3420 06be
00000280: 3c43 fabc 5ea8 0c3c 60a1 c43d 65f3 5cbd
00000290: e595 f1bc 8ce3 bd3d fc32 ae3d d34c 74bd
000002a0: d20a 05be 0afe 7fbd 9ef7 853c 10cc c63d
000002b0: 76da 9a3d 771a 723d 4900 6f3d a6a6 71bc
000002c0: cdab 663b 4799 fd3d e9ad 813b af97 343d
000002d0: 6507 4d3d 91f7 da3d b129 6e3d 3023 05bd
000002e0: 7a74 17bd c181 c9bd 3331 23bd 0350 f13d
000002f0: 1346 9f3d 062e adbd 0e8e b13d 917e 54bd
00000300: e411 36bc d895 9d3c 4593 abbd 9db7 5fbd
00000310: 502c 1dbd d797 95bc 789f a83d 4ee8 01bc
00000320: f90f b1bd 416b c3bd 01b6 cf3d 139d 9a3d
00000330: 0066 d5bd d780 aabd 5f65 c1bd 7936 bb3d
00000340: ad0a 353d 1fb8 803d 0cd1 b53d 5c18 263d
00000350: bfc9 903d 41f3 aabd 3759 ee3d cb3e 253d
00000360: 6bd0 a93c ec41 783d 4e08 1cbd c21a 9cbd
00000370: 541c 6fbc 7ff1 e6bd fc18 96bc d1d6 363d
00000380: 6153 9d3c 5c9d 543c 9a13 f13c 63fe 05be
00000390: 2cae cfbd ecf9 b4bd 2cbf 113e 3ab4 c3bd
000003a0: b141 203d 2fd7 963d de42 65bd c8e3 24bd
000003b0: b740 f63d b5b5 eebd 1237 dabd bd06 d5ba
000003c0: 64bb dd3b fb74 0cbd 934b 2dbc b9a7 ab3d
000003d0: 7229 3c3d 4b17 593d 9f7c e03d da9e 9cbd
000003e0: c928 e53c 5bfa b13c 31b3 783d f845 d9bc
000003f0: dc7c a73d 5ae4 e5bd 43f2 9ebd 9b08 0dbe
0.017749138 -0.018834189 0.04625527 -0.13003638 -0.008277798 -0.030285794 -0.10055205 -0.011168553
0.02300003 -0.123075 0.10709035 0.06704072 0.11739622 -0.058881838 -0.085932754 0.078995556
0.12230593 -0.07821473 -0.07806261 -0.01399087 0.11110604 -0.023815595 -0.12273888 -0.047416355
-0.06617064 0.09842822 -0.08465238 0.09770337 0.03654444 -0.006199063 -0.025995996 0.074722715
-0.074336745 -0.052763894 0.114856355 -0.043999083 0.017453564 0.09651471 -0.10258387 0.015099222
0.008093112 -0.061335213 0.107111625 0.090670735 -0.012566018 -0.011070594 0.07344009 -0.044920698
0.065697536 -0.087776855 -0.09723238 0.07896725 0.09058099 -0.10117069 -0.032402463 0.057516895
0.064331286 0.07990548 0.08224362 -0.05978995 0.031726968 0.11167585 -0.0973498 0.0855303
0.022540402 0.014841967 0.115366206 -0.06082818 -0.025403269 -0.10173625 0.09549155 -0.10036217
0.1028179 -0.09964587 0.08087782 -0.070431575 0.10145276 -0.0925634 -0.073632166 -0.027440846
-0.09232211 0.11006595 0.037683707 -0.07664956 -0.08581445 -0.049728684 0.010909268 -0.048025105
0.080578685 -0.05384654 0.042664595 0.098343916 -0.09639329 -0.08914315 -0.110232554 0.032756943
0.10695723 -0.08822116 -0.00824709 0.08654088 0.10580473 0.058931258 0.031290628 0.016262993
0.015554545 0.116716914 0.012985491 0.05794425 -0.017639413 0.10691205 -0.13261111 -0.046992667
-0.12912637 0.021003634 -0.019253362 -0.111130536 -0.0864247 0.028365694 0.085900575 0.11512983
0.07819671 -0.09274191 0.09553122 0.11111191 0.015184816 -0.11177562 -0.08318844 -0.10208722
0.04327747 0.08012298 0.09986213 -0.039142963 -0.076131135 0.052519884 -0.04650561 0.011537877
0.058888655 -0.03410502 0.023643183 -0.00021289084 0.13819009 -0.08130071 0.0915649 0.065863684
-0.13451181 0.052672666 0.0038689894 0.079801485 0.07009037 -0.048150122 -0.054357413 -0.10939723
0.070019536 -0.12302612 -0.096141785 0.09395966 0.09077224 0.06360582 0.08612644 -0.13098222
-0.030549638 0.008585064 0.09601092 -0.053943057 -0.02949042 0.09271917 0.08505818 -0.059643578
-0.12992409 -0.06249813 0.016353425 0.097068906 0.07561199 0.05910727 0.05834988 -0.014749205
0.0035197616 0.12382751 0.0039574993 0.04408997 0.05005588 0.10691751 0.05814523 -0.03250426
-0.036976315 -0.09839202 -0.039841842 0.11782839 0.077770375 -0.08456044 0.08669673 -0.051878516
-0.011112664 0.01923649 -0.08377699 -0.054618467 -0.038372338 -0.01826088 0.08233541 -0.007928921
-0.08645625 -0.095419414 0.10142136 0.07549491 -0.104198456 -0.083253555 -0.09443163 0.09141249
0.044199634 0.06285118 0.08877763 0.040550575 0.0706973 -0.08347178 0.1163811 0.040343087
0.020729264 0.060609743 -0.038093857 -0.07622291 -0.014594156 -0.112765305 -0.01832246 0.04463846
0.019204797 0.0129769705 0.029428292 -0.13085322 -0.101406425 -0.08836731 0.14233083 -0.0955586
0.03912515 0.07365262 -0.055971973 -0.04025629 0.12024062 -0.116557516 -0.10655035 -0.0016252619
0.0067667235 -0.03429125 -0.0105771 0.083816 0.045937963 0.05300073 0.109612696 -0.07647486
0.02797355 0.021725824 0.060717765 -0.026522622 0.08178112 -0.11225195 -0.077610515 -0.13772814

Actor.bias f4 [5]
00000000: 5817 893d ca63 ad3d 5a37 1fbc ebae 9e3b
00000010: e6bc efbc
0.066939056 0.08466299 -0.009717787 0.004842629 -0.029264878

Critic.weight f4 [1, 64]
00000000: 19b4 b6bd cee4 173e 454a aebd f1d9 f8bd
00000010: dc50 e83d 9394 b7bd c3c9 8dbd 9aae e7bd
00000020: e870 adbd 6813 c3bd a829 3d3e 4ca5 26be
00000030: a3c2 39be ba32 d6bd aaed 9f3d 1634 263e
00000040: 95a3 fb3d 8258 b4bd dc33 47be 2873 0ebe
00000050: fc59 e03d 18c1 e7bd df76 1cbe bd7a d33d
00000060: b7b0 323e db9c c23d 7a21 2e3e 261b 383e
00000070: 132a adbd 66ba 573e e679 f93d 957a fb3d
00000080: 8bc2 b83d 4fc8 41be 7353 013e d323 353e
00000090: 9420 d43d a313 9abd a81f c8bd bc66 3dbe
000000a0: c778 ce3d f152 fb3d c07e 083e befd 483e
000000b0: 0494 18be adfb 363e 9756 d5bd dba4 e7bd
000000c0: 4c05 1dbe 1e56 1fbe 95cc e33d c802 cdbd
000000d0: ae8e de3d 1e4b 4abe 255c ffbd 7270 103e
000000e0: ec01 11be 4a25 4d3e 3457 2bbe 7391 16be
000000f0: b694 283e 2b69 373e ce39 093e a130 113e
-0.0892107 0.14833376 -0.085102595 -0.12150944 0.11343548 -0.08963885 -0.069232486 -0.113125995
-0.08468801 -0.09525186 0.18472922 -0.16273993 -0.18140654 -0.10458894 0.07809003 0.16230807
0.1228706 -0.08805944 -0.19453377 -0.13911116 0.10954663 -0.113161266 -0.1527972 0.10326145
0.17450224 0.09502574 0.17004958 0.17979106 -0.08455291 0.21067199 0.121814534 0.1227924
0.09021481 -0.18924068 0.1262949 0.17689447 0.10357776 -0.07523277 -0.09771663 -0.18496221
0.1008163 0.12271679 0.13329601 0.19628045 -0.14900213 0.17869444 -0.10416906 -0.113107406
-0.15334052 -0.15560195 0.11123005 -0.10010296 0.10867058 -0.19755217 -0.12468747 0.14105394
-0.1416089 0.20033756 -0.16732484 -0.14703922 0.16462979 0.17911212 0.13400957 0.14178707
