ppo_highway_agent1.pth (torch, 39748 bytes, 7 tensors)

Network.0.weight f4 [64, 70]
0	0x3d007951	0.031365696
1	0x3dc58b92	0.096457615
2	0xbd9ef395	-0.07761303
3	0xbd6af95e	-0.05736672
4	0xbd8bd78a	-0.0682822
5	0x3d83d969	0.06437952
6	0xbcc95e14	-0.024580993
7	0x3e0213db	0.12702887
8	0x3cb1703b	0.021659961
9	0x3d89c048	0.06726128
10	0xbb7e877d	-0.0038838082
11	0xbc72e2ff	-0.014824628
12	0xbda7c113	-0.08191123
13	0xbd8f0b94	-0.0698463
14	0xbc8b5795	-0.017009536
15	0x3d164646	0.03668811
16	0x3da2a582	0.07941724
17	0x3dd4ec10	0.10396588
18	0xbd9ed49b	-0.07755395
19	0xbca20b92	-0.019780908
20	0x3d4385f1	0.04773516
21	0x3e06aacd	0.13151093
22	0x3bfb1794	0.007662723
23	0x3df80b8f	0.121115796
24	0x3c5552ec	0.013020258
25	0x3ca7f044	0.02050031
26	0x3e0fdd3b	0.14049236
27	0xbdd53964	-0.10411337
28	0xbd300f8a	-0.04298357
29	0x3b032bc9	0.0020015112
30	0xbc65aa9a	-0.014017725
31	0x3e0ab70e	0.13546392
32	0xbd97201d	-0.07379172
33	0xbcba6b0d	-0.022756124
34	0xbda42e87	-0.08016687
35	0xbda32f3e	-0.07967995
36	0xbd19a3c8	-0.03750971
37	0x3e0919cf	0.13388751
38	0x3daf1bca	0.08550222
39	0x3d80fb43	0.06297924
40	0x3d1de77f	0.03855085
41	0xbd6656d4	-0.05623515
42	0x3d56f76a	0.052482046
43	0xbda27ba1	-0.079337366
44	0xbd59a559	-0.053136203
45	0xbcef6f69	-0.02922793
46	0x3da24c9a	0.07924767
47	0x3dd199f9	0.10234446
48	0xbd4b0ee8	-0.049574763
49	0x3ce4f2f1	0.027947875
50	0x3dde9f7b	0.10870262
51	0x3e196bbb	0.14982502
52	0x3da34adc	0.07973263
53	0x3c85e4cb	0.016344449
54	0x3de633d0	0.11240351
55	0xbd901ce8	-0.070367634
56	0x3d5f5710	0.05452639
57	0xbd77737a	-0.06041286
58	0xbd4a107f	-0.04933214
59	0xbcf16a71	-0.0294697
60	0x3d7e3d77	0.062070336
61	0x3da4843a	0.08033033
62	0xbd80e106	-0.0629292
63	0x3d8bfdfd	0.06835554
64	0x3dc86b93	0.09786143
65	0x3c8c12b5	0.017098764
66	0x3d169acd	0.036768723
67	0x3ce9105b	0.028450182
68	0x3dd9e9a6	0.10640268
69	0x3dec0b62	0.115256086
70	0xbe0223e6	-0.12709007
71	0xbda181c9	-0.07886083
72	0x3cc1768d	0.0236161
73	0x3d86920e	0.065708265
74	0x3e005288	0.12531483
75	0x3d903223	0.07040813
76	0x3d381252	0.044939347
77	0xbe0e4080	-0.13891792
78	0xbcc48de9	-0.02399345
79	0xbde68c4c	-0.11257228
80	0xbe15d5dc	-0.14632362
81	0x3dd2d38f	0.10294258
82	0x3d64e766	0.05588474
83	0xbdfce5ad	-0.12348495
84	0xbc4ea0f7	-0.012611619
85	0xbd61c335	-0.055117805
86	0xbd60063e	-0.054693453
87	0xbdb79f9b	-0.08965989
88	0x3d2674a2	0.040638573
89	0xbdd8a44f	-0.105782144
90	0x3d19c368	0.03753987
91	0x3cd092dd	0.025460655
92	0x3d4f2d0e	0.050580077
93	0x3c2201a7	0.009888089
94	0xbe1cf70d	-0.15328617
95	0xbdadd2b6	-0.084874555
96	0x3cca44cb	0.024691006
97	0x3c9bd39b	0.0190218
98	0xbe034c50	-0.1282208
99	0xbdd49886	-0.10380654
100	0x3d9d591b	0.07683011
101	0x3d3ab599	0.04558334
102	0xbd577b3c	-0.05260776
103	0xbd854310	-0.06506932
104	0xbde9bcbd	-0.11412952
105	0xbd1816f3	-0.03713126
106	0xbdfffb21	-0.12499071
107	0xbe011336	-0.12604985
108	0xbd29eeb8	-0.041487426
109	0x3c7c5c62	0.015402885
110	0xbdabe628	-0.08393508
111	0x3d8ae266	0.06781463
112	0xbddc9ae1	-0.10771728
113	0x3d9676aa	0.07346852
114	0x3d41072a	0.047125973
115	0xbe0b27c4	-0.13589388
116	0xbd0292be	-0.031878226
117	0xbcf26f53	-0.0295941
118	0x3c814a5c	0.015782528
119	0xbbd96c37	-0.0066352147
120	0x3c435101	0.011921168
121	0xbcdfe96b	-0.027332982
122	0xbdbf14ff	-0.093301766
123	0x3d6a134e	0.057147317
124	0xbe193b59	-0.14964046
125	0xbd8f8899	-0.07008476
126	0xbd84e858	-0.064896286
127	0xbdbede30	-0.09319723
128	0xbda04f48	-0.07827622
129	0xbe0826be	-0.13296029
130	0xbd02c0ea	-0.03192226
131	0xbc1a9a04	-0.009436134
132	0xbdac9fca	-0.08428915
133	0xbd285d62	-0.04110468
134	0x3d4f3728	0.05058971
135	0xbd415a10	-0.04720503
136	0xbd016611	-0.03159148
137	0xbc7e55d9	-0.015523397
138	0xbc30bc70	-0.0107871145
139	0x3d9156f0	0.0709666
140	0x3d9a02b0	0.07520044
141	0x3d1ad617	0.03780183
142	0x3db56e45	0.08858923
143	0xbd37a47a	-0.04483459
144	0xbdb13bc6	-0.08653979
145	0xbdc21258	-0.09476155
146	0x3dd0f7b5	0.10203496
147	0xbd1ee485	-0.038792152
148	0xbdc78a4b	-0.09743174
149	0xbe07730d	-0.13227482
150	0xbe196c68	-0.1498276
151	0xbdded06c	-0.10879597
152	0xbd7f13f0	-0.062274873
153	0x3d686ccb	0.056744378
154	0x3cd9ebba	0.026601661
155	0xbe1cf7d5	-0.15328915
156	0x3d14cb34	0.036326602
157	0xbe06aa34	-0.13150865
158	0xbcf6faf7	-0.030148966
159	0xbdb1200a	-0.08648689
160	0xbce98c56	-0.0285093
161	0xbd7bd77b	-0.061484795
162	0xbe14c201	-0.14527132
163	0xbe0fff39	-0.14062203
164	0xbd686656	-0.05673822
165	0xbbd55204	-0.006510021
166	0xbdbd12a7	-0.09232073
167	0x3d1ce38e	0.03830295
168	0xbe1516df	-0.14559506
169	0xbd3cc234	-0.046083644
170	0x3d87fa46	0.06639533
171	0xbdb19918	-0.086717784
172	0x3dd88d31	0.10573805
173	0x3bac7e04	0.0052640457
174	0xbde03874	-0.109482676
175	0x3d1a071b	0.037604433
176	0xbd543658	-0.05180964
177	0xbdb8df6c	-0.09026989
178	0x3d6c1e34	0.05764599
179	0xbdcc3729	-0.099714585
180	0xbcce694c	-0.025196694
181	0xbce34023	-0.027740544
182	0x3d41e2d0	0.047335446
183	0xbb987952	-0.0046531344
184	0x3c9ead21	0.019369664
185	0x3b86165e	0.004092022
186	0xbd00e531	-0.031468574
187	0xbd815924	-0.0631583
188	0xbdce0919	-0.10060329
189	0x3cdb194a	0.026745457
190	0x3d68fc4e	0.05688124
191	0x3d34c649	0.044134412
192	0xbdfa8ab2	-0.12233485
193	0x3babe1b2	0.005245411
194	0xbdfa6d55	-0.12227885
195	0xbd8686cd	-0.0656868
196	0xbddc7a5b	-0.10765525
197	0x3b39f740	0.0028376132
198	0xbde1f758	-0.11033505
199	0xbd268f12	-0.040663786
200	0xb9ac3abf	-0.00032850166
201	0x3d1fdd02	0.03902913
202	0xbdc39c3d	-0.095512845
203	0xbdf5df1a	-0.12005444
204	0xbddbf608	-0.10740286
205	0x3d3aac09	0.04557422
206	0xbda5b7c2	-0.0809169
207	0x3dc80be4	0.09767893
208	0x3baad53e	0.0052134087
209	0x3c468495	0.012116571
210	0x3d295914	0.041344717
211	0x3c994ea9	0.018714266
212	0x3d29a9cd	0.0414217
213	0x3c516e44	0.012782637
214	0xbcc28baa	-0.023748238
215	0x3d6bd86f	0.057579454
216	0xbdedf76f	-0.1161946
217	0xbca7358b	-0.020411273
218	0x3e0e1607	0.1387559
219	0xbd54f1ea	-0.05198852
220	0x3d098d3c	0.033581957
221	0x3e00879a	0.12551728
222	0x3daef4ff	0.08542823
223	0x3c3abad7	0.011397085
224	0xbd7b453b	-0.06134532
225	0x3dcfc187	0.10144334
226	0xbd2d95eb	-0.0423793
227	0x3c06a817	0.008218787
228	0xbd0bdcdc	-0.034146175
229	0x3cc90cd2	0.024542246
230	0x3c097572	0.008389818
231	0x3e103284	0.1408177
232	0x3d6a1bf1	0.057155553
233	0x3e1829f6	0.14859757
234	0x3dec44e3	0.115365766
235	0xbd855db7	-0.06512015
236	0x3dc44c7e	0.09584902
237	0xbd9a5cfd	-0.07537267
238	0xbc09fe0c	-0.008422386
239	0x3d9e7dfd	0.07738874
240	0x3da6ef84	0.08151153
241	0x3e07067b	0.13186066
242	0xbd101fad	-0.03518646
243	0x3d2dcbf4	0.042430833
244	0x3d836a75	0.064167894
245	0xbd963b4a	-0.07335527
246	0x3e03bc0d	0.12864704
247	0xbd69e7d0	-0.05710584
248	0x3d333d8b	0.043759864
249	0xbc81eef6	-0.015861016
250	0xbca9a499	-0.02070837
251	0x3ca2bbb5	0.019864896
252	0x3e1074a9	0.14107002
253	0x3bef0f67	0.0072955373
254	0xbcea5647	-0.028605593
255	0xbaf5f479	-0.0018764875

Network.0.bias f4 [64]
0	0x3d0cfbb2	0.034419723
1	0xbe065b84	-0.13120848
2	0xbddca66c	-0.1077393
3	0xbbb8413d	-0.0056230114
4	0xbce47f9f	-0.027892886
5	0x3daf3f06	0.08556943
6	0xbd518453	-0.051151585
7	0xbbbc3f18	-0.005744826
8	0x3db4687f	0.088089935
9	0xbe2225a2	-0.15834668
10	0x3d1ba997	0.03800353
11	0xbd45d471	-0.048298303
12	0x3de527f1	0.11189259
13	0x3d69a7da	0.05704484
14	0xbcdd16ff	-0.026988504
15	0x3a9aff33	0.0011825323
16	0xbd69ff0e	-0.057128005
17	0x3d58ac8e	0.052898936
18	0x3cf9d802	0.030498508
19	0x3c8f4e0c	0.01749327
20	0x3c3b1948	0.011419602
21	0x3cf3587e	0.029705282
22	0x3d5cec39	0.053936217
23	0x3da94317	0.082647495
24	0x3df4bb3d	0.11949775
25	0xbe133f1d	-0.14379545
26	0x3e1a03c3	0.15040497
27	0x3d9dc565	0.07703666
28	0x3dbdcf93	0.09268107
29	0x3d8fb4ad	0.07016883
30	0x3d2b85e1	0.041875724
31	0x3d9a5ef0	0.07537639
32	0x3cc85c7d	0.024458164
33	0xbe0cd2bb	-0.13752262
34	0x3da46471	0.0802697
35	0x3bd4f176	0.006498511
36	0xbdb85da3	-0.09002235
37	0x3dd5b32a	0.104345635
38	0x3cc0c253	0.023530161
39	0xbcadf931	-0.021236988
40	0xbd1bcb5a	-0.038035728
41	0x3c5e773b	0.013578231
42	0x3e118559	0.14211024
43	0x3dd96d5f	0.10616564
44	0x3d0c90b3	0.034317683
45	0x3d21d347	0.03950813
46	0xbdd645d1	-0.10462535
47	0x3cabcb99	0.020971106
48	0xbd821a77	-0.06352704
49	0x3d21b93a	0.039483286
50	0xbe17a8d8	-0.14810503
51	0xbe14749e	-0.14497611
52	0xbe1773ec	-0.14790314
53	0x3cd1a8ca	0.02559318
54	0xbccd0e94	-0.025031365
55	0x3d1e382f	0.0386278
56	0x3d556694	0.05209978
57	0xbd9e2fdc	-0.07723972
58	0xbd988109	-0.074464865
59	0xbdf5ee9d	-0.120084025
60	0x3bc6aa1e	0.00606276
61	0xbd2284d0	-0.03967744
62	0xbce67460	-0.028131664
63	0x3e00bad4	0.1257127

Network.2.weight f4 [64, 64]
0	0xbe2a8c35	-0.16655047
1	0x3df57fb1	0.11987246
2	0xbd002ffe	-0.03129577
3	0xbdf1e663	-0.11811521
4	0x3db1c484	0.086800605
5	0xbd07ddb5	-0.03317042
6	0x3e21a6b4	0.15786248
7	0xbd872be3	-0.066001676
8	0xbde1b1f2	-0.110202685
9	0x3cec3672	0.028834555
10	0x3d8d4b56	0.06899135
11	0xbd0138fa	-0.031548478
12	0xbe1f1bc4	-0.15537935
13	0x3b1bf49f	0.0023796929
14	0x3d8ca641	0.06867648
15	0xbcc446c3	-0.023959523
16	0xbccdcef3	-0.025123095
17	0x3e1d1721	0.15340854
18	0x3e39f355	0.1815923
19	0xbdc0a4e0	-0.094064474
20	0xbd406d12	-0.046979018
21	0xbde3a5dd	-0.1111562
22	0x3dee8d89	0.116480894
23	0xbcd3e129	-0.0258642
24	0xbdc5a5d6	-0.09650771
25	0xbd35a484	-0.044346347
26	0xbdc9c692	-0.098523274
27	0xbdb205b3	-0.08692493
28	0x3c4f57a9	0.012655177
29	0xbe00c2b7	-0.12574278
30	0x3e0ee278	0.13953578
31	0x3da69d56	0.08135478
32	0xbda616fa	-0.08109851
33	0xbd4fdd78	-0.05074832
34	0x3e369fb6	0.17834362
35	0xbda50635	-0.080578245
36	0x3e09dbac	0.13462704
37	0xbe000551	-0.12502028
38	0xbd6812ae	-0.05665844
39	0xbd2bccd4	-0.041943386
40	0xbb652b68	-0.00349685
41	0xbdcf0e39	-0.10110135
42	0xbd950d92	-0.07277979
43	0x3d3767b8	0.04477665
44	0xbd48bf72	-0.0490107
45	0x3e0391f2	0.12848642
46	0x3e2d6be3	0.16935687
47	0xbd453b51	-0.04815227
48	0xbe13e10d	-0.14441319
49	0x3d6dfb63	0.05810107
50	0x3db07f6e	0.08618055
51	0x3df3fa86	0.11913018
52	0x3c9fd7f2	0.01951215
53	0x3c9c265c	0.01906126
54	0x3bec6124	0.0072137285
55	0xbe3653af	-0.1780536
56	0xbcce2b8b	-0.025167247
57	0xbcdb7b17	-0.026792092
58	0x3bd8965b	0.0066097206
59	0x3d82900a	0.063751295
60	0x3d1861e7	0.037202742
61	0x3d3a7363	0.045520198
62	0xbd0c907c	-0.03431748
63	0x3d53a512	0.051671095
64	0x3e24b379	0.16084088
65	0x3d71d855	0.0590442
66	0xbd14470a	-0.03620056
67	0x3e22b137	0.15887915
68	0x3c46f5cb	0.012143563
69	0xbd5ba011	-0.053619448
70	0xbdd2392c	-0.10264811
71	0x3d5b5c0d	0.053554583
72	0xbd250c89	-0.040295158
73	0xbde2f2e2	-0.110814825
74	0x3d3ab266	0.04558029
75	0x3c242cf0	0.01002048
76	0x3e184990	0.14871812
77	0xbd15cc63	-0.03657187
78	0xbdf1e69e	-0.11811565
79	0x3d1d5f04	0.038420692
80	0xbc851416	-0.01624493
81	0xbcf42211	-0.0298014
82	0xbddf1b17	-0.10893839
83	0x3db3a8f8	0.087724626
84	0xbe09f2d9	-0.13471545
85	0x3e18a4fa	0.14906684
86	0x3d5fcc6c	0.05463831
87	0x3dccd38d	0.100012876
88	0x3e0d23b5	0.13783152
89	0x3cbaed3d	0.022818202
90	0xbb04b431	-0.0020249004
91	0xbd86db7c	-0.06584832
92	0x3d71d5dd	0.059041847
93	0x3e09c224	0.13452965
94	0xbd839b4e	-0.064261064
95	0xbd39fa70	-0.04540485
96	0x3e0c5a9f	0.13706444
97	0x3bbb3eea	0.005714287
98	0x3d6adfd1	0.057342354
99	0x3d7495a4	0.05971302
100	0xbcc22f51	-0.023704203
101	0x3c6e6f72	0.014552938
102	0xbd9ba478	-0.07599729
103	0xbddbd092	-0.10733141
104	0x3d1ed15f	0.03877389
105	0x3e23f377	0.16010843
106	0x3daa053a	0.08301778
107	0x3d3d3239	0.046190474
108	0xbdcb1aa8	-0.09917194
109	0xbe3885d3	-0.180198
110	0xbd9bc3b8	-0.0760569
111	0xbd8b1c0b	-0.06792458
112	0xbd15f5e3	-0.03661145
113	0xbd75688e	-0.059914164
114	0xbd810665	-0.06300048
115	0xbc7ca250	-0.015419558
116	0xbe0591bd	-0.13043876
117	0x3d3d92ff	0.046282765
118	0xbe2e6749	-0.17031588
119	0xbca00365	-0.019532869
120	0xbc21d4f6	-0.009877434
121	0xbd4d07bf	-0.050056215
122	0xbb7c5cb9	-0.0038507415
123	0xbdb00986	-0.085955665
124	0x3d8092ea	0.06278022
125	0x3cc02fbc	0.023460262
126	0xbdb3cbdf	-0.0877912
127	0x3cae9c89	0.021314876
128	0xbd0cc12c	-0.03436391
129	0xbd8a2ed5	-0.06747214
130	0xbcef2365	-0.029191682
131	0x3d0986ee	0.033575945
132	0x3dec256b	0.115305744
133	0xbd57da70	-0.052698553
134	0x3d5d6284	0.05404903
135	0xbd35b5b8	-0.044362754
136	0xbcf398bc	-0.029735915
137	0xbc122448	-0.008919783
138	0x3ce2c9f3	0.027684188
139	0xbd663518	-0.056202978
140	0xbe1a7751	-0.15084578
141	0x3cdee51f	0.027208863
142	0x3d3abc62	0.045589812
143	0x3e1d667e	0.15371129
144	0x3d785868	0.060631186
145	0x3d26044d	0.040531445
146	0x3d757eb3	0.059935283
147	0x3ca4fdea	0.020140607
148	0x3c8db857	0.017299814
149	0xbda9f30b	-0.0829831
150	0x3d1c2283	0.03811885
151	0xbe282daf	-0.16423677
152	0xbd905bc0	-0.0704875
153	0xbd596b76	-0.053081
154	0xbdfe22e7	-0.12409001
155	0xbe0950f6	-0.1340979
156	0x3d1c6fdd	0.03819262
157	0xbe34a926	-0.1764265
158	0x3e39f9d3	0.18161707
159	0x3dde54bf	0.10856008
160	0xbe0fd337	-0.14045416
161	0x3e243abb	0.16038029
162	0x3cb47492	0.022028241
163	0xbe236e84	-0.15960127
164	0x3d095e97	0.033537474
165	0x3bb84bdb	0.005624277
166	0xbd713175	-0.058885057
167	0x3d3360a6	0.043793343
168	0x3ddbc5e0	0.10731101
169	0xbdd92208	-0.10602194
170	0xbd1dbd2b	-0.038510483
171	0xbdd44a52	-0.10365738
172	0xbca252e2	-0.019814912
173	0x3e25ae37	0.16179739
174	0xbce0e6e2	-0.027453844
175	0xbd1ba3fb	-0.03799818
176	0xbcb537d7	-0.022121353
177	0xbcadc91f	-0.021214066
178	0x3de51296	0.111851856
179	0xbd3f641c	-0.04672633
180	0x3e302d9e	0.17204902
181	0x3de7c2a2	0.1131642
182	0x3d3c42cc	0.04596214
183	0xbe201cc4	-0.15635973
184	0xbd683b60	-0.05669725
185	0x3ddf9184	0.10916427
186	0xbb882c13	-0.0041556447
187	0x3d3d73ab	0.046252888
188	0xbe37c7c2	-0.17947295
189	0xbe3fedc9	-0.18743052
190	0x3d1bbcf1	0.038021985
191	0x3d5854f5	0.052815396
192	0xbd45b4e3	-0.04826821
193	0x3d98132b	0.07425531
194	0xbc1b6e78	-0.009486787
195	0xbdc3099a	-0.09523316
196	0x3ce92efe	0.02846479
197	0xbdbd070a	-0.09229858
198	0x3dd9b45e	0.106301054
199	0x3d11b33e	0.03557133
200	0xbe0e3b0f	-0.13889717
201	0x3dcf0c90	0.10109818
202	0xbb1d4910	-0.0023999847
203	0xbcf61101	-0.030037405
204	0xbd44fc7c	-0.04809235
205	0xbc06c579	-0.008225792
206	0xbcbc80f7	-0.023010714
207	0x3d620664	0.055181876
208	0x3dbb3334	0.091406256
209	0x3cd05572	0.025431368
210	0x3d2dfca3	0.04247726
211	0xbca46aec	-0.020070516
212	0xbc9e1e5f	-0.019301591
213	0x3cbf1ea6	0.023330044
214	0x3e28b125	0.16473825
215	0xbd7935a7	-0.060842182
216	0xbccc3458	-0.024927303
217	0x3e1770cc	0.14789122
218	0x3d81f02d	0.06344638
219	0xbe03ad85	-0.12859161
220	0xbdbf8d1f	-0.093530886
221	0xbe32dab7	-0.17466246
222	0x3df9c247	0.121952586
223	0x3e18f17c	0.14935869
224	0xbdaa0000	-0.08300781
225	0x3da2af1b	0.07943555
226	0x3d737821	0.059440736
227	0xbe1153d2	-0.14192131
228	0x3da53345	0.080664195
229	0x3cc3295b	0.02382343
230	0x3d586c65	0.052837748
231	0x3d3fab63	0.046794306
232	0x3d89366b	0.066998325
233	0x3d501bf3	0.050807904
234	0x3da55f23	0.080747865
235	0xbc8b69d8	-0.017018244
236	0x3ddaae3a	0.10677762
237	0x3ca04d44	0.019568093
238	0x3dfa11dc	0.12210438
239	0xbd857c08	-0.06517798
240	0xbe1d5d52	-0.1536763
241	0x3db21d2e	0.08696972
242	0x3d9f2c3d	0.0777211
243	0x3d71ecfb	0.059063893
244	0x3daffea3	0.0859349
245	0x3d42fd01	0.047604565
246	0x3dc13247	0.09433418
247	0x3c95c5c3	0.018282777
248	0xbdbd0bce	-0.09230767
249	0x3d3bdaa0	0.045862794
250	0x3d8d6ab7	0.0690512
251	0x3ce89a75	0.028393963
252	0xbe10f59e	-0.14156196
253	0xbd108e21	-0.035291795
254	0x3ddd1f86	0.10797028
255	0xbdc9f015	-0.09860245

Network.2.bias f4 [64]
0	0xbcad2820	-0.021137297
1	0x3de31611	0.11088193
2	0x3d66493e	0.056222193
3	0xbd187485	-0.037220497
4	0x3c8ca93d	0.017170543
5	0xbdcc080e	-0.09962474
6	0xbd6910f7	-0.056900945
7	0xbdb9ce73	-0.0907258
8	0xbd9c5097	-0.07632559
9	0x3ceb3967	0.028713895
10	0x3d872241	0.0659833
11	0xbdaa5bd5	-0.08318297
12	0x3d3871a3	0.045030247
13	0xbca7b45f	-0.02047175
14	0xbd0ffd6c	-0.03515379
15	0x3da69663	0.08134153
16	0xbcab6b6f	-0.020925252
17	0xbd5b7531	-0.05357856
18	0x3d75b958	0.05999121
19	0x3d6e5d40	0.0581944
20	0x3ddfd149	0.1092859
21	0xbd477427	-0.048694756
22	0xbc959cd1	-0.018263252
23	0x3de125e6	0.10993557
24	0x3d579ad4	0.05263789
25	0x3de25950	0.11052191
26	0x3dbe8593	0.09302821
27	0x3d97fee2	0.07421662
28	0x3dd79238	0.10525936
29	0xbd6e693c	-0.058205828
30	0xbda03956	-0.07823436
31	0xbdbd7d57	-0.09252422
32	0x3e18e4ce	0.14931032
33	0xbdc5591a	-0.096361354
34	0xbd82c394	-0.0638496
35	0x3d39327b	0.045214158
36	0x3c6e9cd5	0.014563759
37	0x3db4af67	0.08822518
38	0xbd90fb83	-0.07079222
39	0x3d7998d5	0.060936768
40	0xbd9439f3	-0.072376154
41	0xbdb9ea44	-0.09077886
42	0x3e172c43	0.14762978
43	0xbcd04052	-0.025421295
44	0x3bb3c1b4	0.0054857377
45	0x3dab63e9	0.08368666
46	0xbc51e167	-0.012810088
47	0xbdf08fdd	-0.1174619
48	0xbc6be86f	-0.014398678
49	0xbdd46fef	-0.10372912
50	0x3e14cc6e	0.14531109
51	0xbc49818f	-0.012298956
52	0x3e0a22ae	0.13489792
53	0x3d744f94	0.059646204
54	0x3c8038d0	0.01565209
55	0x3d9930ef	0.074800365
56	0x3d24b22d	0.040208984
57	0xbd15bdbf	-0.03655791
58	0x3d92a499	0.07160301
59	0xbd770db4	-0.060315803
60	0x3dfbf006	0.1230164
61	0x3c99b6be	0.018763896
62	0x3dc76325	0.09735707
63	0x3df5721b	0.119846545

Actor.weight f4 [5, 64]
0	0x3cdba09f	0.026809989
1	0xbcc81325	-0.024423191
2	0x3d574603	0.052557003
3	0xbe00399f	-0.1252198
4	0xbc48fe30	-0.012267634
5	0xbcd0f1ab	-0.025505861
6	0xbdc5ad52	-0.09652199
7	0xbbd0fb71	-0.0063776304
8	0x3ce8ecfe	0.02843332
9	0xbdf57464	-0.119850904
10	0x3dd3ec2a	0.10347779
11	0x3d926af3	0.07149305
12	0x3dfe97ba	0.12431283
13	0xbd5ba0e2	-0.053620227
14	0xbdb7e945	-0.089800395
15	0x3d9bfad7	0.07616203
16	0x3df3e03a	0.11908002
17	0xbd96d684	-0.07365134
18	0xbd989bf0	-0.07451618
19	0xbc23ac39	-0.009989792
20	0x3dd5e3b7	0.10443824
21	0xbca00676	-0.01953433
22	0xbdf6f305	-0.12058071
23	0xbd4fb499	-0.05070934
24	0xbd950ee1	-0.072782286
25	0x3dbc1897	0.09184378
26	0xbdc0a500	-0.09406471
27	0x3dc1045b	0.09424659
28	0x3d431548	0.047627717
29	0xbc2baf3e	-0.010478793
30	0xbcfd6168	-0.030930236
31	0x3d883244	0.066502124
32	0xbd8b12a0	-0.06790662
33	0xbd489c42	-0.048977144
34	0x3ddba8ee	0.1072558
35	0xbd424d41	-0.047436956
36	0x3c5f5cd6	0.013632974
37	0x3dcb3c12	0.09923567
38	0xbdc9ca4c	-0.09853038
39	0x3cb71491	0.022348674
40	0x3b7a1b57	0.0038163268
41	0xbd868086	-0.06567483
42	0x3dd110d4	0.10208288
43	0x3db0c78a	0.08631809
44	0xbc161aa2	-0.009161623
45	0xbc66f67b	-0.014096851
46	0x3d9f7185	0.07785324
47	0xbd2618ab	-0.04055087
48	0x3d922fa4	0.07137993
49	0xbdaccb4e	-0.08437215
50	0xbdd01f22	-0.10162188
51	0x3dab7463	0.083718084
52	0x3dab064b	0.0835081
53	0xbdc2d101	-0.095125206
54	0xbcd571cb	-0.026055237
55	0x3d5a0446	0.05322673
56	0x3d8e3e72	0.06945504
57	0x3d9c24b1	0.07624186
58	0x3db1aeea	0.0867594
59	0xbd6b35fe	-0.057424538
60	0x3cdf0df7	0.027228339
61	0x3ddc87a8	0.10768062
62	0xbdd3a6ed	-0.10334573
63	0x3da7961a	0.081829265
64	0x3c1b54dc	0.009480681
65	0x3ccade96	0.02476434
66	0x3dce267e	0.100659356
67	0xbd8fb069	-0.070160694
68	0xbc4a913b	-0.012363727
69	0xbde86868	-0.11348039
70	0x3db05aab	0.086110435
71	0xbde3224e	-0.110905275
72	0x3dbc32c3	0.091893695
73	0xbdee2c96	-0.11629598
74	0x3db80318	0.08984965
75	0xbdab06a9	-0.0835088
76	0x3db5ce97	0.088772945
77	0xbdd2f9a5	-0.10301522
78	0xbdce314e	-0.10067998
79	0xbc84558b	-0.016154071
80	0xbda4481e	-0.08021568
81	0x3dcd15df	0.10013937
82	0x3cd47381	0.025933983
83	0xbdb135bf	-0.086528294
84	0xbd92f7dd	-0.071761824
85	0xbd78b5ee	-0.060720377
86	0xba5da36a	-0.00084548315
87	0xbd1f5659	-0.038900707
88	0x3dc142dd	0.09436581
89	0xbd1f9204	-0.03895761
90	0x3d76a201	0.060213093
91	0x3ddce559	0.10785932
92	0xbd8e5cfe	-0.069513306
93	0xbda0a308	-0.07843596
94	0xbdcd0a6c	-0.100117534
95	0x3d3aee9b	0.04563771
96	0x3dee5d9b	0.116389476
97	0xbdc98a56	-0.098408386
98	0x3bcb571d	0.006205453
99	0x3dc60600	0.09669113
100	0x3def309a	0.11679192
101	0x3dbba28a	0.09161861
102	0x3ca716c0	0.02039659
103	0xba762f05	-0.0009391162
104	0x3cff6001	0.031173708
105	0x3e06143b	0.13093655
106	0x3ce02f32	0.027366254
107	0x3d8b1f83	0.0679312
108	0xbcde2ec7	-0.027121915
109	0x3dfa196a	0.122118786
110	0xbe1295de	-0.14314982
111	0xbd802bc3	-0.06258347
112	0xbe10f97f	-0.14157675
113	0x3c4190f1	0.011814342
114	0xbbe7c79d	-0.0070733563
115	0xbdff4b85	-0.12465576
116	0xbd947286	-0.07248406
117	0x3c5fe61a	0.0136657
118	0x3d92d032	0.07168616
119	0x3e00fd4e	0.12596628
120	0x3d81521d	0.0631449
121	0xbda5562b	-0.08073076
122	0x3dae949e	0.0852444
123	0x3dcc32af	0.09970605
124	0x3cc977a3	0.02459318
125	0xbdce5cb7	-0.10076278
126	0xbd88a175	-0.066714205
127	0xbdbcc135	-0.09216539
128	0x3d29bd75	0.041440446
129	0x3da5791a	0.08079739
130	0x3dd35323	0.103185914
131	0xbd24aae3	-0.040202033
132	0xbd9f9c67	-0.07793503
133	0x3d5a4671	0.053289834
134	0xbd3a5c2e	-0.045498066
135	0x3c307fcb	0.010772656
136	0x3d75bb89	0.0599933
137	0xbcb3ff2d	-0.021972263
138	0x3cc10f53	0.023566877
139	0x3b5ffa1a	0.0034176172
140	0x3e0ba782	0.13638118
141	0xbda64c1e	-0.08119987
142	0x3e02da11	0.12778498
143	0x3d7785b5	0.060430247
144	0xbe02ae05	-0.12761696
145	0x3d514d60	0.05109918
146	0x3c14bc89	0.009078153
147	0x3da3eff6	0.08004753
148	0x3d8dfefe	0.069334015
149	0xbd3682d7	-0.044558372
150	0xbd451acd	-0.048121262
151	0xbde25f2d	-0.110533096
152	0x3d8bcdb2	0.06826343
153	0xbe003c70	-0.12523055
154	0xbdcaec32	-0.09908332
155	0x3dbbe43b	0.09174391
156	0x3d2be392	0.041965075
157	0x3d822530	0.06354749
158	0x3dac7056	0.08419864
159	0xbe0441be	-0.12915704
160	0xbd2b5f91	-0.041839186
161	0x3c366062	0.011131378
162	0x3dc283b3	0.09497776
163	0xbd679352	-0.05653698
164	0xbd03e466	-0.03220024
165	0x3d4d088a	0.05005697
166	0x3db4e06e	0.08831869
167	0xbd773fd8	-0.06036362
168	0xbe09da6a	-0.13462225
169	0xbd8c71d0	-0.068576455
170	0x3c794cc2	0.015216054
171	0x3dc69d6c	0.096979946
172	0x3d9e1d75	0.07720462
173	0x3d4ff13d	0.050767172
174	0x3d78f4a5	0.060780186
175	0xbc1bc5b9	-0.00950759
176	0x3a2d296a	0.00066055974
177	0x3e0032b9	0.12519349
178	0x3a891cbb	0.0010460833
179	0x3d458f1a	0.048232175
180	0x3d52f80c	0.051506087
181	0x3de3e886	0.11128335
182	0x3d7a58f7	0.06112
183	0xbd0bf0d0	-0.034165204
184	0xbd0bffa9	-0.034179363
185	0xbdbd48cc	-0.092424005
186	0xbd262728	-0.040564686
187	0x3e0113b7	0.12605177
188	0x3da07fa1	0.07836843
189	0xbdb46c64	-0.08809736
190	0x3da16320	0.07880235
191	0xbd5a4cd1	-0.053295914
192	0xba9b259d	-0.0011836771
193	0x3c417054	0.011806566
194	0xbd96bfb8	-0.07360786
195	0xbd481ae0	-0.048853755
196	0xbd47f7e0	-0.048820376
197	0xbc14025b	-0.009033765
198	0x3db6f854	0.089340836
199	0xbaf4f724	-0.0018689376
200	0xbda166dc	-0.07880947
201	0xbda142dd	-0.07874081
202	0x3dc2efcf	0.09518396
203	0x3daab5ec	0.0833548
204	0xbdc92c37	-0.098228864
205	0xbd9a51f3	-0.07535162
206	0xbd5128b9	-0.051064227
207	0x3daa3ba3	0.08312156
208	0x3d46d25a	0.04854045
209	0x3d890432	0.06690253
210	0x3dcbe57e	0.099558815
211	0x3d401c67	0.046902087
212	0x3d7a6c12	0.06113822
213	0xbd95af06	-0.07308774
214	0x3e012b39	0.12614144
215	0x3d08d4e2	0.033406146
216	0x3c625eb3	0.013816523
217	0x3d57affd	0.05265807
218	0xbd594e7c	-0.053053364
219	0xbdade5dd	-0.084911086
220	0xbd7c1115	-0.06153973
221	0xbdf7abf1	-0.12093342
222	0xbcec728d	-0.028863216
223	0x3d1a5033	0.03767414
224	0x3c3390c0	0.010959804
225	0x3cb31747	0.021861685
226	0x3c8e1ddb	0.01734822
227	0xbe0eec6a	-0.13957372
228	0xbde31be9	-0.11089308
229	0xbe0baebd	-0.13640876
230	0x3e1c5077	0.1526507
231	0xbdaf383f	-0.0855565
232	0x3cf0387c	0.029323809
233	0x3d822638	0.06354946
234	0xbd83251a	-0.06403561
235	0xbd41724c	-0.047228143
236	0x3e02baf0	0.12766623
237	0xbe0431ac	-0.12909573
238	0xbdc6c86a	-0.09706195
239	0x3c184495	0.009293695
240	0x3c2bb6ae	0.010480566
241	0xbcdd7d27	-0.027037216
242	0xbca11ff1	-0.019668551
243	0x3dc00942	0.09376766
244	0x3d1f76ad	0.038931537
245	0x3d873c4c	0.066032976
246	0x3df0b7a0	0.11753774
247	0xbdaee437	-0.08539622
248	0x3d17c7da	0.037055828
249	0x3cb7de93	0.022444999
250	0x3d88fb34	0.06688538
251	0xbc887037	-0.01665507
252	0x3d9a68b7	0.07539504
253	0xbdfbfee0	-0.12304473
254	0xbdb9e4dc	-0.090768546
255	0xbe14dbd0	-0.14536977

Actor.bias f4 [5]
0	0x3d82da53	0.06389298
1	0x3dbdc89d	0.092667796
2	0xbc18b250	-0.009319857
3	0xb908ceed	-0.00013047057
4	0xbcf8ad27	-0.030356003

Critic.weight f4 [1, 64]
0	0xbdfb2475	-0.12262813
1	0x3e374ac3	0.17899613
2	0xbe00c2a7	-0.12574254
3	0xbe16aa4e	-0.14713404
4	0x3e205288	0.15656483
5	0xbdfdca6f	-0.12392127
6	0xbdcc7e9d	-0.09985087
7	0xbe121613	-0.14266233
8	0xbdf0917f	-0.11746501
9	0xbe182f3b	-0.14861767
10	0x3e5ada11	0.21372248
11	0xbe48ca4a	-0.19608417
12	0xbe52be8a	-0.20580497
13	0xbe0c31b4	-0.13690835
14	0xbddba8a7	-0.10725527
15	0x3e5007d7	0.2031549
16	0x3e01a658	0.12661111
17	0xbde63449	-0.11240441
18	0xbe748052	-0.23877075
19	0xbe2c5e1f	-0.1683278
20	0x3e141280	0.14460182
21	0xbe1f0d0b	-0.15532319
22	0xbe448ead	-0.19195051
23	0x3e09c0fa	0.13452521
24	0x3e51e370	0.20496917
25	0x3e00b71a	0.12569848
26	0x3e547bdc	0.20750374
27	0x3e5da632	0.2164543
28	0x3def2ff4	0.11679068
29	0x3e745cee	0.23863575
30	0x3e23a485	0.15980728
31	0x3e1b360e	0.15157339
32	0x3df66f7e	0.12032984
33	0xbe67c836	-0.22634968
34	0x3e2b4e2d	0.1672904
35	0x3e5b3685	0.21407516
36	0x3e10dbda	0.14146367
37	0x3def30ac	0.11679205
38	0xbe0d8332	-0.13819578
39	0xbe58f20f	-0.21186088
40	0x3e0f4e66	0.1399475
41	0x3e256565	0.1615196
42	0x3e27a1e2	0.16370347
43	0x3e68ae13	0.22722654
44	0xbe3a90b4	-0.18219262
45	0x3e5ebd2b	0.2175185
46	0xbe1256b8	-0.14290893
47	0xbe17e108	-0.14831936
48	0xbe306a43	-0.17228036
49	0xbe405d38	-0.1878556
50	0x3e189b42	0.14902976
51	0xbe107fd6	-0.14111266
52	0x3e0b39c3	0.13596253
53	0xbe740a6c	-0.238321
54	0xbe27330c	-0.16328067
55	0x3e35baa7	0.17746983
56	0xbe330141	-0.17480947
57	0x3e5312c6	0.2061263
58	0xbe476d6a	-0.19475332
59	0xbe453383	-0.19257931
60	0x3e455ae4	0.19272953
61	0x3e631805	0.22177131
62	0x3e3e1120	0.1856122
63	0x3e32dfea	0.17468229
