ppo_highway_agent1.pth (torch, 768402 bytes, 9 tensors)

Network.0.weight f4 [512, 50]
-0.017817365 0.029063461 -0.0498014 0.02241147 -0.017880553 -0.03506779 0.10583222 -0.08408813
0.03222788 -0.059939496 0.09672521 -0.006823907 -0.012707914 0.096656725 0.085399956 0.03923817
0.0075526214 -0.09688414 -0.012216527 0.006845151 0.029319309 -0.013081502 0.027944785 0.063484654
0.002314462 0.044012267 -0.14193809 -0.028499488 -0.10448968 -0.046512272 -0.015286397 -0.030074716
0.023825517 -0.044149473 -0.012852626 -0.0466556 0.0275851 -0.036213644 -0.117696464 0.025903147
-0.017534554 0.073589206 -0.117094345 0.10207486 -0.07341678 -0.006063049 0.04484095 0.027756661
-0.010303779 0.120172866 0.01416947 -0.052286737 0.051066115 0.058620594 -0.075681254 0.07970596
-0.06289587 -0.03163421 -0.06858939 -0.008115248 0.06680661 0.029663345 -0.042708255 -0.11577347
-0.15547392 -0.14065579 -0.058847748 0.017685916 -0.017766306 -0.011095467 -0.051921155 -0.082988895
0.05432625 0.05949167 0.08639182 -0.024460549 0.030232392 0.093614794 0.010046273 -0.031411022
-0.021496613 -0.08022664 -0.042051192 0.015332887 -0.0036585254 0.08755409 -0.08626004 0.0033441377
0.009280791 -0.022052398 -0.03555099 -0.039901506 0.0029902947 -0.024383387 -0.08820639 -0.0074527366
-0.09627149 -0.011602971 -0.10297594 0.004226752 -0.022865586 -0.022584958 0.030619156 -0.075362064
-0.0099948235 -0.09807162 -0.040653005 -0.049010783 -0.10339353 -0.011729021 -0.006030482 0.009946326
0.072691575 -0.06989745 -0.0009963682 0.009221338 -0.09805207 -0.008768331 0.07927513 0.010820026
-0.00039325142 -0.07763212 -0.023815546 -0.058040965 0.069946095 0.079332 0.00745862 0.0276781
-0.001207472 0.065443866 0.048008345 0.018451458 -0.112100035 -0.0016886895 -0.043943502 -0.011162901
-0.023813447 -0.029918425 -0.0391055 0.008149129 0.017043767 0.042067245 -0.05975817 -0.019249016
0.04579492 -0.048690133 0.062665924 0.0029046189 -0.0027742842 0.026567318 -0.024893181 -0.11565277
0.07419173 -0.088771395 0.07595161 -0.07609475 0.032165498 -0.034118794 0.008482042 0.033067428
-0.059554316 -0.02543287 0.055800032 0.053215403 0.014004807 -0.0935563 -0.005041869 -0.009808665
0.10045858 0.052486945 0.010238853 0.011022546 -0.030589936 -0.003976822 0.068694256 -0.044171974
0.027855836 0.0319332 0.0884748 -0.004792084 0.006442807 0.09632298 -0.058526732 0.06641266
-0.046502676 -0.08386758 -0.06600915 -0.21852884 -0.062591374 0.06104369 -0.02734955 -0.07923645
-0.08436838 -0.07172802 0.04878706 0.08178554 -0.194029 0.08049003 -0.0594539 -0.04648561
-0.055894326 0.016446272 0.0037094352 0.053922083 0.028101025 -0.06542723 -0.017667638 -0.010062178
-0.01063522 -0.09521008 -0.11541361 0.034595158 0.05401788 -0.056601144 0.16549084 -0.04744908
0.10096343 0.10790478 -0.089533366 -0.02727263 -0.10082659 0.06578169 -0.048225068 -0.11230811
0.05057402 -0.04000536 -0.040385757 -0.057610877 -0.17118777 0.082430765 -0.021141842 0.0048531354
0.12662068 -0.0885845 0.07149973 -0.04246327 -0.0017276456 -0.0185933 0.04197794 0.18605298
0.004858856 -0.019157726 0.014300209 -0.040089108 -0.061694458 0.04328718 -0.021278119 -0.027310375
0.056161515 -0.057596393 0.011770111 0.011982369 -0.100193754 0.019264402 -0.04773263 -0.026363136
00000000: b9f5 91bc 7f16 ee3c 8efc 4bbd 4298 b73c
00000010: 3d7a 92bc 3ea3 0fbd 90be d83d 6636 acbd
00000020: 6201 043d 1e83 75bd de17 c63d 159b dfbb
00000030: db34 50bc f6f3 c53d 2ce6 ae3d 34b8 203d
00000040: fb7b f73b 316b c6bd d427 48bc 4a4d e03b
00000050: 0c2f f03c cc53 56bc 76ec e43c 3e04 823d
00000060: 3bae 173b 3546 343d 3858 11be c277 e9bc
00000070: affe d5bd a783 3ebd cc73 7abc 405f f6bc
00000080: bb2d c33c 14d6 34bd d293 52bc f119 3fbd
00000090: 26fa e13c c254 14bd d80a f1bd d632 d43c
000000a0: a0a4 8fbc f0b5 963d 29cf efbd a00c d13d
000000b0: 895b 96bd 8bac c6bb 25ab 373d f061 e33c
000000c0: 2ed1 28bc 311d f63d 1127 683c 9e2a 56bd
000000d0: b42a 513d 261c 703d c6fe 9abd e13c a33d
000000e0: 8dcf 80bd e092 01bd 9878 8cbd d1f5 04bc
000000f0: e7d1 883d 8b00 f33c daee 2ebd a41a edbd
00000100: 8e34 1fbe 1208 10be 560a 71bd 0ee2 903c
00000110: a58a 91bc c3c9 35bc 47ab 54bd 15f6 a9bd
00000120: 3485 5e3d 8aad 733d 32ee b03d 7d61 c8bc
00000130: eca9 f73c 1db9 bf3d 1f99 243c d8a8 00bd
00000140: aa19 b0bc dd4d a4bd df3d 2cbd ca36 7b3c
00000150: dfc3 6fbb 8f4f b33d 1ba9 b0bd 5229 5b3b
00000160: 750e 183c 3ba7 b4bc ea9d 11bd c36f 23bd
00000170: d2f8 433b abbf c7bc 8da5 b4bd 1636 f4bb
00000180: fd29 c5bd 631a 3ebc 0de5 d2bd 9180 8a3b
00000190: 9c50 bbbc 1704 b9bc 06d5 fa3c 6d57 9abd
000001a0: 54c1 23bc c6d9 c8bd c483 26bd 88bf 48bd
000001b0: fdbf d3bd 142b 40bc 599b c5bb eaf5 223c
000001c0: 52df 943d 6526 8fbd 9298 82ba 1815 173c
000001d0: 86cf c8bd 0ca9 0fbc 005b a23d 7a46 313c
000001e0: 502d ceb9 97fd 9ebd d218 c3bc 5dbc 6dbd
000001f0: e63f 8f3d d178 a23d 7067 f43b 2fbd e23c
00000200: 0a44 9eba 6f07 863d 66a4 443d 8327 973c
00000210: b494 e5bd 0457 ddba 1afe 33bd 9ae4 36bc
00000220: 6b14 c3bc 7c17 f5bc 172d 20bd ed83 053c
00000230: 5f9f 8b3c b44e 2c3d fcc4 74bd 1db0 9dbc
00000240: 7493 3b3d 4e6f 47bd fe56 803d 6b5b 3e3b
00000250: c4d0 35bb b4a3 d93c c9ec cbbc 5cdb ecbd
00000260: d5f1 973d c7cd b5bd 858c 9b3d 90d7 9bbd
00000270: f8bf 033d 26c0 0bbd 43f8 0a3c b671 073d
00000280: 3aef 73bd 9858 d0bc 938e 643d 65f8 593d
00000290: 6b74 653c 729a bfbd 4336 a5bb 86b4 20bc
000002a0: 3abd cd3d 8dfc 563d ddc0 273c e997 343c
000002b0: bf97 fabc 0050 82bb 93af 8c3d aced 34bd
000002c0: ec31 e43c 63cc 023d 4732 b53d ea06 9dbb
000002d0: 2f1e d33b fc44 c53d bab9 6fbd 5c03 883d
000002e0: 9779 3ebd c4c2 abbd ce2f 87bd 06c6 5fbe
000002f0: e82f 80bd f308 7a3d 2a0c e0bc b846 a2bd
00000300: 54c9 acbd 24e6 92bd f1d4 473d 2d7f a73d
00000310: 8aaf 46be f5d7 a43d ef85 73bd b267 3ebd
00000320: 73f1 64bd 55ba 863c ff19 733b 67dd 5c3d
00000330: 1f34 e63c b6fe 85bd b9bb 90bc d5db 24bc
00000340: 593f 2ebc 81fd c2bd f95d ecbd a7b3 0d3d
00000350: da41 5d3d 9ad6 67bd 6e76 293e f759 42bd
00000360: eac5 ce3d 2efd dc3d 455d b7bd da6a dfbc
00000370: 2c7e cebd 8db8 863d a687 45bd cb01 e6bd
00000380: b426 4f3d a9dc 23bd 896b 25bd 62f9 6bbd
00000390: d94b 2fbe 76d1 a83d a831 adbc 0d07 9f3b
000003a0: daa8 013e ca6b b5bd 736e 923d f7ed 2dbd
000003b0: 2b72 e2ba fa50 98bc 0ff1 2b3d ac84 3e3e
000003c0: 0a37 9f3b aaf0 9cbc 6c4b 6a3c 7a34 24bd
000003d0: 54b3 7cbd e64d 313d 734f aebc 02ba dfbc
000003e0: 9e09 663d 32ea 6bbd 6cd7 403c b351 443c
000003f0: 6232 cdbd 61d0 9d3c 4a83 43bd 81f7 d7bc

Network.0.bias f4 [512]
-0.004942698 0.0057478645 -0.008258542 -0.009759415 -0.011067892 -0.010528062 0.00018106293 -0.0059820274
-0.0035703774 -0.0057787276 -0.008235477 0.0070359265 -0.008627358 -0.009280939 0.010335509 -0.018892996
-0.0025519172 -0.019009318 -0.008262336 0.005436624 -0.001983696 -0.00064274133 -0.007098674 -0.0058282376
-0.0032295187 -0.0039172866 -0.006826248 0.010700235 -0.0042663943 0.01097553 0.008267114 0.0030812337
-0.0074892687 -0.0017102282 0.0025065087 0.010882072 -0.0111389365 -0.004897756 0.008080681 -0.0072382395
0.006359148 -3.524607e-05 -0.010406081 -0.0061687627 0.01043829 0.0060559735 -0.007925597 -0.0056809103
-0.009270393 0.009050926 0.009662256 -0.008323073 -0.008541758 -0.011012828 -0.010775492 -0.00053230027
-0.001478774 -0.007858269 0.004705655 -0.007456547 -0.004459757 -0.0074004848 0.0037723726 -0.009808052
-0.009276881 0.004455683 0.0060859583 -0.010368787 0.009736283 0.010766537 -0.00089843717 -0.0038978185
-0.005475117 0.010271726 -0.01085389 -0.0076963576 -0.011228456 -0.007602215 -0.01094588 0.0110579925
-0.008643297 0.012063968 -0.008669156 0.0095406845 0.012658014 0.006518283 -0.00697 0.009259786
-0.0036897175 0.008055595 0.011976162 -0.008023672 -0.005891457 0.011726235 0.013741618 -0.011213385
0.0019067565 -0.0028530702 -4.6678274e-06 0.009418918 -0.0068023303 -0.010597467 -0.0066709854 0.007648676
0.007738091 -0.010229681 0.0065976246 0.008667334 -0.011378838 0.010881777 0.01006621 0.0027242012
-0.012254588 0.00516907 0.009691714 0.007482322 0.009832708 -0.0071320017 -0.0062781447 0.010306368
0.0045530098 0.0050589438 0.01224227 0.0111301765 0.0049367435 -0.009375753 -0.0035469104 0.011238625
0.0031112607 0.0012308451 0.011605566 -4.14069e-06 0.0016136202 0.0017802906 0.001550666 0.010093895
-0.010270883 -0.010143833 -0.008354163 -0.009225234 -0.007136369 0.005112984 0.0066143787 -0.006230261
0.010996823 0.012961522 0.010239825 -0.0035520128 0.009593727 0.009763248 -0.012219463 -0.009744276
-0.013012439 0.0033975586 0.007013056 -0.004592615 0.0063745147 0.0067021796 -0.007898123 -0.0072318963
-0.0020224324 0.008667199 -0.0041359053 0.0021698924 0.009766678 -0.0059718085 0.0081623765 -0.008659716
-0.0050941156 0.007986049 -0.010801588 -0.013718308 0.006540608 0.010075095 0.0079162065 -0.0067685284
0.008477002 0.0036373595 -0.007705185 0.01142538 -0.009775763 0.009994776 -0.005521652 -0.010471591
0.0005016699 0.008092321 0.0010763634 0.0027426253 -0.0049031246 -0.0014058055 -0.0067044613 0.0031109352
-0.008624083 0.0091762105 0.0077579226 0.006685869 -0.0058798785 -0.009090607 -0.0024874434 0.004563186
0.0026025241 0.008766686 -0.0035798813 0.009654107 -0.009867319 0.007825879 -0.009519055 -0.008159721
0.00980408 -0.0015393886 0.012265905 -0.008395793 0.002398634 0.0062897075 -0.00805929 -0.0070153857
-0.008514305 -0.011669233 0.0064377454 -0.005296284 0.009943598 0.01069895 0.0077340207 -0.0051792087
-0.011526515 -0.011585851 -0.0068357135 -0.0038240328 -0.00024638197 -8.3734085e-05 -0.009823099 -0.009711954
-0.00442425 0.009696696 -0.008877649 -0.006059227 -0.009721807 -0.0053323875 0.007902756 0.008311316
-0.009636628 0.008477047 0.009644659 0.009811956 -0.007016712 -0.0035414705 0.009465221 0.00038196731
-0.00984545 0.010882929 -0.008495715 -0.014671237 0.010073021 0.008908754 -0.0038572745 0.010785997
00000000: 5bf6 a1bb 9558 bc3b d64e 07bc f4e5 1fbc
00000010: 1b56 35bc e47d 2cbc b6db 3d39 e204 c4bb
00000020: fefc 69bb 7b5b bdbb 18ee 06bc a18d e63b
00000030: c359 0dbc 140f 18bc 4456 293c 7cc5 9abc
00000040: 113e 27bb 6eb9 9bbc c05e 07bc b525 b23b
00000050: e500 02bb a47d 28ba fe9b e8bb cdfa bebb
00000060: 55a6 53bb 955c 80bb b8ae dfbb 0a50 2f3c
00000070: 1ccd 8bbb b6d2 333c ca72 073c 86ee 493b
00000080: 8a68 f5bb bc29 e0ba 3d44 243b b84a 323c
00000090: 1680 36bc 5b7d a0bb d564 043c c12e edbb
000000a0: 6660 d03b 2ed5 13b8 447e 2abc 5523 cabb
000000b0: 5d05 2b3c 3071 c63b 5dda 01bc ee26 babb
000000c0: d9e2 17bc 564a 143c 704e 1e3c 805d 08bc
000000d0: bbf2 0bbc 266f 34bc b08b 30bc 118a 0bba
000000e0: 6cd3 c1ba f8bf 00bc e531 9a3b 0d56 f4bb
000000f0: 2723 92bb c47f f2bb e939 773b f4b1 20bc
00000100: 0ffe 17bc fa00 923b b86c c73b d8e1 29bc
00000110: ee84 1f3c 2166 303c 1985 6bba 8b72 7fbb
00000120: 9c68 b3bb be4a 283c 84d4 31bc ba31 fcbb
00000130: 8ff7 37bc 001c f9bb 5956 33bc 952c 353c
00000140: 9d9c 0dbc f3a7 453c 1309 0ebc 8850 1c3c
00000150: 8f63 4f3c 5297 d53b 9964 e4bb 5cb6 173c
00000160: 30cf 71bb 9dfb 033c aa37 443c b875 03bc
00000170: 200d c1bb 651f 403c 8624 613c 58b8 37bc
00000180: 22ec f93a 93fa 3abb 55a0 9cb6 ce51 1a3c
00000190: 15e6 debb 00a1 2dbc 4898 dabb bfa1 fa3b
000001a0: d08f fd3b 649a 27bc e330 d83b 6f01 0e3c
000001b0: 4e6e 3abc 7b49 323c bfec 243c 8388 323b
000001c0: 78c7 48bc 4d61 a93b ffc9 1e3c 442e f53b
000001d0: 5e19 213c 91b3 e9bb e5b8 cdbb 0adc 283c
000001e0: 6a31 953b 7fc5 a53b cd93 483c 585b 363c
000001f0: 68c4 a13b c29c 19bc 4873 68bb 3622 383c
00000200: 4be6 4b3b 4f54 a13a 4625 3e3c 42f0 8ab6
00000210: 1c80 d33a a458 e93a b83f cb3a dd60 253c
00000220: 3547 28bc 5232 26bc e6df 08bc 7025 17bc
00000230: 34d8 e9bb d28a a73b 6ebd d83b 3827 ccbb
00000240: 052c 343c 905c 543c f0c4 273c e3c8 68bb
00000250: 022f 1d3c 08f6 1f3c 2434 48bc 75a6 1fbc
00000260: 2032 55bc 93a9 5e3b c7cd e53b a67d 96bb
00000270: 4ee1 d03b f59d db3b 2167 01bc 8bf9 ecbb
00000280: c98a 04bb de00 0e3c 7d86 87bb c134 0e3b
00000290: 6b04 203c 29af c3bb 7dbb 053c 7be1 0dbc
000002a0: 8aec a6bb ebd7 023c 25f9 30bc c1c2 60bc
000002b0: 9952 d63b 0312 253c fab2 013c 88ca ddbb
000002c0: 20e3 0a3c c460 6e3b c77b fcbb 8431 3b3c
000002d0: 862a 20bc 21c1 233c f9ee b4bb 0991 2bbc
000002e0: 7f82 033a a895 043c c314 8d3a 9ebd 333b
000002f0: 64aa a0bb 0143 b8ba 19b1 dbbb d5e0 4b3b
00000300: 074c 0dbc d157 163c 2c36 fe3b 2215 db3b
00000310: ffab c0bb c5f0 14bc 6004 23bb c786 953b
00000320: 1c8f 2a3b 25a2 0f3c 719c 6abb 422c 1e3c
00000330: 89aa 21bc 1e38 003c cff5 1bbc 5ab0 05bc
00000340: 4ba1 203c 4fc5 c9ba eff6 483c 828e 09bc
00000350: 6732 1d3b e419 ce3b 1d0b 04bc 52e1 e5bb
00000360: 957f 0bbc 5030 3fbc b9f3 d23b 738c adbb
00000370: 79ea 223c a64a 2f3c ab6d fd3b 5ab6 a9bb
00000380: b5d9 3cbc 95d2 3dbc 1ffe dfbb a09c 7abb
00000390: d42c 81b9 659a afb8 10f1 20bc e31e 1fbc
000003a0: 4df9 90bb e4de 1e3c 8f73 11bc 7b8c c6bb
000003b0: 3748 1fbc 4fbb aebb 907a 013c 302c 083c
000003c0: f3e2 1dbc 50e3 0a3c a204 1e3c 54c2 203c
000003d0: 72ec e5bb 0418 68bb 0414 1b3c c942 c839
000003e0: cf4e 21bc 504e 323c 9d31 0bbc a15f 70bc
000003f0: 5009 253c 06f6 113c 54ca 7cbb c0b7 303c

Network.2.weight f4 [256, 512]
0.0746536 0.047092054 0.0008979935 0.024237342 -0.15534203 0.070658356 -0.059002053 0.05961903
-0.12678716 0.06682657 0.013689041 -0.07092977 0.18002594 -0.16356955 -0.037327807 -0.057949707
-0.052621882 0.008732233 0.104410246 0.005782352 -0.04676308 0.036446813 0.014745517 0.0765155
0.06816861 -0.009795004 0.07624159 -0.14567278 -0.056980755 -0.02997245 -0.0002545848 0.049872022
-0.04871005 0.056128874 -0.05237985 -0.04911228 -0.010086533 -0.016548455 -0.02584529 0.008299208
-0.05813794 -0.005454653 -0.03586339 0.046911012 0.0262977 -0.14541468 -0.022519216 -0.07778963
0.09421579 -0.050241854 -0.06539195 0.06961221 0.07805042 0.0612791 0.06716072 -0.07789338
-0.040125724 -0.16721277 -0.024737472 -0.07195718 0.040585045 0.0036503864 -0.0430437 0.08437351
-0.08483198 0.13139 -0.005820458 0.0010000757 0.03132796 -0.1135924 0.033354606 0.19144952
0.033980552 0.016258204 0.045036998 -0.009281709 0.005155955 0.097430505 -0.16081393 0.001163815
0.031906854 0.040440284 0.012113416 -0.08637384 0.0046658553 0.018006852 -0.065157354 0.10997084
-0.025842296 -0.027328918 -0.057699315 -0.030256568 0.0069913557 -0.011258412 -0.11813545 0.06582801
0.16771351 -0.058618233 -0.08058741 0.15743852 0.101185665 -0.08181596 0.03444034 -0.074133515
-0.05360834 -0.023617974 0.019957086 -0.014412898 0.05908717 0.01474383 0.065247655 -0.030963536
-0.04565319 0.038832683 0.0420628 -0.066582344 0.06501733 -0.029681724 -0.07797819 -0.0071279746
0.0005782901 0.011825163 0.029025657 0.021093322 -0.041914277 3.0686333e-05 0.0031402397 -0.123238705
0.020416843 -0.043226417 -0.027493738 0.015445046 0.08141713 0.033723596 -0.15468705 -0.07324075
-0.13451158 0.05935282 0.024484757 0.034889586 -0.067593835 0.13521807 -0.033964433 -0.0002705692
0.013756869 -0.049053222 0.0091468915 -0.021384066 -0.0037575269 0.008500072 0.060599975 -0.052782528
-0.03398897 -0.009621672 0.008138542 0.008765177 -0.038120676 -0.06291364 0.0080356 0.09006139
0.048700962 0.013405581 -0.095147476 0.10733605 -0.10913243 -0.06756574 -0.038493257 -0.02924322
-0.049179852 0.057717957 -0.009132203 0.031372845 -0.01651642 0.04820602 -0.08817581 -0.012318943
-0.0067647016 0.049544953 0.07301322 -0.027312972 0.027320838 0.011183901 -0.06388415 -0.004540246
-0.067227945 -0.024434764 -0.16267778 -0.026666416 -0.08285272 -0.014460932 0.065746464 -0.00799942
-0.011582695 0.03874121 -0.012960772 -0.03370585 -0.0787324 0.089634195 0.0388074 -0.0840227
-0.020382212 -0.11840661 0.038664103 -0.011415744 0.008954321 -0.025968147 -0.064685844 0.00926394
-0.09405321 0.01824757 -0.09137497 0.002192106 -0.0944588 -0.08616489 -0.01735177 -0.074958086
0.01296345 0.13525477 -0.09141092 -0.020054424 -0.018643597 -0.010222051 -0.010787014 -0.09845247
0.042336028 -0.03227954 -0.0011974343 0.018325752 0.097644545 -0.06407614 0.05161311 0.01234827
-0.008205716 -0.041892666 0.08038111 -0.050994404 0.010889574 0.010030309 0.010572059 -0.13104314
0.016211 0.0140529 -0.03717658 0.03164499 -0.010560456 0.039853893 -0.037198216 0.050254114
-0.10760276 0.055003252 -0.102331966 -0.018983496 0.0022634026 0.04643176 0.053787716 -0.0752927
00000000: fde3 983d 99e3 403d 5367 6b3a 648d c63c
00000010: fb11 1fbe 54b5 903d 23ac 71bd 1633 743d
00000020: 7ed4 01be 5edc 883d 0048 603c a143 91bd
00000030: b858 383e c77e 27be 0be5 18bd ac5c 6dbd
00000040: 0b8a 57bd a411 0f3c 0ad5 d53d e279 bd3b
00000050: a58a 3fbd 4149 153d 2e97 713c 29b4 9c3d
00000060: fc9b 8b3d 397b 20bc 8d24 9c3d 3f2b 15be
00000070: a764 69bd c988 f5bc cb79 85b9 9b46 4c3d
00000080: 3084 47bd 64e7 653d 418c 56bd f529 49bd
00000090: fc41 25bc a090 87bc 80b9 d3bc 67f9 073c
000000a0: 0c22 6ebd f2bc b2bb 7de5 12bd c325 403d
000000b0: 466e d73c 96e7 14be 387a b8bc 2b50 9fbd
000000c0: 35f4 c03d 67ca 4dbd 37ec 85bd d990 8e3d
000000d0: e6d8 9f3d cbff 7a3d 8f8b 893d 9086 9fbd
000000e0: df5a 24bd d339 2bbe 3da6 cabc 495e 93bd
000000f0: 813c 263d 523b 6f3b 974e 30bd 05cc ac3d
00000100: 64bc adbd 1a8b 063e 8ab9 bebb f914 833a
00000110: bf51 003d 22a3 e8bd d79e 083d 580b 443e
00000120: 312f 0b3d ed2f 853c b778 383d 4f12 18bc
00000130: 49f3 a83b a589 c73d 68ac 24be 278b 983a
00000140: c3b0 023d b6a4 253d 5977 463c c5e4 b0bd
00000150: 08e4 983b 1b83 933c 3871 85bd 6438 e13d
00000160: 39b3 d3bc e5e0 dfbc 1e56 6cbd 9fdc f7bc
00000170: be17 e53b 3475 38bc 00f1 f1bd d6d0 863d
00000180: 17bd 2b3e ac19 70bd 030b a5bd 9037 213e
00000190: 6e3a cf3d 208f a7bd 5011 0d3d 50d3 97bd
000001a0: 6b94 5bbd 7b7a c1bc 0b7d a33c 1324 6cbc
000001b0: 6305 723d 1b90 713c 90a0 853d 3ea7 fdbc
000001c0: d7fe 3abd 050f 1f3d 0b4a 2c3d 535c 88bd
000001d0: ce27 853d 1627 f3bc 07b3 9fbd c991 e9bb
000001e0: 6498 173a 54be 413c 37c7 ed3c e7cb ac3c
000001f0: 4eae 2bbd 33b5 0038 7bcc 4d3b 9364 fcbd
00000200: 3941 a73c 2f0e 31bd 8c3a e1bc 380d 7d3c
00000210: 06be a63d c121 0a3d 4866 1ebe 3fff 95bd
00000220: 67bd 09be f11b 733d 4294 c83c 62e8 0e3d
00000230: a36e 8abd 9b76 0a3e 4a1e 0bbd 2fdb 8db9
00000240: 7e64 613c 08ec 48bd d8dc 153c a32d afbc
00000250: d740 76bb e343 0b3c ae37 783d 7e32 58bd
00000260: 0538 0bbd 38a4 1dbc 8557 053c d19b 0f3c
00000270: 6d24 1cbd ded8 80bd c0a7 033c 1b72 b83d
00000280: a97a 473d 15a3 5b3c aedc c2bd 01d3 db3d
00000290: d380 dfbd e85f 8abd 1bab 1dbd 7a8f efbc
000002a0: d070 49bd aa69 6c3d 3c9f 15bc d080 003d
000002b0: 714d 87bc ad73 453d 8595 b4bd 64d5 49bc
000002c0: 6eaa ddbb a6ef 4a3d f587 953d 74bf dfbc
000002d0: f3cf df3c ae3c 373c b1d5 82bd 58c6 94bb
000002e0: ceae 89bd 6a2b c8bc 0195 26be 8773 dabc
000002f0: b0ae a9bd 8ced 6cbc 15a6 863d 0010 03bc
00000300: 58c5 3dbc 1aaf 1e3d 6b59 54bc 250f 0abd
00000310: 743e a1bd 2292 b73d 82f4 1e3d 1814 acbd
00000320: 99f8 a6bc 2a7f f2bd 405e 1e3d 1a09 3bbc
00000330: 25b5 123c 27bb d4bc 037a 84bd c8c7 173c
00000340: f89e c0bd ee7b 953c cd22 bbbd 70a9 0f3b
00000350: 9e73 c1bd 3877 b0bd 4d25 8ebc a083 99bd
00000360: a664 543c 3a80 0a3e a635 bbbd 2d49 a4bc
00000370: 75ba 98bc 647a 27bc 04bc 30bc 73a1 c9bd
00000380: 8b68 2d3d 8d37 04bd 3af3 9cba e31f 963c
00000390: ddf9 c73d 5a3a 83bd 4568 533d 6650 4a3c
000003a0: 4471 06bc a597 2bbd da9e a43d 82df 50bd
000003b0: 2f6a 323c 2a56 243c 6e36 2d3c 2c30 06be
000003c0: eecc 843c 223e 663c 7846 18bd 2d9e 013d
000003d0: c305 2dbc d63d 233d 285d 18bd 42d7 4d3d
000003e0: d65e dcbd 174b 613d 6c93 d1bd 4783 9bbc
000003f0: 9855 143b 3b2f 3e3d 8250 5c3d 0f33 9abd

Network.2.bias f4 [256]
-0.010354038 -0.0071122013 -0.005000654 0.007798219 -0.009327098 -0.0057776337 -0.003196373 0.0063099694
-0.008110182 -0.0032847761 0.0062332605 0.009944819 0.007987653 -0.0075903707 -8.453801e-05 -0.009169058
0.011218557 -0.006832831 0.009677564 -0.007357234 0.006331071 0.008411284 -0.0074605956 -0.0044047064
0.0086233625 -0.0044556833 0.008353579 0.008446876 0.0077514416 0.008004512 -0.0078111305 -0.0069184904
-0.01010386 -0.0069667646 -0.009868037 0.008187069 0.0066283336 -0.0069913855 0.0056578857 0.0091209635
0.00063019356 0.008817542 -0.0021668726 -0.0046324553 -0.0079512345 -0.0042940318 -0.008851748 -0.009286555
0.0080916025 0.006698297 0.007027984 0.007247618 -0.0070424057 -0.0074237026 -0.008214855 -0.009403937
0.007526317 -0.007988026 -0.007586781 -0.008378483 -0.008354705 0.0068794102 0.008853168 -0.008337415
0.0077476474 -0.009142511 -0.003978644 -0.0033018251 -0.006946388 0.008754913 0.009581848 -0.0094371
-0.008079345 -0.0065894956 -0.009021875 0.0011030595 -0.009111868 0.0079976 0.0076170433 0.006210882
0.0062362673 -0.008454188 -0.00826711 -0.0056629996 0.004463719 0.008323376 0.009597562 -0.007448348
0.007928159 0.008988244 -0.007371427 -0.007980254 -0.004622678 -0.010262135 -0.009319196 0.0067028296
0.0063079954 -0.008193443 -0.00777178 0.009318483 -0.00921641 -0.009021746 0.007838504 0.011080738
-0.0058355 0.008779849 -0.008652848 0.0056438325 0.0071609044 -0.008866476 0.007247326 -0.009082919
-0.0003175903 -0.007369664 0.008618321 0.007933203 -0.0006730126 0.008659506 -0.008259934 0.00073800515
0.007055061 -0.0013451412 -0.00038256132 0.00724554 -0.007590189 0.007559271 0.007678314 0.010001007
0.0051320195 -0.007991575 -0.006943351 0.007746793 0.0077835345 0.008187105 0.007764772 -0.0067945956
0.0047354302 0.0075607817 0.004282856 -0.0076454515 0.008234392 -0.00849537 -0.0036039404 -0.009121056
0.0039914716 -0.0076445933 -0.006821475 0.0010222732 -0.007535279 0.004422939 -0.007825198 0.007500809
-0.0070234183 0.0035293198 -0.0017526494 -0.005954711 0.009523057 0.0077544986 0.00586982 -0.008629746
0.0026315225 -0.007740295 -0.0105543835 -0.006890242 0.009292496 -0.0086663235 -0.008965662 0.00897539
0.008275967 0.007805373 0.008793355 0.006511159 0.010510493 0.0072289053 -0.007757909 0.0017767735
-0.004131252 -0.0060958248 0.007647193 -0.005252421 -0.008542146 0.0018434002 0.008361764 -0.010587357
-0.0075737126 -0.007891826 -0.00711897 0.006761934 0.007797806 -0.008018775 0.006969591 -0.009016873
-0.0027183166 -0.0075689633 -0.006969855 -0.008019036 0.006612005 0.009061852 0.0035288855 0.008290854
-0.0030702758 -0.0059214006 -0.0081267785 -0.006960398 -0.010618206 -0.009103466 -0.008359288 0.00082558626
-0.006777399 -0.007913825 -0.008880702 0.005322749 0.0078702 0.008722906 -0.008970793 0.0028958162
-0.009347356 0.00782539 0.007930555 -0.007405958 -0.0025227196 -0.005939212 -0.0075937035 -0.0074345674
-0.009185692 0.0052749356 0.008762753 -0.008394551 0.0069921506 -0.006775295 0.004973358 -0.008919059
-0.0073197526 0.0067493794 0.0096827485 0.0047757057 0.009521139 -0.006833046 0.008776944 -0.0032120035
-0.0075157587 -0.008559575 -0.0089966655 -0.0068486417 0.0071371878 0.00691929 0.007672648 -0.008737885
-0.0054599685 0.0049612774 -0.008251109 0.007816875 -0.007923529 -0.0090632755 0.00827118 -0.007955157
00000000: fca3 29bc 780d e9bb 87dc a3bb 3488 ff3b
00000010: afd0 18bc 4e52 bdbb 3e7a 51bb dcc3 ce3b
00000020: 92e0 04bc 6645 57bb 6140 cc3b 98ef 223c
00000030: a5de 023c a5b8 f8bb 004a b1b8 d139 16bc
00000040: 0ace 373c f1e5 dfbb a58e 1e3c f414 f1bb
00000050: df74 cf3b 7bcf 093c 0378 f4bb 5b55 90bb
00000060: 0149 0d3c fb00 92bb 73dd 083c c464 0a3c
00000070: ceff fd3b 5b25 033c 83f4 ffbb 81b4 e2bb
00000080: a98a 25bc 7549 e4bb 8cad 21bc 0e23 063c
00000090: 7e32 d93b fe17 e5bb c965 b93b 1870 153c
000000a0: 9333 253a 7477 103c 1702 0ebb dacb 97bb
000000b0: e545 02bc f3b4 8cbb ec06 11bc a326 18bc
000000c0: a492 043c 637d db3b 014b e63b 6d7d ed3b
000000d0: fbc3 e6bb 8842 f3bb 9997 06bc f812 1abc
000000e0: 539f f63b 36e0 02bc 889a f8bb e845 09bc
000000f0: 2ce2 08bc ad6c e13b e10c 113c a799 08bc
00000100: fadf fd3b 78ca 15bc 495f 82bb 6f63 58bb
00000110: 879e e3bb c470 0f3c 2ffd 1c3c 119e 1abc
00000120: 3b5f 04bc b2ec d7bb 7dd0 13bc 8994 903a
00000130: f249 15bc 5e08 033c 6498 f93b a884 cb3b
00000140: 9a59 cc3b 6f83 0abc c672 07bc af90 b9bb
00000150: 6444 923b c55e 083c 183f 1d3c 4611 f4bb
00000160: 1ce5 013c 6e43 133c 038c f1bb 9cbf 02bc
00000170: d579 97bb 8422 28bc 8baf 18bc 69a3 db3b
00000180: 4db3 ce3b ca3d 06bc 6aaa febb 8dac 183c
00000190: 6d00 17bc f2cf 13bc 126d 003c fc8b 353c
000001a0: b937 bfbb 5bd9 0f3c adc4 0dbc e6ef b83b
000001b0: 05a6 ea3b b244 11bc fa7a ed3b 86d0 14bc
000001c0: 4082 a6b9 397d f1bb dc33 0d3c 44fa 013c
000001d0: 1c6d 30ba 9ae0 0d3c ad54 07bc b076 413a
000001e0: 242e e73b 734f b0ba 8392 c8b9 ff6b ed3b
000001f0: 1fb7 f8bb c3b3 f73b 5e9a fb3b 43db 233c
00000200: 802a a83b 18ef 02bc 0d85 e3bb cfd8 fd3b
00000210: 050d ff3b 3523 063c a16f fe3b 33a5 debb
00000220: ab2b 9b3b 6fc0 f73b 3357 8c3b b286 fabb
00000230: 8be9 063c 2a30 0bbc 1630 6cbb 7b70 15bc
00000240: e4ca 823b 7f7f fabb ae86 dfbb ccfd 853a
00000250: 80ea f6bb 4dee 903b 4235 00bc 59c9 f53b
00000260: b424 e6bb 294c 673b 28b9 e5ba bd1f c3bb
00000270: 9906 1c3c 7319 fe3b 9e57 c03b c763 0dbc
00000280: 9f75 2c3b 4da2 fdbb 4bec 2cbc 8ac7 e1bb
00000290: 8e3f 183c 32fd 0dbc b6e4 12bc 840d 133c
000002a0: ec97 073c 37c4 ff3b 0112 103c 8f5b d53b
000002b0: 3434 2c3c 74e0 ec3b 0f36 febb a0e2 e83a
000002c0: 745f 87bb 7cbf c7bb 4e95 fa3b 801c acbb
000002d0: 5bf4 0bbc 3f9e f13a c8ff 083c 9876 2dbc
000002e0: e82c f8bb b84c 01bc 4046 e9bb 3793 dd3b
000002f0: bd84 ff3b 2e61 03bc 2b61 e43b 82bb 13bc
00000300: c925 32bb 1105 f8bb 6263 e4bb 4662 03bc
00000310: 85a9 d83b 2978 143c e044 673b 5dd6 073c
00000320: ae36 49bb 4f08 c2bb 2e26 05bc 0d14 e4bb
00000330: fcf7 2dbc b426 15bc 65f5 08bc 286c 583a
00000340: f214 debb fda8 01bc 5d80 11bc 746a ae3b
00000350: 03f2 003c 85ea 0e3c 3cfa 12bc bcc7 3d3b
00000360: a725 19bc 1136 003c 29ef 013c aead f2bb
00000370: 3654 25bb b99d c2bb 9ad4 f8bb ac9d f3bb
00000380: 967f 16bc 5ed9 ac3b a691 0f3c 4d89 09bc
00000390: 691e e53b 4b03 debb 8df7 a23b 3f21 12bc
000003a0: 89da efbb e629 dd3b 64a4 1e3c 867d 9c3b
000003b0: 8dfe 1b3c bfe7 dfbb 2ccd 0f3c 7a80 52bb
000003c0: c146 f6bb 763d 0cbc c066 13bc 926a e0bb
000003d0: 12df e93b 36bb e23b d66a fb3b 5929 0fbc
000003e0: 89e9 b2bb 3692 a23b a92f 07bc 5a12 003c
000003f0: b0d1 01bc 227e 14bc d883 073c 5956 02bc

Network.4.weight f4 [128, 256]
0.11268959 0.036847755 0.0040824087 0.076886505 -0.022677222 0.015718404 0.02053046 -0.085326366
0.04833266 0.19875342 0.11481835 -0.1999212 0.017349321 0.04299396 -0.12279948 0.01480686
0.20786935 0.069139026 -0.14511509 0.06195312 -0.04596158 0.011041826 0.05082211 0.09531063
0.09050995 0.020810792 0.0382978 -0.061395742 -0.11933159 0.15785913 0.097218476 -0.05240485
-0.0024667245 -0.032351393 0.048588805 -0.09230303 -0.20110808 0.032654952 0.026045537 -0.036081187
0.06001435 -0.02605204 0.14348549 0.03990475 0.003556892 0.07913761 -0.20746593 -0.067866504
0.17403546 0.14031257 0.07501888 -0.19991048 -0.02127163 0.089730605 0.07468463 -0.053901028
-0.012418074 0.021487702 -0.12888321 -0.087805144 -0.029208213 -0.224893 -0.04419564 0.07341209
-0.045523953 0.05300815 0.15433812 -0.050352547 -0.109004274 -0.0007597404 0.037051458 -0.023005772
-0.05179224 0.10939898 -0.015670553 -0.005818674 0.01528635 -0.081208564 -0.06618635 0.043814745
-0.09429201 -0.0033657444 0.13200325 -0.01426399 -0.06367414 0.11433122 -0.0418037 0.009585434
-0.00011033563 0.032249976 0.01873811 -0.13714704 0.117628224 0.03731266 -0.02071388 0.0945807
-0.09549358 0.0034719286 0.06315007 -0.07065821 0.08520665 -0.055264656 -0.0019606513 0.095315285
-0.07662153 0.015886849 -0.07597879 -0.06240893 -0.048941825 -0.0632025 -0.14907254 0.05505627
-0.15975933 -0.03211661 -0.03949656 -0.08828437 -0.0841279 -0.044054657 0.027224539 -0.051053002
-0.15134525 -0.057848006 0.058779947 0.10190109 0.10091326 0.052285466 -0.012741204 0.078576066
0.0130682485 -0.16787006 0.0005214058 0.035177153 0.037395902 -0.036840938 0.047430832 0.18017128
-0.11197258 -0.0499726 0.086521216 0.06150718 0.0211984 0.008274221 0.12414075 0.069849774
-0.14733142 -0.05405364 -0.18337332 0.13395816 0.037024897 0.0325733 0.104494624 0.063334875
0.020371653 0.05042317 0.03689281 0.038264405 0.03212905 -0.09849487 0.021006778 0.1334105
0.054376267 -0.03350629 -0.0066586602 0.23712859 -0.0149379345 0.031681944 -0.021749653 0.04426488
-0.051159333 0.050544765 0.067734726 0.059741218 -0.059135955 -0.1423437 0.0972117 -0.09285584
0.26745686 -0.12098477 0.045799162 0.06902283 0.11750226 0.14237265 -0.026087523 0.04286563
-0.11393607 0.034388628 -0.06922563 -0.011758285 -0.081457354 0.18703906 0.13486475 0.023560354
0.02649979 0.053342737 0.063855685 -0.015532128 -0.09945716 0.19685067 -0.047979288 0.03558652
-0.06998022 -0.17421581 0.023032652 0.024170972 0.035722073 -0.07829561 0.09929544 0.12290564
0.0540769 -0.015788108 -0.09202394 -0.13770373 -0.101405196 0.009170843 0.11954382 -0.0041366806
0.054853845 -0.10494192 0.10833326 -0.09877124 0.04693017 0.0216869 0.001948259 -0.07330917
-0.0027525763 -0.010706025 -0.14955498 0.0016517284 -0.10789318 0.1291955 0.04833279 0.086371124
-0.075867005 -0.07397719 -0.066038266 -0.06422837 0.15136285 0.02593917 0.08410079 -0.08765786
-0.03078519 0.07953509 0.1090624 -0.019299632 -0.15478076 -0.09314402 -0.037200347 0.12386516
0.069011614 0.17632169 0.06261943 0.009925572 -0.1511664 0.0078031463 -0.18009056 -0.17641954
00000000: cdc9 e63d aced 163d bac5 853b ac76 9d3d
00000010: 95c5 b9bc e2c3 803c 7f2f a83c 97bf aebd
00000020: 78f8 453d 0486 4b3e e225 eb3d 25b8 4cbe
00000030: 2a20 8e3c 6f1a 303d 4b7e fbbd 7998 723c
00000040: b4db 543e c398 8d3d 0d99 14be 8ec2 7d3d
00000050: 3642 3cbd c6e8 343c d82a 503d 3832 c33d
00000060: 485d b93d 657b aa3c 27de 1c3d 1a7a 7bbd
00000070: 1f64 f4bd d3a5 213e 7b1a c73d 78a6 56bd
00000080: c5a8 21bb e582 04bd 0e05 473d 5f09 bdbd
00000090: 47ef 4dbe 33c1 053d 735d d53c dec9 13bd
000000a0: 9bd1 753d 166b d5bc dced 123e 2a73 233d
000000b0: bf1a 693b e612 a23d f371 54be 98fd 8abd
000000c0: 5a36 323e 19ae 0f3e 80a3 993d 55b5 4cbe
000000d0: d741 aebc aec4 b73d 41f4 983d 53c7 5cbd
000000e0: 2d75 4bbc fa06 b03c f6f9 03be 2fd3 b3bd
000000f0: 1046 efbc 5a4a 66be 7d06 35bd 1459 963d
00000100: 5377 3abd 131f 593d d00a 1e3e 793e 4ebd
00000110: a23d dfbd 5129 47ba 45c3 173d 9a76 bcbc
00000120: 1a24 54bd 930c e03d 885f 80bc 93aa bebb
00000130: 9973 7a3c ad50 a6bd b68c 87bd 1777 333d
00000140: 2b1c c1bd d293 5cbb dc2b 073e 83b3 69bc
00000150: 9667 82bd 7d26 ea3d 5b3a 2bbd 390c 1d3c
00000160: fe63 e7b8 8d18 043d aa80 993c 4670 0cbe
00000170: 11e7 f03d 29d5 183d 28b0 a9bc 87b3 c13d
00000180: 2392 c3bd 4c89 633b d354 813d 40b5 90bd
00000190: d380 ae3d 315d 62bd 457e 00bb a934 c33d
000001a0: c0eb 9cbd 2325 823c c59a 9bbd 82a0 7fbd
000001b0: 3977 48bd 5070 81bd 79a6 18be af82 613d
000001c0: f397 23be b58c 03bd 25c7 21bd 70ce b4bd
000001d0: 404b acbd a872 34bd ff05 df3c f41c 51bd
000001e0: 40fa 1abe 08f2 6cbd 3ec3 703d 85b1 d03d
000001f0: 9cab ce3d 4929 563d 7cc0 50bc 7dec a03d
00000200: 351c 563c 21e6 2bbe f3ae 083a eb15 103d
00000210: 722c 193d 86e6 16bd d546 423d d27e 383e
00000220: e151 e5bd 12b0 4cbd 0932 b13d f4ee 7b3d
00000230: 44a8 ad3c 9990 073c 813d fe3d 660d 8f3d
00000240: 0cde 16be 5a67 5dbd 37c6 3bbe 542c 093e
00000250: 6ba7 173d 956b 053d 4701 d63d b7b5 813d
00000260: 74e2 a63c 8788 4e3d ea1c 173d 23bb 1c3d
00000270: c099 033d aeb7 c9bd 6816 ac3c c39c 083e
00000280: a6b9 5e3d e43d 09bd e430 dabb d6d1 723e
00000290: 3dbe 74bc edc4 013d 542c b2bc 174f 353d
000002a0: 738c 51bd 0708 4f3d 81b8 8a3d 35b3 743d
000002b0: 8b38 72bd 8cc2 11be ee16 c73d 342b bebd
000002c0: 1bf0 883e ddc6 f7bd e797 3b3d d75b 8d3d
000002d0: 06a5 f03d 23ca 113e 80b5 d5bc df93 2f3d
000002e0: 5057 e9bd 17db 0c3d 2bc6 8dbd d2a5 40bc
000002f0: 1dd3 a6bd 2b87 3f3e fc19 0a3e a501 c13c
00000300: 1616 d93c ea7d 5a3d c5c6 823d 777a 7ebc
00000310: 32b0 cbbd 3993 493e ee85 44bd 2cc3 113d
00000320: ca51 8fbd a165 32be f9ae bc3c 3402 c63c
00000330: 4f51 123d 7359 a0bd 685b cb3d f4b5 fb3d
00000340: bd7f 5d3d 1056 81bc 0c77 bcbd 3502 0dbe
00000350: 87ad cfbd 4e41 163c 64d3 f43d fe8c 87bb
00000360: 6dae 603d caeb d6bd d4dd dd3d 9348 cabd
00000370: da39 403d baa8 b13c b95c ff3a 1e23 96bd
00000380: 9164 34bb 5368 2fbc f124 19be cf7e d83a
00000390: 19f7 dcbd d34b 043e 9bf8 453d 58e3 b03d
000003a0: 2960 9bbd 5a81 97bd 123f 87bd 2a8a 83bd
000003b0: ddfe 1a3e 627e d43c 093d ac3d f785 b3bd
000003c0: 3931 fcbc 4be3 a23d 1c5c df3d 431a 9ebc
000003d0: d97e 1ebe 4bc2 bebd 645f 18bd 04ad fd3d
000003e0: f655 8d3d ac8d 343e 9e3e 803d de9e 223c
000003f0: 5dcb 1abe 89b1 ff3b a969 38be 53a7 34be

Network.4.bias f4 [128]
-0.013216868 0.013640532 0.009118048 0.011663288 0.009155626 0.019207204 -0.007697043 0.014226419
-0.007835177 -0.011750991 0.008912873 0.013696919 -0.012910317 0.008933123 -0.008892994 -0.0082456
-0.011118846 0.004810001 0.008998483 -0.016899837 -0.015795635 0.004794577 0.016101612 -0.010507937
0.0161723 -0.020768905 0.016485453 0.0147884935 0.012132562 -0.016649494 0.008721935 0.015130178
-0.0089375945 0.014097522 -0.011361392 -0.012973299 -0.014159753 -0.01388143 -0.0124403015 0.012833505
0.009873825 0.008182862 0.009207934 0.01116905 -0.013287838 -0.011883769 0.009834016 -0.010929115
0.011648012 -0.018329151 0.009014288 -0.011457466 0.008511054 -0.01213606 -0.013374705 -0.01645232
0.012018836 -0.01464373 0.0080056535 -0.013979142 0.011064959 0.009721582 -0.008911623 0.009665606
-0.012079677 0.010849197 0.013306823 -0.012256072 0.008965878 0.010237603 0.0108706355 0.013784416
-0.008697198 0.012084983 -0.014691083 -0.008743057 0.010028168 -0.007962363 0.011942227 0.009422271
0.014608602 -0.009331146 0.008203206 -0.016595375 0.010777156 -0.0019051114 0.01462031 -0.009908292
-0.012308163 -0.021120237 0.015312377 -0.013806893 -0.01198585 0.012938496 0.008419921 0.009910513
0.010778076 0.010408708 0.008897031 -0.012489738 -0.01700103 -0.011761297 0.010793684 -0.008553885
-0.0064123175 0.016485598 -0.009280872 -0.015637571 -0.011788068 0.013485579 -0.010726664 -0.016526362
0.011979781 -0.019078543 0.012761344 0.013741999 0.009856855 -0.01220755 0.012363453 -0.006413944
0.01156498 -0.015201195 0.014515656 0.010753696 -0.016853482 -0.00922154 -0.012765417 -0.009676197
00000000: 908b 58bc 8a7c 5f3c dd63 153c 6017 3f3c
00000010: 7b01 163c 6d58 9d3c 7a37 fcbb ed15 693c
00000020: 1d5f 00bc 3b87 40bc 4d07 123c 0b69 603c
00000030: cb85 53bc 3c5c 123c ecb3 11bc 8e18 07bc
00000040: d22b 36bc 369d 9d3b 606e 133c 8771 8abc
00000050: d965 81bc d41b 9d3b 87e7 833c 7b29 2cbc
00000060: c57b 843c 8d23 aabc 800c 873c 704b 723c
00000070: a7c7 463c 8564 88bc 72e6 0e3c 91e4 773c
00000080: fd6e 12bc 4bf9 663c 2225 3abc f68d 54bc
00000090: 4ffe 67bc f06e 63bc 68d2 4bbc 9f43 523c
000000a0: d3c5 213c 6911 063c e0dc 163c 64fe 363c
000000b0: 3bb5 59bc 24b4 42bc da1e 213c 0810 33bc
000000c0: 4ed7 3e3c 0427 96bc aab0 133c 18b8 3bbc
000000d0: f371 0b3c 53d6 46bc 9421 5bbc 04c7 86bc
000000e0: a7ea 443c 41ec 6fbc 252a 033c c508 65bc
000000f0: cd49 353c 4547 1f3c 0e02 12bc 7d5c 1e3c
00000100: d6e9 45bc d5c0 313c dc04 5a3c b1cd 48bc
00000110: 9ee5 123c 9fbb 273c c01a 323c 08d8 613c
00000120: b17e 0ebc 1800 463c deb2 70bc 0a3f 0fbc
00000130: 2f4d 243c 9274 02bc 55a9 433c de5f 1a3c
00000140: eb58 6f3c aae1 18bc bd66 063c 06f3 87bc
00000150: ab92 303c eeb4 f9ba 068a 6f3c 6456 22bc
00000160: 2da8 49bc 5904 adbc c4e0 7a3c 4e36 62bc
00000170: 4c60 44bc fcfb 533c b5f3 093c b45f 223c
00000180: 8796 303c 4989 2a3c dac4 113c c2a1 4cbc
00000190: be45 8bbc 74b2 40bc fed7 303c 9825 0cbc
000001a0: 6b1e d2bb ce0c 873c cc0e 18bc 5d1a 80bc
000001b0: be22 41bc 9ef2 5c3c e4be 2fbc 4b62 87bc
000001c0: d846 443c 9b4a 9cbc f514 513c 1f26 613c
000001d0: a57e 213c 2d02 48bc 1590 4a3c 102c d2bb
000001e0: 0b7b 3d3c 6f0e 79bc 13d3 6d3c 4530 303c
000001f0: 5010 8abc f115 17bc 0a26 51bc e988 1ebc

Actor.weight f4 [5, 128]
-0.004991157 0.015340265 0.010491142 0.02127273 -0.015981637 -0.0028728608 -0.0070882235 0.0028170114
-0.018105237 -0.0018641993 0.005474132 0.00904273 0.0025897296 0.004344572 0.008281508 -0.008737949
0.0092934845 0.028503597 0.0074756956 -0.008893593 -0.014181641 0.013682761 0.019983029 0.0077926735
0.02782522 -0.013945874 0.008865409 0.017496424 -1.2836623e-05 -0.0043701762 0.021535333 0.002080345
-0.01630133 -0.00046061352 0.0003539864 0.002581619 0.0074169193 -0.011275996 -0.0070247124 4.8795722e-05
0.0038846454 -0.0046127597 0.006417755 -0.0019495791 0.0008748265 -0.0121126 -0.00970904 0.00022536721
0.0069190953 0.00018509426 0.0046171825 -0.019367587 -0.0037666429 -0.020051355 0.006038498 -0.01935061
0.0060423585 -0.0049464987 0.015971944 0.0029020733 0.01959993 -0.00067017594 -0.01058037 0.019211119
-0.0122364 0.0011828695 0.009045514 0.0030480304 -0.005575267 0.006929867 -1.7847025e-05 0.014592259
-0.017341057 0.0157746 -0.004707908 0.0010837424 0.004006888 -0.01392535 -0.0013347053 0.008346418
0.030361405 0.0073366594 -0.002241932 -0.0070416345 0.01127092 -0.011914307 0.008211045 -0.026440505
0.0022655395 -0.0035349776 0.0073016775 0.00904332 0.002423611 0.013293437 0.009312876 0.0072154263
0.012435492 0.0028617606 0.008685378 -0.008928451 0.002703731 -0.0076553766 0.010389491 -0.003331037
-0.015760615 0.01002488 -0.00047396516 -0.000325904 -0.006437433 0.017971132 0.002686024 -0.0039045613
0.017434822 -0.007556911 0.0027100435 -0.00193788 0.008189858 -0.00701463 0.015146167 -0.016663698
-0.0050586117 -0.016932871 -0.0055605257 -0.012505046 -0.023384023 0.0021404175 0.013674496 -0.009062054
0.003401672 -0.004244095 -0.0003696037 -0.0058485987 0.0016551085 -0.0015557595 -0.010501581 -0.0022745659
-0.005971567 0.0010628751 -0.015350155 0.0051683285 -0.013035371 0.0039561223 0.011866188 0.0035726684
0.001819158 -0.005683296 -0.008070645 0.01533683 0.009093689 -0.013932437 -0.009799702 0.014267051
0.0029684668 0.0025231158 -0.0032070929 0.00063856883 -0.006742843 -0.0005493912 0.009281115 0.0033745624
-0.0065725935 -0.0006519535 0.0032337878 -0.011077219 -0.020909645 0.005504847 0.013581746 -0.005365316
-0.004724791 -0.0072591356 0.0033255226 0.018827576 0.0040707486 -0.008092317 0.00087142154 -0.0056379014
-0.012135801 0.022121008 0.0080635315 0.010310504 0.0029514201 0.0046627894 -0.004371573 -0.011977809
-0.009389403 0.0051348293 0.0083733285 -0.01645691 0.002816513 0.009841388 0.006483348 -0.022587022
0.004816091 0.003887258 0.009516752 -0.02285541 -0.0031086472 -0.0032968957 0.014601975 -0.009669343
-0.0073577585 0.013427055 -0.019562831 -0.0042514224 0.0058584306 -0.005190901 0.002948785 0.0027717953
0.0040912856 0.0037962077 0.0059507634 -0.00470872 -0.00983575 -0.014821248 0.0122657195 -0.010943179
-0.008189162 0.010152321 0.012116909 0.01162707 -0.0028226122 -0.0037813138 -0.008477097 -0.0020696484
-0.002622994 -0.0072724917 -0.0070588146 0.010398362 0.003591289 0.011592553 0.008851093 -0.003734847
0.0015727509 0.0036218986 0.0010155044 0.0063939607 -0.0013084108 0.013814493 0.0019066385 0.006981569
0.005662537 -0.008421116 -0.005086827 0.006879032 0.0010248327 0.016192943 0.0098795025 0.013730247
-0.0052935416 0.000857478 -0.010271965 0.007564782 -0.0037149393 -0.0041056336 -0.00042906287 0.0040496658
00000000: dc8c a3bb bc55 7b3c 0ae3 2b3c 2644 ae3c
00000010: eceb 82bc 9b46 3cbb 5444 e8bb 9c9d 383b
00000020: 6f51 94bc 2658 f4ba 5960 b33b f527 143c
00000030: 74b8 293b e95c 8e3b 2aaf 073c 9d29 0fbc
00000040: b343 183c 6080 e93c aef6 f43b 6fb6 11bc
00000050: 1d5a 68bc a92d 603c 73b3 a33c af59 ff3b
00000060: b7f1 e33c 3c7d 64bc 3840 113c a954 8f3c
00000070: e05c 57b7 b233 8fbb de6a b03c 6656 083b
00000080: 5e8a 85bc 807e f1b9 4097 b939 6130 293b
00000090: a109 f33b f5be 38bc 8f2f e6bb 02aa 4c38
000000a0: 8995 7e3b a226 97bb 084c d23b 0589 ffba
000000b0: 9d54 653a ed73 46bc aa12 1fbc 8d50 6c39
000000c0: 94b9 e23b dd15 4239 bc4b 973b c6a8 9ebc
000000d0: c8d9 76bb bd42 a4bc 98de c53b 2c85 9ebc
000000e0: fafe c53b 3d16 a2bb 98d7 823c b630 3e3b
000000f0: 0890 a03c bfae 2fba 4a59 2dbc a360 9d3c
00000100: 2e7b 48bc 840a 9b3a a333 143c 77c1 473b
00000110: bbb0 b6bb f013 e33b 32b6 95b7 5f14 6f3c
00000120: d50e 8ebc bc39 813c cb44 9abb 5c0c 8e3a
00000130: 364c 833b 2727 64bc 47f1 aeba 6abf 083c
00000140: 7bb8 f83c 5c68 f03b 61ed 12bb 83bd e6bb
00000150: aaa9 383c 3a34 43bc 9e87 063c c299 d8bc
00000160: 7279 143b 15ab 67bb e942 ef3b 6f2a 143c
00000170: 72d5 1e3b b7cc 593c 0895 183c 626f ec3b
00000180: 3cbe 4b3c 608c 3b3b 1e4d 0e3c a348 12bc
00000190: 1431 313b f4d9 fabb af38 2a3c 874d 5abb
000001a0: 681c 81bc 653f 243c 877e f8b9 18de aab9
000001b0: 1af1 d2bb 3238 933c 0108 303b abe3 7fbb
000001c0: 79d3 8e3c f79f f7bb fc9a 313b 7600 feba
000001d0: c12e 063c fbda e5bb a127 783c 4f82 88bc
000001e0: b6c2 a5bb ceb6 8abc 1235 b6bb f7e1 4cbc
000001f0: da8f bfbc 3f46 0c3b fe0a 603c 0279 14bc
00000200: 96ee 5e3b 0d12 8bbb 5ec7 c1b9 9aa5 bfbb
00000210: 3af0 d83a a0ea cbba d30e 2cbc e210 15bb
00000220: 22ad c3bb 2c50 8b3a 377f 7bbc 155b a93b
00000230: 4f92 55bc 5ca2 813b 666a 423c 6e23 6a3b
00000240: d070 ee3a f13a babb bd3a 04bc 5447 7b3c
00000250: b2fd 143c e044 64bc ee8e 20bc 59c0 693c
00000260: 9c8a 423b dc5a 253b 172e 52bb a165 273a
00000270: 11f3 dcbb 0505 10ba d10f 183c c327 5d3b
00000280: e95e d7bb dce7 2aba f5ed 533b 397d 35bc
00000290: b44a abbc 0162 b43b f985 5e3c 88cf afbb
000002a0: 6bd2 9abb 0bde edbb 03f1 593b 4a3c 9a3c
000002b0: ea63 853b a395 04bc 1c70 643a 25be b8bb
000002c0: 3dd5 46bc 1e37 b53c e71c 043c 63ed 283c
000002d0: 9d6c 413b 50ca 983b 6a3f 8fbb 923e 44bc
000002e0: 03d6 19bc 1242 a83b 4930 093c a4d0 86bc
000002f0: 3f95 383b c63d 213c 4472 d43b 6b08 b9bc
00000300: 4dd0 9d3b 5ec1 7e3b 27ec 1b3c 453b bbbc
00000310: 72ba 4bbb bb10 58bb 1f3d 6f3c 2a6c 1ebc
00000320: 5a19 f1bb 27fd 5b3c 3b42 a0bc 844f 8bbb
00000330: 14f8 bf3b 6f18 aabb 6740 413b 02a7 353b
00000340: 3110 863b ccc9 783b 9ffe c23b 9b4b 9abb
00000350: 2026 21bc d2d4 72bc 28f6 483c 054b 33bc
00000360: d62b 06bc ec55 263c 0086 463c 777f 3e3c
00000370: 93fb 38bb ebcf 77bb 86e3 0abc f0a2 07bb
00000380: 89e6 2bbb 154e eebb a14d e7bb e45d 2a3c
00000390: d55b 6b3b b1ee 3d3c 2d04 113c 56c4 74bb
000003a0: c324 ce3a 605d 6d3b ac1a 853a 6e84 d13b
000003b0: fb7e abba 2f56 623c 2ce8 f93a a5c5 e43b
000003c0: ce8c b93b b8f8 09bc 66af a6bb 8169 e13b
000003d0: ae53 863a 10a7 843c a3dd 213c d4f4 603c
000003e0: 7275 adbb 60c8 603a be4b 28bc fee1 f73b
000003f0: 5776 73bb 8d88 86bb d8f3 e0b9 0fb3 843b

Actor.bias f4 [5]
0.005085236 0.001100441 -0.007121053 -0.0006072396 0.0010324324
00000000: 0da2 a63b ac3c 903a b957 e9bb 292f 1fba
00000010: af52 873a

Critic.weight f4 [1, 128]
-0.12902653 0.17303616 0.22834736 0.124121375 0.22490042 0.12922305 -0.24080014 0.1313971
-0.2470246 -0.18981956 0.25609446 0.12683484 -0.15329142 0.1783905 -0.2361254 -0.26678917
-0.19255589 0.11838592 0.19694336 -0.11857578 -0.12863846 0.11111637 0.11997014 -0.1663133
0.13750279 -0.11302454 0.11500844 0.14954065 0.14250578 -0.1492933 0.2352078 0.12861153
-0.17810826 0.13179731 -0.1681416 -0.14952554 -0.10498289 -0.15517545 -0.21698388 0.16136746
0.14879964 0.24574393 0.17091876 0.18008773 -0.19366916 -0.11834131 0.21732086 -0.18245903
0.14170896 -0.12357002 0.15723483 -0.18376036 0.2429655 -0.16156031 -0.13032621 -0.11714857
0.16563062 -0.13471083 0.21642241 -0.12660095 0.19317643 0.15811342 -0.22264814 0.1934346
-0.16893184 0.15157667 0.1288808 -0.13997294 0.17706731 0.25841412 0.19473131 0.1431533
-0.18345425 0.13473178 -0.11684084 -0.1508255 0.19655612 -0.23561122 0.21256918 0.19786377
0.13635194 -0.21479934 0.22372486 -0.14306721 0.13510954 -0.107263796 0.13982098 -0.18057603
-0.19403881 -0.11847032 0.120454766 -0.1428802 -0.18600598 0.16268936 0.24738456 0.1747385
0.15342383 0.19676018 0.26305047 -0.1547429 -0.104613386 -0.20620692 0.111581095 -0.1954467
-0.37701663 0.13241301 -0.23059511 -0.11984552 -0.18110791 0.13183767 -0.23704857 -0.11545233
0.13122505 -0.11552838 0.26738322 0.134846 0.17492767 -0.13065411 0.15745942 -0.29630148
0.1869492 -0.12453085 0.14901729 0.18130907 -0.11796754 -0.25003594 -0.14663933 -0.18016127
00000000: 881f 04be 6430 313e e4d3 693e 5933 fe3d
00000010: 4c4c 663e 0c53 043e 5094 76be f68c 063e
00000020: 04f4 7cbe 0f60 42be d01e 833e fee0 013e
00000030: 6df8 1cbe 00ac 363e dbca 71be 9798 88be
00000040: 5f2d 45be 5174 f23d 85ab 493e dcd7 f2bd
00000050: cdb9 03be fb90 e33d e8b2 f53d 094e 2abe
00000060: 88cd 0c3e 6979 e7bd 8c89 eb3d 2f21 193e
00000070: 09ed 113e 58e0 18be 50da 703e beb2 033e
00000080: 0362 36be e0f5 063e 502d 2cbe 391d 19be
00000090: 4501 d7bd 50e6 1ebe 0631 5ebe 833d 253e
000000a0: ef5e 183e 4ca4 7b3e 5405 2f3e eb68 383e
000000b0: 3551 46be ee5c f2bd 5c89 5e3e 8ad6 3abe
000000c0: 271c 113e 4712 fdbd 2b02 213e ad2b 3cbe
000000d0: f3cb 783e 1170 25be 3c74 05be 97eb efbd
000000e0: 139b 293e a3f1 09be d69d 5d3e aea3 01be
000000f0: 0bd0 453e 7ce8 213e e0fd 63be b813 463e
00000100: 78fc 2cbe ea36 1b3e 54f9 033e 1155 0fbe
00000110: 2251 353e db4e 843e a567 473e c796 123e
00000120: 6edb 3bbe 21f7 093e 404a efbd 0072 1abe
00000130: 0246 493e 1144 71be bcab 593e cd9c 4a3e
00000140: d89f 0b3e 5cf4 5bbe 2118 653e 3680 12be
00000150: 285a 0a3e 1fad dbbd 3b2d 0f3e ece8 38be
00000160: 1cb2 46be 91a0 f2bd fdb0 f63d 304f 12be
00000170: 5a78 3ebe 0a98 263e 6152 7d3e a6ee 323e
00000180: 231b 1d3e 807b 493e 8dae 863e ec74 1ebe
00000190: 8b3f d6bd e827 53be a184 e43d 2e23 48be
000001a0: 5308 c1be 4797 073e 2021 6cbe 9171 f5bd
000001b0: 5a74 39be 7400 073e dcbc 72be 4572 ecbd
000001c0: dc5f 063e 259a ecbd 74e6 883e 1215 0a3e
000001d0: 3d20 333e 31ca 05be 0b3d 213e d4b4 97be
000001e0: 9c6f 3f3e 080a ffbd fd97 183e 16a9 393e
000001f0: f798 f1bd b604 80be 9f28 16be 327c 38be
