ppo_highway_agent1.pth (torch, 454034 bytes, 9 tensors)

Network.0.weight f4 [256, 50]
-0.0051405863 0.045567006 -0.12072215 0.051616985 -0.08568562 0.039018642 0.05497108 -0.19505697
0.0585786 0.028347464 0.0067231245 0.06514555 0.12261251 0.029688813 0.10011863 -0.076229535
-0.15731275 0.08781738 -0.0004435053 0.023722054 0.013820683 -0.14637674 0.11187029 -0.013600657
-0.054650176 -0.03468198 -0.034841865 -0.066419475 0.0705248 0.05591135 -0.054421224 -0.097387984
-0.056980193 0.07079511 -0.06623849 -0.020233283 0.10129357 0.05102122 -0.007870876 0.1296671
-0.04975585 -0.12599955 -0.039919112 0.0704234 -0.06408572 -0.09668172 0.14258903 0.018695356
-0.023150776 0.05573385 0.07136128 -0.01100918 -0.036548108 0.13795924 0.09195959 0.061958566
-0.019948764 -0.040430043 -0.08907792 0.015374675 0.04119985 0.052752044 0.0184161 0.06309446
-0.12650774 0.06621306 0.10332607 0.098862514 -0.042882048 0.020143244 0.11126775 -0.023884501
0.09292338 0.1530082 -0.10121681 -0.1133326 0.098824024 -0.061613813 -0.21110673 -0.0429844
0.06467231 0.030500052 0.046655238 -0.1653853 -0.047719833 0.16639994 -0.07690777 0.07620889
-0.00014078234 -0.0019762248 -0.12219701 -0.016086318 -0.014989138 0.20426004 0.14233677 -0.044803906
0.068447635 -0.041652266 0.12815261 0.02378754 -0.04527388 -0.1289316 0.043035347 -0.18177813
-0.114747815 -0.054425273 0.09683998 -0.06609709 0.07693311 0.06060703 -0.035056487 0.12129425
0.20878236 -0.07164618 -0.010132072 0.03286011 -0.058732525 -0.087252155 0.045082092 -0.0436231
0.06957466 -0.11866928 -0.026775198 0.0072776745 -0.00180505 -0.14634512 -0.1586276 0.05907216
-0.025879173 0.14945082 -0.06975021 0.07893122 0.12599398 0.04752013 -0.04143915 0.070713915
-0.06634938 -0.004568809 0.111545704 -0.029836614 -0.033105332 -0.104324475 -0.075794235 0.08594985
0.028346065 0.055514485 0.10407109 -0.14642149 0.07652399 0.064613976 0.02070702 -0.023803597
0.06501782 0.06377243 -0.17736785 0.1136945 -0.003150274 0.033474308 0.04669327 0.02059019
-0.06576842 0.035544317 0.0011337338 0.0957223 0.05016288 -0.11442324 -0.08145033 0.058077876
0.007564566 0.061471634 0.007630077 -0.017307648 0.018670786 -0.028392917 -0.043545578 -0.020508328
0.18990774 -0.08678675 0.057980973 0.028883079 -0.017494464 -0.116486765 0.024797188 0.15300749
-0.07786638 -0.06795811 -0.04964105 -0.156285 -0.027073942 -0.15288055 -0.17742303 0.0014115012
-0.13899198 0.02857905 -0.13360672 0.19136375 0.18753013 -0.12340498 0.04440408 -0.10250849
-0.0929132 0.029171765 -0.0031166 -0.26974654 0.050664082 0.09000176 -0.08985706 0.24063025
0.006941332 -0.08093244 0.023764497 -0.013978523 0.061182223 -0.08473755 0.07066725 -0.116440035
-0.11273224 0.0020634332 -0.019484546 -0.0051573687 0.057845946 0.059603535 -0.10196498 -0.009753675
0.058881063 0.017733743 0.066100195 -0.08807498 -0.07953418 -0.18080106 -0.040456392 0.06815884
-0.032061655 0.10912021 0.046958104 -0.058440007 -0.06654298 0.09323715 0.17567958 0.09274754
-0.089502975 0.17729706 0.14947073 -0.096938424 -0.101170085 -0.15087947 -0.039538093 -0.033249173
-0.023214115 -0.023754755 -0.0011560154 0.22140932 0.013751246 0.19451644 -0.04300445 0.18840875
00000000: 5d72 a8bb 78a4 3a3d 2d3d f7bd 556c 533d
00000010: f17b afbd 03d2 1f3d 5b29 613d 04bd 47be
00000020: 1df0 6f3d f138 e83c a84d dc3b 086b 853d
00000030: 451c fb3d f435 f33c ff0a cd3d 3b1e 9cbd
00000040: 9816 21be 99d9 b33d 4686 e8b9 c154 c23c
00000050: 2570 623c c9e3 15be 401c e53d 4ad5 5ebc
00000060: ddd8 5fbd b10e 0ebd 58b6 0ebd ef06 88bd
00000070: 4e6f 903d 4d03 653d cae8 5ebd 5a73 c7bd
00000080: 1064 69bd 07fd 903d 0ca8 87bd 45c0 a5bc
00000090: 0173 cf3d a0fb 503d d9f4 00bc 74c7 043e
000000a0: cacc 4bbd 0706 01be 3982 23bd 253a 903d
000000b0: 603f 83bd 1101 c6bd dc02 123e 0127 993c
000000c0: b2a6 bdbc 2d49 643d dd25 923d d95f 34bc
000000d0: 78b3 15bd 3045 0d3e 4f55 bc3d 44c8 7d3d
000000e0: 976b a3bc f999 25bd 7c6e b6bd 10e6 7b3c
000000f0: 2dc1 283d 8712 583d 5cdd 963c ab37 813d
00000100: 3f8b 01be b69a 873d 9e9c d33d 6e78 ca3d
00000110: 16a5 2fbd 7203 a53c 59e0 e33d 6ea9 c3bc
00000120: 9d4e be3d 2eae 1c3e c24a cfbd ec1a e8bd
00000130: 4064 ca3d c45e 7cbd 5d2c 58be 6910 30bd
00000140: eb72 843d 3fdb f93c 9019 3f3d c45a 29be
00000150: df75 43bd bf64 2a3e d281 9dbd 6813 9c3d
00000160: f99e 13b9 8d83 01bb 6d42 fabd 74c7 83bc
00000170: 0095 75bc 8b29 513e bbc0 113e 4d84 37bd
00000180: 462e 8c3d 919b 2abd 703a 033e 16de c23c
00000190: 1b71 39bd a506 04be d545 303d 0c24 3abe
000001a0: e700 ebbd 09ed 5ebd 0a54 c63d e95d 87bd
000001b0: 1b8f 9d3d 143f 783d 6497 0fbd 1f69 f83d
000001c0: 0bcb 553e 3bbb 92bd fd00 26bc 5398 063d
000001d0: 8491 70bd 42b1 b2bd 00a8 383d 23ae 32bd
000001e0: 297d 8e3d e108 f3bd a957 dbbc 8f79 ee3b
000001f0: 6d97 ecba 7fdb 15be 466f 22be a6f5 713d
00000200: 8f00 d4bc a309 193e 33d9 8ebd b1a6 a13d
00000210: 9104 013e 78a4 423d 19bc 29bd 75d2 903d
00000220: 2fe2 87bd f3b5 95bb 1372 e43d ea6b f4bc
00000230: 7599 07bd 12a8 d5bd 023a 9bbd 7a06 b03d
00000240: 0236 e83c 2863 633d 3923 d53d 84ef 15be
00000250: 9cb8 9c3d 5554 843d c5a1 a93c c3ff c2bc
00000260: 1028 853d 1f9b 823d eb9f 35be a9d8 e83d
00000270: d474 4ebb 5b1c 093d 7141 3f3d c2ac a83c
00000280: 98b1 86bd eb96 113d cb99 943a 0e0a c43d
00000290: 9877 4d3d bb56 eabd 6ecf a6bd 11e3 6d3d
000002a0: 2ee0 f73b aec9 7b3d ba05 fa3b c5c8 8dbc
000002b0: 7af3 983c 4398 e8bc d95c 32bd 1501 a8bc
000002c0: 2d77 423e 40bd b1bd 757d 6d3d 359c ec3c
000002d0: 8d50 8fbc 9d90 eebd 7923 cb3c ffad 1c3e
000002e0: 6978 9fbd 9f2d 8bbd 6a54 4bbd 2d09 20be
000002f0: 2cca ddbc b88c 1cbe 62ae 35be 1f02 b93a
00000300: ea53 0ebe 9d1e ea3c 33d0 08be dcf4 433e
00000310: e607 403e c0bb fcbd 0de1 353d f9ef d1bd
00000320: 4749 bebd a0f9 ee3c df3f 4cbb 381c 8abe
00000330: 2485 4f3d d852 b83d fa06 b8bd c767 763e
00000340: 1d74 e33b e8bf a5bd c3ad c23c 2d06 65bc
00000350: 369a 7a3d e18a adbd feb9 903d 1d78 eebd
00000360: 29e0 e6bd aa3a 073b 0e9e 9fbc 25ff a8bb
00000370: dfef 6c3d d622 743d 04d3 d0bd e1cd 1fbc
00000380: 452d 713d 5b46 913c 8a5f 873d a860 b4bd
00000390: d1e2 a2bd ea23 39be 9ab5 25bd dd96 8b3d
000003a0: 1553 03bd 6b7a df3d 2457 403d ca5e 6fbd
000003b0: b047 88bd 1ef3 be3d 59e5 333e 6cf2 bd3d
000003c0: 564d b7bd 5c8d 353e db0e 193e a787 c6bd
000003d0: 4332 cfbd 2680 1abe b2f2 21bd 4930 08bd
000003e0: 872b bebc 5599 c2bc 7185 97ba 20b9 623e
000003f0: e84c 613c 512f 473e 6f25 30bd 39ee 403e

Network.0.bias f4 [256]
-0.0058466312 0.012956723 -0.012409108 -0.006818588 -0.019557653 0.014964687 -0.009159405 0.014094845
-0.013518101 0.004481698 0.012697193 -0.015200437 -0.01594856 -0.007858755 -0.010435472 -0.014067156
-0.0055452622 -0.012723794 0.017376631 -0.017227225 -0.010484165 -0.014802118 -0.0023919006 0.008328347
0.01704878 0.017127631 -0.0129911555 -0.0032737649 -0.013448664 -0.004761455 0.008608442 0.014263093
-0.008963048 -0.010446517 -0.0072119907 0.0025565063 0.013462601 -0.0129533345 -0.0019055423 0.01324571
-0.013541596 -0.016510993 -0.019868128 0.0129871275 0.011848023 0.015971292 -0.01068651 -0.011077243
0.017525338 0.0202332 0.010773927 0.0047019147 0.0015771096 -0.009220439 -0.015202996 0.020393632
-0.012916395 0.018602032 0.013743801 -0.011302548 0.014606825 -0.003388002 -0.013965754 -0.013491704
-0.016319295 0.015081385 -0.0075904615 0.0072871223 0.00639538 -0.014346846 -0.01354146 -0.004060407
0.008593718 -0.012804472 0.012119651 -0.00083683064 -0.012155469 -0.012116261 0.024223026 -0.016054166
0.013705139 -0.016953772 0.016478205 0.013552622 -0.013135887 -0.0071797175 -0.00071708637 -0.0010208437
0.012679646 -0.0004865498 -0.015445448 0.01672409 -0.012924953 0.014399874 0.008123142 -0.013578006
-0.0038239474 -0.0047761467 0.015038032 0.021079103 0.014067463 -0.012118056 -0.014027944 0.03028752
0.014412102 -0.00074235396 0.015157701 0.015696686 -0.015506555 -0.011333349 -0.014224859 -0.010943483
0.011078944 -0.01662851 0.009010206 -0.0093730185 -0.015698366 0.0132256765 0.013142763 0.010409729
-0.014052883 -0.0082457885 -0.012700083 -0.015106324 0.0021962624 -0.015239606 0.009534202 0.010113467
0.017058507 -0.0028722587 0.01705635 -0.0017354207 -0.01583147 0.001992952 -0.014594241 0.0106006395
0.013872826 0.0066013886 -0.014416582 -0.010553997 -0.015084881 0.0028098659 0.014707447 -0.012068302
0.0058834986 0.0055143214 -0.017485948 -0.013770882 -0.0013557511 -0.013445351 -0.01557164 0.013545576
-0.013149982 0.01576107 0.009944102 0.0030454283 0.012553734 -0.014777004 -0.012289394 0.016170835
0.014302582 -0.0006324342 0.015078863 -0.002788374 -0.020841377 0.011735578 0.015825592 -0.0030643598
0.012857129 -0.006919359 -0.00644933 -0.0005021068 0.009612523 -0.0054162065 0.021736966 0.0139881745
-0.016414743 0.010309963 -0.009315967 0.012858048 -0.012302843 0.0123202475 0.015239903 0.015551371
-0.013798724 -0.013018806 -0.01505449 0.012915522 -0.010170648 -0.0074545704 -0.010808608 0.014438577
4.799073e-05 0.013169706 0.015847286 -0.00083378714 -0.0155812455 0.008563941 -0.00038814291 -0.011905956
-0.009492277 0.00591059 -0.019334676 -0.015095898 -0.010839746 0.010574735 0.0067242524 -0.014241697
0.016416525 0.013329044 0.018075993 0.013677037 0.0066005704 0.015258151 -0.008263411 0.011926463
0.00750592 -0.0148099195 -0.008784858 -0.013812152 0.009205159 0.012864905 0.004172946 0.01396428
-0.011453524 -0.0042802636 -0.009029794 0.013168459 -0.008412946 0.024924733 -0.012881477 -0.007732218
0.015068077 -0.009032974 -0.011467787 -0.007669775 -0.0148816435 0.021276861 -0.014415066 -0.013992455
-0.0176253 -0.0068854764 -0.009703583 -0.012767501 -0.004480836 -0.009393847 -0.0057944455 0.010952528
-0.011773685 -0.016782062 0.015537266 0.013796753 0.012979404 0.00862177 -0.019157717 -0.021945894
00000000: 1995 bfbb 6f48 543c 924f 4bbc 766e dfbb
00000010: 5f37 a0bc 722e 753c 5411 16bc 11ee 663c
00000020: 067b 5dbc 35db 923b e307 503c 410b 79bc
00000030: 8ea6 82bc 02c2 00bc 8bf9 2abc ee79 66bc
00000040: 08b5 b5bb 7677 50bc 7059 8e3c 1c20 8dbc
00000050: c6c5 2bbc 9584 72bc 6fc1 1cbb 9e73 083c
00000060: e2a9 8b3c 3f4f 8c3c dbd8 54bc a98c 56bb
00000070: c957 5cbc fb05 9cbb 6c0a 0d3c bfaf 693c
00000080: c0d9 12bc de27 2bbc 9052 ecbb 0f8b 273b
00000090: 3e92 5c3c 393a 54bc 64c3 f9ba 8904 593c
000000a0: 92dd 5dbc 1042 87bc 7cc2 a2bc f6c7 543c
000000b0: 361e 423c 3ad6 823c 7916 2fbc 537d 35bc
000000c0: 4c91 8f3c 19c0 a53c 2085 303c 8512 9a3b
000000d0: 04b7 ce3a 5311 17bc fd15 79bc 8c10 a73c
000000e0: 4a9f 53bc 4a63 983c ae2d 613c 532e 39bc
000000f0: 7751 6f3c 3e09 5ebb 9ed0 64bc 4f0c 5dbc
00000100: 0bb0 85bc ea17 773c 68b9 f8bb d0c8 ee3b
00000110: 5690 d13b 090f 6bbc 00dd 5dbc 2a0d 85bb
00000120: aacc 0c3c d9c9 51bc 8091 463c c15e 5bba
00000130: bb27 47bc 4883 46bc 5e6f c63c 0784 83bc
00000140: 858b 603c a3e2 8abc 4dfd 863c d10b 5e3c
00000150: e737 57bc d643 ebbb dafa 3bba d5cd 85ba
00000160: 4abe 4f3c 9c17 ffb9 e80e 7dbc f500 893c
00000170: 2fc3 53bc 73ed 6b3c ed16 053c 4976 5ebc
00000180: 319b 7abb 3981 9cbb 1462 763c 15ae ac3c
00000190: 377b 663c d08a 46bc 76d5 65bc 881d f83c
000001a0: bd20 6c3c 889a 42ba 0258 783c 5696 803c
000001b0: 350f 7ebc 83af 39bc 620f 69bc 4b4c 33bc
000001c0: 7684 353c 8338 88bc 8b9f 133c 4a91 19bc
000001d0: dc99 80bc 82b0 583c be54 573c 918d 2a3c
000001e0: 103e 66bc 5819 07bc 0214 50bc 8480 77bc
000001f0: 2bef 0f3b 8aaf 79bc 5735 1c3c f5b2 253c
00000200: 48be 8b3c 813c 3cbb c2b9 8b3c 0e77 e3ba
00000210: 00b1 81bc 309c 023b af1c 6fbc 4eae 2d3c
00000220: d94a 633c 7650 d83b 8733 6cbc acea 2cbc
00000230: 9426 77bc ba25 383b 81f7 703c 21ba 45bc
00000240: 5dca c03b 7bb1 b43b b13e 8fbc 449f 61bc
00000250: 75b3 b1ba e449 5cbc 3120 7fbc 43ee 5d3c
00000260: 0673 57bc 5c1d 813c 96ec 223c cf95 473b
00000270: 2dae 4d3c 3f1b 72bc 7459 49bc b378 843c
00000280: 6055 6a3c f1c9 25ba 560d 773c 27bd 36bb
00000290: 89bb aabc 9546 403c aca4 813c 6dd3 48bb
000002a0: b5a6 523c cabb e2bb e754 d3bb d19f 03ba
000002b0: d87d 1d3c 6f7a b1bb b911 b23c a82e 653c
000002c0: 3678 86bc 1eeb 283c ffa1 18bc 90aa 523c
000002d0: dd91 49bc ddda 493c c9b0 793c 2dcb 7e3c
000002e0: 0b14 62bc d54c 55bc 1ca7 76bc a09b 533c
000002f0: caa2 26bc 7845 f4bb 9616 31bc c88f 6c3c
00000300: a749 4938 c0c5 573c 2bd2 813c 8292 5aba
00000310: 7b48 7fbc c64f 0c3c a97f cbb9 3311 43bc
00000320: 7f85 1bbc 9fad c13b c163 9ebc c954 77bc
00000330: 3199 31bc a741 2d3c 1e57 dc3b 0256 69bc
00000340: f37b 863c 1062 5a3c 1b14 943c a715 603c
00000350: 9949 d83b 53fd 793c 4263 07bc 3667 433c
00000360: 38f4 f53b 4ea5 72bc 5dee 0fbc 5d4c 62bc
00000370: 3cd1 163c 53c7 523c 35bd 883b 6fca 643c
00000380: 90a7 3bbc 7441 8cbb b3f1 13bc 85c0 573c
00000390: 74d6 09bc f42e cc3c d50c 53bc 8c5e fdbb
000003a0: 18e0 763c 0aff 13bc 63e3 3bbc bc52 fbbb
000003b0: 23d2 73bc d04c ae3c 2b2d 6cbc 9c40 65bc
000003c0: ef62 90bc 909f e1bb c7fb 1ebc c82e 51bc
000003d0: fad3 92bb a6e8 19bc 55df bdbb 3b72 333c
000003e0: 6ae6 40bc 897a 89bc 0490 7e3c c70b 623c
000003f0: 91a7 543c 5342 0d3c a5f0 9cbc e0c7 b3bc

Network.2.weight f4 [256, 256]
-0.15735753 -0.11589571 -0.05882469 -0.053734876 0.020005018 0.0052569797 -0.0017468543 0.079946436
-0.024080446 0.068383284 -0.0681266 -0.075111724 0.017073099 -0.012386958 0.011935314 -0.06734038
-0.09616649 0.078704 0.020431485 0.034762867 -0.022913562 -0.1436731 0.18249086 0.14517651
-0.060578514 -0.039786287 -0.12262385 0.16394065 0.031865984 -0.08475281 0.06403149 -0.022964096
-0.10619698 -0.034151856 0.033857398 0.068978906 -0.02508825 0.1451854 -0.016903473 0.03337993
0.026468135 0.019433726 -0.074608885 -0.15421976 0.078154214 -0.015626429 0.07265697 0.032107543
-0.11801091 -0.19998723 -0.02474648 0.106522165 0.06081117 0.011182174 -0.023429364 -0.036294922
-0.089177385 0.018300237 -0.027625673 0.022434326 0.007186133 -0.00097651116 -0.01494629 -0.075455055
0.088468894 -0.0015149447 0.08904733 -0.09233063 -0.0019790183 0.06302499 -0.10196909 0.03760128
-0.08929599 -0.016644392 -0.027597256 0.11255894 -0.0083868485 0.06843788 0.06581963 0.044291873
0.081668004 -0.019408066 -0.089459464 0.011879676 -0.06263763 0.033123612 -0.16031408 0.081855975
-0.057453744 0.09210968 -0.0006454228 -0.031965677 0.12681739 -0.11412148 -0.06120058 -0.0837028
0.0243345 0.009126717 0.07220965 -0.043565348 -0.081329234 -0.057071354 -0.04703048 -0.11468382
0.11888739 0.061329905 0.055874016 -0.196624 0.02491859 -0.096666254 0.010592566 -0.10757461
-0.25813407 0.060224246 -0.010356631 0.011477581 0.07739259 0.1581163 0.13694909 -0.07802318
0.022075672 -0.15622114 0.20456088 -0.0018559798 0.07208871 -0.050248954 -0.19505154 -0.053702846
0.022419048 0.07045469 -0.14494948 -0.082731836 -0.08676856 0.036368016 0.20761202 -0.022069879
-0.14119186 0.18057954 -0.019375356 -0.11574161 -0.015164957 0.20923951 0.06428492 0.010836347
-0.05242649 -0.05495248 -0.06693765 0.09681758 0.013283626 0.040651947 -0.021638408 0.10962735
0.031735986 -0.0069602607 0.051965937 0.015738232 -0.0383791 -0.0802713 -0.029526658 -0.10147471
-0.13568228 0.0043171886 -0.022349795 -0.13700996 0.037519306 0.23236835 -0.054922506 -0.062335018
0.19611579 0.14443886 0.049909804 0.14661865 0.03507753 -0.026703093 -0.15014018 -0.07183775
0.099611856 -0.096507885 -0.02051963 0.0153085 0.0114769135 0.02207474 -0.051828142 0.016729647
0.1291885 -0.07111642 0.14542769 -0.043460757 0.004644673 0.09435194 -0.1238406 -0.070885584
-0.017858393 -0.08019238 -0.10899571 0.14476804 -0.0009615352 0.008208051 0.051933203 0.08160048
-0.05459877 0.09943339 -0.0835514 0.07885534 0.061715893 -0.10323261 0.012483353 0.03661727
0.14192188 0.13430004 0.019768398 0.10579768 0.007130658 -0.090441845 0.026699172 -0.09818128
-0.0071610855 -0.0034302922 -0.0942363 0.09391717 0.06400429 0.025674636 -0.017597087 -0.07987095
-0.19224744 0.0051818974 0.073282175 -0.066727504 0.06776775 0.059922513 0.087572135 -0.08932832
0.0123053305 -0.08594345 0.07886534 -0.1313926 0.10839726 0.12358259 0.06532993 0.0814738
0.08401057 -0.105608694 0.2107402 -0.035685945 0.009312138 -0.089539066 0.11235591 -0.059011705
-0.050583083 0.03232958 -0.16633864 0.08552338 0.054151002 0.23993066 0.019260991 0.0022784527
00000000: 5522 21be bb5a edbd 28f2 70bd 1a19 5cbd
00000010: 90e1 a33c be42 ac3b b4f6 e4ba f5ba a33d
00000020: 5b44 c5bc 890c 8c3d f585 8bbd 2dd4 99bd
00000030: e2dc 8b3c abf2 4abc 568c 433c c1e9 89bd
00000040: f0f2 c4bd 902f a13d ee5f a73c 8263 0e3d
00000050: 39b5 bbbc 0b1f 13be e2de 3a3e 27a9 143e
00000060: 2d21 78bd f2f6 22bd 3722 fbbd 0fe0 273e
00000070: e885 023d e292 adbd f122 833d 331f bcbc
00000080: cd7d d9bd d1e2 0bbd 0eae 0a3d d044 8d3d
00000090: e085 cdbc 7bab 143e 2779 8abc 65b9 083d
000000a0: b4d3 d83c 7a33 9f3c 8bcc 98bd c9eb 1dbe
000000b0: 510f a03d ff02 80bc 2dcd 943d 3383 033d
000000c0: b4af f1bd 74c9 4cbe 21b9 cabc 4b28 da3d
000000d0: 2215 793d 7035 373c f0ee bfbc fca9 14bd
000000e0: a2a2 b6bd 61ea 953c 3c4f e2bc 31c8 b73c
000000f0: a779 eb3b 8efc 7fba 49e1 74bc 2e88 9abd
00000100: 2e2f b53d 1c91 c6ba 725e b63d d717 bdbd
00000110: 6bb2 01bb 3f13 813d 2cd5 d0bd cd03 1a3d
00000120: d1e0 b6bd d259 88bc a413 e2bc 4d85 e63d
00000130: fe68 09bc 2929 8c3d 71cc 863d 656b 353d
00000140: 8e41 a73d aafd 9ebc 8636 b7bd f9a2 423c
00000150: 2848 80bd a0ac 073d 6029 24be 1ba4 a73d
00000160: 9e54 6bbd 00a4 bc3d 9731 29ba 71ee 02bd
00000170: 6bdc 013e 86b8 e9bd 76ad 7abd 606c abbd
00000180: 2559 c73c 3a88 153c a7e2 933d 9471 32bd
00000190: f18f a6bd a7c3 69bd 08a3 40bd 5adf eabd
000001a0: 3b7b f33d 1135 7b3d 27dc 643d cd57 49be
000001b0: 1222 cc3c f5f8 c5bd 718c 2d3c 1450 dcbd
000001c0: 262a 84be b3ad 763d dcae 29bc 770c 3c3c
000001d0: 0280 9e3d 3de9 213e 623c 0c3e 9eca 9fbd
000001e0: 0ad8 b43c 6ff8 1fbe 6878 513e 5944 f3ba
000001f0: 3fa3 933d d9d1 4dbd 97bb 47be 84f7 5bbd
00000200: 27a8 b73c 8c4a 903d a36d 14be 4f6f a9bd
00000210: b7b3 b1bd a1f6 143d 3f98 543e e4cb b4bc
00000220: 9994 10be d8e9 383e 11b9 9ebc f009 edbd
00000230: 7176 78bc e242 563e d0a7 833d ef8a 313c
00000240: 29bd 56bd da15 61bd 9b16 89bd 4c48 c63d
00000250: 91a3 593c a882 263d 0843 b1bc 4e84 e03d
00000260: 98fd 013d e612 e4bb 3cda 543d 77ed 803c
00000270: 6733 1dbd 4865 a4bd e4e1 f1bc f9d1 cfbd
00000280: 4cf0 0abe 3477 8d3b eb16 b7bc 574c 0cbe
00000290: d8ad 193d f8f1 6d3e 6cf6 60bd 0153 7fbd
000002a0: 94d2 483e c8e7 133e 396e 4c3d 3323 163e
000002b0: 75ad 0f3d 72c0 dabc 59be 19be ac1f 93bd
000002c0: 4d01 cc3d eda5 c5bd c818 a8bc 81d0 7a3c
000002d0: aa09 3c3c 16d6 b43c bf49 54bd 9d0c 893c
000002e0: fd49 043e 7ca5 91bd ffea 143e e803 32bd
000002f0: 5732 983b 973b c13d 24a0 fdbd 762c 91bd
00000300: c44b 92bc e73b a4bd 2539 dfbd 133e 143e
00000310: 890f 7cba 107b 063c e9b7 543d 271e a73d
00000320: f6a2 5fbd bca3 cb3d ff1c abbd e97e a13d
00000330: cec9 7c3d 9e6b d3bd fa86 4c3c fefb 153d
00000340: f853 113e f385 093e 56f1 a13c 74ac d83d
00000350: 4ba8 e93b 9339 b9bd 39b8 da3c 4413 c9bd
00000360: 8aa7 eabb c1ce 60bb f6fe c0bd a557 c03d
00000370: ae14 833d 9d53 d23c c427 90bc 6193 a3bd
00000380: 83dc 44be e8cc a93b f714 963d 6ea8 88bd
00000390: d1c9 8a3d 4f71 753d 0559 b33d c4f1 b6bd
000003a0: 4c9c 493c 1f03 b0bd 2784 a13d c88b 06be
000003b0: 62ff dd3d de18 fd3d b3cb 853d bcdb a63d
000003c0: bc0d ac3d 5f49 d8bd 47cc 573e 6d2b 12bd
000003d0: f091 183c 4260 b7bd db1a e63d 42b6 71bd
000003e0: 3530 4fbd 066c 043d ad54 2abe e226 af3d
000003f0: 71cd 5d3d 62b0 753e 3ac9 9d3c 1852 153b

Network.2.bias f4 [256]
-0.0032576309 0.009952598 -0.014003563 -0.010885194 -0.0152853355 -0.013369859 -0.019505188 0.011440458
0.012748366 0.009401721 0.005944956 0.010432434 -0.013122639 -0.013259503 0.010914226 0.008972384
-0.010540542 -0.012082866 0.014271102 -0.01145416 0.008611687 -0.0116616655 0.01481661 0.010811956
-0.013550488 0.0056944625 0.010210606 0.014638403 -0.01259595 -0.010991004 0.011776963 -0.008889089
-0.010618207 -0.012060792 0.010823244 0.010660474 -0.008936704 0.0094952 0.013671494 0.011164009
0.0108593255 -0.013968183 0.012820592 -0.014649287 0.010059998 -0.010963488 0.010631245 0.012235062
-0.013983651 -0.010430916 0.016716002 -0.011846245 0.009494118 -0.010451993 0.011579717 -0.012908935
-0.0012285198 0.015853746 0.009472766 0.008947046 -0.011633698 -0.010514054 -0.004406644 -0.0025102426
0.009656657 0.007658258 0.011371869 -0.007943241 -0.008445394 -0.008952344 0.008559625 0.008098748
0.015303774 0.0041652843 -0.011022407 0.013509497 -0.009767876 -0.010255742 -0.01450127 -0.011105089
0.0037976424 -0.010040373 -0.0007124682 -0.010581997 0.010710567 -0.010141405 -0.014175551 -0.009287843
0.01025487 0.0031107496 0.014997511 -0.0112525225 0.0061848154 0.0079034865 -0.0058701397 -0.011956323
0.0142335715 0.009908383 -0.0102900965 0.003728372 0.012293091 -0.009521256 -0.012190742 -0.010026739
0.00079589116 0.008063116 0.012312476 0.011011342 -0.0129221035 -0.004521506 0.013476718 -0.01135629
-0.010091856 -0.010517069 -0.011348879 0.014093334 0.013527443 0.011580481 0.015174713 -0.007338698
0.014500554 0.012468205 -0.0098414915 -0.009406501 -0.009873411 0.007398578 0.011454694 -0.012702742
0.013280226 0.006395302 -0.010437831 0.0108520845 -0.010262593 0.009380713 0.0032700493 -0.014675036
0.0003147051 0.013391913 0.010048442 -0.010118451 -0.010065709 -0.010590245 -0.0081311185 -0.012283076
-0.004418481 0.012648663 0.010185118 0.01173939 -0.013716157 0.010799954 -0.01740584 0.013176842
0.010525278 -0.00883752 0.011270777 -0.008034662 0.013137657 0.004149488 0.0060437275 -0.013084071
-0.009616542 0.010319608 -0.0096532805 -0.009587902 -0.011490324 0.009632129 -0.0017518435 0.01330431
0.011448061 -0.0054857074 -0.013373173 0.010563696 0.008896595 0.013045196 0.009770119 0.01101393
-0.013531289 0.013407838 -0.011004689 0.0123977605 -0.005322602 0.009411742 -0.0030389875 0.005313464
0.011857394 -0.012179182 -0.0026022287 0.012304983 0.0098676765 -0.012021441 -0.014725874 -0.012455766
-0.012909171 0.013846173 -0.013962045 0.011629333 -0.008976781 -0.003230411 -0.007526919 0.004952756
-0.009323172 -0.0107261995 0.01132569 -0.008647002 -0.011191014 0.010457301 -0.011003576 0.005656581
-0.009184752 0.010177797 -0.0025252497 -0.013952164 -0.009426093 0.0077644116 -0.0124788685 0.011588354
-0.01200513 0.0059424327 -0.011468901 0.009586275 0.008506946 -0.011724326 -0.01090825 0.008768359
-0.009339294 -0.001508522 -0.014717491 -0.010391901 -0.016237041 -0.010588696 0.011073443 -0.013305882
0.009676777 0.009912181 0.001341194 0.010851751 0.012658553 0.008544469 0.013953213 -0.011316229
0.010441741 0.011157039 0.0117443595 -0.012913535 -0.011343522 0.0126255285 -0.0030139121 0.010921299
0.010953678 -0.013335608 -0.01409756 -0.003571527 -0.009706488 0.010961014 0.01541876 -0.006883025
00000000: fa7d 55bb 3910 233c 336f 65bc d057 32bc
00000010: 586f 7abc 410d 5bbc 58c9 9fbc c270 3b3c
00000020: 86de 503c ad09 1a3c e8cd c23b cdec 2a3c
00000030: 5600 57bc 633e 59bc 95d1 323c e800 133c
00000040: 3db2 2cbc 37f7 45bc 57d1 693c 3baa 3bbc
00000050: 0918 0d3c 9210 3fbc 5ec1 723c a124 313c
00000060: de02 5ebc 9d98 ba3b 634a 273c ead5 6f3c
00000070: 3e5f 4ebc 9d13 34bc 2af4 403c 8ba3 11bc
00000080: fdf7 2dbc a19a 45bc fa53 313c 45a9 2e3c
00000090: 416b 12bc c191 1b3c 67fe 5f3c 3fe9 363c
000000a0: 50eb 313c ceda 64bc 760d 523c 9003 70bc
000000b0: b1d2 243c 34a0 33bc ac2e 2e3c 9275 483c
000000c0: af1b 65bc 6fe6 2abc ffef 883c c116 42bc
000000d0: 388d 1b3c d63e 2bbc dab8 3d3c ff7f 53bc
000000e0: 4906 a1ba b7df 813c a933 1b3c a196 123c
000000f0: 449b 3ebc 2443 2cbc 9c65 90bb e282 24bb
00000100: f536 1e3c 20f2 fa3b 1351 3a3c 5e24 02bc
00000110: 8d5e 0abc daac 12bc ab3d 0c3c 9cb0 043c
00000120: aebc 7a3c f07c 883b 5397 34bc f056 5d3c
00000130: 7109 20bc b307 28bc bc96 6dbc 1ff2 35bc
00000140: dee1 783b 6080 24bc eec4 3aba 1d60 2dbc
00000150: 607b 2f3c 2328 26bc 9240 68bc 092c 18bc
00000160: 0b04 283c b8dd 4b3b 1fb8 753c 805c 38bc
00000170: fea9 ca3b a07d 013c 4d5a c0bb 74e4 43bc
00000180: ed33 693c c556 223c cb97 28bc b457 743b
00000190: f668 493c 0bff 1bbc aebb 47bc 3147 24bc
000001a0: 5aa3 503a 291b 043c 44ba 493c ea68 343c
000001b0: 3bb7 53bc 2429 94bb 74cd 5c3c bc0f 3abc
000001c0: 5058 25bc c94f 2cbc a6f0 39bc bae7 663c
000001d0: 35a2 5d3c 0fbc 3d3c 5c9f 783c 7679 f0bb
000001e0: bb93 6d3c 7147 4c3c 353e 21bc ba1d 1abc
000001f0: 16c4 21bc c56f f23b 78ac 3b3c 291f 50bc
00000200: 4e95 593c ae8f d13b 7003 2bbc f1cc 313c
00000210: 6f24 28bc 90b1 193c 534e 563b 906f 70bc
00000220: 01ff a439 c169 5b3c 38a2 243c dcc7 25bc
00000230: a5ea 24bc b582 2dbc 6238 05bc f43e 49bc
00000240: e8c8 90bb 563c 4f3c 7bdf 263c 9256 403c
00000250: bbb9 60bc 4af2 303c b196 8ebc aee3 573c
00000260: 3772 2c3c 3fcb 10bc 11a9 383c d1a3 03bc
00000270: 543f 573c 6ef8 873b 760a c63b 925e 56bc
00000280: b38e 1dbc 9313 293c cb28 1ebc 9316 1dbc
00000290: e941 3cbc 14d0 1d3c 1d9e e5ba 52fa 593c
000002a0: a690 3b3c 73c1 b3bb 271b 5bbc 5a13 2d3c
000002b0: 06c3 113c 85bb 553c d912 203c c573 343c
000002c0: 57b2 5dbc 8cac 5b3c 034d 34bc fa1f 4b3c
000002d0: 3969 aebb b533 1a3c c029 47bb 911c ae3b
000002e0: 8445 423c 318b 47bc 278a 2abb d79a 493c
000002f0: 09ac 213c 94f5 44bc cb44 71bc 4513 4cbc
00000300: fd80 53bc 0fdb 623c 10c1 64bc f588 3e3c
00000310: 5913 13bc 4eb5 53bb 5fa4 f6bb bb4a a23b
00000320: 38c0 18bc f1bc 2fbc 638f 393c 28ac 0dbc
00000330: 845a 37bc 1955 2b3c 5848 34bc d75a b93b
00000340: a47b 16bc c6c0 263c a97e 25bb 9e97 64bc
00000350: e66f 1abc 9b6c fe3b 2b74 4cbc 14dd 3d3c
00000360: 2ab1 44bc bdb8 c23b 0fe8 3bbc c00f 1d3c
00000370: b860 0b3c 6317 40bc 84b8 32bc 2aa9 0f3c
00000380: d703 19bc 99b9 c5ba a221 71bc cb42 2abc
00000390: 8b03 85bc 367c 2dbc 636d 353c ea00 5abc
000003a0: 588b 1e3c b366 223c 01cb af3a 8bcb 313c
000003b0: d265 4f3c 1afe 0b3c 049c 643c b467 39bc
000003c0: d613 2b3c 03cc 363c 6a6b 403c 4b93 53bc
000003d0: 2eda 39bc 4edb 4e3c 0e85 45bb 40ef 323c
000003e0: 0e77 333c 987d 5abc 74f9 66bc 4810 6abb
000003f0: f607 1fbc d395 333c f79e 7c3c 008b e1bb

Network.4.weight f4 [128, 256]
0.048481677 -0.13606171 -0.14310011 0.0064345417 0.067326784 0.13328615 -0.028650407 -0.018806927
0.035244845 -0.029867843 0.11097302 -0.06409058 -0.08926433 0.15831879 0.05648641 0.1349052
0.0044754534 0.037204053 -0.15689121 0.06516487 0.12048046 0.07418018 0.09925997 -0.054451752
0.122829795 0.023846123 -0.06254088 -0.008326756 0.018331595 0.008949026 -0.149099 0.08313183
0.025614174 0.0020416807 -0.06061395 -0.05757611 0.08404771 -0.023014996 0.09142632 -0.057511546
-0.2203016 0.12291446 0.0016181222 0.06647881 0.02207934 -0.057495862 0.053883445 0.14523329
0.011513167 0.091537155 0.05851513 -0.0239085 -0.017147154 -0.09586502 0.012760646 0.16818792
-0.060903933 -0.01786805 -0.08895767 0.044038385 0.05837 0.024276903 -0.074410565 -0.01265791
-0.019394303 0.24375881 -0.12851724 -0.04911667 0.10695327 -0.039453324 -0.009911189 -0.051720817
-0.010787839 0.020175425 0.20526975 0.0014291239 0.061886422 -0.06513803 0.05042587 0.11651584
0.09477723 0.059056554 0.06666937 0.063109055 -0.0940061 -0.11619266 -0.009092839 -0.049511936
0.06796987 0.046777472 0.015548004 -0.008566648 0.051285353 0.15208021 -0.048693594 0.23093042
-0.08220611 -0.012227983 -0.0012282117 0.06535707 -0.06570831 0.015252003 -0.07021731 0.18564996
0.07735973 0.0052134334 -0.008161391 -0.11984326 0.16151328 0.008943591 0.13714899 -0.013888811
-0.02992571 -0.036719583 -0.056228906 -0.0140492655 0.047810156 0.045808196 -0.080212384 0.012995835
0.0031838713 -0.06498256 0.0692157 -0.1104508 0.05398206 -0.086472206 0.0005390191 -0.09176831
-0.08954097 -0.16181469 0.21904367 -0.00088192587 -0.14900747 0.12729734 0.013753475 0.0441992
0.25924376 -0.028680434 -0.0075118192 0.10298289 -0.026704768 0.010964649 0.09493342 -0.05950667
-0.13334276 -0.068970464 0.023028173 -0.028400688 -0.013409293 -0.008053953 -0.009705132 -0.05926303
-0.00063986436 -0.01842132 0.076960534 0.22391604 -0.111976154 -0.043784898 -0.044471305 -0.09265203
0.0014061715 -0.074516796 0.06517922 0.09500853 -0.004438274 -0.0887693 -0.03895602 0.094332375
-0.07640155 0.06631757 -0.09141996 -0.09327872 0.009257694 -0.0725088 -0.017322082 -0.09385295
0.0646528 0.0735054 -0.03344087 0.00891399 -0.22169724 0.0049241553 0.07791554 -0.11839765
-0.04835606 0.10916217 0.08201052 -0.14099988 0.03141671 0.040194415 0.1670293 0.086460896
-0.13599186 0.0321061 -0.07347898 -0.0865458 0.13383123 -0.004524816 0.037794154 -0.13414115
-0.02106385 0.09989161 -0.02651895 0.073145926 -0.052498072 0.040449508 0.056419443 -0.08838796
0.052391466 -0.028900858 -0.005369606 0.26513717 0.02162582 -0.13579243 -0.16055386 -9.4955205e-05
-0.10492089 -0.04392655 0.109425806 -0.16247325 -0.01369096 0.049077388 -0.054240715 -0.22855659
0.11868637 0.091371365 0.13193384 0.084414855 0.15487646 0.023969578 0.09948283 0.069648266
0.04076711 -0.00498934 -0.007214905 -0.14718534 -0.04883478 -0.057062 -0.14615533 -0.030822583
0.0052842456 -0.06374769 0.056462567 -0.06744833 -0.14106914 -0.0029730077 0.0810568 0.044479486
-0.030202292 0.09706933 -0.0723678 0.0050789574 0.10949798 -0.18759198 0.15774058 0.057053473
00000000: b994 463d c353 0bbe d688 12be d9d8 d23b
00000010: a0e2 893d 2a7c 083e 42b4 eabc fc10 9abc
00000020: e65c 103d 68ad f4bc d345 e33d ec41 83bd
00000030: 38d0 b6bd 521e 223e 4b5e 673d 9724 0a3e
00000040: d3a6 923b 4763 183d 17a8 20be 2975 853d
00000050: 76be f63d c7eb 973d d048 cb3d cd08 5fbd
00000060: 308e fb3d f258 c33c 6f15 80bd f26c 08bc
00000070: 242c 963c f09e 123c 69ad 18be 0541 aa3d
00000080: d1d4 d13c b8cd 053b 5546 78bd edd4 6bbd
00000090: 3521 ac3d f289 bcbc b93d bb3d 3a91 6bbd
000000a0: be96 61be 94ba fb3d 2c17 d43a 0b26 883d
000000b0: bbdf b43c c880 6bbd e3b4 5c3d 09b8 143e
000000c0: b9a1 3c3c d577 bb3d 90ad 6f3d c2db c3bc
000000d0: 3078 8cbc e154 c4bd 0712 513c 7439 2c3e
000000e0: 6776 79bd 0460 92bc 702f b6bd 9861 343d
000000f0: 6215 6f3d 5be0 c63c 9164 98bd 1f63 4fbc
00000100: cde0 9ebc e99b 793e 069a 03be 902e 49bd
00000110: 510a db3d cf99 21bd 8a62 22bc 35d9 53bd
00000120: 7abf 30bc ef46 a53c 3c32 523e 7151 bb3a
00000130: 9e7c 7d3d 1667 85bd 5b8b 4e3d db9f ee3d
00000140: 901a c23d 49e5 713d f389 883d 523f 813d
00000150: 4586 c0bd 6bf6 edbd 22fa 14bc 07cd 4abd
00000160: ca33 8b3d bc99 3f3d 0ebd 7e3c 205b 0cbc
00000170: 9710 523d eaba 1b3e ef72 47bd 0679 6c3e
00000180: ad5b a8bd e157 48bc f2fb a0ba edd9 853d
00000190: 1492 86bd 8ae3 793c 18ce 8fbd 061b 3e3e
000001a0: c76e 9e3d 73d5 aa3b 5bb7 05bc 6270 f5bd
000001b0: bd63 253e 2488 123c c970 0c3e e58d 63bc
000001c0: c326 f5bc 4667 16bd 4850 66bd e42e 66bc
000001d0: 95d4 433d 60a1 3b3d 6446 a4bd 7cec 543c
000001e0: 7fa8 503b 9415 85bd f6c0 8d3d 0734 e2bd
000001f0: 4b1c 5d3d 5718 b1bd f64c 0d3a 06f1 bbbd
00000200: 4261 b7bd c0b2 25be fc4c 603e 0b31 67ba
00000210: 6a95 18be 3c5a 023e 4156 613c 380a 353d
00000220: 99bb 843e 3bf3 eabc b525 f6bb b2e8 d23d
00000230: f5c3 dabc 12a5 333c 746c c23d 44bd 73bd
00000240: 018b 08be 6340 8dbd 94a5 bc3c 8fa8 e8bc
00000250: a7b2 5bbc baf4 03bc 4602 1fbc cabd 72bd
00000260: 92bc 27ba 4fe8 96bc 7c9d 9d3d 3f4a 653e
00000270: c153 e5bd cb57 33bd 8b27 36bd 59c0 bdbd
00000280: 494f b83a 439c 98bd af7c 853d d593 c23d
00000290: f16e 91bb aecc b5bd 5990 1fbd 5531 c13d
000002a0: 6a78 9cbd 82d1 873d 633a bbbd ea08 bfbd
000002b0: 95ad 173c 7e7f 94bd 0ae7 8dbc fa35 c0bd
000002c0: b068 843d 008a 963d 4bf9 08bd fc0b 123c
000002d0: 9a04 63be cf5a a13b 2f92 9f3d 787a f2bd
000002e0: 0111 46bd 6a90 df3d 22f5 a73d 4662 10be
000002f0: cfae 003d e6a2 243d bb09 2b3e 6912 b13d
00000300: 7341 0bbe b081 033d 267c 96bd ed3e b1bd
00000310: 0e0b 093e e844 94bb 0bce 1a3d 4c5c 09be
00000320: 188e acbc f993 cc3d 453e d9bc 88cd 953d
00000330: 3808 57bd 62ae 253d 1318 673d bf04 b5bd
00000340: 6f98 563d 7ec1 ecbc 85f3 afbb 0fc0 873e
00000350: a228 b13c 2c0d 0bbe 3b68 24be b022 c7b8
00000360: c3e0 d6bd 53ec 33bd a31a e03d 635f 26be
00000370: 0c50 60bc 5f05 493d 832b 5ebd bd0a 6abe
00000380: d711 f33d e920 bb3d aa19 073e b2e1 ac3d
00000390: ef97 1e3e d95b c43c a7bd cb3d c0a3 8e3d
000003a0: 6afb 263d 9e7d a3bb 036b ecbb c1b7 16be
000003b0: fa06 48bd d8b9 69bd bea9 15be a47f fcbc
000003c0: 7727 ad3b 268e 82bd 4b45 673d 5a22 8abd
000003d0: 6e74 10be cbd6 42bb 1c01 a63d 1f30 363d
000003e0: cc6a f7bc 49cc c63d 9235 94bd 626d a63b
000003f0: 7a40 e03d 1d18 40be bf86 213e e7b0 693d

Network.4.bias f4 [128]
-0.012467407 0.016211823 0.00945328 0.017940255 0.0175834 -0.017759025 -0.01461388 -0.015735526
0.010834782 0.013385215 0.014608658 -0.015392892 -0.021166975 -0.012199844 -0.018343987 0.010279754
-0.015410659 -0.021150786 0.016045636 0.0118232155 0.011458484 0.0142651675 -0.01081201 -0.01233624
-0.01455165 -0.013151733 -0.010591185 0.012683424 0.010662948 -0.010299645 -0.021891437 0.017699404
0.011509375 0.015156522 0.011370983 -0.0142824985 0.012249592 -0.013437848 0.013613694 0.01826569
-0.010323351 -0.015735261 -0.015020816 0.0138793625 -0.01855116 0.01348079 0.017102506 -0.014703952
0.01613256 -0.01656394 0.010910852 0.0076051424 0.012593116 0.011836189 -0.019274723 -0.019552821
0.019382838 -0.016778145 -0.01165493 0.022148302 -0.008444036 -0.0126837045 0.015519313 -0.011596989
0.01481295 -0.018413074 -0.014470084 -0.008612766 -0.011209062 -0.014357119 0.015350261 0.012181676
-0.008406022 -0.012449696 0.013508096 0.0098997345 -0.013281106 0.01614171 -0.014408256 -0.022187646
-0.013993747 0.011062663 0.021575002 0.015945278 0.01004745 0.015524172 -0.011451827 0.009318058
0.0108895395 0.013987042 -0.018152446 -0.009725104 -0.019765638 0.014255698 0.011281868 0.013706323
0.0131851155 0.013523288 -0.01627373 0.01834013 0.01847489 -0.009879143 -0.015632559 -0.01762422
-0.0143323485 0.017876217 -0.011219671 0.014769656 0.019957656 -0.01530796 0.012250679 0.011710218
-0.009000342 0.015131523 -0.009074087 0.012968806 -0.011859883 -0.016746076 0.010884958 0.010094731
-0.021199293 -0.015390975 -0.016040353 0.010587438 0.009483266 0.012667965 -0.013727007 -0.011503184
00000000: 1844 4cbc a8ce 843c eee1 1a3c 71f7 923c
00000010: 100b 903c 607b 91bc 0e6f 6fbc cae7 80bc
00000020: 5f84 313c a94d 5b3c 2759 6f3c 7832 7cbc
00000030: 5d66 adbc dbe1 47bc 2146 96bc 6a6c 283c
00000040: fd7c 7cbc 6a44 adbc 2372 833c 29b6 413c
00000050: 5ebc 3b3c 73b8 693c db24 31bc f11d 4abc
00000060: 0b6a 6ebc 5e7a 57bc a686 2dbc 23ce 4f3c
00000070: a5b3 2e3c d8bf 28bc ac55 b3bc 57fe 903c
00000080: d191 3c3c 1053 783c 5c4d 3a3c 2401 6abc
00000090: 83b2 483c 6b2a 5cbc f90b 5f3c eea1 953c
000000a0: 4623 29bc 3ce7 80bc de19 76bc 4466 633c
000000b0: 9af8 97bc 88de 5c3c 8e1a 8c3c d8e8 70bc
000000c0: 6e28 843c 1ab1 87bc 6ec3 323c 8f34 f93b
000000d0: 5b53 4e3c 93ec 413c 06e6 9dbc 3d2d a0bc
000000e0: c2c8 9e3c 5272 89bc 52f4 3ebc 5b70 b53c
000000f0: db58 0abc 50cf 4fbc b744 7e3c 4c01 3ebc
00000100: 04b2 723c 04d7 96bc ee13 6dbc 8f1c 0dbc
00000110: 37a6 37bc 1f3a 6bbc a97f 7b3c a795 473c
00000120: 69b9 09bc cff9 4bbc 1051 5d3c 7f32 223c
00000130: ff98 59bc 9f3b 843c 9b10 6cbc dec2 b5bc
00000140: 0746 65bc 2c40 353c 0fbe b03c ac9f 823c
00000150: 0f9e 243c 1959 7e3c 72a0 3bbc c5aa 183c
00000160: 0a6a 323c e829 653c 70b4 94bc 0b56 1fbc
00000170: 8ceb a1bc bb90 693c 96d7 383c 7c90 603c
00000180: 6206 583c c890 5d3c 7c50 85bc 0a3e 963c
00000190: a758 973c 21dc 21bc da0f 80bc ab60 90bc
000001a0: 3ad2 6abc 2571 923c b6d2 37bc 6dfc 713c
000001b0: 3d7e a33c 3dce 7abc 12b7 483c 37dc 3f3c
000001c0: 2c76 13bc 35ea 773c 7bab 14bc 1d7b 543c
000001d0: f44f 42bc 112f 89bc d356 323c 5f64 253c
000001e0: 24aa adbc 6e2a 7cbc 0f67 83bc ef76 2d3c
000001f0: b35f 1b3c 4c8d 4f3c 3ee7 60bc da77 3cbc

Actor.weight f4 [5, 128]
0.0034223183 -0.032332715 -0.0078553185 -0.010447421 -0.0044422424 0.0005538602 -0.008961983 -0.013528919
-0.010591161 0.002900338 0.0017269821 0.00032230854 0.005076605 0.0029876162 0.02116079 -0.016061116
-0.0018428795 0.01812148 0.005065479 -0.0043985206 0.007130493 0.0011773774 -0.0034649987 0.008714323
0.005074587 0.01990494 0.0037098324 -0.0028645657 -0.0018041658 -0.009779276 0.022396283 0.0027645833
0.0017381777 -0.0037815156 -0.0044991695 0.008964853 -0.006001261 0.010862836 -0.0034060287 -0.016912833
0.009716105 0.010766908 -0.0076239626 -0.00214613 0.009255486 0.01024911 0.006867761 0.0102017475
-0.00094921514 0.0036590276 -0.012987434 -0.030818308 0.00024924014 -0.007941924 0.017066635 0.0077709607
-0.0029446303 -0.009648025 0.014755931 -0.001454354 0.0044837445 -0.01914755 0.0059480644 -0.0047430494
-0.00436295 0.006666537 -0.009599949 -0.0043392424 0.01686249 -0.00017438264 -0.020913877 0.009530287
-0.006611266 -0.0023709878 -0.012525323 0.014616806 0.018911552 -0.015430454 -0.0045195417 0.003305997
0.0027252603 -0.004290551 -0.014753881 -0.004486957 0.011748469 -0.008421557 0.010848955 -0.0038690725
0.0025327315 0.0067511466 -0.0009867323 0.015664458 0.003474143 0.016725527 -0.006402532 -0.003075105
1.8876744e-07 0.00073716755 0.011186792 0.011601865 0.00528551 0.01022176 0.00732026 0.008160685
-0.0019217354 -0.010607414 0.011024746 -0.0053969594 -0.005212421 -0.011040956 0.0024451867 0.0074276295
-0.0065567843 -0.01429587 -0.0014045383 -0.0008787324 -0.00071001356 0.020180093 -0.017360417 -0.0008808813
0.016163755 0.0005022398 0.004262447 -0.0069069983 -0.003917766 0.0037968613 0.004487017 -0.0022425202
-0.024724646 0.00955034 -0.004613971 0.008555968 -0.0040702177 -0.021270445 -0.006580882 -0.010692263
0.010515007 0.015939431 0.01035627 -0.0053194575 -0.017127067 -0.0031740982 -0.00073688873 -0.004921656
0.0063398327 -0.0012514555 -0.0051590875 0.012455568 0.0027536633 -0.009909879 -0.007433572 -0.0041765543
-0.0061231796 0.00535064 0.0061893123 0.0028749856 -0.0102964 0.013392363 -0.010999679 0.0084556015
0.0031800023 -0.006340497 0.00698742 -0.007964346 0.010829601 -0.0035616457 -0.003728536 0.008185893
0.002376569 0.001408045 -0.004154369 0.0064612394 -0.0058150287 0.012608554 -0.0014370771 -0.00255032
0.005464024 0.005476957 0.010016285 0.003846165 -0.003624854 0.0023563649 -0.007741834 0.011252551
-0.010233763 0.011814654 -0.009975446 0.011831142 0.010209835 -0.010090129 0.012523515 0.0065790243
0.0056726215 -0.008832448 -0.001554504 0.0021439914 0.009345021 -0.0039004504 0.008499158 -0.0013091408
0.008100313 -0.023433471 0.0056242202 -0.018288504 -0.015571065 0.009699245 0.0086457655 -0.03108856
0.013242345 0.0072734016 0.008434632 0.0075270305 0.0008522348 -0.01729991 0.00533556 0.010900368
0.0013680365 -0.011508229 -0.018125227 0.004911614 -0.01607366 -0.0013533097 -0.0012598619 0.0033396538
0.0020084386 -0.009807914 -0.010312381 -0.000969535 0.016035356 0.006830312 -0.0020390344 0.0044529676
0.0059405374 0.0034462842 0.006664448 0.023615811 0.004168452 -0.0052159927 0.0030160318 0.016651958
-0.022436244 0.014292413 -0.0040919865 -0.0018054371 -0.0077829184 -0.021652896 0.001134307 0.0018268065
0.011787527 -0.0065986463 -0.011026169 -0.0021486008 -0.008220314 -0.0068707853 0.010645949 -0.0073509193
00000000: f948 603b 4f6f 04bd 98b3 00bc a92b 2bbc
00000010: 3b90 91bb ee30 113a 48d5 12bc 66a8 5dbc
00000020: 8d86 2dbc 9913 3e3b e75b e23a 85fb a839
00000030: a659 a63b e2cb 433b 6559 ad3c 9a92 83bc
00000040: c68c f1ba 7f73 943c 51fc a53b 7721 90bb
00000050: e9a6 e93b 3b52 9a3a 0815 63bb 85c6 0e3c
00000060: b948 a63b af0f a33c a920 733b 70bb 3bbb
00000070: c279 ecba 4239 20bc 6978 b73c 032e 353b
00000080: 91d3 e33a 4ed3 77bb c56d 93bb 52e1 123c
00000090: 3aa6 c4bb 09fa 313c ae37 5fbb c88c 8abc
000000a0: 4c30 1f3c af67 303c 6fd2 f9bb 16a6 0cbb
000000b0: 52a4 173c e2eb 273c f40a e13b 3b25 273c
000000c0: c0d4 78ba 4ccc 6f3b 3fc9 54bc ad76 fcbc
000000d0: 72ac 8239 d81e 02bc 54cf 8b3c 8ba3 fe3b
000000e0: b3fa 40bb c012 1ebc dcc2 713c 06a0 beba
000000f0: 60ec 923b 53db 9cbc fbe7 c23b 956b 9bbb
00000100: 14f7 8ebb f772 da3b 1b49 1dbc 3430 8ebb
00000110: 3423 8a3c 7cda 36b9 9453 abbc ec24 1c3c
00000120: 52a3 d8bb 9362 1bbb 0337 4dbc 547b 6f3c
00000130: 66ec 9a3c 04d0 7cbc aa18 94bb 6da9 583b
00000140: 489a 323b c097 8cbb 43ba 71bc 5307 93bb
00000150: a77c 403c 92fa 09bc d1bf 313c 4490 7dbb
00000160: 2ffc 253b b938 dd3b 3e55 81ba c052 803c
00000170: 73ae 633b f903 893c 55cc d1bb b387 49bb
00000180: 00b0 4a34 7a3e 413a ce48 373c c015 3e3c
00000190: 1232 ad3b 2b79 273c cbde ef3b 65b4 053c
000001a0: bde2 fbba b8ca 2dbc 23a1 343c fad8 b0bb
000001b0: f5cc aabb 20e5 34bc 6d3f 203b 7963 f33b
000001c0: 4bda d6bb 3a39 6abc 7c18 b8ba bc5a 66ba
000001d0: 3420 3aba b950 a53c 6f37 8ebc f2ea 66ba
000001e0: da69 843c bea8 033a ffab 8b3b 1a54 e2bb
000001f0: 9a60 80bb c3d4 783b d407 933b 3ff7 12bb
00000200: 578b cabc 0779 1c3c cb30 97bb 552e 0c3c
00000210: 765f 85bb 5b3f aebc 70a4 d7bb 9a2e 2fbc
00000220: 2347 2c3c 6993 823c 58ad 293c d84e aebb
00000230: 104e 8cbc 8804 50bb c42b 41ba d845 a1bb
00000240: 5fbe cf3b e107 a4ba 900d a9bb 7012 4c3c
00000250: ce76 343b 0c5d 22bc 5295 f3bb 7adb 88bb
00000260: f4a4 c8bb 6c54 af3b b7cf ca3b 416a 3c3b
00000270: 3bb2 28bc a46b 5b3c ff37 34bc 5d89 0a3c
00000280: 9667 503b f2c3 cfbb baf6 e43b e37c 02bc
00000290: a46e 313c 806a 69bb 745a 74bb 201e 063c
000002a0: 36c0 1b3b 268e b83a 5f21 88bb ceb8 d33b
000002b0: ff8b bebb 1c94 4e3c 4e5c bcba 4523 27bb
000002c0: 8e0b b33b 0c78 b33b 581b 243c f10f 7c3b
000002d0: f58e 6dbb 3e6d 1a3b 36af fdbb 9f5c 383c
000002e0: 83ab 27bc 4092 413c 0e70 23bc 68d7 413c
000002f0: 2747 273c 1251 25bc 6e2f 4d3c db94 d73b
00000300: 66e1 b93b f9b5 10bc 80c0 cbba 3582 0c3b
00000310: dc1b 193c b39e 7fbb 0d40 0b3c 7a97 abba
00000320: 2db7 043c 8df7 bfbc 614b b83b c6d1 95bc
00000330: c81d 7fbc 95e9 1e3c f8a6 0d3c 70ad febc
00000340: 6cf6 583c b755 ee3b 6931 0a3c 4fa5 f63b
00000350: 8268 5f3a 8ab8 8dbc ecd5 ae3b 7597 323c
00000360: b04f b33a 038d 3cbc 5b7b 94bc 9bf1 a03b
00000370: e9ac 83bc 8a61 b1ba f321 a5ba 18de 5a3b
00000380: 02a0 033b 5fb1 20bc 43f5 28bc 6428 7eba
00000390: 945c 833c cfd0 df3b 52a1 05bb 33ea 913b
000003a0: d7a8 c23b 0edb 613b 7161 da3b f275 c13c
000003b0: 8397 883b ebea aabb 9ea8 453b b069 883c
000003c0: 37cc b7bc ba2a 6a3c 1216 86bb 6ba4 ecba
000003d0: da07 ffbb 6a61 b1bc 07ad 943a 7471 ef3a
000003e0: 7920 413c 7539 d8bb 1ba7 34bc 8acf 0cbb
000003f0: 7fae 06bc 5324 e1bb 596c 2e3c fbdf f0bb

Actor.bias f4 [5]
-0.0020686176 -0.0010449416 0.006410096 -0.00529862 0.0073361886
00000000: a591 07bb 6cf6 88ba c80b d23b 0ca0 adbb
00000010: 6964 f03b

Critic.weight f4 [1, 128]
-0.26406288 0.2503237 0.3117846 0.17767802 0.18284288 -0.20623225 -0.2092869 -0.22547026
0.3379897 0.2471696 0.16955867 -0.23443717 -0.18300661 -0.26786658 -0.18105477 0.33669266
-0.18365033 -0.17914127 0.2174036 0.22374025 0.20334359 0.2627673 -0.20847785 -0.23423892
-0.18069203 -0.21377295 -0.29125562 0.24713004 0.25617418 -0.27485952 -0.17758207 0.19326954
0.21846572 0.22853453 0.2299105 -0.20376477 0.24227042 -0.20360847 0.21968874 0.16701856
-0.16978177 -0.17167139 -0.17566228 0.28280842 -0.17930542 0.26604918 0.1791059 -0.28261313
0.17120561 -0.18309829 0.24164376 0.17986058 0.1964862 0.24604747 -0.1706069 -0.16567627
0.16423503 -0.19115958 -0.2840258 0.180556 -0.41194034 -0.21669059 0.1952589 -0.35115895
0.2299459 -0.20119803 -0.22090532 -0.33979526 -0.25917366 -0.22192506 0.25273296 0.28014112
-0.34937137 -0.31149453 0.19140397 0.30941895 -0.25496736 0.21612003 -0.21307442 -0.18018322
-0.3240056 0.31287327 0.18821003 0.18927 0.26457638 0.2229785 -0.21354313 0.24641706
0.2836926 0.23952204 -0.21335357 -0.28204924 -0.16924338 0.20655255 0.22280513 0.21891342
0.18804999 0.23572206 -0.18535008 0.18231146 0.19627428 -0.31212676 -0.21325602 -0.16999653
-0.20628047 0.18226977 -0.2336167 0.19507836 0.17657426 -0.1847793 0.22081564 0.29993194
-0.33144486 0.24426675 -0.27396235 0.27322355 -0.2632522 -0.25285238 0.21383457 0.22269306
-0.16833764 -0.23696075 -0.22175115 0.2357316 0.29413295 0.19152892 -0.23628093 -0.28738463
00000000: 4033 87be 6e2a 803e 3ba2 9f3e 3af1 353e
00000010: 2a3b 3b3e 8c2e 53be 4e4f 56be ade1 66be
00000020: fc0c ad3e 071a 7d3e caa0 2d3e 4c10 70be
00000030: 1666 3bbe cf25 89be 6c66 39be fb62 ac3e
00000040: d50e 3cbe cf70 37be 0d9f 5e3e 2a1c 653e
00000050: 4d39 503e 6f89 863e 387b 55be 54dc 6fbe
00000060: 5507 39be 4ce7 5abe 751f 95be a80f 7d3e
00000070: 4329 833e 63ba 8cbe 13d8 35be 73e8 453e
00000080: 7ab5 5f3e f504 6a3e a86d 6b3e b6a7 50be
00000090: bd15 783e bd7e 50be 16f6 603e ea06 2b3e
000000a0: 46db 2dbe a0ca 2fbe d0e0 33be 44cc 903e
000000b0: d79b 37be 9937 883e 8967 373e abb2 90be
000000c0: 8650 2f3e 1e7e 3bbe 7671 773e 5f2d 383e
000000d0: ae33 493e def3 7b3e 93b3 2ebe 0aa7 29be
000000e0: 3a2d 283e 56bf 43be d46b 91be ace3 383e
000000f0: d8e9 d2be 23e4 5dbe f3f1 473e 1bcb b3be
00000100: f076 6b3e db06 4ebe 0135 62be a5f9 adbe
00000110: 69b2 84be 5340 63be 3766 813e a86e 8f3e
00000120: cee0 b2be 367c 9fbe 67ff 433e 296c 9e3e
00000130: 158b 82be 924e 5d3e 2e30 5abe f381 38be
00000140: 10e4 a5be ed30 a03e 21ba 403e ffcf 413e
00000150: 8e76 873e 7a54 643e 0dab 5abe c154 7c3e
00000160: 2840 913e 4445 753e 5c79 5abe c268 90be
00000170: 234e 2dbe 8382 533e 0727 643e d72a 603e
00000180: 2d90 403e 2061 713e 69cc 3dbe dbaf 3a3e
00000190: 20fc 483e 14cf 9fbe c95f 5abe 9213 2ebe
000001a0: 303b 53be eda4 3a3e 3739 6fbe 9fc2 473e
000001b0: e2cf 343e c936 3dbe 7f1d 623e ae90 993e
000001c0: 24b3 a9be 1021 7a3e cb44 8cbe f5e3 8b3e
000001d0: fec8 86be de75 81be 73f7 5a3e a609 643e
000001e0: b460 2cbe d7a5 72be bc12 63be a063 713e
000001f0: 9898 963e 2820 443e a1f3 71be 1424 93be
