ppo_highway_agent1.pth (torch, 680260 bytes, 7 tensors)

Network.0.weight f4 [512, 70]
0	0x3defc7eb	0.11708053
1	0xbd24c6bd	-0.040228594
2	0x3b5bc06f	0.0033531447
3	0x3cdc82bd	0.02691781
4	0x3c9cabbc	0.019124858
5	0xbb9be041	-0.0047569578
6	0x3d8cb69f	0.0687077
7	0xbcb0d11f	-0.021584092
8	0x3e17e7e8	0.14834559
9	0xbd465b79	-0.04842708
10	0x3d2c767a	0.042105176
11	0xbd7f4cb3	-0.062329005
12	0x3e3458ab	0.17611949
13	0xbc6755c7	-0.014119572
14	0x3cd8086f	0.026371209
15	0x3dbf7c67	0.093499
16	0xbd64ef84	-0.055892482
17	0x3d912b1d	0.07088301
18	0x3d8bd0b9	0.0682692
19	0xbd9ddc8e	-0.07708083
20	0x3d014518	0.031560034
21	0x3d391195	0.045182783
22	0x3c996b7c	0.01872801
23	0x3d05b19b	0.03264008
24	0x3e25323f	0.16132449
25	0x3dbb8fad	0.09158263
26	0xbdb20067	-0.08691483
27	0x3dedc957	0.11610668
28	0x3d8283c3	0.06372788
29	0x3d691849	0.056907926
30	0xbdbafd53	-0.09130349
31	0x3e35d157	0.17755638
32	0x3c5ed701	0.013601066
33	0xbb23a322	-0.002496906
34	0x3d92b85d	0.07164071
35	0x3cb68bb7	0.022283418
36	0x3db1b2c8	0.08676678
37	0xbb34ee37	-0.0027607807
38	0x3dea4e3b	0.114407025
39	0x3cdb2681	0.026751759
40	0x3d906d71	0.07052124
41	0xbcc1f54b	-0.023676535
42	0x3bba16e9	0.0056790006
43	0x3d4536a8	0.048147827
44	0xbd883636	-0.06650965
45	0x3d686dbc	0.056745276
46	0xbda9cbbf	-0.082908146
47	0x3d816579	0.063181825
48	0x3d88241f	0.066475146
49	0xbd9f1baf	-0.07768952
50	0x3df6075e	0.12013124
51	0xbd792301	-0.060824398
52	0x3d28913c	0.04115413
53	0xbd762f84	-0.06010391
54	0xbc872a20	-0.016499579
55	0xbd9f8247	-0.0778852
56	0x3ce09fb5	0.027419904
57	0xbc8b94c5	-0.017038712
58	0x3cc472aa	0.023980457
59	0x3d6573e2	0.056018718
60	0x3e18849a	0.14894333
61	0xbe31761f	-0.17330216
62	0x3dec3eb8	0.115354
63	0xbd2448a2	-0.04010833
64	0xbd004dd9	-0.03132424
65	0x39fd6f9a	0.0004833907
66	0x3bfcddd4	0.0077168737
67	0x3a4fcec6	0.0007927235
68	0x3c7da8d7	0.015482149
69	0x3b0acc1c	0.0021178788
70	0xbc9c2ade	-0.01906341
71	0x3c8a52f7	0.016885264
72	0xbe3b1b7e	-0.18272206
73	0xbdb362e0	-0.08759093
74	0x3d8e2397	0.06940382
75	0xbdb8dee9	-0.09026892
76	0x3bc6babd	0.0060647414
77	0x3d4b3298	0.049608797
78	0xbe1c255b	-0.15248625
79	0x3d41f480	0.047352314
80	0xbd818ddf	-0.06325888
81	0xbcf8e084	-0.030380495
82	0xbdd2c6dc	-0.10291836
83	0x3cbc66ba	0.022998203
84	0x3da6336f	0.08115279
85	0xbddff02f	-0.10934483
86	0xbc6893ac	-0.014195364
87	0xbd6cd492	-0.05781991
88	0x3da3c529	0.0799659
89	0x3d7794d5	0.06044467
90	0x3930d18f	0.00016862735
91	0xbd824386	-0.06360535
92	0xbda60807	-0.08107
93	0x3c7d6001	0.015464784
94	0xbd26755c	-0.040639266
95	0xbc6d59e1	-0.014486761
96	0x3dd5410d	0.10412798
97	0xbcd9275f	-0.026508031
98	0xbd545ffc	-0.05184935
99	0xbc37c045	-0.011215274
100	0xbd7f6191	-0.062348906
101	0xbd73714f	-0.05943423
102	0xbd43df87	-0.047820594
103	0x3d745145	0.059647817
104	0xbd5e11fe	-0.054216377
105	0xbda3cc08	-0.079979
106	0xbb7f2638	-0.0038932692
107	0xbdab709d	-0.08371089
108	0xbd89afd8	-0.06722993
109	0x3a116d56	0.00055476034
110	0xbd51436d	-0.051089693
111	0x3d50f416	0.05101403
112	0xbd533214	-0.05156143
113	0x3de440ef	0.111451976
114	0x3d1f8828	0.038948208
115	0x3d29bdf3	0.041440915
116	0x3bc5f854	0.006041566
117	0xbd774ca1	-0.060375813
118	0xb996e3f5	-0.0002878007
119	0xbcb7466a	-0.022372443
120	0xbe22238d	-0.15833874
121	0x3a35426a	0.00069144985
122	0xbd9811c2	-0.07425262
123	0xbb833417	-0.0040040123
124	0x3dc34921	0.095354326
125	0x3caf5166	0.021401118
126	0x3cf4a054	0.029861607
127	0xbc6946fe	-0.014238117
128	0x3cef8054	0.029235996
129	0x3c38d47f	0.011281132
130	0xbdcbfee3	-0.09960725
131	0x3cd6b766	0.026210498
132	0xbdc053d0	-0.09390986
133	0xbd835c2a	-0.06414063
134	0x3baadcf0	0.005214326
135	0x3d41c63d	0.047308195
136	0xbcc111f3	-0.02356813
137	0xbcb763c8	-0.022386447
138	0xbab531fa	-0.0013824098
139	0xbd435ec8	-0.047697812
140	0x3e05d4c9	0.13069452
141	0x3d965739	0.07340855
142	0x3cd233c1	0.025659444
143	0xbe21cbc3	-0.15800385
144	0x3b8003fc	0.003906725
145	0x3df262bc	0.11835238
146	0xbc038f83	-0.008029821
147	0x3d839ea2	0.06426741
148	0x3e00617a	0.12537184
149	0x3c5c3d8a	0.013442406
150	0x3dc064d4	0.093942314
151	0x3dbfc13e	0.0936303
152	0xbd1ed98e	-0.038781695
153	0x3c1db3ad	0.009625358
154	0x3d52ff8a	0.051513232
155	0x3dda14c1	0.1064849
156	0xbd836cf7	-0.06417268
157	0xbc8730bf	-0.016502736
158	0xbd36dff3	-0.04464717
159	0x3dce1bcc	0.100638956
160	0xbd484f8c	-0.048903987
161	0x3c99df7e	0.018783327
162	0xbdfdab82	-0.12386228
163	0xbdb011f4	-0.08597174
164	0x3d3ca890	0.04605919
165	0xbc2c35cb	-0.010510872
166	0xbc9e582f	-0.019329159
167	0x3cb1d041	0.021705749
168	0x3dcbb207	0.099460654
169	0x3d7173df	0.058948394
170	0xbc84bd89	-0.016203659
171	0xbd62c1c5	-0.055360574
172	0x3d1cc928	0.038277775
173	0xbdacb1a6	-0.08432321
174	0x3a109eb8	0.0005516815
175	0x3dfab697	0.122418575
176	0x3e4920e3	0.19641452
177	0xbd13b896	-0.036064707
178	0x3dffcf77	0.12490743
179	0x3d774730	0.060370624
180	0xbe1ce0db	-0.1532015
181	0x3c8062dd	0.015672142
182	0x3d3a8cbc	0.04554437
183	0x3e1cde35	0.1531914
184	0xbd58d4ec	-0.052937433
185	0x3dbbb4cb	0.09165343
186	0xbd9e40bb	-0.0772719
187	0x3d6ae007	0.057342555
188	0x3dd1a5c1	0.10236693
189	0xbd797eac	-0.06091182
190	0xbd81601e	-0.06317161
191	0xbcbe5cc9	-0.023237603
192	0xbba5579e	-0.005045845
193	0x3da1f3d1	0.079078324
194	0x3ce22bdf	0.02760881
195	0x3cb612e7	0.02222581
196	0xbdec4163	-0.11535909
197	0x3d230a6a	0.039804853
198	0xbc26ac5e	-0.0101729315
199	0x3d124e1a	0.035719015
200	0xbcb641fa	-0.022248257
201	0x3d55b8f4	0.05217834
202	0x3d8dee7a	0.069302514
203	0x3b618eb8	0.0034417342
204	0x3d07783f	0.03307366
205	0x3dc94d2a	0.09829171
206	0x3e03c9e8	0.1286999
207	0x3cb3481d	0.021884972
208	0xbcf1a1f6	-0.029496174
209	0x3d546342	0.051852472
210	0xbdf09bf4	-0.11748496
211	0xbc893978	-0.016751036
212	0x3ce10600	0.027468681
213	0xbd0bccaf	-0.03413075
214	0xbbacb5f0	-0.005270712
215	0x3ce1f7da	0.027584005
216	0xbd057f7b	-0.032592278
217	0xbbd2e3ac	-0.006435832
218	0xbde9af08	-0.11410338
219	0xbc1bf073	-0.009517777
220	0xbdf8c641	-0.12147189
221	0xbd90fcc4	-0.07079461
222	0xbbb8dafe	-0.0056413403
223	0xbde9493d	-0.11390922
224	0x3cf371df	0.029717384
225	0x3d3f7db5	0.046750743
226	0x3d6086cb	0.05481605
227	0x3d820716	0.06349008
228	0x3b7ea329	0.0038854575
229	0xbd2617f7	-0.0405502
230	0x3d0ed2fe	0.034869187
231	0xbcceeb0a	-0.02525856
232	0xbe195ea6	-0.14977512
233	0x3be5fcd3	0.0070186644
234	0xbb999131	-0.0046864976
235	0x3dc08fbe	0.09402417
236	0xbbee4bf8	-0.00727224
237	0xbd35e169	-0.04440442
238	0x3cad2140	0.021134019
239	0x398ef868	0.00027269428
240	0x3cbef498	0.02330999
241	0xbd2b5477	-0.0418286
242	0xbb0dc6f9	-0.002163349
243	0xbd758981	-0.059945587
244	0x3c015151	0.0078929225
245	0xbdf3579a	-0.11881943
246	0xbd9fecdb	-0.078088485
247	0xbc063b8f	-0.008192911
248	0x3c30edba	0.010798866
249	0xbc034fa4	-0.008014593
250	0x3c50e307	0.01274944
251	0x3cdbdb22	0.02683789
252	0xbd8d9178	-0.069125116
253	0xbc38faab	-0.011290233
254	0x3cb7da53	0.022442972
255	0xbb87a3e9	-0.0041394127

Network.0.bias f4 [512]
0	0x3a8fb8d8	0.0010965122
1	0xbc1fa6f1	-0.009744392
2	0x3c2bc069	0.010482886
3	0xbc7257fd	-0.014791486
4	0xbc6f6a59	-0.014612758
5	0xbc40a643	-0.01175839
6	0x3949fce0	0.00019263057
7	0xbc9a555a	-0.018839527
8	0x393f7b58	0.00018261129
9	0xbc8fe09b	-0.017563155
10	0xb7a1ac56	-1.9272946e-05
11	0xbbc2b568	-0.0059420355
12	0xbc356b96	-0.011073014
13	0x3c908089	0.017639415
14	0xbc6f48f1	-0.014604793
15	0x3a4f24fc	0.00079019344
16	0xbbd56cf6	-0.0065132333
17	0x3bae96cb	0.0053280345
18	0xbb4fc834	-0.0031705024
19	0xbc3c6380	-0.011498332
20	0xbc76996d	-0.015051228
21	0xbc6c94f6	-0.014439812
22	0x3be35079	0.0069370833
23	0xbbc6a0b1	-0.0060616364
24	0xbb68f149	-0.0035544208
25	0xbb50f08d	-0.003188166
26	0xbca95ecf	-0.020675091
27	0x3c520ccb	0.012820433
28	0x3c2a0075	0.0103760855
29	0xbcb9dea2	-0.022689167
30	0xbaa19a63	-0.0012329336
31	0x3c02f7bc	0.007993635
32	0x3be8259a	0.0070845606
33	0xbbf27654	-0.0073993597
34	0x3c06856d	0.008210522
35	0x3ac7bebc	0.0015239338
36	0xbb254564	-0.0025218362
37	0xbcb5f5c4	-0.022211917
38	0xbbfd61fc	-0.007732628
39	0x3c9e99f9	0.01936053
40	0xbc5a8df9	-0.013339513
41	0xbba5c945	-0.0050593936
42	0xbc1394ab	-0.009007613
43	0xbc592f89	-0.013255962
44	0xbbf3a69e	-0.007435634
45	0xbb30b1dc	-0.0026961481
46	0x3a32ef0a	0.0006825781
47	0x3c84cd32	0.016211126
48	0xbbc9a4bd	-0.0061536715
49	0x3a3f4651	0.000729655
50	0xbb348a9f	-0.0027548445
51	0x3c7ad77c	0.015310165
52	0xbc153b40	-0.009108365
53	0x3bf2d4f7	0.0074106413
54	0x3c9f2c70	0.01943037
55	0x3bfc4607	0.0076987776
56	0x3beb4d07	0.0071808132
57	0xbb9fc414	-0.0048756693
58	0x3c3ef70b	0.011655579
59	0xbbeabec1	-0.007163853
60	0xbc007962	-0.00784144
61	0xbc36ca1b	-0.011156584
62	0x3c4596af	0.012059852
63	0x3c007a0b	0.007841597
64	0xbab5f507	-0.0013882228
65	0xbc87d6f7	-0.016581995
66	0x3bfd528b	0.007730787
67	0xbb2ea5b7	-0.0026649067
68	0xbc1b6b01	-0.009485961
69	0xbbb657fb	-0.0055646873
70	0x3c4301c2	0.011902275
71	0x3c55ee28	0.013057269
72	0xbb968d06	-0.004594448
73	0x3c89b769	0.01681109
74	0xbb12fddb	-0.0022429142
75	0x3c28df0a	0.010307083
76	0x3c23ccb9	0.00999754
77	0xbc76b104	-0.015056852
78	0xbbe552e6	-0.0069984077
79	0xbc6215fe	-0.013799189
80	0xbca82de6	-0.020529699
81	0x3c39a4d6	0.011330804
82	0x3c05f528	0.008176126
83	0x3c496085	0.012291078
84	0xbaab3b01	-0.0013063849
85	0x3baf67b5	0.005352939
86	0xbaba750b	-0.0014225555
87	0x3b4a0c00	0.0030829906
88	0xbbb719d5	-0.005587796
89	0xbb4d207e	-0.0031299884
90	0xbc167982	-0.009184243
91	0x3c86dfbc	0.016464107
92	0xbc80cadf	-0.015721736
93	0xbc688737	-0.014192394
94	0x3c8fd14b	0.017555853
95	0xbbc8ab4a	-0.006123935
96	0xbc768390	-0.015046015
97	0xbc0ae255	-0.008476813
98	0xbc791cbd	-0.015204606
99	0x3bc434f8	0.0059877597
100	0x3ad1cf7c	0.001600727
101	0x3bd77975	0.006575758
102	0x3b0dc5cf	0.0021632796
103	0x3c63ab9a	0.0138958935
104	0x3bf78253	0.0075533777
105	0xbafe5b41	-0.0019405858
106	0x3ca05c96	0.019575398
107	0xbc369c6e	-0.011145694
108	0xbc207410	-0.009793296
109	0xba153e16	-0.00056931505
110	0x3bff1d3a	0.0077854665
111	0x3c48f4cb	0.012265394
112	0xbbc1e8f9	-0.005917665
113	0x3c2351d3	0.009968239
114	0x3c3fc533	0.011704731
115	0x3c23b63b	0.009992178
116	0xbc5a6a99	-0.013331079
117	0xbc67c9ff	-0.014147281
118	0xbc2da586	-0.010598546
119	0xbab1e995	-0.0013573641
120	0xbc74c1a3	-0.014938745
121	0xbb08a554	-0.0020850496
122	0x3a98673e	0.0011627448
123	0x3c330349	0.010926076
124	0xbbebc0a9	-0.0071945977
125	0xbadc52ad	-0.0016809307
126	0x3c095a6c	0.008383375
127	0xba33857c	-0.0006848199
128	0xbc21407d	-0.009842035
129	0x3a987270	0.0011630785
130	0xbcb105f6	-0.021609288
131	0x3bb0571b	0.0053814775
132	0xbbc20a8d	-0.005921668
133	0xbc778f77	-0.015109888
134	0x3c5d314d	0.013500524
135	0x3b4c3280	0.003115803
136	0xbc30df8f	-0.010795488
137	0x3c2e2fea	0.010631541
138	0x3b88a808	0.0041704215
139	0x3b4c9b4d	0.0031220496
140	0xb9ec837f	-0.000451114
141	0xb8b336d3	-8.545597e-05
142	0x3b04e4ae	0.0020277905
143	0xbb8968ee	-0.004193417
144	0xbb3499bb	-0.002755745
145	0x3a517113	0.00079895667
146	0x398ca9dd	0.0002682944
147	0x3c1b02cb	0.009461115
148	0xbc105217	-0.008808634
149	0xbc262f4d	-0.010143113
150	0x3c16a949	0.009195634
151	0x3bfc4bc5	0.007699462
152	0x3c6eca0d	0.01457454
153	0x3cb2f980	0.021847486
154	0xbc8506f9	-0.016238676
155	0x3c0a852a	0.0084546
156	0xbb04c356	-0.002025803
157	0x3c42d4d1	0.01189156
158	0x3c31da15	0.010855217
159	0xbb30a3da	-0.0026953132
160	0x3c732a7a	0.01484167
161	0xbbc1a7f9	-0.0059099165
162	0x3b47be8a	0.003047856
163	0x3c1ed610	0.009694591
164	0xbc187f72	-0.009307729
165	0x3c18a7b6	0.009317329
166	0xbc42b163	-0.011883113
167	0xbc30c650	-0.010789469
168	0xbab16f06	-0.0013537116
169	0x3c0a39d9	0.0084366435
170	0xbc9bdd7c	-0.01902651
171	0x3ae8cd3e	0.0017761362
172	0x3c869413	0.01642803
173	0xbc4832e8	-0.012219168
174	0xbb304fba	-0.002690299
175	0x3c294bf7	0.010333053
176	0x3c427c28	0.0118704215
177	0xbc599ad3	-0.013281542
178	0xbc5f2118	-0.01361873
179	0xbae8d631	-0.0017764029
180	0x3bdf659c	0.0068175327
181	0xbc1d68fe	-0.009607552
182	0x3bd0a6cf	0.0063675414
183	0xbc0ad4dc	-0.008473601
184	0x3bef85f7	0.007309671
185	0xbc4a1f36	-0.012336543
186	0x3c2412a1	0.010014207
187	0x3b30d178	0.0026980322
188	0xbc1009db	-0.008791412
189	0xbc481e4e	-0.012214256
190	0x3c139476	0.009007564
191	0x3c2a1d47	0.010382957
192	0x3af5f82b	0.0018765976
193	0x3c990032	0.018676851
194	0x3caabbac	0.020841442
195	0x3c420feb	0.011844615
196	0xbc83ec45	-0.016103873
197	0xbc8ba2db	-0.017045429
198	0x3c8e2577	0.017351849
199	0x3bebb8a7	0.007193643
200	0xbbc8527c	-0.0061133485
201	0x3b17b4ef	0.0023148616
202	0x3c19ee6d	0.009395224
203	0xba9184fd	-0.0011102256
204	0x3c573827	0.013135946
205	0x3ac6b672	0.0015160574
206	0xbb94fb27	-0.0045465413
207	0xba4f44bf	-0.00079066673
208	0x3c9dff4f	0.01928678
209	0xbc955f45	-0.018233905
210	0x3b55d444	0.003262774
211	0xbc9d83b9	-0.01922785
212	0xbbe8ccaa	-0.007104476
213	0xbb491e89	-0.0030688366
214	0xbb3df4ab	-0.0028984945
215	0x3c3d8165	0.011566495
216	0x3c28eb75	0.010310044
217	0x3b4f1204	0.0031596432
218	0x39666ba9	0.00021974616
219	0xbc8316c2	-0.016002063
220	0xbc794201	-0.01521349
221	0x3c1ad8ef	0.009451135
222	0x3b47c396	0.0030481569
223	0x3c901013	0.01758579
224	0x3c87e166	0.01658697
225	0x3bc572bb	0.00602564
226	0xbc603b69	-0.0136860395
227	0xbc305347	-0.010762042
228	0x3b2a3237	0.0025969872
229	0xbc2f1981	-0.010687233
230	0xbc2a1d5f	-0.010382979
231	0x3c947a73	0.018124795
232	0xbc73b1ac	-0.014873903
233	0x3a6a88a7	0.00089467544
234	0xbc89b19e	-0.016808327
235	0xbc22a58b	-0.009927164
236	0xbc15cbec	-0.009142857
237	0x3c002a30	0.007822558
238	0xbc9f30bb	-0.019432416
239	0x3ca19783	0.019725567
240	0xb9f2fc8a	-0.00046345993
241	0xbb42b8be	-0.0029712166
242	0x3c6619e1	0.014044256
243	0x3bdc9662	0.006731794
244	0xbbdaadd3	-0.0066735535
245	0x3cd719db	0.026257446
246	0xbc35a3ed	-0.011086446
247	0x39849bc4	0.00025293056
248	0xba4355c0	-0.00074514374
249	0xbc49099a	-0.012270356
250	0xbbda964e	-0.0066707497
251	0xbb34f7fb	-0.0027613628
252	0x3b475d78	0.0030420702
253	0xbc302a90	-0.010752335
254	0x3a1b4e4a	0.0005924447
255	0xbc2017f0	-0.009771332

Network.2.weight f4 [256, 512]
0	0xbd8acd11	-0.067773946
1	0xbc996a4f	-0.01872745
2	0xbe0b4fdf	-0.13604687
3	0xbe029da7	-0.12755452
4	0xbd5de765	-0.054175753
5	0x3bfe8d79	0.0077683297
6	0xbd8505e7	-0.064952664
7	0x3c4f65b1	0.012658522
8	0xbe27efeb	-0.16400115
9	0xbcae3af8	-0.021268353
10	0x3b1c5edb	0.002386025
11	0x3d43b404	0.0477791
12	0xbd5903dd	-0.0529822
13	0xbd3cf808	-0.04613498
14	0xbc15f7ed	-0.009153348
15	0xbc502fbe	-0.012706695
16	0xbcc1bea9	-0.023650484
17	0x3de2eb33	0.11080017
18	0xbd4205b9	-0.04736874
19	0x3d0ed86c	0.034874365
20	0x3cc0f7b5	0.023555616
21	0xbd0c8754	-0.034308746
22	0xbdb5c761	-0.08875919
23	0x3d9f312b	0.0777305
24	0x3db3001c	0.08740255
25	0xbd94be1c	-0.07262823
26	0x3dd95140	0.106112
27	0x3d12a91b	0.035805803
28	0x3c7185d8	0.0147413835
29	0xbd13e88e	-0.036110453
30	0x3da881bd	0.082278706
31	0xbcd397ea	-0.025829274
32	0x3e050be5	0.12992819
33	0x3d27a786	0.040931247
34	0xbd482ad1	-0.048868958
35	0x3dc16be2	0.09444405
36	0x3e241a20	0.16025591
37	0xbd86dbd1	-0.065848954
38	0xbd2d1df0	-0.04226488
39	0xbd7070db	-0.058701377
40	0x3dbf6985	0.09346298
41	0x3d19c96a	0.0375456
42	0x3dfa2431	0.12213934
43	0x3d5a928d	0.053362418
44	0x3b9890f5	0.004655952
45	0x3dc841b0	0.09778154
46	0xbd3b86fa	-0.04578302
47	0xbcf3ed9d	-0.029776389
48	0xbd57a22c	-0.052644894
49	0xbd5d5432	-0.054035373
50	0xbc84cf6f	-0.016212193
51	0x3ccac0dd	0.024750168
52	0xbc9f642a	-0.019456942
53	0xbc42925b	-0.011875714
54	0x3de5b6c6	0.11216502
55	0x3c0c3c29	0.008559265
56	0xbd4804ec	-0.04883282
57	0xbdcdd9dc	-0.10051319
58	0xbdc710a7	-0.09719973
59	0xbd679078	-0.05653426
60	0x3dead269	0.11465914
61	0x3ca1210a	0.019669075
62	0x3b862caa	0.00409468
63	0x3d92b057	0.071625404
64	0xbda10099	-0.07861442
65	0x3cf36773	0.029712414
66	0x3d6359c4	0.05550553
67	0xbd90e999	-0.07075805
68	0x3daea42b	0.08527406
69	0xbd1c13bc	-0.038104758
70	0xbd2e84c1	-0.042607073
71	0x3d9fb353	0.07797875
72	0x380cbdf8	3.3555523e-05
73	0xbcaf0336	-0.021363836
74	0x3c366111	0.011131541
75	0x3c8273b6	0.015924316
76	0xbd0747c2	-0.033027418
77	0xbcd485d0	-0.025942713
78	0x3ddd38ab	0.10801824
79	0xbe497c4a	-0.19676319
80	0x3b1cc814	0.0023922967
81	0x3cc333e9	0.023828464
82	0xba9e5029	-0.0012078333
83	0x3d769fb1	0.060210887
84	0xbdfa8fd4	-0.12234464
85	0xbd69ec95	-0.057110388
86	0xbcc2d2fe	-0.02378225
87	0x3d0ac944	0.033883348
88	0x3d54d978	0.051965207
89	0x3d9e16af	0.0771917
90	0xbcb4dd7b	-0.022078266
91	0x3dc17d6a	0.09447749
92	0xbdfc5075	-0.123200335
93	0xbcd7e807	-0.026355756
94	0x3ce15724	0.027507372
95	0xbdf2e0d4	-0.11859289
96	0x3da939a1	0.08262945
97	0xbdcb5e64	-0.09930113
98	0xbd09bac5	-0.033625383
99	0xbe01b21d	-0.12665601
100	0xbdc526ef	-0.096265666
101	0xbda22ec5	-0.07919077
102	0xbcf0a793	-0.02937678
103	0x3c985d80	0.018599272
104	0xba892686	-0.0010463751
105	0x3d26e62b	0.04074685
106	0xbc70abd2	-0.014689403
107	0xbd87c786	-0.06629853
108	0xbdde325e	-0.108494505
109	0xbd4a03fa	-0.0493202
110	0x3d7ff530	0.06248969
111	0xbdba4091	-0.09094346
112	0xbce88802	-0.028385166
113	0x3e0ac975	0.13553412
114	0xbc377c57	-0.0111990785
115	0x3db4b1f0	0.088230014
116	0xbd48b375	-0.04899927
117	0xbd421a35	-0.047388274
118	0xbc03756e	-0.008023603
119	0xbce3851a	-0.027773429
120	0x3dbe15b0	0.0928148
121	0x3e06f4a2	0.13179258
122	0x3bcaaba9	0.0061850143
123	0x3d7361d8	0.059419483
124	0xbac5d214	-0.0015092515
125	0xbd6969e6	-0.05698576
126	0x3c8b852a	0.017031271
127	0xbc8c4a49	-0.017125266
128	0x3e110460	0.14161825
129	0x3d0505a8	0.032476097
130	0xbd6e4985	-0.058175582
131	0x3c841458	0.016122982
132	0x3de3daa4	0.11125687
133	0xbdeccb04	-0.1156216
134	0x3daf3060	0.08554149
135	0xbd694af0	-0.05695623
136	0x3c601d30	0.013678834
137	0x3d51bc6b	0.05120508
138	0xbd28812a	-0.041138805
139	0x3d0e8cac	0.034802124
140	0xbd5dba9b	-0.05413304
141	0x3cd2a9a5	0.025715658
142	0x3dbff355	0.09372584
143	0x3dc2379e	0.094832644
144	0xbdb24dbc	-0.08706233
145	0xbd9e0ef5	-0.077176966
146	0x3d43d2de	0.04780852
147	0xbc34b5d4	-0.011029679
148	0x3db1296e	0.0865048
149	0xbd01c297	-0.031679716
150	0x3dbe06d0	0.09278643
151	0x3def1b89	0.11675174
152	0xbd6b9182	-0.057511814
153	0xbbb8ddc6	-0.005641672
154	0x3c47bb87	0.012190706
155	0x3d8d0dad	0.06887374
156	0xbd77f25c	-0.060533866
157	0xbd4b0a3d	-0.04957031
158	0xbd133f20	-0.035948873
159	0x3b5aa933	0.003336501
160	0x3d8d44c4	0.068978816
161	0x3da794f2	0.08182706
162	0x3d939e77	0.07207959
163	0x3d79b23f	0.060961004
164	0xbd593883	-0.05303241
165	0x3d1cb963	0.038262736
166	0x3d0844e0	0.03326881
167	0xbcc5bff2	-0.024139378
168	0x3d974ee1	0.07388092
169	0xbe44501c	-0.19171184
170	0xbd486108	-0.04892066
171	0x3dcbd478	0.099526346
172	0x3d85a24e	0.06525098
173	0xbdc6d2b5	-0.09708158
174	0xbdbcbed4	-0.09216085
175	0x3de76b8d	0.112998106
176	0xbdef574c	-0.116865724
177	0x3d865172	0.06558503
178	0x3db22040	0.086975574
179	0xbdccc36d	-0.09998212
180	0xbdffa38d	-0.12482367
181	0xbdf0cc85	-0.11757759
182	0xbe007d5e	-0.12547824
183	0x3da55411	0.08072675
184	0xbd56f033	-0.052475166
185	0x3d0841d7	0.033265915
186	0x3dc6bf81	0.09704495
187	0x3c947a1d	0.018124634
188	0xbd28d68d	-0.041220237
189	0x3d2f7098	0.042831987
190	0x3b36fcb4	0.002792162
191	0x3de9b267	0.11410981
192	0x3c72a3f4	0.014809597
193	0x3c491606	0.012273317
194	0x3e088fa9	0.13336052
195	0x3d4ee940	0.050515413
196	0x3da5f2f1	0.08102978
197	0x3cd99079	0.026558148
198	0x3d2cfef3	0.042235326
199	0x3db02930	0.08601606
200	0x3dc41d30	0.095758796
201	0xbd2fae2e	-0.04289072
202	0xbcc248fc	-0.023716442
203	0xbde1a7e1	-0.110183485
204	0x3d01ac0d	0.03165822
205	0x3d4f47c2	0.050605543
206	0xbd1c092f	-0.038094696
207	0xbd41d262	-0.047319777
208	0x3ccd2c3b	0.025045505
209	0xbc548dee	-0.012973292
210	0x3da7c742	0.08192302
211	0x3c79fa27	0.015257395
212	0x3cceb3bc	0.025232188
213	0xbdccbfe6	-0.09997539
214	0xbb9451b6	-0.0045263423
215	0x3d5fe097	0.054657545
216	0x3d392823	0.045204293
217	0xbd77f82c	-0.06053941
218	0xbccab380	-0.024743795
219	0xbd50de44	-0.05099322
220	0xbc951b90	-0.01820162
221	0xbdb3a8d8	-0.08772439
222	0x3d5fc3cd	0.05463009
223	0x3d5aa665	0.053381342
224	0xbba5a859	-0.005055469
225	0x3de2af95	0.11068646
226	0x3c8cde30	0.017195791
227	0xbc0d5ac0	-0.0086275935
228	0xbcb814dd	-0.022470886
229	0xbcc0e0a5	-0.023544619
230	0xbc74dfa8	-0.014945902
231	0x3c13cd9b	0.009021188
232	0xbd9139b8	-0.07091087
233	0x3d1d8ca6	0.03846421
234	0xbcbfacf4	-0.0233979
235	0xbd244e60	-0.040113807
236	0xbde649a1	-0.11244512
237	0xbd73a822	-0.059486516
238	0x3d162527	0.036656525
239	0xbdda201f	-0.10650658
240	0x3d7de0db	0.061982017
241	0xbddf6b36	-0.10909121
242	0x3acdd69f	0.0015704221
243	0xbce5d562	-0.02805585
244	0x3dba8db0	0.09109056
245	0x3d9ebd0e	0.07750903
246	0xbbad64cd	-0.0052915574
247	0xbe0b4c27	-0.13603269
248	0x3d5eb9b8	0.054376334
249	0xbddbc4a9	-0.10730869
250	0xbd14da56	-0.036341034
251	0x3d62bd84	0.055356517
252	0x3d111eac	0.03542964
253	0xbd01111c	-0.031510457
254	0x3cd9c243	0.026581889
255	0xbd304b61	-0.043040637

Network.2.bias f4 [256]
0	0x3c2e7a5a	0.010649288
1	0xbc90e1ac	-0.017685734
2	0x3c409d7b	0.011756296
3	0xbb1e4b89	-0.002415391
4	0x3c78dfb9	0.015190058
5	0x3c697249	0.014248439
6	0xbc4d4220	-0.012527972
7	0xbc4d19aa	-0.012518326
8	0x3c89bc17	0.016813321
9	0xbc087b15	-0.008330126
10	0x3c727e5a	0.014800632
11	0x3c6bee30	0.01440005
12	0x3c55e339	0.013054662
13	0xbc9ab79f	-0.018886385
14	0xbc546ec7	-0.0129658645
15	0x3c7292f8	0.014805548
16	0x3c013e75	0.007888426
17	0xb9fc8c87	-0.00048169887
18	0x3a84628d	0.0010100171
19	0x3bc66a4e	0.006055153
20	0xbc7451c0	-0.014912069
21	0x3c9b260c	0.01893904
22	0xbb5a22c1	-0.0033284875
23	0x3c8542d8	0.016267225
24	0x3c888bbd	0.016668195
25	0x3aea6f5d	0.0017885972
26	0xbb268088	-0.00254062
27	0x3c5639b1	0.013075278
28	0x3b860df8	0.0040910207
29	0x3c82bd26	0.015959334
30	0xba25866c	-0.0006314281
31	0x3c0b3316	0.008496067
32	0xbc653734	-0.013990212
33	0x3c5ad307	0.013355977
34	0xbc4a050f	-0.012330308
35	0x3b2a0dc2	0.0025948142
36	0x3c5b8a68	0.013399698
37	0xbc66d59c	-0.014089014
38	0x3aeff799	0.0018308043
39	0xbc24ca77	-0.010058037
40	0x3c69ac44	0.014262263
41	0x3c621816	0.013799688
42	0xbc42552f	-0.01186113
43	0xbc4f526e	-0.01265393
44	0x3c75db87	0.015005953
45	0x3b85223e	0.00406292
46	0x3c4d8db0	0.012545988
47	0x3b76e9cc	0.0037675975
48	0x3c511b7b	0.0127628995
49	0xbc5d2689	-0.013497957
50	0xbb4aba96	-0.0030933968
51	0xbc848c2f	-0.016180126
52	0x3bf888b1	0.0075846543
53	0xbc52b070	-0.012859449
54	0x3c60ba25	0.013716255
55	0x3bce6b12	0.006299385
56	0xbc43e922	-0.011957439
57	0xbc60f319	-0.013729834
58	0x3bc35e48	0.005962167
59	0xbc593df9	-0.013259404
60	0x3c709320	0.014683515
61	0xbc3b6c19	-0.011439347
62	0xbaaaba17	-0.001302543
63	0xbc6f5525	-0.014607702
64	0x3c3d5e00	0.011558056
65	0xbc23109f	-0.009952693
66	0xbc656141	-0.014000238
67	0x3c85965f	0.016307054
68	0x3c361104	0.011112455
69	0x3c80bd92	0.015715394
70	0xbc853fb2	-0.016265724
71	0x3c60ba6d	0.013716322
72	0xbc4c0133	-0.012451458
73	0xbb0e0189	-0.0021668395
74	0x3c7e0abc	0.015505489
75	0xba823e69	-0.0009936813
76	0xbc2939fd	-0.010328767
77	0xbc07022e	-0.008240266
78	0xbc8f7a0f	-0.017514257
79	0x3c4bbefd	0.012435672
80	0x3c45488f	0.012041225
81	0x3bc53c9e	0.006019189
82	0x3ba21847	0.0049467417
83	0xbc499057	-0.01230248
84	0xbc6e9c02	-0.014563562
85	0x3c59d072	0.013294326
86	0x3c951b87	0.018201603
87	0xbc6ac4ba	-0.01432913
88	0xbc3ab6ed	-0.011396152
89	0x3c4a99ae	0.012365742
90	0x3c7c5467	0.015400982
91	0x3c3a4df0	0.011371121
92	0x3c2fd8de	0.0107328575
93	0x3c5510fb	0.013004537
94	0x3c612cbf	0.013743578
95	0xbc652992	-0.013986962
96	0x3c566f7d	0.013088104
97	0x3c022722	0.0079439
98	0x3c3cbba2	0.0115193445
99	0xbc65e3ee	-0.014031393
100	0x3c7a538b	0.015278707
101	0x35e7cb60	1.7270031e-06
102	0xbc4a0241	-0.012329639
103	0x3c4b5a23	0.012411627
104	0xbc86c7d3	-0.016452705
105	0xbc85f375	-0.01635144
106	0xbb257cf5	-0.0025251482
107	0x39f0c67d	0.00045924252
108	0x3c5e7dd1	0.013579802
109	0x3c88b48b	0.016687652
110	0x3c96a361	0.018388452
111	0xbc54aa06	-0.01297999
112	0xbc69884d	-0.014253688
113	0x3c511693	0.01276173
114	0xbc4f337c	-0.012646552
115	0xbc5e190b	-0.013555775
116	0xbc5082a4	-0.01272646
117	0x3c1a9033	0.009433794
118	0xbc78366b	-0.015149693
119	0xbc65c771	-0.014024601
120	0x3c3c8f7a	0.011508817
121	0x3c20661e	0.009789972
122	0x3c550a82	0.013002994
123	0xbc4f3c87	-0.012648708
124	0xbc81dcb4	-0.01585231
125	0x3c8aacfe	0.016928192
126	0x3c6254cd	0.013814163
127	0xbc5f9566	-0.013646459
128	0x3c9203f0	0.017824143
129	0xbc671c0f	-0.014105811
130	0x3c6c2586	0.014413243
131	0xbc47f621	-0.012204678
132	0x3bc0a230	0.0058787093
133	0xbc5f03c4	-0.013611738
134	0x3b552036	0.003252042
135	0xbc5a48fc	-0.013323065
136	0x3c355d51	0.011069612
137	0x39f504bc	0.0004673357
138	0x3b8c44f9	0.004280683
139	0xbc8a2313	-0.016862428
140	0x3c906eda	0.017630983
141	0x3c77eeb9	0.0151325995
142	0xbc9bf5c7	-0.019038094
143	0x3c4a0a9a	0.012331629
144	0xbc79ca72	-0.015246021
145	0xbc5fcd1f	-0.0136597445
146	0x3c77a912	0.015115993
147	0xbc6ba5d9	-0.014382803
148	0xbc71ac68	-0.0147505775
149	0xbc36f9d9	-0.011167967
150	0xbc756b28	-0.014979161
151	0x3c8047f2	0.015659306
152	0xbb669e7b	-0.0035189677
153	0xbc341ba7	-0.010992921
154	0xbc70d43a	-0.014699036
155	0x3c6bdb3f	0.014395534
156	0x3c3b4e55	0.01143225
157	0xbc4544e8	-0.012040354
158	0x3c4b96ae	0.012426062
159	0x3c646423	0.01393989
160	0x3c388568	0.011262275
161	0x3c3c0ede	0.011478154
162	0xbc559cd6	-0.013037881
163	0x3c2f2c6b	0.010691742
164	0xbc4cbd02	-0.012496235
165	0xb8e1cc38	-0.00010766875
166	0xbc5c8f70	-0.013461933
167	0x3ca58521	0.020205082
168	0xbc43e493	-0.011956352
169	0x3c559d52	0.013037996
170	0xbc48b5ca	-0.012250373
171	0xb85dc122	-5.2870375e-05
172	0x3c988490	0.018617898
173	0xbc59f5bb	-0.013303216
174	0xbc7262ce	-0.014794065
175	0xbc5391ad	-0.01291315
176	0xbc1aefc4	-0.009456579
177	0xbc85820a	-0.016297359
178	0x3bbd1746	0.0057705967
179	0x3c6f1a10	0.014593616
180	0xbc4c6efe	-0.0124776345
181	0xbc59992c	-0.013281148
182	0xbc64813c	-0.0139468275
183	0xbc53bc22	-0.012923272
184	0x3c6a6094	0.014305253
185	0xbc6da66a	-0.014505008
186	0x3c58353c	0.013196286
187	0x3c3a7fe0	0.011383027
188	0xbc8f12e2	-0.017465059
189	0x3c4b0a21	0.012392552
190	0x3c76b283	0.015057209
191	0xbc5dd624	-0.013539825
192	0xbbab8012	-0.005233773
193	0xbc2af887	-0.01043523
194	0x3c6f424e	0.014603211
195	0xba6eccb4	-0.00091094826
196	0xba03abc5	-0.0005022849
197	0x3c5975ce	0.013272716
198	0x3c4f7aba	0.012663538
199	0x3c525bf8	0.01283931
200	0x3c250a5b	0.01007327
201	0xbc6f482e	-0.014604611
202	0x3c5c19e3	0.013433906
203	0x3c95fa58	0.01830785
204	0x3c7d2431	0.015450523
205	0xbb86057d	-0.0040900097
206	0xbc7fbf11	-0.015609519
207	0xbc4f430d	-0.0126502635
208	0xbc66c7bf	-0.014085709
209	0x3c3657d2	0.011129336
210	0xbc5bdfe3	-0.013420078
211	0xbc1e68ed	-0.009668571
212	0x3c6f37f7	0.014600745
213	0x3c89d27f	0.016824005
214	0xbc8b7dfe	-0.017027851
215	0xbaf9ebc2	-0.0019067454
216	0xbbbd2b20	-0.005772963
217	0x3c33629b	0.010948802
218	0xbc5e81b5	-0.013580729
219	0x3c800c75	0.01563094
220	0x3c57c5b7	0.0131696975
221	0xbb633891	-0.0034671167
222	0xbc816641	-0.015795829
223	0xbc93b564	-0.01803083
224	0xbc5cd23a	-0.013477856
225	0x3b0099aa	0.001962284
226	0x3b74b524	0.0037339414
227	0x3c3e3ca5	0.0116111385
228	0x3c650714	0.013978738
229	0x3949f41a	0.00019259789
230	0x3c54e1c9	0.0129932845
231	0xbc524de2	-0.0128359515
232	0x3c80d23b	0.015725246
233	0xbc48e1aa	-0.012260834
234	0x3c5e1bbe	0.013556419
235	0xbc31c8f3	-0.010851133
236	0xbc8229bf	-0.015889047
237	0x3c6f36f8	0.014600508
238	0xbb71c43f	-0.0036890653
239	0x3c90a10b	0.017654916
240	0x3c332807	0.010934836
241	0xbc4e35c1	-0.012586058
242	0xbc64db58	-0.013968311
243	0x3a97b97e	0.0011575667
244	0x3c54bedc	0.012984958
245	0xbc79c799	-0.015245342
246	0xbc60e7aa	-0.013727108
247	0x3b24cbde	0.0025145928
248	0xbb38b486	-0.0028183772
249	0xbc5f0293	-0.013611454
250	0x3c8fe3a5	0.017564604
251	0x3c803482	0.015650038
252	0x3b594c6f	0.003315713
253	0xbc81a738	-0.015826806
254	0x3c579e6b	0.013160328
255	0x3c8effe7	0.017456008

Actor.weight f4 [5, 256]
0	0xbdbc5a5b	-0.091969214
1	0xbcbbdf12	-0.022933517
2	0x3da2670d	0.079298116
3	0x3d29092a	0.041268505
4	0xbb95de02	-0.0045735845
5	0xbdabda98	-0.08391303
6	0xbdc0969d	-0.09403727
7	0x3c3b3430	0.011426017
8	0x3ce80358	0.028321907
9	0xbd367314	-0.04454334
10	0xbd2cad4f	-0.042157467
11	0xbcf2925f	-0.02961081
12	0xbd37a311	-0.044833247
13	0xbd04f71b	-0.03246222
14	0xbc1d9a76	-0.009619346
15	0xbdf788d6	-0.12086646
16	0xbd64bd55	-0.055844624
17	0x3ce653e6	0.028116178
18	0xbcb9d07f	-0.022682426
19	0x3d988cbe	0.074487194
20	0x3ce4e8c1	0.027943017
21	0xbbd99aa9	-0.0066407514
22	0x3c11c7b2	0.008897709
23	0x3d76cc21	0.060253266
24	0x3d48aa5b	0.04899059
25	0xbd505189	-0.050859008
26	0xbda4aefc	-0.08041188
27	0xbc16dfcc	-0.009208631
28	0xbc95ac1f	-0.01827055
29	0x3d9a8999	0.07545776
30	0x3c126f6f	0.008937701
31	0x3d9da55d	0.07697556
32	0x3d88ff88	0.06689364
33	0xbd36692e	-0.0445339
34	0xbdf2fe89	-0.11864955
35	0x3cef74c7	0.029230488
36	0x3dca2f66	0.09872322
37	0xbbe03fec	-0.0068435576
38	0xbd2847e0	-0.04108417
39	0xbd23ebed	-0.04001992
40	0x3dffd604	0.12491992
41	0x3d833349	0.06406266
42	0xbcfb85f3	-0.03070352
43	0x3d28b878	0.041191548
44	0x3e21ae60	0.15789175
45	0x3d1f159d	0.03883897
46	0xbc7747b1	-0.015092776
47	0x3db35a0a	0.08757408
48	0xbca641df	-0.020295082
49	0x3dfcead5	0.12349478
50	0x3d95972f	0.073042266
51	0x3caf53c4	0.021402247
52	0xbd04fb78	-0.03246638
53	0x3d3e397c	0.04644154
54	0x3d629e44	0.055326715
55	0xbd926a2c	-0.07149157
56	0xbc848e05	-0.016181001
57	0x3daea564	0.085276395
58	0x3b3fa170	0.0029240511
59	0x3d456377	0.04819056
60	0x3d81724c	0.063206285
61	0xbd0d9167	-0.034562495
62	0xbce19dc0	-0.027541041
63	0x391a0bf4	0.00014691037
64	0x3d4e41c3	0.050355684
65	0xbdd30ebe	-0.10305546
66	0x3da63caa	0.081170395
67	0x3d18f9c2	0.037347563
68	0xbd0a30e6	-0.03373804
69	0x3d75f384	0.060046688
70	0x3af7eccb	0.0018915174
71	0x3d09a7ae	0.033607177
72	0x3cc8e54a	0.024523396
73	0x3db8ac62	0.090172544
74	0x3d05ff6e	0.0327143
75	0x3d42b0cd	0.04753189
76	0x3cdb2fc5	0.026756177
77	0x3d56c4f9	0.05243394
78	0xbc6ec62d	-0.014573616
79	0xbdaa47b0	-0.083144546
80	0x3d4b414b	0.049622815
81	0xbe68b9ad	-0.2272708
82	0xbe388ceb	-0.18022506
83	0x3d29f2d4	0.041491345
84	0x3d7754cc	0.060383603
85	0x3d0007cb	0.031257432
86	0xbbf70d13	-0.0075394004
87	0x3cce31e4	0.025170274
88	0xbd094c73	-0.033520173
89	0xbce295fc	-0.027659409
90	0xbbe6d1e3	-0.0070440634
91	0x3daeb119	0.085298724
92	0xbce0e061	-0.027450742
93	0x3ceca201	0.028885843
94	0xbc25b0fe	-0.010112999
95	0x3db0e2a5	0.08636979
96	0x3cdbae4b	0.026816508
97	0x3d7d134c	0.06178598
98	0xbcc0dcf4	-0.023542859
99	0x3c848bd3	0.016179955
100	0xbdd13553	-0.10215249
101	0x3d890494	0.06690326
102	0xbbafbe06	-0.0053632287
103	0x3c71170e	0.014714969
104	0x3df118dc	0.1177232
105	0x3c91f8e7	0.017818881
106	0x3d50417f	0.050843712
107	0xbd802425	-0.06256894
108	0x3d0ac613	0.033880305
109	0xbabbb561	-0.0014321023
110	0xbd8184cf	-0.06324159
111	0xbca3372f	-0.019923775
112	0xbd8f2c10	-0.06990826
113	0xbc0594bb	-0.008153136
114	0xbb8fcdbf	-0.0043885405
115	0xbd9cd37a	-0.076575235
116	0xbd484b09	-0.048899684
117	0xbcaebbfd	-0.021329874
118	0x3d913d7d	0.07091806
119	0xba6057dc	-0.0008558014
120	0xbd286a72	-0.04111714
121	0xbd74d9e6	-0.059778117
122	0x3e6d7d59	0.23192348
123	0xbd4d10d6	-0.050064884
124	0xbc2b36fe	-0.010450123
125	0xbd30c43f	-0.043155905
126	0xbc8e5fe5	-0.01737971
127	0x3db503e7	0.08838635
128	0xbd6ded5a	-0.058087684
129	0x3dc1fc57	0.09471958
130	0x3d94f9a5	0.072741784
131	0xbd60d296	-0.05488833
132	0x3d00b6ad	0.031424213
133	0xbdcf382f	-0.10118138
134	0x3bef15fa	0.007296321
135	0xbcf03b56	-0.029325169
136	0x3d791e76	0.060820065
137	0xbd779556	-0.060445152
138	0x3d6c9852	0.05776245
139	0xbda4c295	-0.08044926
140	0xbdab8b88	-0.08376223
141	0xbcb02d23	-0.021505898
142	0xbd9b99c6	-0.07597689
143	0xbce7f533	-0.028315162
144	0xbc454967	-0.012041426
145	0x3e00e934	0.1258896
146	0x3dacad42	0.08431484
147	0xbc3c4591	-0.011491195
148	0x3e0e2f0c	0.13885134
149	0x3d5a0307	0.053225543
150	0x3d8013a9	0.0625375
151	0x3d1b5685	0.03792431
152	0x3b7703cd	0.0037691474
153	0x3d629017	0.055313196
154	0x3a479bc6	0.00076144596
155	0x3d767716	0.060172163
156	0x3d5771ae	0.052598648
157	0x3de75bed	0.1129683
158	0x3c02661a	0.007958913
159	0xbdfe6e16	-0.12423341
160	0x3d06f63a	0.032949664
161	0x3d17ea94	0.037088946
162	0xbe2b2a09	-0.16715254
163	0xbd2680ec	-0.040650293
164	0xbcfd8914	-0.030949153
165	0xbcc951d0	-0.024575144
166	0xbd96179b	-0.07328721
167	0x3cecfbe9	0.028928714
168	0x3d1dba09	0.038507495
169	0xbd63826a	-0.055544294
170	0xba51a80e	-0.00079977594
171	0x3d93176c	0.07182202
172	0xbdb5057c	-0.08838937
173	0xbcacf12a	-0.02111109
174	0xbd88a909	-0.06672866
175	0xbdb3e787	-0.08784395
176	0xbca9cafb	-0.020726671
177	0x3d094089	0.03350881
178	0xbbd75368	-0.006571222
179	0xbdab1f69	-0.083556004
180	0xbb151350	-0.0022747107
181	0x3c0d66d2	0.008630471
182	0x3d724abf	0.059153315
183	0xbc0846fd	-0.008317706
184	0xbd016ae8	-0.031596094
185	0xbc93b299	-0.018029498
186	0x3df4161e	0.11918281
187	0xbd1a75d4	-0.037710026
188	0x3da90f67	0.08254891
189	0xbcc40b1d	-0.02393108
190	0x3b8c9ac9	0.0042909128
191	0xbd68c0b4	-0.0568244
192	0x3dbe965d	0.09306023
193	0x3bce1184	0.006288709
194	0x3d4dcb0b	0.050242465
195	0x3d59e46c	0.053196356
196	0xbdab5de4	-0.083675176
197	0x3d234119	0.039857004
198	0xbd1a5828	-0.03768173
199	0x3d4fb7a8	0.050712258
200	0xbe1e3cda	-0.154529
201	0xbbee1e46	-0.0072667925
202	0xbd11e53d	-0.03561901
203	0x3d2869dd	0.041116584
204	0x3e010644	0.12600046
205	0xbdca1fb1	-0.09869326
206	0x3b95e56a	0.0045744674
207	0xbd7f9113	-0.062394213
208	0x3c885f95	0.01664714
209	0xbda82292	-0.08209719
210	0xbd6ef406	-0.058338188
211	0xbc949433	-0.018137073
212	0xbd3936fc	-0.045218453
213	0x3c8cc292	0.017182622
214	0xbc306a44	-0.010767523
215	0xbc51429d	-0.0127722295
216	0xbcc93a3d	-0.024563903
217	0x3d00c28d	0.031435538
218	0xbd681a36	-0.05666562
219	0xbd52356b	-0.051320475
220	0xbd505bc6	-0.050868772
221	0xbca760e0	-0.020431936
222	0x3d8ef2af	0.06979882
223	0xbbc6ca2f	-0.0060665826
224	0x3c07b8d5	0.0082838135
225	0xbcab06c8	-0.020877257
226	0xbd82ee8a	-0.06393154
227	0xbc282787	-0.01026333
228	0xbd1c51bf	-0.038163897
229	0xbd8521f4	-0.06500617
230	0x3cf26ad6	0.029591959
231	0x3d9e2b24	0.07723072
232	0xbd8f42fc	-0.06995198
233	0x3dc7cf44	0.0975633
234	0x3d5bf9d8	0.053705066
235	0x3d5dfa89	0.054194007
236	0x3d779f35	0.060454566
237	0xbd258039	-0.040405486
238	0xbc489401	-0.012242318
239	0xbdd90e18	-0.10598391
240	0xbcab5f30	-0.020919412
241	0x3d8644c0	0.06556082
242	0xbc92e11e	-0.01792961
243	0x3ce6008d	0.028076435
244	0xbd92c464	-0.07166365
245	0x3cba386d	0.022731984
246	0x3d41b86e	0.047295026
247	0x3cc4e0e2	0.024033014
248	0x3ddbc936	0.10731737
249	0xbd33888f	-0.043831404
250	0x3c95604d	0.018234396
251	0x3d4f956d	0.050679613
252	0xbd1ebaf3	-0.038752507
253	0x3cecd2cb	0.028909108
254	0x3d73978e	0.059470706
255	0x3ca799ba	0.020459045

Actor.bias f4 [5]
0	0x39ae4fc8	0.00033247308
1	0x3c002537	0.007821373
2	0x39ee6407	0.00045469424
3	0xbbc3b2e2	-0.005972252
4	0xbb83efde	-0.004026397

Critic.weight f4 [1, 256]
0	0x3e338eac	0.17534894
1	0xbddfab70	-0.10921371
2	0x3e31f73e	0.17379472
3	0xbde002ed	-0.10938058
4	0x3e16935c	0.1470465
5	0x3e1d60d6	0.15368971
6	0xbdc6a235	-0.09698907
7	0xbe025ea2	-0.12731412
8	0x3df91eff	0.12164115
9	0x3da9063d	0.08253143
10	0x3df7334c	0.12070331
11	0x3e045a40	0.12925053
12	0x3df5c867	0.12001114
13	0xbdd71961	-0.105028875
14	0xbe0c278b	-0.1368696
15	0x3e204c19	0.15654029
16	0xbdcf22f8	-0.10114092
17	0xbe0cf905	-0.13766868
18	0xbde0c821	-0.109756716
19	0xbdc97ce1	-0.09838272
20	0xbdfda878	-0.123856485
21	0x3dd8b88d	0.10582075
22	0x3e0dd25c	0.13849777
23	0x3dcbc27f	0.099492066
24	0x3e0c4cb1	0.1370113
25	0xbdd19f4f	-0.10235464
26	0x3de06d9d	0.10958407
27	0x3ded7efb	0.11596485
28	0xbdf05e11	-0.11736692
29	0x3dd4b67f	0.10386371
30	0x3e035f3e	0.12829301
31	0x3e2fc681	0.17165567
32	0xbe27afd1	-0.16375662
33	0x3e37a14b	0.17932622
34	0xbe2c0bc3	-0.16801362
35	0xbdd86c76	-0.10567562
36	0x3e026c75	0.12736686
37	0xbddbcb9e	-0.10732196
38	0x3e042c7d	0.12907596
39	0xbdf9a016	-0.12188737
40	0x3e0bb398	0.13642728
41	0x3dea74ba	0.11448045
42	0xbe1ab76f	-0.15109037
43	0xbe120e25	-0.14263208
44	0x3de57f41	0.112059124
45	0xbddb4ebc	-0.10708377
46	0x3e0cc687	0.13747607
47	0xbe006b6f	-0.12540983
48	0x3e385146	0.17999753
49	0xbe262e27	-0.16228543
50	0x3dfb8b9b	0.12282487
51	0xbdc69062	-0.096955076
52	0x3e1f038a	0.15528694
53	0xbe0dd242	-0.13849738
54	0x3db74cbe	0.08950184
55	0xbdc0a957	-0.09407299
56	0xbe317fc8	-0.17333901
57	0xbe13761f	-0.14400528
58	0x3de22ed0	0.11044085
59	0xbdc52887	-0.096268706
60	0x3deccd0e	0.115625486
61	0xbe338c36	-0.17533955
62	0x3df30dd5	0.118678726
63	0xbe241fb8	-0.16027725
64	0x3e273557	0.16328941
65	0xbea9900d	-0.33117715
66	0xbdf3174f	-0.1186968
67	0x3dd927f1	0.10603321
68	0x3e0fb55e	0.1403403
69	0x3e153540	0.14571095
70	0xbdadaf41	-0.08480693
71	0x3e354cee	0.17705128
72	0xbe1f803d	-0.15576263
73	0x3e1d3496	0.15352091
74	0x3dd03d46	0.10167937
75	0x3dbc6ca4	0.09200409
76	0xbe67d3f8	-0.22639453
77	0x3dbbf45d	0.09177468
78	0xbdf62353	-0.12018456
79	0x3e4397af	0.19100831
80	0x3e636116	0.22205004
81	0x3e308eab	0.17241924
82	0xbe508c72	-0.20366076
83	0xbe413031	-0.1886604
84	0xbe0b9a7e	-0.13633153
85	0x3dfc6cb4	0.12325421
86	0x3dd3c5b1	0.10340441
87	0xbe1218a0	-0.14267206
88	0xbe252230	-0.16126323
89	0x3e2fa932	0.17154387
90	0x3dc73b3b	0.09728094
91	0x3e5d9195	0.21637566
92	0x3e01904c	0.12652701
93	0x3e09bbb8	0.13450515
94	0x3def1e9e	0.11675762
95	0xbe26c04b	-0.16284291
96	0x3e048df0	0.1294477
97	0xbdbf1f0e	-0.09332095
98	0x3e4d310e	0.20038244
99	0xbe55f3fe	-0.20893857
100	0x3dc84108	0.09778029
101	0x3e0c9b74	0.13731176
102	0xbe353b71	-0.17698456
103	0x3e19b584	0.15010649
104	0xbdd16fcf	-0.10226404
105	0xbe07160e	-0.13192007
106	0xbe25c696	-0.16189036
107	0x3e13cb80	0.14433098
108	0x3dd0818f	0.10180961
109	0x3dc1c8a8	0.094621
110	0x3dfd405f	0.123657934
111	0xbdd457bd	-0.10368297
112	0xbe064d12	-0.13115337
113	0x3e505608	0.20345318
114	0xbdf72885	-0.12068275
115	0xbe3738af	-0.17892717
116	0xbe0ae185	-0.13562591
117	0x3dca42d1	0.098760255
118	0xbdfd0bcc	-0.12355766
119	0xbe088b5f	-0.13334416
120	0x3e1b5232	0.15168074
121	0x3de0427a	0.109501794
122	0x3dba3183	0.09091475
123	0xbe26d1f0	-0.16291022
124	0xbe37062e	-0.17873451
125	0x3dd3b6e6	0.103376195
126	0x3e06a3cd	0.13148423
127	0xbe2b8727	-0.16750775
128	0x3ddeb553	0.108744286
129	0xbe09a708	-0.13442624
130	0x3dc307af	0.0952295
131	0xbe2dd8e6	-0.16977271
132	0xbdcf422d	-0.10120044
133	0xbe24c7b8	-0.16091812
134	0xbdfb26ac	-0.122632354
135	0xbdd8152e	-0.10550915
136	0x3e2fe59e	0.17177436
137	0xbde3bf72	-0.111205
138	0x3de0aa46	0.10969977
139	0xbe2143da	-0.1574854
140	0x3df41c2a	0.11919434
141	0x3ddd5a38	0.108082235
142	0xbde2ec0c	-0.110801786
143	0x3e13649c	0.14393848
144	0xbdbf2fad	-0.09335265
145	0xbdf735db	-0.12070819
146	0x3ddc009a	0.10742302
147	0xbe01f3c5	-0.12690647
148	0xbdc4d0b2	-0.09610118
149	0xbe55df35	-0.20885928
150	0xbe114a97	-0.1418861
151	0x3e20c453	0.15699892
152	0xbe54edba	-0.2079381
153	0xbe121c29	-0.14268555
154	0xbe11e39d	-0.14246984
155	0x3de85d5a	0.113459304
156	0x3e8aee04	0.27134717
157	0xbe27b9f8	-0.16379535
158	0x3df6b539	0.12046284
159	0x3dd83540	0.10557032
160	0x3df10d25	0.11770085
161	0x3e52fe0e	0.20604727
162	0xbdda9762	-0.10673405
163	0x3def879f	0.116957895
164	0xbe1e09e5	-0.15433462
165	0xbe15e281	-0.14637186
166	0xbe3925f3	-0.18080883
167	0x3dc7edde	0.097621664
168	0xbe70347f	-0.23457526
169	0x3e2093a6	0.15681323
170	0xbe1bf8ff	-0.15231703
171	0xbe0bc12c	-0.13647908
172	0x3dbfe069	0.09368975
173	0xbe31f62e	-0.17379066
174	0xbddcd839	-0.10783429
175	0xbe441776	-0.19149575
176	0xbdcad69d	-0.099042155
177	0xbe14e762	-0.1454139
178	0xbdf02b04	-0.117269546
179	0x3ddbe44b	0.10736903
180	0xbe2fa48a	-0.1715261
181	0xbe3af0b0	-0.18255877
182	0xbe181872	-0.14853075
183	0xbe02cb98	-0.12772977
184	0x3e282812	0.16421536
185	0xbe11a47c	-0.14222902
186	0x3e48ef85	0.1962262
187	0x3e106cae	0.14103958
188	0xbdf1c59a	-0.11805268
189	0x3e60d42e	0.2195594
190	0x3e0a3d70	0.13499999
191	0xbe268156	-0.16260275
192	0xbda7c264	-0.08191374
193	0xbe09b8cf	-0.13449405
194	0x3e024f5a	0.12725583
195	0x3e1c6981	0.15274622
196	0x3e45192e	0.19247887
197	0x3e0ea1a6	0.13928851
198	0x3e055a60	0.13022757
199	0x3e12cf5f	0.14336918
200	0x3e64bcd2	0.22337654
201	0xbddd7fbb	-0.10815378
202	0x3ddd3c31	0.10802496
203	0x3df0893d	0.11744926
204	0x3de1a8bb	0.11018511
205	0x3e01d493	0.12678747
206	0xbde785ea	-0.11304839
207	0xbe2cc05d	-0.16870256
208	0xbe05ac4f	-0.13054012
209	0x3e1c8342	0.15284446
210	0xbdb95501	-0.09049416
211	0xbdd514eb	-0.104043804
212	0x3e1524ea	0.14564863
213	0x3e051de4	0.12999684
214	0xbde9f6ef	-0.11424052
215	0x3dfdd11f	0.12393402
216	0x3ddc2115	0.107484974
217	0x3e6343ff	0.22193907
218	0xbe354c9e	-0.17705008
219	0x3e05e5e1	0.13075973
220	0x3e503bdf	0.20335339
221	0x3dc57886	0.09642129
222	0xbe094c1e	-0.13407943
223	0xbde38258	-0.111088455
224	0xbe06e365	-0.13172682
225	0xbdde162c	-0.10844073
226	0xbddedfff	-0.108825676
227	0x3dbef003	0.09323122
228	0x3e4c908e	0.19977018
229	0x3dd66ee8	0.104703724
230	0x3e10ae0a	0.1412889
231	0xbddf31ae	-0.108981475
232	0x3e0e51b2	0.13898352
233	0xbe4de877	-0.2010821
234	0x3e1cc8b9	0.15310945
235	0xbe29d567	-0.16585313
236	0xbdf94317	-0.121709995
237	0x3dd12749	0.10212571
238	0x3df5e706	0.12006955
239	0x3ddc8a4f	0.10768568
240	0x3e46ecd7	0.19426285
241	0xbe2b0838	-0.16702354
242	0xbe0087bf	-0.12551783
243	0xbdd71291	-0.10501588
244	0x3e398559	0.18117274
245	0xbe080513	-0.13283186
246	0xbe1d1b93	-0.1534255
247	0x3e0108f5	0.12601073
248	0x3ddd561c	0.1080744
249	0xbe1a1d78	-0.15050304
250	0x3de32eae	0.11092888
251	0x3e197c90	0.14988923
252	0xbddd742a	-0.10813172
253	0xbddae102	-0.10687448
254	0x3dc3eaea	0.09566291
255	0x3e04773c	0.1293611
