ppo_highway_agent1.pth (torch, 39748 bytes, 7 tensors)

Network.0.weight f4 [64, 70]
0	0xba6a941c	-0.00089484616
1	0x3d834feb	0.064117275
2	0xbdc977a2	-0.09837271
3	0xbdb4252e	-0.08796154
4	0xbd3c8ef0	-0.046034753
5	0x3d0347d7	0.032050934
6	0xbb1b3298	-0.002368128
7	0x3dc215f2	0.09476842
8	0xbc2dc8bd	-0.010606942
9	0x3d018b93	0.03162725
10	0xbd13f401	-0.036121372
11	0xbcc0769c	-0.023494057
12	0xbde9da58	-0.11418599
13	0xbda21d83	-0.07915785
14	0xbd49cf6e	-0.049270086
15	0x3b911503	0.0044275536
16	0x3d418ae3	0.047251593
17	0x3d92e012	0.07171644
18	0xbda5f2c6	-0.08102946
19	0xbd553009	-0.052047763
20	0x3d31d191	0.04341275
21	0x3dcb43c4	0.09925035
22	0xbcc98161	-0.024597825
23	0x3db72c82	0.08944036
24	0xbc9dd1d6	-0.019265097
25	0x3c4f3638	0.012647204
26	0x3ddda520	0.10822511
27	0xbde313e9	-0.11087782
28	0xbd9a199e	-0.07524417
29	0xbcf7e1cc	-0.030259036
30	0xbd3ed52a	-0.046590008
31	0x3dd37e18	0.10326785
32	0xbd9ea9ca	-0.077472284
33	0xbd615cf8	-0.055020303
34	0xbdab03e3	-0.08350351
35	0xbde54109	-0.11194045
36	0xbd8ee3bf	-0.06977033
37	0x3dd26a33	0.10274162
38	0x3d5a7404	0.053333297
39	0x3d6d476e	0.05792945
40	0x3bcdf9e7	0.006285894
41	0xbd7afe03	-0.0612774
42	0x3ca5a76e	0.020221438
43	0xbde48d6c	-0.111597866
44	0xbdb0df2f	-0.08636319
45	0xbd7c62c2	-0.06161762
46	0x3d9a7159	0.075411506
47	0x3d8f8578	0.07007879
48	0xbd591eb4	-0.053007796
49	0xbb8d514d	-0.0043126703
50	0x3d9c8db0	0.07644212
51	0x3df358c2	0.118821636
52	0x3d424cc5	0.047436494
53	0x3c84460d	0.016146684
54	0x3da41fa0	0.080138445
55	0xbd9020f2	-0.07037534
56	0x3cb6748c	0.02227237
57	0xbdbdc80e	-0.09266673
58	0xbda9a7d4	-0.08283964
59	0xbd7ce6cd	-0.061743546
60	0x3d5d83e8	0.054080874
61	0x3d44e248	0.04806736
62	0xbd90ff6a	-0.07079966
63	0x3d13e6b9	0.036108706
64	0x3d866101	0.06561471
65	0xbc772ab0	-0.015085861
66	0x3b9589fa	0.004563567
67	0x3ce2de8d	0.027694011
68	0x3d97db87	0.074149184
69	0x3deb09fd	0.114765145
70	0xbdbca2aa	-0.09210713
71	0xbd336937	-0.043801513
72	0x3d406776	0.046973668
73	0x3dcad08d	0.09903059
74	0x3dd50305	0.104009666
75	0x3dd7fc5c	0.105461806
76	0x3cc2dc83	0.023786789
77	0xbdd4dbe1	-0.10393501
78	0x3c34253d	0.010995206
79	0xbd99232f	-0.07477414
80	0xbde42059	-0.11138982
81	0x3dd97cd9	0.10619516
82	0x3dba1f7d	0.09088037
83	0xbdf42d7e	-0.119227394
84	0x3cb7441a	0.02237134
85	0xbca4f1c9	-0.020134823
86	0xbca12081	-0.01966882
87	0xbd601a1f	-0.05471241
88	0x3d3c43f7	0.045963254
89	0xbd90fc59	-0.070793815
90	0x3d337874	0.043816045
91	0x3d7793cb	0.06044368
92	0x3daf3baa	0.08556302
93	0x3d370dd6	0.04469093
94	0xbdf2452b	-0.11829599
95	0xbd9eca34	-0.07753411
96	0x3d74728e	0.05967956
97	0x3ccceefa	0.025016297
98	0xbdbef380	-0.09323788
99	0xbd8cf362	-0.06882359
100	0x3de6477e	0.11244105
101	0x3da4f065	0.08053664
102	0xbd557683	-0.052114975
103	0xbcf66eb5	-0.030082086
104	0xbde92dfe	-0.113857254
105	0xbb0ccad6	-0.0021483204
106	0xbdb855fd	-0.09000776
107	0xbdbcd09b	-0.09219476
108	0xbbd7cc8b	-0.0065856627
109	0x3c930300	0.017945766
110	0xbd487df1	-0.048948232
111	0x3d913fa7	0.07092219
112	0xbd94f5bd	-0.07273433
113	0x3dde1bce	0.10845147
114	0x3da7bfe8	0.081909
115	0xbdce6bd2	-0.10079159
116	0xbcf3b0c0	-0.029747367
117	0x3bb0b951	0.005393185
118	0x3c8edb38	0.017438516
119	0x3ce83989	0.028347747
120	0x3d401e91	0.04690415
121	0x3bea99ba	0.007159439
122	0xbd6edf87	-0.05831864
123	0x3d67a836	0.056556903
124	0xbdeacec2	-0.11465217
125	0xbd91159c	-0.070842
126	0xbcf51b15	-0.02992014
127	0xbd6e7956	-0.058221184
128	0xbd2b4433	-0.041813087
129	0xbdc8a11a	-0.09796353
130	0xbcd046ac	-0.025424324
131	0x3cd14bae	0.025548782
132	0xbd9f77b7	-0.07786506
133	0xbbc8fe5a	-0.0061338367
134	0x3daf3a5d	0.08556054
135	0xbc494f54	-0.01228698
136	0x3b59b2a4	0.003321805
137	0xbc28efea	-0.010311106
138	0x3cc6286e	0.0241892
139	0x3d9ba480	0.07599735
140	0x3de7de9e	0.11321758
141	0x3d9b7366	0.0759037
142	0x3de8666f	0.11347663
143	0xbc0d9ff2	-0.008644091
144	0xbddbe4c8	-0.10736996
145	0xbd681788	-0.056663066
146	0x3da6ac85	0.08138374
147	0xba4b1c45	-0.0007748048
148	0xbd73563a	-0.059408404
149	0xbdbb9478	-0.091591775
150	0xbde5149c	-0.111855716
151	0xbdce9945	-0.100878276
152	0xbcc69a93	-0.024243629
153	0x3d863d89	0.06554706
154	0x3d8456f3	0.06461897
155	0xbdec138c	-0.11527166
156	0x3d98b0ee	0.07455622
157	0xbdbf8b7d	-0.09352777
158	0xbcceff99	-0.025268363
159	0xbd468167	-0.04846325
160	0xbcbc987c	-0.023021929
161	0xbcc03ecb	-0.023467442
162	0xbddba7e6	-0.107253835
163	0xbdd35ad2	-0.10320057
164	0xbc9936c6	-0.018702876
165	0x3aca98cb	0.0015456913
166	0xbd5e65bb	-0.054296236
167	0x3d386b43	0.045024168
168	0xbddc519f	-0.107577555
169	0xbc042861	-0.008066268
170	0x3dd7444b	0.10511073
171	0xbd47b09e	-0.04875242
172	0x3ddd0a26	0.10792951
173	0x3d314c4d	0.043285657
174	0xbddce82d	-0.107864715
175	0x3d9adf9a	0.0756218
176	0xbc61f901	-0.013792277
177	0xbd5a8ba3	-0.053355824
178	0x3dc3bdcc	0.09557685
179	0xbdc5cece	-0.096585855
180	0x3c522198	0.012825392
181	0xbcccffdc	-0.025024347
182	0x3daecd71	0.085352786
183	0x3d08a8da	0.033364154
184	0x3d6b3d29	0.057431374
185	0x3d2ce4fd	0.042210568
186	0xbceb74d0	-0.028742224
187	0xbccdeaa9	-0.025136309
188	0xbdc9b892	-0.09849657
189	0x3d84a257	0.06476276
190	0x3dc25a2a	0.09489854
191	0x3da77c8a	0.08178051
192	0xbdacaa1c	-0.08430883
193	0x3baead35	0.0053307065
194	0xbdac8e46	-0.08425574
195	0xbd86bfc3	-0.065795444
196	0xbd8ea2e4	-0.06964663
197	0x3d274e7f	0.040846344
198	0xbd91de8b	-0.07122525
199	0xbb2ae531	-0.002607655
200	0x3ba4c2c8	0.0050281025
201	0x3d9dcaeb	0.07704719
202	0xbdb90947	-0.09034973
203	0xbda80be1	-0.08205391
204	0xbd8e22cf	-0.06940233
205	0x3dab54e9	0.08365805
206	0xbd2ffb52	-0.042964287
207	0x3dce78b7	0.10081618
208	0x3d3107d8	0.04322037
209	0x3c77f78c	0.015134703
210	0xba693cd7	-0.00088973105
211	0xbcc18e62	-0.023627464
212	0x3c75b230	0.0149960965
213	0xbcdf9455	-0.02729241
214	0xba5c2755	-0.0008398195
215	0x3c79dc55	0.015250285
216	0xbdbf786a	-0.09349139
217	0xbd804c62	-0.06264569
218	0x3dc5a90d	0.096513845
219	0xbdc6a716	-0.09699838
220	0xbc0c9d89	-0.008582481
221	0x3df2260e	0.118236646
222	0x3d30d968	0.043176085
223	0x3b5dc708	0.0033840556
224	0xbdd42198	-0.1035797
225	0x3d72851f	0.059208985
226	0xbdae5aa6	-0.085133836
227	0xbd0af85e	-0.033928268
228	0xbd2441dc	-0.04010187
229	0xbc90ff3b	-0.017699828
230	0x3aab5c3d	0.0013073754
231	0x3dc9e612	0.098583356
232	0x3c74779b	0.014921094
233	0x3ddb400e	0.10705577
234	0x3d95bc98	0.07311362
235	0xbd9ac14f	-0.07556402
236	0x3d5b927b	0.05360649
237	0xbdad0938	-0.08449024
238	0xbd4f7d80	-0.050656796
239	0x3d0ffe0c	0.035154387
240	0x3d21a694	0.039465502
241	0x3db7a498	0.08966941
242	0xbd1d9955	-0.038476307
243	0x3948a252	0.00019133955
244	0x3d7c0a39	0.061533187
245	0xbdecba41	-0.115589626
246	0x3db0f926	0.08641271
247	0xbdca6a99	-0.09883613
248	0x3ad7eb05	0.001647324
249	0xbca677ff	-0.02032089
250	0xbd80eba5	-0.062949456
251	0x3c8169ad	0.01579746
252	0x3dca6a5e	0.09883569
253	0xbd0f1c0f	-0.034938868
254	0xbd91537c	-0.070960015
255	0xbd350f75	-0.044204194

Network.0.bias f4 [64]
0	0x3b0d8083	0.0021591492
1	0xbdc511e8	-0.09622556
2	0xbd8eca7e	-0.06972216
3	0xbd440623	-0.047857415
4	0x3c50d972	0.0127471555
5	0x3d3cec60	0.046123862
6	0xbcb6c2f5	-0.02230976
7	0xbd293400	-0.041309357
8	0x3d56d312	0.052447386
9	0xbdee0118	-0.11621302
10	0x3dab0cb6	0.08352034
11	0xbca1562d	-0.019694412
12	0x3daa53ba	0.08316751
13	0x3db8f618	0.09031314
14	0x3c5131f4	0.012768257
15	0x3d1adced	0.037808347
16	0xbd8a7364	-0.0676029
17	0x3daf620c	0.08563623
18	0x3d8f452b	0.069956146
19	0xbc99c7fe	-0.018772122
20	0x3d3ed24f	0.046587285
21	0xbbdb6091	-0.006694861
22	0x3dbf3f13	0.09338202
23	0x3d4fdce8	0.050747782
24	0x3db2754a	0.08713777
25	0xbdde809f	-0.10864376
26	0x3def07c4	0.11671403
27	0x3d36672d	0.04453199
28	0x3d6e049b	0.05810986
29	0x3cda2dd7	0.026633186
30	0x3da0c52b	0.07850107
31	0x3de6719e	0.112521395
32	0xbc26d340	-0.010182202
33	0xbdc8d96a	-0.098070934
34	0x3de0c66c	0.10975346
35	0xbcce7d8e	-0.025206354
36	0xbd6c1b1a	-0.057643034
37	0x3d96af4f	0.07357656
38	0x3d889ba8	0.06670314
39	0x3c8129e5	0.015767047
40	0xbbf5d964	-0.0075027216
41	0xbcbb4f05	-0.022864828
42	0x3de07197	0.109591655
43	0x3d952807	0.07283025
44	0x3d91c6e6	0.07118015
45	0x3d9c17b8	0.076217115
46	0xbd86d54a	-0.065836504
47	0x3ccc701a	0.024955798
48	0xbdd3c254	-0.103397995
49	0x3d8e36b9	0.06944031
50	0xbdf2a170	-0.11847198
51	0xbdf4a311	-0.11945165
52	0xbdf1f6a2	-0.118146196
53	0x3d8b479e	0.06800769
54	0x3c4bcbd9	0.012438738
55	0x398e804a	0.00027179933
56	0x3c9bbc49	0.01901068
57	0xbd3946d7	-0.045233574
58	0xbd14a9c4	-0.036294714
59	0xbda4e23f	-0.080509655
60	0xbcef1ed4	-0.029189505
61	0xbd969fb2	-0.07354678
62	0x3b49b127	0.0030775757
63	0x3dc053d1	0.09390987

Network.2.weight f4 [64, 64]
0	0xbd57ad9a	-0.052655794
1	0x3c30cba2	0.010790737
2	0xbd2d3c80	-0.042294025
3	0xbdd1dc78	-0.10247129
4	0x3d99da7d	0.075123765
5	0xbceefac8	-0.029172316
6	0x3e1cdddb	0.15319006
7	0xbd35f7b9	-0.0444257
8	0xbdc94be9	-0.09828932
9	0xbdd1aaf2	-0.10237683
10	0x3d5e9958	0.05434546
11	0xbd5452b3	-0.05183668
12	0xbe1841a2	-0.14868787
13	0xbb37a524	-0.0028022015
14	0xbd426f92	-0.047469683
15	0xbd0a2fc0	-0.033736944
16	0xbca95b6c	-0.020673476
17	0x3e0f49d0	0.13993001
18	0x3d84c7ba	0.06483407
19	0xbdb7fb84	-0.0898352
20	0xbd67acfa	-0.056561448
21	0xbdc9ce02	-0.09853746
22	0xb9719e1f	-0.00023042456
23	0xbc285098	-0.010273121
24	0xbdb72777	-0.08943074
25	0xbe24a109	-0.16077055
26	0xbdb4c536	-0.088266775
27	0xbda108cc	-0.07863006
28	0x3cae81e0	0.021302164
29	0xbde6bcaa	-0.112664536
30	0x3e00b7e0	0.12570143
31	0x3d8b4e5a	0.06802054
32	0x3cf38e4d	0.02973094
33	0xbd78b20e	-0.06071668
34	0x3e324465	0.17408903
35	0xbd957178	-0.07297033
36	0x3e046f3c	0.12933058
37	0xbdec3708	-0.11533934
38	0xbd9181a4	-0.07104805
39	0xbd488722	-0.048956998
40	0xbc5b37ab	-0.0133799715
41	0xbdb95275	-0.090489306
42	0xbd8bf1d9	-0.06833238
43	0x3d5b6d4e	0.053571038
44	0xbd844dce	-0.064601526
45	0x3de79170	0.11307037
46	0x3e20a7db	0.15689032
47	0xbd4c4af4	-0.04987617
48	0xbe03b92e	-0.12863609
49	0x3d5ff6ce	0.05467873
50	0x3da486fc	0.08033559
51	0x3dd91070	0.10598838
52	0x3c4fd309	0.012684592
53	0xbc5795dd	-0.013158289
54	0xbde0914d	-0.10965214
55	0xbe2fb34a	-0.17158237
56	0x3dc1b424	0.09458187
57	0xbd337dc6	-0.04382112
58	0xbc19828e	-0.009369506
59	0x3d4a51be	0.04939436
60	0x3e169299	0.1470436
61	0x3d77a626	0.060461186
62	0xbd24d1f2	-0.040239282
63	0x3e22e8df	0.15909146
64	0x3d9080c4	0.0705581
65	0x3e11cfbd	0.14239402
66	0xbcfa1db2	-0.030531738
67	0x3e11360e	0.14180776
68	0x3c9e425a	0.019318748
69	0xbd45c1bb	-0.04828046
70	0xbddbbfac	-0.10729918
71	0x3d1d79a3	0.03844608
72	0xbd4135cd	-0.04717045
73	0x39854f93	0.00025427024
74	0x3d732965	0.05936565
75	0x3cca4557	0.024691267
76	0x3e19e18b	0.15027444
77	0xbd25b56b	-0.040456217
78	0xbcb6def2	-0.022323105
79	0x3d293b81	0.041316513
80	0xbd03e35a	-0.03219924
81	0xbca6d27e	-0.020364042
82	0xbc3d32b4	-0.011547733
83	0x3dbdf970	0.09276092
84	0xbe08f13f	-0.13373278
85	0x3e108ca8	0.14116156
86	0x3e1a636c	0.15076989
87	0x3db23f94	0.08703533
88	0x3e0e15de	0.13875529
89	0x3df03368	0.11728555
90	0xbbcf4362	-0.0063251713
91	0xbd89386c	-0.06700215
92	0x3d6d0209	0.05786327
93	0x3df58da2	0.11989905
94	0xbd5e031b	-0.05420218
95	0xbcfd1b64	-0.03089685
96	0x3d51db67	0.05123463
97	0x3c271186	0.010197049
98	0x3d5521d7	0.052034225
99	0x3d74d085	0.059769172
100	0xbce07b8a	-0.027402658
101	0x3c3ca8b7	0.011514834
102	0xbd80043a	-0.06250806
103	0xbddcdf46	-0.107847735
104	0x3d2cad75	0.04215761
105	0x3e1f2696	0.15542063
106	0x3db3d289	0.08780391
107	0x3d382e7c	0.044966206
108	0xbda952ea	-0.08267768
109	0xbe28c97a	-0.16483107
110	0xbd896dfa	-0.067104295
111	0xbd41d696	-0.047323786
112	0xbd505b3c	-0.050868258
113	0xbd878251	-0.06616653
114	0xbd872d6c	-0.066004604
115	0xbc84b35c	-0.016198806
116	0xbe072f76	-0.13201699
117	0x3d8777b6	0.0661463
118	0xbd944236	-0.07239191
119	0xbc91b122	-0.017784659
120	0xbdb60202	-0.08887102
121	0xbd0a1143	-0.03370787
122	0x3c281187	0.010258085
123	0xbd9847f4	-0.07435599
124	0xbcb373fa	-0.021905888
125	0x3c41b3b8	0.011822633
126	0xbdb98120	-0.09057832
127	0xbd714031	-0.05889911
128	0x3d8ce70d	0.06880007
129	0xbe29032a	-0.16505113
130	0xbd31a7eb	-0.04337303
131	0x3d5d483f	0.054023977
132	0x3dcd1e5c	0.10015556
133	0xbd40686d	-0.04697459
134	0x3d42e32c	0.04757993
135	0xbcac7bb5	-0.021055082
136	0xbc6edf7c	-0.01457965
137	0xbe0411f3	-0.12897472
138	0x3c1c9d3a	0.00955897
139	0xbda1a86d	-0.07893453
140	0xbe114fae	-0.14190552
141	0x3ca4c415	0.02011303
142	0xbd765232	-0.06013698
143	0x3e10cb4c	0.14140052
144	0x3d857435	0.06516305
145	0x3cbf664e	0.023364212
146	0xbd40e729	-0.04709545
147	0x3cd675af	0.026179163
148	0x3bbcf78c	0.0057668146
149	0xbd893778	-0.06700033
150	0xbd8cb6e3	-0.068708204
151	0xbe143c49	-0.14476122
152	0xbd7a46d3	-0.0611027
153	0xbe230207	-0.15918742
154	0xbde2f6c6	-0.110822245
155	0xbdfc4e88	-0.12319666
156	0x3d4aaf07	0.049483325
157	0xbe229749	-0.15878023
158	0x3e2802f3	0.16407375
159	0x3db9588a	0.090500906
160	0xbd2749c2	-0.040841825
161	0x3e16b9de	0.1471934
162	0x3c83c9ed	0.016087497
163	0xbe1917ea	-0.14950529
164	0x3cd73b55	0.026273409
165	0x3c94a26f	0.01814386
166	0xbd9f8bf6	-0.07790367
167	0x3d0c59a3	0.03426517
168	0x3dc18577	0.094492845
169	0xbdbd2104	-0.09234813
170	0xbd04162e	-0.032247715
171	0xbdbdb108	-0.09262282
172	0xbd24c81a	-0.040229894
173	0x3e10ebe4	0.14152485
174	0xbd32df0a	-0.043669738
175	0xbd38b88d	-0.045097876
176	0xbb031153	-0.001999934
177	0xbcd6d2ed	-0.026223624
178	0x3dd4f779	0.10398764
179	0xbd7679fd	-0.06017493
180	0x3e26ed0c	0.16301364
181	0x3da37dcf	0.079829805
182	0xbd7b343b	-0.061329108
183	0xbe1727a2	-0.14761212
184	0x3d4281fc	0.047487244
185	0x3db42a38	0.08797115
186	0xbcc6b529	-0.024256306
187	0x3ce47a68	0.0278904
188	0xbda5c3ac	-0.08093962
189	0xbe2ca434	-0.16859514
190	0x3cf639d5	0.030056873
191	0x3e17c866	0.1482254
192	0x3d0f5f69	0.0350031
193	0xbade77a6	-0.0016972914
194	0xbc14bca1	-0.009078176
195	0xbda75377	-0.081702165
196	0x3cde6254	0.027146496
197	0xbdd526c6	-0.10407786
198	0x3df062a6	0.11737566
199	0x3d2c91ec	0.04213135
200	0xbe0d5ff6	-0.13806137
201	0xbb26e149	-0.002546387
202	0xbc30287d	-0.010751841
203	0xbd1ec231	-0.038759414
204	0xbd65eef1	-0.056136075
205	0x3b0aac80	0.0021159947
206	0xbde57fce	-0.112060174
207	0x3d72ed3f	0.059308287
208	0x3de5da76	0.11223309
209	0x3cb0ee2f	0.02159795
210	0xbd4b4905	-0.049630184
211	0xbd00f11f	-0.03147995
212	0xbc524e25	-0.012836014
213	0x3ccf2d2e	0.025290098
214	0x3d98786c	0.07444844
215	0xbd583752	-0.052787133
216	0xbd04aa63	-0.032389056
217	0x3d751103	0.059830677
218	0x3d7be338	0.06149599
219	0xbe091638	-0.13387382
220	0xbdca4a20	-0.098774195
221	0xbe276d30	-0.16350245
222	0x3df0887a	0.11744781
223	0x3e0dc5a2	0.13844922
224	0xbb970629	-0.0046088886
225	0x3da5da6f	0.080983035
226	0x3d91bf43	0.071165584
227	0xbe17fe4e	-0.14843103
228	0x3db9f6f5	0.090803064
229	0x3ca78455	0.020448843
230	0x3d32baf7	0.043635335
231	0x3d5bf9cd	0.053705025
232	0x3d8f3915	0.069933094
233	0x3d4960f3	0.049164724
234	0x3d8e7570	0.06955993
235	0xbcbbc3a1	-0.022920432
236	0x3dc0db66	0.09416847
237	0x3c061254	0.008183081
238	0x3df17bce	0.11791192
239	0xbdb86eec	-0.09005532
240	0xbe13606c	-0.14392251
241	0x3dcbd80d	0.09953318
242	0x3db2aea8	0.08724719
243	0x3d8c1532	0.0683998
244	0x3dc0a7c1	0.094069965
245	0x3d189e5d	0.037260402
246	0x3ad910ce	0.0016560794
247	0x3c24a4e8	0.010049082
248	0xbcd973d0	-0.026544482
249	0x3d0c0989	0.03418878
250	0x3d74a123	0.059723984
251	0x3cb3794d	0.021908427
252	0xbd838160	-0.06421161
253	0xbcedce04	-0.0290289
254	0x3df02fec	0.1172789
255	0xbcd4b162	-0.025963489

Network.2.bias f4 [64]
0	0xbca46393	-0.020067012
1	0x3df6c3ea	0.120490864
2	0x3d6ee9fb	0.05832861
3	0xbd586fa1	-0.052840833
4	0x3c89ff33	0.016845321
5	0xbdcf1e84	-0.10113242
6	0xbd8abaf6	-0.06773941
7	0xbdc76169	-0.097353764
8	0xbda284de	-0.07935499
9	0x3cadfbbd	0.021238202
10	0x3d9423e4	0.07233408
11	0xbdcc9bf5	-0.09990684
12	0x3d0ae423	0.033908974
13	0xbcdea2cf	-0.027177243
14	0x3d78ce97	0.060743894
15	0x3db404d2	0.08789982
16	0xbcba6250	-0.022751957
17	0xbd81d2fe	-0.06339072
18	0x3d760f87	0.0600734
19	0x3d3d1bba	0.04616902
20	0x3ddb6cd8	0.1071412
21	0xbd583f50	-0.052794755
22	0xbd019fde	-0.0316466
23	0x3df90953	0.121599816
24	0x3d7d5c4e	0.061855607
25	0x3def86da	0.11695643
26	0x3dd9c13d	0.106325604
27	0x3db6dd12	0.089288846
28	0x3c23da8c	0.010000836
29	0xbd3a99d7	-0.04555687
30	0xbd926998	-0.07149047
31	0xbdad5427	-0.084633164
32	0x3e20fe80	0.15722084
33	0xbdcf7956	-0.10130565
34	0xbd75c70b	-0.060004275
35	0x3d43d09d	0.04780637
36	0x3c968719	0.018374966
37	0xbb190777	-0.0023350397
38	0xbd9744f0	-0.07386196
39	0x3d5d59d6	0.054040752
40	0xbd8d3959	-0.06895704
41	0xbd9ec1bd	-0.077517964
42	0x3e15e54e	0.14638254
43	0xbc92011c	-0.017822795
44	0xbbaf6472	-0.00535255
45	0x3dbc5882	0.09196569
46	0xbca3f160	-0.020012558
47	0xbe01b533	-0.12666778
48	0xbcdc2f5b	-0.02687805
49	0xbde8d393	-0.113684796
50	0x3e19cc52	0.15019348
51	0xbc86d22f	-0.016457645
52	0x3e08026e	0.13282177
53	0x3d3e8572	0.046513982
54	0x3c4d8ff9	0.012546533
55	0x3dac18e1	0.08403183
56	0x3cc90435	0.024538139
57	0xbd30f431	-0.04320163
58	0x3d73638e	0.059421115
59	0xbd9035c7	-0.07041507
60	0x3e09583c	0.13412565
61	0x3cc35772	0.023845408
62	0x3dcf7777	0.10130208
63	0x3e03cb49	0.12870516

Actor.weight f4 [5, 64]
0	0x3cad6792	0.02116755
1	0xbcb6da21	-0.022320809
2	0x3d4adbe3	0.049526107
3	0xbe01a82e	-0.12661812
4	0xbc3fe64a	-0.01171262
5	0xbcdbecd9	-0.026846336
6	0xbdc6d7cb	-0.09709128
7	0xbbfc4132	-0.0076982016
8	0x3cd7ca29	0.026341515
9	0xbdf4ac99	-0.11946983
10	0x3dd47123	0.103731416
11	0x3d908e99	0.07058448
12	0x3df78209	0.12085349
13	0xbd637db1	-0.05553979
14	0xbdb71f3e	-0.08941506
15	0x3d9a9abe	0.07549046
16	0x3df31a47	0.118702464
17	0xbd993fca	-0.0748287
18	0xbd9913a3	-0.074744485
19	0xbc2e4ab5	-0.010637929
20	0x3ddccb8b	0.1078101
21	0xbca8b590	-0.020594388
22	0xbdf3f98a	-0.1191283
23	0xbd4f4eca	-0.05061225
24	0xbd8ec5d9	-0.0697133
25	0x3dc26a29	0.09492905
26	0xbdb4d60f	-0.08829891
27	0x3dc18b9b	0.09450456
28	0x3d241985	0.0400634
29	0xbc1ea7af	-0.009683534
30	0xbcf08882	-0.029361967
31	0x3d9213bd	0.07132671
32	0xbd9fdd05	-0.07805828
33	0xbd4ae171	-0.049531404
34	0x3de47bd8	0.11156434
35	0xbd414c40	-0.04719186
36	0x3c668531	0.014069841
37	0x3dccd442	0.100014225
38	0xbdcb5480	-0.099282265
39	0x3c9977a2	0.018733803
40	0x3b954935	0.004555846
41	0xbd84ef29	-0.06490929
42	0x3dd4556c	0.103678554
43	0x3db2b068	0.08725053
44	0xbc187a40	-0.00930649
45	0xbc71fa1f	-0.014769106
46	0x3d9d2790	0.076735616
47	0xbd292a42	-0.041300066
48	0x3d8dbd53	0.06920876
49	0xbdad39d6	-0.08458297
50	0xbdce3d50	-0.10070288
51	0x3da853a8	0.08219081
52	0x3db27b5b	0.087149344
53	0xbdc7d21c	-0.09756872
54	0xbced2d98	-0.028952405
55	0x3d5ddd15	0.05416592
56	0x3d8b3a37	0.06798213
57	0x3d9c8a2d	0.076435424
58	0x3daf69b0	0.0856508
59	0xbd664e54	-0.056227043
60	0x3ce7fdf2	0.028319333
61	0x3dde3219	0.10849399
62	0xbdceb3b9	-0.10092873
63	0x3da86fa8	0.08224422
64	0x3c8207f3	0.015872931
65	0x3cb10d08	0.02161266
66	0x3ddf2450	0.10895598
67	0xbd8a3493	-0.06748309
68	0xbc996097	-0.018722815
69	0xbdde1317	-0.10843485
70	0x3db5b510	0.088724256
71	0xbddb5c9d	-0.10711024
72	0x3dc530ba	0.096284345
73	0xbdda5c77	-0.106621675
74	0x3db30e9a	0.087430194
75	0xbd9e489e	-0.077286944
76	0x3dc205bc	0.0947375
77	0xbdcaefd1	-0.099090226
78	0xbd88e1bf	-0.06683683
79	0xbca92865	-0.020649144
80	0xbdaec8cd	-0.085343935
81	0x3dd3e017	0.10345476
82	0x3cff9a74	0.031201579
83	0xbdaa5ff7	-0.08319085
84	0xbda28807	-0.079361014
85	0xbd6592a4	-0.05604805
86	0x3b811885	0.0039396905
87	0xbd2b032a	-0.041751064
88	0x3db312d3	0.08743825
89	0xbd40ad52	-0.04704029
90	0x3d4b8f95	0.049697477
91	0x3dd645d2	0.10462536
92	0xbdd380c5	-0.10327295
93	0xbda8ba5f	-0.082386725
94	0xbdd44d7c	-0.103663415
95	0x3d214dc3	0.0393808
96	0x3de9a153	0.11407723
97	0xbdc1a7a6	-0.094558045
98	0xbaec822b	-0.0018044164
99	0x3dbe13ab	0.09281095
100	0x3de6312f	0.1123985
101	0x3d556222	0.05209554
102	0x3ccb7b34	0.024839021
103	0x3c1780e2	0.009247037
104	0x3cb7be81	0.022429707
105	0x3dfd30eb	0.12362846
106	0x3ca1215f	0.019669233
107	0x3d844de8	0.06460172
108	0xbcc4cea9	-0.024024324
109	0x3de9840a	0.114021376
110	0xbe0e64b2	-0.139056
111	0xbd5d3045	-0.05400111
112	0xbe0b335d	-0.13593812
113	0x3c7159ea	0.01473091
114	0xbc4ced8e	-0.012507809
115	0xbdf08c74	-0.11745539
116	0xbda3514e	-0.07974492
117	0x3caf637f	0.021409748
118	0x3da231b8	0.07919639
119	0x3df92afd	0.121664025
120	0x3d91b60d	0.071148016
121	0xbdb02192	-0.08600153
122	0x3db61129	0.08889992
123	0x3dd57529	0.10422737
124	0x3cb2c2c9	0.021821396
125	0xbdd81dda	-0.10552569
126	0xbd9c30fc	-0.076265305
127	0xbdc3e97d	-0.09566019
128	0x3d3c9101	0.046036724
129	0x3d9e4969	0.077288456
130	0x3dd19fef	0.10235583
131	0xbd1531b5	-0.036424357
132	0xbda18f12	-0.078886166
133	0x3d6297d2	0.05532057
134	0xbd32f48e	-0.043690257
135	0x3c6b5241	0.014362873
136	0x3d7beefe	0.061507218
137	0xbcfe7f18	-0.031066462
138	0x3cac335c	0.021020584
139	0x3b3137cc	0.0027041314
140	0x3e1057fc	0.14096063
141	0xbda12e26	-0.0787013
142	0x3db59744	0.08866742
143	0x3d810918	0.063005626
144	0xbe0ce1ad	-0.13757963
145	0x3d62ce60	0.055372596
146	0x3bd25942	0.0064193318
147	0x3da8c59c	0.08240816
148	0x3d8a5e8f	0.06756317
149	0xbd3b530a	-0.04573349
150	0xbd52362f	-0.051321205
151	0xbde4ebdb	-0.11177798
152	0x3d896b43	0.06709912
153	0xbe00f22a	-0.12592378
154	0xbdcb4021	-0.09924341
155	0x3dbb8b52	0.091574326
156	0x3dc0222c	0.09381518
157	0x3d78f675	0.060781915
158	0x3daafb0f	0.08348667
159	0xbe08dfc9	-0.13366617
160	0xbd095829	-0.03353134
161	0x3c347c08	0.0110158995
162	0x3dbf7871	0.09349144
163	0xbd66ae18	-0.056318372
164	0xbd03baf5	-0.032160718
165	0x3dc3ed88	0.0956679
166	0x3db3682b	0.08760103
167	0xbd67a8c2	-0.056557424
168	0xbe081800	-0.13290405
169	0xbd8616d7	-0.06547325
170	0x3c5f03ae	0.013611717
171	0x3dc13bac	0.0943521
172	0x3d9fea49	0.07808358
173	0x3d65242a	0.05594269
174	0x3d795f52	0.06088192
175	0xbc3f1fba	-0.011665279
176	0x3bd17039	0.006391552
177	0x3e013c07	0.12620555
178	0x3a94b32f	0.0011344905
179	0x3d3e8143	0.046509992
180	0x3d41c11f	0.047303315
181	0x3de12394	0.10993114
182	0x3d7989bc	0.06092237
183	0xbd0fd133	-0.035111617
184	0xbd0aaa7a	-0.033853985
185	0xbdcf397e	-0.10118388
186	0xbd182cb7	-0.03715202
187	0x3df75b8e	0.120780095
188	0x3d99bf25	0.07507161
189	0xbdb20332	-0.08692016
190	0x3dab6c9c	0.08370325
191	0xbd5ec6b9	-0.054388735
192	0xbc37294d	-0.0111792805
193	0x3c9e2dcf	0.019308953
194	0xbdaba113	-0.08380332
195	0xbd5ff39e	-0.05467569
196	0xbd1ceb90	-0.038310587
197	0xbc962f7b	-0.018333187
198	0x3da87489	0.08225352
199	0xbc031918	-0.008001588
200	0xbdb1282a	-0.08650239
201	0xbdc3a672	-0.09553231
202	0x3dcfc9de	0.10145925
203	0x3d9a6fd6	0.07540862
204	0xbdd586cd	-0.10426102
205	0xbdaa9599	-0.08329315
206	0xbdc13448	-0.094338
207	0x3dbb5e3c	0.09148833
208	0x3d358243	0.04431368
209	0x3d8099cc	0.062793344
210	0x3db5c0c4	0.08874658
211	0x3d25efa1	0.04051173
212	0x3d90d8bc	0.07072589
213	0xbdaafa2b	-0.08348497
214	0x3dee2156	0.11627452
215	0x3d254851	0.04035217
216	0x3caa8587	0.020815624
217	0x3d789f74	0.06069894
218	0xbd1b9030	-0.037979305
219	0xbd9c1626	-0.07621412
220	0xbc70f987	-0.014707929
221	0xbde6cdf4	-0.11269751
222	0xbc95be6e	-0.01827928
223	0x3d370cba	0.04468987
224	0x3c9e3c5d	0.019315893
225	0x3c54622e	0.012962861
226	0x3cf14ca3	0.029455489
227	0xbe05fc5f	-0.13084553
228	0xbdcf93f9	-0.101356454
229	0xbdb52ecf	-0.08846819
230	0x3e11b73d	0.14230056
231	0xbdc3ef3d	-0.095671155
232	0x3d20ac0c	0.039226577
233	0x3d970aee	0.073751315
234	0xbd65042a	-0.055912174
235	0xbd24acaf	-0.040203746
236	0x3df63666	0.120220944
237	0xbdee73b6	-0.11643164
238	0xbdda45db	-0.10657855
239	0xbae494bb	-0.0017439345
240	0x3bdb220a	0.0066874074
241	0xbd0c7d13	-0.034298968
242	0xbc2c1914	-0.010504026
243	0x3daba056	0.08380191
244	0x3d3c6b82	0.046000965
245	0x3d58ae1d	0.052900422
246	0x3de05adc	0.1095483
247	0xbd9c8a69	-0.07643587
248	0x3ce427d1	0.027851017
249	0x3cb2831d	0.021791035
250	0x3d787e63	0.060667407
251	0xbcda08ee	-0.026615586
252	0x3da7976c	0.08183178
253	0xbde5e13c	-0.11224601
254	0xbd9ebdc1	-0.077510364
255	0xbe0d0218	-0.1377033

Actor.bias f4 [5]
0	0x3d82a345	0.063787974
1	0x3dba14fb	0.09086033
2	0xbc4533de	-0.012036292
3	0x3b9eb8db	0.004843814
4	0xbceb2ce1	-0.028707923

Critic.weight f4 [1, 64]
0	0xbdeabe42	-0.1146207
1	0x3e3265c6	0.17421636
2	0xbde086ee	-0.10963236
3	0xbe167b56	-0.14695486
4	0x3e0e507a	0.13897887
5	0xbdebddc6	-0.11516909
6	0xbdc279b9	-0.09495873
7	0xbe0e3a29	-0.13889374
8	0xbde07ea0	-0.10961652
9	0xbdf991f7	-0.12186044
10	0x3e56df01	0.20983507
11	0xbe417a7f	-0.18894385
12	0xbe540f98	-0.20709074
13	0xbe04aaae	-0.12955734
14	0x3dd4bddd	0.10387776
15	0x3e40cef3	0.18828945
16	0x3e19086a	0.14944616
17	0xbde7f552	-0.11326088
18	0xbe60a1bd	-0.21936698
19	0xbe28188b	-0.16415612
20	0x3e097930	0.13425136
21	0xbe0cb087	-0.13739215
22	0xbe37ba83	-0.17942242
23	0x3e026204	0.12732702
24	0x3e4d8617	0.20070682
25	0x3df7a1e2	0.120914236
26	0x3e49a44d	0.19691582
27	0x3e50c72d	0.2038848
28	0xbde26f05	-0.110563315
29	0x3e7237e2	0.2365413
30	0x3e167ad8	0.14695299
31	0x3e17aac4	0.14811236
32	0x3df12ea1	0.11776472
33	0xbe5aab5c	-0.21354431
34	0x3e1a986d	0.15097208
35	0x3e4dc542	0.20094779
36	0x3e03e450	0.12880063
37	0xbdcf26ae	-0.101147994
38	0xbdfac081	-0.122437485
39	0xbe58d464	-0.2117477
40	0x3e01ff0b	0.12694947
41	0x3e18aed0	0.14910436
42	0x3e22a5c4	0.15883547
43	0x3e6315f1	0.22176339
44	0xbe31a473	-0.17347889
45	0x3e52d8f4	0.20590574
46	0xbe03f466	-0.128862
47	0xbe0f2771	-0.1397989
48	0xbe37a8ab	-0.17935435
49	0xbe37f9f9	-0.17966451
50	0x3e0c4866	0.13699493
51	0xbdfeaa3c	-0.124348134
52	0x3e096674	0.13417989
53	0xbe6582f6	-0.22413239
54	0xbe19edca	-0.15032116
55	0x3e2a12bd	0.1660871
56	0xbe2c8adc	-0.16849846
57	0x3e6788be	0.22610757
58	0xbe45535c	-0.1927008
59	0xbe3185cd	-0.17336197
60	0x3e42971e	0.19002959
61	0x3e4ff769	0.20309223
62	0x3e24478e	0.16042921
63	0x3e2a6afc	0.16642374
