PPO_Champion.pth (torch, 167676 bytes, 7 tensors)

Network.0.weight f4 [128, 50]
00000000: 9b21 883b bbd9 273d be38 213d 9f03 60be
00000010: 9f20 bf3d acaf 303d 2481 a53e 8980 853e
00000020: 76c1 773e 8eaa e53d 70b5 19bd a5ec 5a3e
00000030: f08d b83b 26c6 393e 5972 a9bc 2f3e 2b3c
00000040: 5a8e 723e ce3d 233e 5aef ba3c 99c3 cdbd
00000050: 24c0 673d 64c2 dc3d 1c59 3b3d e4e2 6f3e
00000060: 0e64 30bd 952c b53c 7fc1 e43d 67df 1ebd
00000070: d9f0 6dbd a02d aabd 70a9 15bc 13c8 9a3d
00000080: 6f36 ddbd 91b9 77be c555 fabd fc76 e4bb
00000090: 0838 c7bd 4420 8a3e b383 9bbd aecd 673d
000000a0: 7ab3 b83d 5dba 82bd b0b7 ac3d 95b1 95be
000000b0: 577c 16be 4ed2 2abe 17a5 87bb 21a3 a93d
000000c0: fbbd 13be 05ac 9bbd d934 dd3d a2ae d03d
000000d0: c915 5e3e d596 b7bd da7e 543e e190 86bd
000000e0: d58f 543e 846a 00be ba27 003e 71e7 8fbb
000000f0: 1905 a73d 3a1d 883e 404d 1abd f0fa 2f3e
00000100: 443a 0d3e c483 96b9 54d6 113e 2631 953d
00000110: 92af d63d 5958 003e 0b3a bbbd dea7 a9bd
00000120: a59c ee3d a1ff 043e 661f 113e d223 133e
00000130: eda4 aebc 2385 5dbd 5cd1 babd cede e6bd
00000140: e304 95bd 3352 b53c 98cd 103e 6ad5 d9be
00000150: 3f87 583c 7e3e d23d b52d febd 98fd c8bc
00000160: 1d46 91be 6a62 acbd f914 123e 3b2c 533d
00000170: 0102 103e 02bc 5fbe 6d41 0fbe b838 a1bd
00000180: 53a4 ab3d 2667 833d a1d8 2ebe fa8e ebbd
00000190: 9b41 043e 3bd7 043d 9bce 133e e7bc 30be
000001a0: 892f 79bd bb9c d2bb bd88 1b3e 647e 27be
000001b0: 08a2 a53e 79df 053e 2a24 7dbd 6534 d83e
000001c0: c071 0abd d263 bd3e 39dd 3e3e 6b32 fcbd
000001d0: 84b6 e13d 7193 273d 57e5 193e b5b4 aa3d
000001e0: f867 533d f5b0 4dbc 3245 1bbd ee21 543e
000001f0: d69b a6bd 84bb b0bd 4cc5 89bd 4ba1 55bd
00000200: 64d1 f2bd b445 cfbd 90d4 ffba 07b4 a5bd
00000210: cc97 abbd 29be 40be b387 043e 23d3 ab3d
00000220: 357a b4bd 34be 9a3d 8b40 5abe 8626 0e3e
00000230: 3d4b 6c3e c60f 8b3d 3ed0 253e bd7d a8be
00000240: d4aa b7bd bbe2 20bd 98cd fc3d 4df9 223d
00000250: 2d80 29be daef f9bd 2e90 f6bd ec27 2dbe
00000260: 0ad9 553e 9543 32bd 22a9 1e3e 44d7 febd
00000270: e8ae ac3e b376 a6bd 9e54 913e 73d3 973d
00000280: 5864 7abc d881 783e 032d f7bd bea0 dc3d
00000290: 345b 823d d6de 613c c2a5 723d 8681 ff3d
000002a0: 3d57 85bc 953d 2c3d 2199 0b3e c7c8 dbbd
000002b0: d21b 273e 7b94 153e bfae 86bd b2bc cf3d
000002c0: b237 64bd 934d 8dbd f3aa 703d d333 d1bd
000002d0: 7cf1 643d 7eaf 1bbe ee2e 1c3e c7f7 19be
000002e0: 362c c63d d086 343e a6f3 05be c615 1abd
000002f0: 9fbb c8be 78d9 f63d 8a0d 613e 4d88 a63d
00000300: 7644 8fbd 03cd 9bbe 4b1e b7bd 5ce4 d9bd
00000310: 6484 debd 83ae 9f3d c5b4 cfbd 0004 a8bc
00000320: 1da7 9f3c 4375 de3d 65ee 0b3e 9e88 e6bd
00000330: 4f62 00be 5f73 e63d f5ec 763e dea4 843e
00000340: 3a39 d23e 7a12 013e 0f95 4c3c 8c4d a23d
00000350: 3d43 2d3e f331 323e 8410 acbd 3e5e 013d
00000360: ce26 0bbe 263c 51bd 2e24 a33e 6360 1dbe
00000370: 69d1 5d3b 6bad f33d da91 383e c0f1 563e
00000380: b10d 2bbe 5d8a a93d ea95 cabd 72e4 103c
00000390: 71dd 133e 13fe a9bd 53cb cf3b 469d b63d
000003a0: 2419 0db9 f200 e03e 10fa 4e3d fc89 3cbc
000003b0: 638b 1d3e e5b9 803d d191 823e aa22 d03b
000003c0: 7638 043e 8e68 5c3e 324d 53bc e1cb 613e
000003d0: 7cb9 d23c 8e0c 32be ecda 863d fa18 adbd
000003e0: d908 843e 4786 78bd 45f3 9ebd 7ef8 7e3c
000003f0: 8d23 e93d b09a 35bd c2f3 abbd 700d 63bd
0.0041543967 0.04097913 0.039360754 -0.21876381 0.09332394 0.043136284 0.3232509 0.26074627
0.24194893 0.11214171 -0.037526548 0.21379335 0.0056321546 0.18141994 -0.020684408 0.010451837
0.23687115 0.15941545 0.02281921 -0.10047073 0.056579724 0.107792646 0.04573928 0.23426396
-0.04306417 0.022115985 0.11169719 -0.03878727 -0.05809102 -0.083094835 -0.009134635 0.075576924
-0.10801398 -0.24191882 -0.122233905 -0.006972192 -0.09727484 0.26977742 -0.07593479 0.056592636
0.090186074 -0.06383202 0.08433473 -0.29237047 -0.1469587 -0.16681787 -0.0041395533 0.082830675
-0.1442794 -0.076011695 0.108010955 0.101895586 0.21687998 -0.08964316 0.20751515 -0.06570602
0.20757993 -0.12540632 0.12515154 -0.0043916036 0.08155269 0.26584798 -0.037671328 0.17185569
0.13791758 -0.00028708403 0.14241916 0.07284765 0.10482706 0.12533702 -0.0914193 -0.08283971
0.11650971 0.1298814 0.14172134 0.14369133 -0.021318877 -0.054082047 -0.091219634 -0.11272965
-0.07276323 0.022133922 0.14140928 -0.42545635 0.013215839 0.10265826 -0.12411062 -0.024534985
-0.28373805 -0.084172085 0.14265813 0.051555853 0.14063264 -0.21849063 -0.13989802 -0.07872146
0.08380952 0.064161584 -0.17074825 -0.1150188 0.12915652 0.032431822 0.14434282 -0.1725956
-0.06083635 -0.006427375 0.1518888 -0.16356808 0.32350183 0.1307353 -0.061802067 0.42227474
-0.033799887 0.3699022 0.18639077 -0.12314304 0.1102114 0.040912095 0.15028892 0.083352484
0.051612824 -0.012554397 -0.037907787 0.20716068 -0.08135192 -0.08629516 -0.067270845 -0.052155774
-0.11856344 -0.10120717 -0.0019518305 -0.08090978 -0.08378562 -0.1882254 0.1294239 0.083898805
-0.08812372 0.075558096 -0.21313684 0.13881883 0.23075576 0.06790118 0.1619272 -0.3290843
-0.0896813 -0.039278727 0.123439014 0.039788533 -0.16552801 -0.12203951 -0.12039219 -0.1690976
0.20883575 -0.043521482 0.15494207 -0.124434024 0.33727193 -0.08128109 0.2838487 0.074133776
-0.015282713 0.24268281 -0.12069132 0.10772847 0.06365052 0.013786038 0.05924011 0.124758765
-0.01627695 0.042050917 0.13632633 -0.107316546 0.16319206 0.14607422 -0.06576299 0.10143413
-0.055717178 -0.06899562 0.05875678 -0.10214963 0.05589436 -0.15203664 0.15252277 -0.15035926
0.09676401 0.17629552 -0.13081226 -0.03761842 -0.39205644 0.120531976 0.21977821 0.08131466
-0.0699548 -0.3042985 -0.08941325 -0.10639259 -0.10865095 0.07796957 -0.10141901 -0.02050972
0.019488866 0.1086221 0.13665159 -0.112565264 -0.12537502 0.11252474 0.2411383 0.25907034
0.41059285 0.12604704 0.01248671 0.07924947 0.1692018 0.17401867 -0.084015876 0.031584017
-0.13589022 -0.051082753 0.3186354 -0.153688 0.0033846742 0.11898311 0.18024388 0.20990658
-0.16704442 0.08278344 -0.09891875 0.008843528 0.14439942 -0.08300414 0.006341377 0.08916716
-0.00013456173 0.4375072 0.050531447 -0.011507507 0.15385203 0.062854566 0.25501874 0.0063517885
0.12912163 0.2152426 -0.012896823 0.2205043 0.025723211 -0.17387602 0.06584725 -0.084520295
0.25788 -0.06067493 -0.07761244 0.015562175 0.11383734 -0.044336975 -0.083961025 -0.055432737

Network.0.bias f4 [128]
00000000: 5baa 3e3d ccf5 22bd 57cf 39bd fcb7 133d
00000010: 3559 323d 557c ef3d 5608 1b3e 87f3 333c
00000020: 35fe 043e ead5 8bbd 11e9 223c 2400 f9bd
00000030: d0f9 c53d 8858 323d 8e46 89bd 99ff dcbd
00000040: 7da8 c3bc 0f5b c0bc c65e 35bd 5ade 03be
00000050: 1867 79bd 0ebf 123e f572 8ebd c5c7 6b3d
00000060: 2f68 fe3a 4935 1c3b b3c4 623d a3b2 e93d
00000070: d9cd 053d d5f5 0d3d 6fd1 fc3d 0e49 7d3d
00000080: 3992 3c3d ddc7 2b3e dabe bfbd a430 f63d
00000090: 3d42 31bd 0ac5 1c3c 02e5 83bd aec1 0c3e
000000a0: 49b3 c5bd 8b09 9dbc 31dc e73c faf1 35bd
000000b0: 89dd be3c d881 103e a016 00be 1841 a0bd
000000c0: a975 92bd 24c7 3c3e 5ce9 8a3c f8a3 89bd
000000d0: a9e3 fbbd 86ce ee3d 8ca3 163e 1b94 d3bd
000000e0: 8d41 143d 4eea 3abd 4baf e83d 07cc b6bd
000000f0: 59a3 d33d e441 113e 3e3f a93d 48ac a6bb
00000100: 6fe3 7a3d 0f31 bf3d 9338 a1bd 5779 51bd
00000110: c7b9 efbd 8393 cc3d 72c8 0ebd a5b4 263e
00000120: 583b e3bc 4ca6 0ebd c8f2 a73d 4d3e 58bb
00000130: 725a c4bd ee3b a63c 3ac4 29bd 32e2 f5bd
00000140: 3c4a 81bd 544e 273d 7124 64bc f412 a3bd
00000150: 89ee 973d 0b54 35bd 84db c7bd b980 fd3d
00000160: 9e81 c5bc 3a1e 03bd 8e03 b63d 8a97 fd3d
00000170: 7b4d 0fbe e004 103e 8645 0b3e d2d5 a5bd
00000180: c97b 03be f319 a1bd e1c8 19bd c2e9 193c
00000190: 5980 8a3d 7772 db3c 155a 753d 451c e2bd
000001a0: 4bcb 063e a142 0a3e e212 ca3d 4a69 303d
000001b0: 61d4 6fbd 6998 2f3d b5a1 c3bd 1bd7 113e
000001c0: 7d9c 00be d51a 0a3e ec6e 123e d255 d8bc
000001d0: 623f ddbd 3aae 5f3d e275 cebd a19c 05be
000001e0: deb5 9bbd 7cb4 c13d 9fb2 d2bd 77d4 67bd
000001f0: 48f9 a6bb 84b3 f33d 8629 983d 9fd5 ae3d
0.046549182 -0.03978519 -0.04536375 0.036064133 0.043542106 0.11693636 0.15139899 0.010983354
0.12987597 -0.0682791 0.009943263 -0.1215823 0.096667886 0.04354146 -0.0670291 -0.10790939
-0.023884052 -0.02348092 -0.044279836 -0.12877789 -0.060889333 0.14330694 -0.0695552 0.057563562
0.0019409711 0.0023835471 0.05536337 0.114110254 0.032667015 0.03465827 0.12344634 0.06183725
0.046037886 0.1677546 -0.09362574 0.12020996 -0.04327606 0.009568462 -0.06440164 0.13745758
-0.096533366 -0.01916959 0.028303238 -0.04442022 0.023298996 0.14112031 -0.12508631 -0.07824916
-0.07151348 0.18435341 0.016956978 -0.06720728 -0.12299282 0.11660485 0.14710826 -0.10330983
0.036195327 -0.045633607 0.113615595 -0.08925634 0.103338905 0.14185292 0.082640156 -0.0050864555
0.061252054 0.09335529 -0.07872119 -0.05114111 -0.11705356 0.09989073 -0.03485913 0.16279848
-0.027738258 -0.03482656 0.08200604 -0.0032996119 -0.095875636 0.020292249 -0.0414469 -0.12006034
-0.06312987 0.040846184 -0.013924704 -0.079625994 0.07418544 -0.044269603 -0.09758666 0.123780675
-0.024109658 -0.03201125 0.08887397 0.123824194 -0.139944 0.1406436 0.1360074 -0.080974236
-0.12840189 -0.078662775 -0.03754509 0.009394111 0.067627616 0.02678798 0.059900362 -0.11040548
0.13163488 0.1350198 0.09866883 0.04306916 -0.05855215 0.04286996 -0.095523275 0.14242212
-0.12559696 0.13486798 0.14300126 -0.02640811 -0.10803105 0.054609515 -0.10081078 -0.1304803
-0.07603048 0.09458253 -0.102879755 -0.056599107 -0.0050956346 0.11899474 0.07429795 0.08536839

Network.2.weight f4 [256, 128]
00000000: 2c1e 813d 171d 87bc a699 353e c3fe 473e
00000010: 5cbc 163d d7b2 aebd 19b0 7b3b 6243 d53d
00000020: 5efd c23c b09e c53d 1766 943b 75cc ad3d
00000030: f24c 013e ad32 833d 0c31 2ebc 803c be3c
00000040: 9d56 903d 2452 853d 0112 2f3c 471f 0f3d
00000050: 8124 663e 45d4 633e d9c6 18bd acbc 55bd
00000060: 7631 583c fe69 c03b 7288 b53d e673 1bbb
00000070: 1939 28bd 4011 043e a778 243e 1fd6 a33d
00000080: 6849 393d 35a6 a0bd c706 783d 8ad9 283a
00000090: 68c2 4fbe 5a84 803c cae3 1b3e 632b 263d
000000a0: 3094 5cbd c6f8 643e ad10 193d 4664 463d
000000b0: 475c 4c3d c2e7 5c3c 13a9 6ebd 3c94 ef3d
000000c0: b66a 1a3e 1dc9 94be 8d9d 00bd 2dc7 c23d
000000d0: 0202 64bd ff7c 983d d875 0bbd a597 ccbc
000000e0: 955b a4bd 62b4 783e 9ea8 84bd 0506 9f3d
000000f0: 3522 293e 2e4f 873d a177 b33d 287d d83d
00000100: 9e27 c13d 058e 953c 0c7b 443e 2141 67bd
00000110: 430f 063e 6fe8 38bd 7eef 613e 4ab9 0dbe
00000120: bba7 3b3d b4db 213e 22ed 97bc 96df 303e
00000130: 37df 04bd 2ac8 ca3c fae4 e43c d36e 933d
00000140: 251a b03d fd5c 2f3d 33af 3a3e 9e8d 363e
00000150: bfdf c43d 17e2 08ba 47e3 073e 1d82 4bbe
00000160: 72c1 e03c 0b31 553d b6c2 523e dc3e 163e
00000170: 3f3a af3d 86e3 f33d e7d0 f6be 19e1 a63e
00000180: 44b3 583e 2837 8f3e 8888 6d3b 84d8 9d3d
00000190: 753b 28bc 9fa6 bd3d 2ad5 343e 81e8 6c3d
000001a0: 8a3f 303e 144a 513d ae9e 813c 3355 293d
000001b0: 0721 3a3e c435 3cbe 6459 433e f1f4 113e
000001c0: 07ab 4dbd 3f22 6c3e 741e c83d 3ddb 283e
000001d0: 5605 133e 5666 2ebc 3029 133e f472 45bc
000001e0: 02c3 f43d c8f6 323e a93d 463e e208 4a3d
000001f0: c134 53be bbc8 063e 0bfc 3d3d db4e 153e
00000200: b056 fa3d f74c 78bc 66c3 5b3e 82ff 093e
00000210: bd3f 26bd de78 3039 4ed2 783d 4022 fe3c
00000220: 6480 a3bd dacd 073d 4e72 803d 0dab d13c
00000230: 3336 5abd dbda a53d 6bf0 77bc 6b70 d53c
00000240: ad26 66bc 1aad 913d 8fc8 12bd 5559 913c
00000250: f55c 593e 8a75 2c3e 6252 6fbc ddcc a03d
00000260: 0070 2d3c b7b9 b63b 3b2e 173c 8fc6 c53c
00000270: 7022 80bd e5a1 f73d c82e 1f3e 599d 3e3e
00000280: e1a7 2abb cad3 3ebe abd8 a63d 42cb abbc
00000290: eab9 f6bd c6fc e1bc d30d 1b3e 9b49 123c
000002a0: 04e1 9b3d 5869 ca3d 3f8e e2bd 65fc 003e
000002b0: 5b46 63bd 052e a2bc 95ed 3a3d f6de bd3d
000002c0: 4485 033e 622a 70be 6eea dbbc 7665 8dbc
000002d0: ec5f 7d3d 9f6e e63d 341d e7ba 91a1 5b3d
000002e0: 961a 34bd cc6c a43e cf8b 35bc 5682 a73a
000002f0: c95a 2c3c a473 bfbd c3f8 50bd 4cf5 2a3e
00000300: 6f53 1e3d 0de2 90bc ef72 5a3e ea21 a6bc
00000310: c7ea 1d3e 9adb 74b9 1a17 5e3e d6d0 eabd
00000320: 25ae 14bb 43a4 1e3e 91dd f1bc 1cbd 243e
00000330: 7fa1 a53d 6147 b8bd 39f4 4bbd 01e3 f53d
00000340: 59d2 a73d a732 0bbd dc0f f03d 6e11 873d
00000350: ec32 29bc fefc a63d 0700 f43c 1991 2abe
00000360: 5923 bd3d 0590 663d a46c 833e 0555 573e
00000370: 9358 fe3d 038a 253e ea8a d7be f59b 5a3e
00000380: 4bbb 123d fca8 093e 3409 9d3d 6b31 a83d
00000390: c4d3 2cbd 7dee df3c 69fd 4d3e e292 86bc
000003a0: aad6 0c3e 0866 993d f97e 693d 6e2c 2dbc
000003b0: 29fc 0c3e d425 44be baaa 163e 0796 d73d
000003c0: 2595 2a3d a5f9 133e 8146 f43d f6a1 3f3e
000003d0: 11de e4bb 29f0 9f3c 1f53 063e d879 3b3d
000003e0: 99b0 d63d 3e77 0f3e 7753 ac3d 9217 04bc
000003f0: a4ba 65be ce74 5e3d 0375 b2bd b68e 1b3b
0.06304583 -0.016493363 0.17734393 0.19530778 0.036800727 -0.08530205 0.0038404523 0.10413243
0.023802456 0.09649408 0.0045287716 0.08486263 0.12627009 0.0640615 -0.010631811 0.023222208
0.0704777 0.06509808 0.010685445 0.034941938 0.22474863 0.22248943 -0.03729901 -0.052181885
0.013195386 0.0058720103 0.088639155 -0.0023720204 -0.041070078 0.12897205 0.1606165 0.07999825
0.04523602 -0.078442015 0.06055334 0.0006441107 -0.20289004 0.01568811 0.15223613 0.04056872
-0.05385226 0.22360525 0.03736942 0.048435472 0.04989269 0.01348299 -0.05826671 0.11698195
0.1507977 -0.29059687 -0.031400252 0.09510646 -0.055665977 0.07445716 -0.03404793 -0.024974653
-0.080252804 0.2428756 -0.06477474 0.0776482 0.16516955 0.06606899 0.08763052 0.10570747
0.094313845 0.018256197 0.19187564 -0.056458596 0.1309176 -0.04514354 0.22064015 -0.13840213
0.045814257 0.15806466 -0.01854569 0.17272791 -0.032439437 0.024753649 0.027941216 0.071988724
0.08598737 0.04281329 0.18230896 0.1782746 0.09612989 -0.00052216783 0.13270293 -0.19873853
0.027435992 0.052048724 0.20582089 0.14672416 0.085560314 0.11908631 -0.48206255 0.3259361
0.21162134 0.27971768 0.003624471 0.07707313 -0.010268082 0.09260296 0.1765944 0.05783892
0.17211738 0.051096037 0.015822735 0.041341018 0.18176661 -0.18379885 0.19077069 0.14253594
-0.050211933 0.23059939 0.097714335 0.16489883 0.14357504 -0.010644516 0.1437118 -0.012051333
0.11951257 0.17476952 0.19359459 0.049324878 -0.20625593 0.1316251 0.046382945 0.14580862
0.122235656 -0.015155069 0.21461257 0.13476375 -0.04058813 0.00016829695 0.060747437 0.031022191
-0.07983473 0.0331553 0.06271802 0.025594259 -0.053274345 0.08098384 -0.015133004 0.026054582
-0.014047307 0.07113095 -0.0358358 0.017742792 0.21226867 0.16841713 -0.014607044 0.078515746
0.010585785 0.005576338 0.009227331 0.024142532 -0.062565684 0.12091426 0.1554519 0.18614711
-0.0026040005 -0.18635479 0.08146795 -0.020970944 -0.12047179 -0.027586352 0.15141992 0.008928682
0.07611278 0.09883374 -0.110622875 0.12596281 -0.055487018 -0.019797334 0.045636732 0.09271042
0.12843806 -0.23453668 -0.026845183 -0.017260294 0.061859056 0.11251568 -0.0017632605 0.05362088
-0.043970667 0.32114255 -0.011080696 0.0012779932 0.010519692 -0.093482286 -0.051018488 0.16695136
0.038653787 -0.017685914 0.21332906 -0.020279843 0.15421592 -0.00023351461 0.216885 -0.114656135
-0.0022686806 0.15492348 -0.029524596 0.16087765 0.080874436 -0.089979894 -0.049793456 0.12006188
0.081944175 -0.033983853 0.11721775 0.06595121 -0.010327082 0.08153723 0.02978517 -0.16656913
0.09235258 0.05628969 0.25668824 0.21028526 0.12419238 0.16165929 -0.4209817 0.21348555
0.035823148 0.13443369 0.07667771 0.08212551 -0.042194143 0.0273354 0.201162 -0.016427461
0.13753763 0.07490164 0.057005856 -0.010569675 0.13768066 -0.19155055 0.14713565 0.10526662
0.04164614 0.144507 0.1192751 0.18714127 -0.00698448 0.019523697 0.13117646 0.045770496
0.10482902 0.14010331 0.08414357 -0.00806226 -0.22434479 0.054310612 -0.087137245 0.0023736185

Network.2.bias f4 [256]
00000000: d5e3 a43d e627 afbd b9f1 073c 8607 c2bc
00000010: adc7 8fbd 4247 693d d62f adbd 1a88 803d
00000020: b600 55bd 9669 283d 3fee 5bbd ab05 853d
00000030: e8bf 3f3d 793b ff3b 2b9e 023d 6031 9bbc
00000040: 577b 9c3b 5c34 6e3d 619d 093d 21dc 8a3d
00000050: b169 903c 0681 ad3d cf50 233d f2a2 573d
00000060: 57f3 013c de54 803c 86ac 5d3d a573 bebc
00000070: 45db 833d ccd6 0bbc b3cf 7ebb 8d2d fa3d
00000080: d76f a7bd f6d5 b6bc bca3 3dbd 9e88 2abd
00000090: d612 303d 5f16 7ebd bd8f 2cbc 6131 62bd
000000a0: bd3d febc 17f0 83bb 0625 60bc bb2b 763d
000000b0: 0ab9 a4bd 54b9 903d b9ef 983d 266e dd3c
000000c0: 9203 e5bd 3878 843b 14bf e63d bfcb 4bbd
000000d0: 9760 2fbd 5407 45bd 2a5c 1b3d 801a 8dbd
000000e0: 4f12 9fbd d478 aebc e704 033c 3064 bd3c
000000f0: 4a7e db3a 0451 753c cc00 b2bd 52a0 48bc
00000100: 692a 5f3b e80e 9c3d 68af b3bd 7dd1 873d
00000110: c4a9 8ebd 5c03 73bd f578 f03c 2ae1 53bd
00000120: 1ca8 42bd 360f aa3d 6514 8bbd cc9e c43d
00000130: b34d e8bc c940 bbbc 87cc c23b a231 70bb
00000140: ee2e 9c3d 1743 aa3d 608f 11bd 9244 543d
00000150: d625 633d 8f23 99bd e1bc c93c 0a3f 933a
00000160: 3788 0abb 33d5 cbbc 4a8f 75bd 4681 65bc
00000170: bc55 7fbd b31e 87bd 75a0 c4ba 524f fd3b
00000180: bca5 963d 8d1e 87bd 600b 3cbd 771a aa3d
00000190: 0e93 4cbd ad62 a93d af22 aabb 3413 923d
000001a0: 289a 80bc 8151 cd3d 7c08 b33d 80d5 84bd
000001b0: cfdb c6bc b3f7 5abc 908c b93c 96d5 3ebc
000001c0: 3c85 f3bc 3db3 1f3d e04c f63b e39a ae3d
000001d0: c207 7fbd d7bf 19bc ca10 f5bc 3cbb b93c
000001e0: 69b9 1a3d a8a3 a23c 4106 21bd a08f 13bd
000001f0: 0d60 8bbd 280c 9bbd dfa2 523d 5843 80bc
00000200: c059 b03d 8d09 9d3c 3834 1cbd 8ebb c6bc
00000210: f02e 26bd 4278 49bd 4787 cc3d d85d 653d
00000220: a304 033d 32a5 85bd 4687 b33d 3c93 a9bd
00000230: 161f c43d 2f09 91bd d53b 4dbd 0b52 f2bc
00000240: 759f 2dbc 3a4e 893d 9840 973d 574a a73c
00000250: 8b92 a1bd 9c0e 843d 59b0 3a3c ce3c 55bd
00000260: 7779 3b3c 10ff 02bd 3db8 303d 0644 423d
00000270: 026d eb3c 8030 5f3d 2cf6 243d 3b95 c03d
00000280: 18c8 b23b 9e92 0c3d d4eb 66bd 8d2a d33d
00000290: f898 133d 8a63 923c 8325 b23d 7685 5e3c
000002a0: bd05 a5bd 3d25 bfbd 0871 14ba 6a25 683d
000002b0: 2c8b 0a3d 7c26 e5bc cb85 aebd 4202 14bd
000002c0: a8d9 3f3c 67fc b43c 7631 91bd 806a 013d
000002d0: a580 f13c 534d a7bd d1c9 a33d 15dc b3bd
000002e0: 023d dc3d 1614 81bd 9e1c ea3d 6bc3 46bd
000002f0: 55b4 14bc 16d5 d9bc c4ae d1bb 1a51 c83d
00000300: 3208 2cbc 0cea 96bd 7af5 8d3d cac5 993d
00000310: 949e eabc 61ec 34bd 29c9 51bc 0e07 bb3c
00000320: 28ae 14bd 95fc acbc 10ec 08bd 22e5 2dbd
00000330: bdf8 46bd 4486 173d 7f79 9c3d 0300 883c
00000340: 0e82 0dbd 34e0 22bc df3f 173d ff51 9cbc
00000350: 0280 3e3b 621b 633b 1442 9cbd fb33 17bc
00000360: 346b bf3d 3088 a53c f596 a6bc dd33 823b
00000370: 32dc 60bd a48b 4e3d a069 313d 8ba7 03bd
00000380: d8ba f9bc b9f5 cfbc 6c30 8cba e306 8c3d
00000390: d485 043d e9cc 8a3d cbee 343c cd60 af3d
000003a0: ca28 463d 672b a4bd 58b0 abba 1baf 9b3d
000003b0: c480 303d 056e 933d 003c e73d e632 b3bb
000003c0: 2204 6d3d 3308 c83d 608e 623d 6c97 893d
000003d0: a0fb 453d f575 a3bd 88b8 a83d a799 3f3c
000003e0: a95d 943d 896b 373d 8deb 77bc 229b 69bc
000003f0: fbb9 11bd 37c6 4e3d 9201 12bd 3032 793d
0.08051268 -0.08552532 0.008297377 -0.023685228 -0.07020507 0.056952722 -0.084563896 0.06275959
-0.05200263 0.04111632 -0.053694006 0.06495222 0.046813875 0.007789072 0.031889122 -0.018944442
0.0047754454 0.058155403 0.033597354 0.067802675 0.017628523 0.08471875 0.039871987 0.05264563
0.007931552 0.015665468 0.05411961 -0.023248503 0.06438307 -0.008535098 -0.0038881123 0.12215719
-0.08175629 -0.022318821 -0.046298727 -0.041634195 0.042986713 -0.062033053 -0.010532317 -0.055222873
-0.031035298 -0.0040264237 -0.013680702 0.0601003 -0.08043106 0.070665985 0.074675985 0.027030062
-0.111823216 0.0040426515 0.11266914 -0.049754854 -0.042816725 -0.04810269 0.03792969 -0.0688982
-0.07767164 -0.02129785 0.007996774 0.023119062 0.0016746011 0.014972929 -0.08691558 -0.012245255
0.0034052378 0.07620031 -0.087736905 0.066317536 -0.06965974 -0.059329376 0.029354552 -0.051728405
-0.047523603 0.083036825 -0.06790999 0.096006006 -0.028357362 -0.02285804 0.0059447917 -0.0036650677
0.07626139 0.083135776 -0.035537124 0.051823206 0.055456005 -0.074774854 0.024626197 0.0011233997
-0.002113832 -0.024881935 -0.059951104 -0.014007872 -0.062337622 -0.06597652 -0.0015001433 0.007730403
0.0735583 -0.06597624 -0.045909286 0.08305829 -0.04994493 0.08270774 -0.005192123 0.07132569
-0.015698507 0.10025311 0.08741853 -0.064860344 -0.024274735 -0.01336472 0.022650033 -0.011647603
-0.029726617 0.038989294 0.0075164884 0.08525636 -0.062263258 -0.009384117 -0.029915232 0.022672288
0.037774477 0.019853428 -0.039312605 -0.036025643 -0.068054296 -0.07570678 0.051424857 -0.015657112
0.086108685 0.019169593 -0.038135737 -0.024259355 -0.040572107 -0.049186952 0.099867396 0.0559977
0.031986844 -0.06525649 0.08766036 -0.08280036 0.09576242 -0.0708183 -0.05010589 -0.029580137
-0.0105971 0.06704374 0.07385367 0.02042119 -0.07889279 0.06448099 0.011394584 -0.05205994
0.011442534 -0.031981528 0.043144453 0.047428153 0.028738502 0.054489613 0.04027383 0.094034635
0.005455982 0.034319513 -0.056377247 0.1031085 0.036034554 0.01786973 0.08698561 0.013581624
-0.08057735 -0.093332745 -0.0005662595 0.056676306 0.03382413 -0.027972452 -0.08521613 -0.036134966
0.011709608 0.022093011 -0.07089512 0.031595707 0.029480288 -0.08169045 0.07997478 -0.08782212
0.10753824 -0.06302659 0.114312395 -0.04852621 -0.009076198 -0.026590865 -0.0063990075 0.09781094
-0.010500001 -0.0736886 0.069315866 0.075084284 -0.028640069 -0.04417074 -0.012804308 0.022830512
-0.0362989 -0.021116534 -0.03342825 -0.042454846 -0.04857706 0.03699328 0.07640361 0.016601568
-0.034547858 -0.0099411495 0.036926147 -0.019082068 0.0029067998 0.0034653773 -0.07629791 -0.009228702
0.09346619 0.02020654 -0.020335654 0.0039734677 -0.054897495 0.05042614 0.043313622 -0.032142203
-0.030484602 -0.025385724 -0.0010695583 0.06837251 0.03235419 0.06777365 0.011043261 0.08563385
0.048378743 -0.08016091 -0.0013098819 0.07601758 0.04309155 0.07198719 0.11290741 -0.005468714
0.05786527 0.09767189 0.05531156 0.067183346 0.04833567 -0.07981483 0.082383215 0.011694348
0.07244427 0.044780288 -0.015131843 -0.014258178 -0.035577755 0.050482 -0.03564603 0.06083888

Actor.weight f4 [5, 256]
00000000: ca7b 86bc 962e 1f3b 930c 0c3d 1f55 c3bc
00000010: a650 0f3d 5a95 c8bd 5f29 2bbd 3d24 df3b
00000020: adb8 5a3d 9aee 923b aea8 903a 1746 713c
00000030: dd42 a0bc c6e3 0dbd 10f1 dbb9 f966 5cbd
00000040: 8308 9e3c d652 05bb 83d8 50bc 1eaf 27bd
00000050: 1ef3 78bd 37f4 a13c 8a7f eabc 6331 0abd
00000060: 41d3 d73c dfff acbc 608a eabc 18b7 273d
00000070: 3db7 57bd 3d9d 013d 64e7 5fbc e868 2fbd
00000080: b4f5 85bd d0e4 23bd 22ac 42bd ad41 e3bc
00000090: e819 d83c 0e7e c5bc 86ad 08bd f83f c3bc
000000a0: 2444 adbc 082a 87bc 583c 583c 163a 96bd
000000b0: c596 9ebd 0c8a cb3a 69dd 063d 92bb 043d
000000c0: 12cc fabb 9b3b 11bd b678 adbd 0344 513d
000000d0: c9ad 7b3c 00b2 6dbb 19e3 d5bc 278f b63c
000000e0: 732d 84bd 9cb7 a4bd 08ec ec3c bcf6 763c
000000f0: 4760 87bd 614d 62bd 93ea 813c 7f2c febc
00000100: 4987 65bc 81e9 cebc 2854 283d a01b 5d3b
00000110: 9a77 2ebd dbf0 17bd 6842 873b 4fb7 8bbc
00000120: 32db 94bc 2fec 733d b683 e7bc c613 24bb
00000130: 51bf 683a 0ce2 18bd b9e7 e8bc 1ffa 17bc
00000140: 42f1 5b3c 4e69 8ebd fbf8 00bd 1370 b3bc
00000150: 1154 5bbd eebb 00bd bc78 1f3d 1342 07bd
00000160: 0121 7ebc f291 7b3d b646 043d a148 bb3c
00000170: 5995 67bd 94be d23c 7c19 c83c 956b 943d
00000180: a952 1b3d 9618 5c3d c29f 89bd d227 b2bd
00000190: 9a39 953d 27f9 933a dc81 8b3c b8b9 88bc
000001a0: a496 a7bd 4434 82bd de2d 83bd 59f5 0fbd
000001b0: 5c19 6a3c 7cac 4ebd 355b 253d e18a 613d
000001c0: 03e5 133d c124 84bb 2534 8f3c e63d bdba
000001d0: 3271 c7bc 3772 92bd 93f6 0cbd d7ef 343d
000001e0: f098 e03b 0e7b 553d 9ec3 6bbc c809 213d
000001f0: 5541 4bbd c065 23bd 3210 753a b061 8a3c
00000200: 2ef3 833c 8775 09bd 6aec 3fbd d345 8b3c
00000210: c7d0 19bc 514d 83bd 3e54 bcbd 8558 a4bc
00000220: 7e91 6d3d 805d 9cbc fd80 b8bb 8be9 a5bd
00000230: 3acd d73c 0980 af3b 6897 113c 9c70 943c
00000240: 4056 a73a 98aa e2bc c368 adbd 07ea 0d3d
00000250: 17b1 4ebd fe2a 80bd 8659 bd3c 31d2 87bd
00000260: 05c8 713c 65bd 6abc 4a58 163b 4408 18bc
00000270: 5ec0 26bb 6e05 16bd bf75 80bd 3459 0e3d
00000280: 0519 a5ba c3f1 bebc f546 30bd 9b7a 16bc
00000290: 857b 583c 4535 a2bc 5d5c 2a3b b02c 58bd
000002a0: f9f4 2e3c e18a 083d 7d67 4dbd b041 5dbd
000002b0: b054 a0bd d212 de3c 8360 95bb 0b9a 1bbd
000002c0: 008d 61bd 02be dbbc 5efb 95bd 7b08 abbb
000002d0: 0e85 9cbd bf8a 50bd 4e26 9fbd acc6 233d
000002e0: 7804 8ebd 691c 4abd 251c 9cbc 88c0 b6bc
000002f0: 85f6 7bbd 522d d3bb d4de 4bbd ce07 91bb
00000300: 4902 463d e7d6 8ebc 6030 aabd 81b7 fd3c
00000310: afa9 233d e39a c53c 51a6 5fbc 74b4 ecbb
00000320: f0b7 2c3d 6467 ddba b568 4c3c a4bb 103c
00000330: 1925 adbc f2af 81bd e685 f93a b8ca 543d
00000340: 7871 a93c 3300 18bd f4d2 f43c 5196 d7bc
00000350: 33c6 7f3c d225 a93b b384 4ebd d964 e13c
00000360: 0568 b3bd feb3 77bd d48f a63c 64b5 123d
00000370: 0795 87bd 90fd 0e3d 0216 8ebc aaea 073d
00000380: 4a03 53bd 7307 e13d 5568 a3bd 47ef 92bb
00000390: 6007 323d 9a2a 1fbc 5613 1ebd bcd8 123d
000003a0: f12b e0bb d772 5ebd 70cf a83c 0288 3abd
000003b0: e259 55bd 2885 7b3c 3f39 13bd 2b94 4dbd
000003c0: 3748 8f3c 68c8 d43c 074e 84bd 5161 b93c
000003d0: ec0b e7bc 1e8c 92bc 0cf1 74bd e643 7a3d
000003e0: f760 8fbd e38e 1f3d 4817 8f3c 2f70 1c3c
000003f0: 5673 82bc 1f8e 6c3d 9c3b 093d 7966 5bbc
-0.01641645 0.0024289242 0.03419168 -0.0238443 0.03498902 -0.097941115 -0.0417875 0.00680974
0.053398777 0.00448401 0.0011036599 0.014726183 -0.019563133 -0.03464105 -0.0004195054 -0.05380914
0.019291168 -0.0020343564 -0.012746933 -0.04093849 -0.06077873 0.019769771 -0.028625268 -0.033738505
0.02634585 -0.021118103 -0.028630435 0.040946096 -0.052664984 0.031644095 -0.013666008 -0.042824656
-0.06541005 -0.040013134 -0.04752744 -0.027741278 0.02637954 -0.02410796 -0.03336861 -0.023834214
-0.021150656 -0.016499534 0.013197981 -0.07335298 -0.07743601 0.0015528812 0.032925997 0.032405443
-0.0076537216 -0.035457235 -0.084702894 0.05109025 0.015361258 -0.0036269426 -0.026109265 0.022285057
-0.06453981 -0.08042833 0.028921142 0.0150734745 -0.0661016 -0.055249576 0.015858924 -0.031027077
-0.014009305 -0.025257828 0.041095883 0.003373839 -0.04259453 -0.037094932 0.0041277893 -0.017055182
-0.018170927 0.059551414 -0.028261047 -0.00250362 0.0008878606 -0.03732495 -0.028430806 -0.009275942
0.01342422 -0.06953679 -0.031487446 -0.021904027 -0.05354697 -0.031429224 0.0389335 -0.033021998
-0.015510798 0.06141848 0.032293998 0.02286178 -0.056538913 0.02572564 0.024426214 0.07247082
0.037920628 0.053734384 -0.067199245 -0.08699001 0.07286377 0.0011289463 0.017029695 -0.01669012
-0.08183029 -0.06357625 -0.06405233 -0.03514609 0.014288273 -0.050457463 0.040370185 0.055064086
0.036107074 -0.0040327017 0.01748092 -0.0014438003 -0.024345968 -0.07150691 -0.03441484 0.04417404
0.006854169 0.052119307 -0.0143899005 0.03931597 -0.049622852 -0.03989196 0.00093484216 0.016892284
0.016107168 -0.03355935 -0.04685632 0.017001068 -0.009388155 -0.06411231 -0.091957554 -0.02006174
0.05800008 -0.019087553 -0.005630611 -0.081011854 0.026342977 0.005355839 0.008886196 0.018120103
0.0012766793 -0.027669236 -0.08467247 0.034647014 -0.050461855 -0.062582 0.023113977 -0.06631888
0.014757161 -0.014327382 0.0022940808 -0.009279314 -0.002544425 -0.036626272 -0.06272458 0.03475304
-0.0012595957 -0.02330864 -0.04303642 -0.009184505 0.013213043 -0.019800792 0.0025994994 -0.052776992
0.010678523 0.03333557 -0.050147522 -0.054017723 -0.07828653 0.027108584 -0.0045586242 -0.037988704
-0.05506611 -0.026824001 -0.07323335 -0.005219517 -0.07642566 -0.05091357 -0.07770978 0.03998439
-0.06934446 -0.0493435 -0.01905639 -0.022308603 -0.061514396 -0.0064446116 -0.049773052 -0.004425979
0.048342023 -0.017436458 -0.08310008 0.03097129 0.039956745 0.024121707 -0.013650493 -0.00722366
0.042167604 -0.0016891775 0.012476136 0.0088337995 -0.021135854 -0.06332387 0.0019037097 0.05195114
0.020683989 -0.037109565 0.029885747 -0.026316794 0.015611219 0.0051619792 -0.05041952 0.027513908
-0.087600745 -0.06047439 0.020332254 0.03581752 -0.066202216 0.034909785 -0.017344479 0.033182777
-0.05151681 0.10987749 -0.07978884 -0.0044840905 0.043464065 -0.009714747 -0.03859266 0.035851225
-0.0068411757 -0.05430874 0.020606726 -0.045539863 -0.052087672 0.015351571 -0.035943266 -0.050190132
0.01749049 0.025974467 -0.06460195 0.022629412 -0.028203927 -0.017889079 -0.059800193 0.06109991
-0.070009165 0.038954627 0.017467156 0.009548231 -0.015924137 0.057752725 0.033504114 -0.013391131

Actor.bias f4 [5]
00000000: 30b0 48bd da55 af3c b5e8 7fbd a087 2a3d
00000010: c0fa 443d
-0.04899615 0.021403242 -0.062477786 0.04163325 0.048090696

Critic.weight f4 [1, 256]
00000000: 136b 3b3e a559 a63e 482e 4d3e e47f 1a3e
00000010: a0e9 ddbc 1b57 e5be 020b ee3a a0c8 c9be
00000020: 9718 d4bd 7c8b 333e 61d1 2c3e 384c 183e
00000030: d2f6 2fbd d925 f0bc 0b56 4f3e c25d 343e
00000040: 09c6 0c3e 03de 583e 2e42 a1be fae1 403e
00000050: 7958 0fbf 242c 2d3e cff7 4abe 94c9 8abe
00000060: 982a 4fbd 9dd3 63be 420a 103e 31af 19ba
00000070: aadf 55bd 8ea2 06bf ce91 84be b7f6 f4be
00000080: 250f 4d3e 1c58 3e3d 64bb 0c3e 69aa b4bc
00000090: 4245 313e 76d7 573e e1cd 253b 0070 443e
000000a0: b7d9 3e3e fc3c 383e 5552 66bd b23b 2dbf
000000b0: 14a3 513e 8324 193e 42e5 ff3d e3a2 363e
000000c0: 8b4a b53e dfa8 313e 3f99 17bf 2e1c e4bc
000000d0: 3373 573e 34f4 d7bc 4045 353e f6bf 61bd
000000e0: 5f77 3f3e 2d75 2b3e c0f8 fd3b d9cb 1d3e
000000f0: 3ad0 21bf 0516 413d 019f 04bd df4d 5b3e
00000100: a495 54bc accd 53bd 8ce1 1e3d 8440 2e3e
00000110: b04a 7b3d 443e 403e 7cfc 50bd 2615 413c
00000120: 758b 3e3e 744d 00bd 6380 1b3e d54b c9be
00000130: fea3 10bf 133b 27bd f00c 323e 2ada 1bbf
00000140: ffb4 4ebe a089 443e 1e39 9dbd af97 093e
00000150: f17e 303e f733 3d3e 38a7 3fbd fcd0 9dbe
00000160: 7945 263e 94be 9bbc 4e7f 10bd 81cb 2f3e
00000170: e7de 1e3e daf6 71bd 20a0 22bd 764f 08be
00000180: ca50 253e 34a5 6abd e313 d23d 05ad 0a3e
00000190: 9e47 92bd e541 2e3e 1883 25bc b77d 12bd
000001a0: 0c7f e2be 7d0f 16bf e8cc 0c3e 9405 c2bd
000001b0: e110 303e 5bd6 393e 8480 3c3e dfaa a9bb
000001c0: e5fb 113e ed35 b9be 38d2 2f3e f14d 663e
000001d0: a76f 64be cce1 cbbe 9eae 10bf e9c1 b6ba
000001e0: 2a4f 2d3e 0f16 05bd 0394 0d3e 843d e6bc
000001f0: 7604 62bd 32f6 36bd 3ad2 ffbe d4d5 d4bc
00000200: b38f 3c3e e43e 54be d55d 483e ac09 173e
00000210: 2b8a 31bd 039a 76bc 915a 26bf c0d2 4a3e
00000220: f3ca 1abd 3cc6 15bd 8c99 143e 6164 5e3e
00000230: caf5 0d3e f441 523e 68de 003d b068 263e
00000240: 1221 16be 0cd5 5b3e 33bd 273e 407e 3d3e
00000250: 728d 6dbe b048 1a3e 4e6a 1b3e 1b09 2b3e
00000260: b6fa 393e 3dfd e6bd ff8a 2ebe 46e6 2b3e
00000270: eba9 5a3e 9d39 1c3e b70c 2ebe 6a43 0f3e
00000280: b14a 10bd 5bbe 4a3e d6db 183e 73d4 98be
00000290: b112 2a3e a501 3f3e 0fef 3b3e 5786 253e
000002a0: bb95 2f3e 9d3d 2c3d 861c 583e fd99 3a3e
000002b0: ed57 483e a3f1 413e 34e7 a0bc bf2a f7bd
000002c0: 32ff 473e fafb 3e3e c3fd ccbe 177d 3c3e
000002d0: 3a0f 423e 137c 833e ede3 423e b2b9 61bd
000002e0: 0eff d6be b5ce 4d3e cd19 eebe 0e64 d3be
000002f0: 1c7d 9c3d 5b9e 233e 88eb d1be bfed 2b3e
00000300: b195 edbe 78ba 103e 0b03 093e 2b8b 1d3e
00000310: 16e7 363e 83bb 6a3e 468a 94bc 16ec c3bc
00000320: d69a 5f3e bf3f 1d3e eb2e 4cbd 313a 273e
00000330: 2f18 c4be 3fa6 3c3e e1ea cdbe aa1b d7bd
00000340: 048f 553e c47b 223e 5b82 063e ab6a 2f3e
00000350: 822a 3cbd 24b1 4dbd 7670 173e 9941 2abf
00000360: 37a1 173e 6a79 00bd 88df 79bc 180a ab3c
00000370: 8248 8ebe 6c20 80bc 99ca afbc 4586 313e
00000380: e8d6 453e 81c2 30be e6bf 673e 24c4 09bf
00000390: 51e5 25bd de5a 3d3e f532 533e 35fb 223e
000003a0: 5aae 7cbe 3322 013c 923c 3a3d efea 3f3e
000003b0: 0a31 1bbd 3fd2 01bf 22f5 0cbf ba50 dbbc
000003c0: 5b25 293e 9853 d7be 2d22 25be 9489 1cbe
000003d0: 0e63 8bbe 8130 4c3e 96bc 423e 9838 173c
000003e0: ef1b 96be db98 3b3e 3786 d43d e765 213e
000003f0: c9e1 8bbc 1719 40be 665d 193e e911 20be
0.18302564 0.32490268 0.20037186 0.15087849 -0.02708894 -0.4479302 0.001816124 -0.39410877
-0.10356253 0.17533678 0.16876747 0.14872825 -0.042959996 -0.029314922 0.20247667 0.17613891
0.1374742 0.21178441 -0.31495804 0.18836203 -0.55994374 0.1691137 -0.19821094 -0.27106917
-0.05057773 -0.22248693 0.14066413 -0.00058625924 -0.052215256 -0.5259179 -0.2589249 -0.47844478
0.20025308 0.046470746 0.13743359 -0.022053914 0.17311576 0.21078286 0.0025299715 0.1918335
0.18637739 0.17992014 -0.05623086 -0.6766921 0.20472366 0.14955334 0.12494899 0.17835574
0.35408434 0.17349575 -0.5921821 -0.027845468 0.21040039 -0.026361562 0.17702198 -0.05511471
0.1869788 0.16743918 0.0077506006 0.15409793 -0.63208354 0.04714014 -0.0323782 0.21416424
-0.01297513 -0.051709816 0.038789317 0.17016798 0.061350524 0.18773752 -0.051022038 0.011784827
0.18607886 -0.031323865 0.15185694 -0.39315668 -0.5650023 -0.040827822 0.17387748 -0.60879767
-0.20186232 0.19193125 -0.0767691 0.13436769 0.17235924 0.18476854 -0.04679033 -0.30823505
0.16237439 -0.019011773 -0.035277657 0.17167474 0.15514718 -0.059073307 -0.03970349 -0.13311562
0.161441 -0.057286456 0.10257699 0.13542564 -0.07142566 0.17017324 -0.010102056 -0.035764422
-0.44237554 -0.58617383 0.1375004 -0.0947372 0.17193939 0.18148176 0.184084 -0.00517784
0.14256246 -0.36173955 0.17170036 0.2249067 -0.22308217 -0.39820707 -0.56516445 -0.0013943288
0.1692473 -0.03249174 0.13825993 -0.028105505 -0.055180036 -0.044668384 -0.49965078 -0.025980867
0.18414192 -0.20727116 0.19567044 0.14749783 -0.043344658 -0.015051368 -0.64981943 0.19806957
-0.037791204 -0.036566004 0.14511698 0.21717979 0.13863292 0.20532972 0.031462103 0.16250873
-0.14661053 0.2146799 0.16380768 0.18505192 -0.23198488 0.1506679 0.15177271 0.16702692
0.18162045 -0.1127877 -0.1704521 0.16787061 0.21353881 0.15256353 -0.16997038 0.1399056
-0.03522748 0.19799177 0.14927611 -0.29849586 0.16608693 0.18652971 0.18352912 0.16164528
0.17146961 0.042050947 0.21104631 0.18222804 0.19564791 0.18939833 -0.019641496 -0.120687
0.19530943 0.18650809 -0.40037355 0.18407093 0.18951121 0.256806 0.1903226 -0.055108733
-0.41991466 0.20098384 -0.4650406 -0.41287273 0.0764105 0.15978377 -0.4100001 0.16789912
-0.46403268 0.14133632 0.13380067 0.1538512 0.1786159 0.22923093 -0.01813234 -0.023916285
0.21836409 0.15356348 -0.049849432 0.16330792 -0.382997 0.18422793 -0.4021826 -0.105033234
0.20855337 0.15867525 0.13135664 0.17130534 -0.045938976 -0.050217763 0.14788994 -0.66506344
0.14807592 -0.03136579 -0.015251048 0.020878837 -0.27789694 -0.01564046 -0.02145891 0.17336376
0.19320261 -0.17261697 0.22631797 -0.5381491 -0.040501896 0.18491694 0.20624907 0.1591614
-0.24675885 0.007881689 0.04546792 0.18741964 -0.037888564 -0.50711435 -0.55061543 -0.026771892
0.16518156 -0.42055964 -0.16126318 -0.15286857 -0.2722401 0.19940378 0.19017252 0.009229802
-0.29318187 0.18320028 0.10377162 0.15761529 -0.017075436 -0.18759571 0.14977035 -0.15631832
