ppo_highway_agent.pth (torch, 16696 bytes, 7 tensors)

Network.0.weight f4 [32, 25]
0.10141406 0.11808905 -0.32693678 -0.14328809 0.2028167 0.15654287 0.5508204 -0.27627316
0.41381875 -0.74988216 0.04246943 0.7815452 -0.3589241 0.14283918 -0.2683424 0.11032017
0.5649626 0.029987928 -0.03174386 -0.23030274 0.17555478 0.3867251 -0.0958438 0.36804184
-0.22405574 0.021162821 0.18109524 -0.18553407 -0.12590759 -0.05063305 -0.07795999 0.17280017
-0.12963593 -0.09206658 -0.1397281 -0.1873122 -0.116748095 0.17191961 0.08924367 0.09693451
0.010518312 -0.1025367 0.03383694 -0.18673895 -0.14451325 -0.103106 0.1261876 0.11726425
-0.088699006 -0.0072164773 0.22253324 0.20093974 -0.09391075 0.022760715 0.45697963 -0.023139872
0.58741146 -0.5761587 0.30007532 -0.9528857 0.1851155 0.89821714 -0.27835962 0.33992666
-0.1175362 0.069376916 0.48865592 -0.059874393 0.23062353 0.002400035 -0.05950427 0.14003883
0.029567888 0.39016378 -0.057665143 0.23359525 -0.0040952233 -0.43708277 0.044289 -0.1652888
-0.12926704 0.46464637 0.13808723 0.24272907 -0.3647988 0.023432601 0.28370076 0.09509957
0.18653218 -0.023489786 0.13044208 0.28698468 0.26912344 0.19028546 -0.038258307 -0.072615124
0.17322318 0.3893538 -0.16339906 -0.020959899 0.29277307 0.14724018 -0.24370973 -0.045287013
0.09224096 0.10103024 0.40424582 -0.5827407 0.42169613 -0.7776224 0.022719143 0.9408336
-0.2755713 0.45960474 -0.050142884 -0.064031415 0.4380147 -0.075090855 0.1373121 -0.10113848
0.18311088 0.23412399 -0.14541703 0.31483692 -0.38384107 -0.012153121 -0.0362679 -0.25550973
-0.06428557 0.12610647 0.06384486 0.6062375 -0.55757934 0.42726183 -0.6744917 0.08582793
0.83775467 -0.17509837 0.32089666 -0.067173645 0.2958381 0.62151635 0.10234254 0.09563303
-0.335587 0.01157267 0.36260915 -0.0543275 0.124023154 -0.3541091 -0.07129492 -0.14554358
-0.19229722 0.12610653 0.42554894 -0.07701096 0.6909783 -0.62132716 0.37799922 -0.9270885
0.07735257 0.79813206 -0.37346962 0.08850642 -0.25377238 0.11846223 0.41101822 -0.017778926
-0.088895336 -0.19625157 0.2917598 0.15242717 0.14551662 0.27759284 -0.40693837 0.21173382
-0.029951176 -0.2687765 0.14695844 0.11999821 0.10665645 0.49120325 -0.27147833 0.50040966
-0.7121747 0.15582737 0.75031435 -0.19981676 0.120563544 -0.08088578 0.24398921 0.6023254
-0.2468576 0.12409608 -0.28552896 -0.02490142 0.08419438 0.025185378 0.108683035 -0.19880216
0.11263377 0.14179142 -0.30889517 -0.13113245 0.16384608 0.24420582 0.47846895 -0.2585576
0.49747607 -0.77411175 0.102730684 0.7745415 -0.12908268 0.22416742 -0.18883635 0.12973838
0.32643253 -0.18396851 0.26254573 -0.30636632 0.08985817 0.41797525 0.01990465 0.21843112
-0.36534786 0.22322634 -0.11136454 -0.20315093 -0.042859107 0.25902086 0.12633811 0.7447501
-0.44992557 0.59323406 -0.7056652 -0.0022921439 0.940967 -0.33956537 0.16937205 -0.130831
0.19018844 0.66279626 -0.20859806 0.081305414 -0.04837842 -0.069267616 0.38795143 -0.2631848
0.20053074 -0.22911568 -0.105334595 0.026434207 0.16538374 -0.05846391 -0.11873882 -0.07396777
00000000: 2db2 cf3d acd8 f13d 4264 a7be 1dba 12be
00000010: 2eaf 4f3e c64c 203e 9102 0d3f ad73 8dbe
00000020: 0de0 d33e 47f8 3fbf 6df4 2d3d 5913 483f
00000030: e6c4 b7be 6f44 123e 2d64 89be 8bef e13d
00000040: 64a1 103f 3ea9 f53c da05 02bd 7bd4 6bbe
00000050: a2c4 333e d500 c63e c149 c4bd fb6f bc3e
00000060: de6e 65be a75d ad3c 0871 393e a5fc 3dbe
00000070: ebed 00be 9a64 4fbd 7da9 9fbd 87f2 303e
00000080: 48bf 04be 678d bcbd e214 0fbe c5ce 3fbe
00000090: a019 efbd b20b 303e 63c5 b63d 9a85 c63d
000000a0: 0055 2c3c c3fe d1bd 9a98 0a3d 7f38 3fbe
000000b0: 48fb 13be 3d29 d3bd 5237 013e 3d28 f03d
000000c0: d3a7 b5bd 3378 ecbb c1df 633e 26c3 4d3e
000000d0: 4754 c0bd ae74 ba3c 3cf9 e93e d48f bdbc
000000e0: 9960 163f 237f 13bf 79a3 993e 51f0 73bf
000000f0: eb8e 3d3e 8ff1 653f 2785 8ebe de0a ae3e
00000100: d2b6 f0bd 7c15 8e3d 1c31 fa3e da3e 75bd
00000110: 9328 6c3e e849 1d3b c0ba 73bd 5766 0f3e
00000120: 5b38 f23c 8cc3 c73e 4932 6cbd 9833 6f3e
00000130: 3931 86bb 50c9 dfbe 6268 353d 7841 29be
00000140: 945e 04be 21e6 ed3e bd66 0d3e f88d 783e
00000150: e9c6 babe baf5 bf3c 3a41 913e 90c3 c23d
00000160: 4b02 3f3e a76d c0bc 9c92 053e a8ef 923e
00000170: 8cca 893e 31da 423e beb4 1cbd 3db7 94bd
00000180: 6b61 313e 6259 c73e 1552 27be 18b4 abbc
00000190: 5ae6 953e 21c6 163e 0b8f 79be e07e 39bd
000001a0: d4e8 bc3d f1e8 ce3d 4ff9 ce3e 7f2e 15bf
000001b0: 8ee8 d73e 4312 47bf 7f1d ba3c 79da 703f
000001c0: ae17 8dbe 5051 eb3e a062 4dbd e722 83bd
000001d0: 7643 e03e 3cc9 99bd 8b9b 0c3e b121 cfbd
000001e0: 6b81 3b3e 33be 6f3e 34e8 14be 4e32 a13e
000001f0: d186 c4be e21d 47bc a68d 14bd 2cd2 82be
00000200: 27a8 83bd 0e22 013e 18c1 823d 6132 1b3f
00000210: 85bd 0ebf 10c2 da3e 7dab 2cbf 8ec6 af3d
00000220: 1777 563f fd4c 33be 914c a43e 5692 89bd
00000230: 1778 973e b21b 1f3f f798 d13d 40db c33d
00000240: 0fd2 abbe 4c9b 3d3c e8a7 b93e 8386 5ebd
00000250: daff fd3d ca4d b5be 1203 92bd 6009 15be
00000260: 90e9 44be 1222 013e 8de1 d93e ecb7 9dbd
00000270: f4e3 303f 4c0f 1fbf 1d89 c13e ac55 6dbf
00000280: 066b 9e3d 6252 4c3f 6937 bfbe db42 b53d
00000290: 74ee 81be 539c f23d fb70 d23e 1ca5 91bc
000002a0: c20e b6bd 2cf6 48be 8a61 953e de15 1c3e
000002b0: 4f02 153e a620 8e3e 3a5a d0be c0d0 583e
000002c0: 2b5c f5bc 139d 89be 467c 163e 9fc1 f53d
000002d0: b26e da3d fe7e fb3e 35ff 8abe d91a 003f
000002e0: 1551 36bf 3691 1f3e 9a14 403f c49c 4cbe
000002f0: 05ea f63d 72a7 a5bd 4fd8 793e ff31 1a3f
00000300: 3dc8 7cbe 1626 fe3d da30 92be 10fe cbbc
00000310: 1a6e ac3d 9151 ce3c 3695 de3d cb92 4bbe
00000320: 89ac e63d c531 113e 8227 9ebe 9647 06be
00000330: 44c7 273e 1711 7a3e e2f9 f43e a961 84be
00000340: 2fb5 fe3e 302c 46bf 7764 d23d 5a48 463f
00000350: 402e 04be 258c 653e 515e 41be 23da 043e
00000360: 2a22 a73e 3e62 3cbe 656c 863e 0cdc 9cbe
00000370: 8f07 b83d da00 d63e 140f a33c 68ac 5f3e
00000380: e00e bbbe 7295 643e 1813 e4bd cc06 50be
00000390: 088d 2fbd 629e 843e c75e 013e f1a7 3e3f
000003a0: a55c e6be 30de 173f 79a6 34bf cb37 16bb
000003b0: 37e3 703f 83db adbe de6f 2d3e 90f8 05be
000003c0: c2c0 423e 04ad 293f bb9a 55be 7483 a63d
000003d0: 7328 46bd 2edc 8dbd 92a1 c63e 28c0 86be
000003e0: ee57 4d3e 4d9d 6abe aab9 d7bd 8d8c d83c
000003f0: 5b5a 293e da77 6fbd 572d f3bd 6a7c 97bd

Network.0.bias f4 [32]
0.19188502 -0.085487366 0.2540614 -0.08321193 0.10519345 0.28617284 0.31475294 -0.030656941
0.1398455 0.14777502 -0.09377034 0.04995554 0.0541708 -0.053379115 0.14636844 0.18195613
-0.07881403 0.16612823 0.085904196 0.09074254 0.26284185 0.031155637 0.17845921 -0.06355703
0.08952087 0.086427696 0.11375604 0.030364644 0.09903934 0.111014895 0.20587753 -0.04048107
00000000: 827d 443e 0014 afbd 5614 823e 046b aabd
00000010: aa6f d73d 3f85 923e 4c27 a13e 4424 fbbc
00000020: a933 0f3e 5652 173e aa0a c0bd 2e9e 4c3d
00000030: 33e2 5d3d 0fa4 5abd 9ce1 153e b552 3a3e
00000040: 4069 a1bd 851d 2a3e 8aee af3d 3ad7 b93d
00000050: 3593 863e 1b3a ff3c 03be 363e 302a 82bd
00000060: b856 b73d 0101 b13d edf8 e83d 46bf f83c
00000070: 23d5 ca3d c75b e33d 8fd1 523e 7acf 25bd

Network.2.weight f4 [64, 32]
0.2420007 -0.06575922 0.06707383 0.5468455 0.26761356 0.19284159 0.21909888 0.2854383
0.17058586 0.40796173 0.0100131845 0.33145007 0.07702094 0.15971602 0.26706153 0.27803424
0.008134974 0.034593944 0.15468338 0.12239443 0.1467192 0.13332963 0.30358455 -0.14857385
0.28203437 0.12549141 0.3114516 0.038466204 -0.031191124 0.3845115 0.8980776 -0.011778042
0.14073175 -0.07554593 -0.041736983 -0.08637624 -0.06055238 0.002025194 -0.038923513 -0.060618203
-0.20959616 -0.046328694 -0.005236472 -0.028268013 0.13545519 0.14250924 -0.13617244 -0.03809524
-0.07082976 -0.16292547 -0.15643162 0.16591573 0.08026905 0.07069765 0.06635689 -0.14044537
-0.038676787 0.12446257 -0.14840299 0.12689334 0.02579767 0.09442322 -0.08952653 0.08149719
0.072518125 -0.011224528 0.28021288 0.52796143 0.3960505 0.43892765 0.43186033 0.36531797
0.331569 0.26586533 -0.137187 0.19760655 -0.01984575 0.11227017 0.2880735 0.21784675
0.028523259 0.042702302 0.31154838 0.06438761 0.076747544 0.107984506 0.30398268 0.029538222
0.36527687 0.034542006 0.03503954 0.31678024 -0.0291757 0.056045853 0.9349077 -0.13803506
0.13145362 0.055470835 0.17249472 -0.17716159 -0.17238145 0.11709964 0.15584315 0.105860494
0.11508445 -0.14889394 0.12795338 -0.1669032 0.03949221 -0.11829162 -0.07250493 0.028907692
-0.069505066 -0.027970124 -0.16994573 -0.16667801 0.066102415 -0.07709326 -0.10868828 -0.06975295
-0.14452706 -0.14370489 0.10271617 0.087503016 0.021140786 -0.09894826 0.056374475 0.00794173
-0.12989897 0.038040545 0.1573793 -0.17387867 -0.17939872 0.018973747 0.1331168 -0.111134395
0.03527914 0.124271415 0.054503143 0.038256377 0.17637469 0.11152321 -0.102778375 0.011644735
0.09031033 0.15590104 -0.17952302 0.09572552 -0.05486604 -0.17675006 0.03923983 -0.09623965
0.021064265 -0.11835509 -0.13628958 -0.018521124 -0.061889928 0.09976596 0.012184938 0.13798456
0.021951405 -0.05684455 0.11020741 0.0018892073 0.02236074 -0.06948035 -0.0064757844 -0.044185776
-0.027024707 -0.14305077 -0.0010871568 -0.16191792 -0.038030114 0.09095359 -0.13311991 -0.12989639
-0.043164715 -0.04846051 0.01901152 0.029347694 0.080188416 -0.13136557 -0.017370366 0.09886966
0.12909825 -0.026918504 -0.11969042 0.04137902 0.090592735 -0.12133574 -0.112102464 0.078134984
-0.02194645 -0.16696535 -0.11077661 0.06427984 -0.07138961 0.111288115 0.13256589 0.017391585
-0.023432754 -0.056113724 -0.008938862 0.023663308 -0.13503106 -0.051263843 -0.15713653 0.09912442
-0.11257781 0.16149326 -0.05514603 -0.101270996 0.076339446 0.01688625 0.12241008 0.07379892
-0.18604052 0.099398054 -0.04472862 -0.086827815 0.10303518 0.119161636 -0.16403565 -0.01598474
0.09428664 0.06846327 0.10343311 -0.07834941 -0.15346451 0.09719778 0.001639372 0.1206027
-0.12505612 -0.189991 -0.020720508 -0.2399601 0.069292076 0.08440848 -0.008026708 -0.06136002
0.087647006 -0.11220924 0.12822394 -0.17577678 -0.19954607 -0.07866318 0.12674662 0.017699907
-0.0070583727 -0.1878422 -0.0047153337 -0.06868772 0.05005727 0.07844565 0.053321518 -0.015037363
00000000: 08cf 773e c5ac 86bd 015e 893d 11fe 0b3f
00000010: a504 893e 4478 453e 755b 603e f824 923e
00000020: 0fae 2e3e 5ce0 d03e 570e 243c d3b3 a93e
00000030: 28bd 9d3d 998c 233e 4abc 883e 815a 8e3e
00000040: 8e48 053c 61b2 0d3d 5265 1e3e eea9 fa3d
00000050: 8f3d 163e 9087 083e 6f6f 9b3e be23 18be
00000060: cf66 903e d280 003e 9676 9f3e bd8e 1d3d
00000070: 8784 ffbc b1de c43e 6ae8 653f b0f8 40bc
00000080: fc1b 103e d3b7 9abd 66f4 2abd 07e6 b0bd
00000090: c605 78bd 1eb9 043b 436e 1fbd cb4a 78bd
000000a0: 60a0 56be 28c3 3dbd b696 abbb 5292 e7bc
000000b0: c4b4 0a3e f1ed 113e ca70 0bbe c109 1cbd
000000c0: 310f 91bd efd5 26be 9c2f 20be d0e5 293e
000000d0: 1a64 a43d eec9 903d 1fe6 873d e9d0 0fbe
000000e0: 8d6b 1ebd 3be6 fe3d f4f6 17be 54f0 013e
000000f0: a355 d33c f660 c13d af59 b7bd 00e8 a63d
00000100: 6284 943d 15e7 37bc 1078 8f3e 7b28 073f
00000110: 22c7 ca3e 20bb e03e cc1c dd3e f50a bb3e
00000120: 69c3 a93e 801f 883e c07a 0cbe 5f59 4a3e
00000130: 8e93 a2bc e7ed e53d 5f7e 933e 3813 5f3e
00000140: 9ca9 e93c 9ce8 2e3d 4583 9f3e a7dd 833d
00000150: d12d 9d3d fb26 dd3d 9ea3 9b3e 24fa f13c
00000160: 9205 bb3e eb7b 0d3d 9f85 0f3d 0531 a23e
00000170: e101 efbc 5690 653d 1c56 6f3f 1059 0dbe
00000180: c79b 063e 6335 633d 75a2 303e d969 35be
00000190: c384 30be f0d1 ef3d 5995 1f3e 63cd d83d
000001a0: 65b1 eb3d a777 18be 3606 033e ace8 2abe
000001b0: 95c2 213d e042 f2bd 777d 94bd d3cf ec3c
000001c0: ac58 8ebd 9a21 e5bc 4106 2ebe a4ad 2abe
000001d0: b460 873d 12e3 9dbd f697 debd a2da 8ebd
000001e0: e7fe 13be 6027 13be db5c d23d c834 b33d
000001f0: 712f ad3c 63a5 cabd ece8 663d 081e 023c
00000200: 3c04 05be 67d0 1b3d 0a28 213e 400d 32be
00000210: 4cb4 37be d56e 9b3c c54f 083e 6e9a e3bd
00000220: dc80 103d 0382 fe3d b03e 5f3d b8b2 1c3d
00000230: 919b 343e 4866 e43d 787d d2bd 8fc9 3e3c
00000240: 9ff4 b83d 86a4 1f3e e2d4 37be be0b c43d
00000250: 36bb 60bd f8fd 34be f2b9 203d 4b19 c5bd
00000260: f78e ac3c 2764 f2bd 7f8f 0bbe 9db9 97bc
00000270: 4b80 7dbd 1852 cc3d 56a3 473c d34b 0d3e
00000280: 6fd3 b33c d5d5 68bd 6cb4 e13d 479f f73a
00000290: df2d b73c b74b 8ebd d132 d4bb 25fc 34bd
000002a0: eb62 ddbc e77b 12be ee7e 8eba d0cd 25be
000002b0: 77c5 1bbd e045 ba3d 9650 08be 8f03 05be
000002c0: 7ccd 30bd 877e 46bd 0cbe 9b3c 936a f03c
000002d0: d339 a43d b284 06be 4c4c 8ebc 2d7c ca3d
000002e0: 5532 043e 3284 dcbc 4020 f5bd 0c7d 293d
000002f0: af88 b93d df7e f8bd fa95 e5bd 3c05 a03d
00000300: 0bc9 b3bc f7f8 2abe d9de e2bd 26a5 833d
00000310: b734 92bd 06eb e33d 5abf 073e cc78 8e3c
00000320: 0cf6 bfbc 81d7 65bd 4e74 12bc 8ed9 c13c
00000330: 9545 0abe 09fa 51bd 66e8 20be be01 cb3d
00000340: 328f e6bd 7d5e 253e cee0 61bd 2b67 cfbd
00000350: db57 9c3d 0855 8a3c 23b2 fa3d e323 973d
00000360: 6881 3ebe 3591 cb3d 5c35 37bd c8d2 b1bd
00000370: 1c04 d33d 040b f43d f6f8 27be 6ef2 82bc
00000380: 5b19 c13d 7936 8c3d bdd4 d33d a875 a0bd
00000390: cd25 1dbe a10f c73d 32e0 d63a 8cfe f63d
000003a0: b60e 00be 008d 42be 0ebe a9bc 1ab8 75be
000003b0: 01e9 8d3d 5ade ac3d 7482 03bc a554 7bbd
000003c0: 4680 b33d f5cd e5bd 234d 033e d4fe 33be
000003d0: ce55 4cbe 291a a1bd dec9 013e 65ff 903c
000003e0: ec49 e7bb b559 40be 1683 9abb 26ac 8cbd
000003f0: da08 4d3d 1da8 a03d aa67 5a3d 465f 76bc

Network.2.bias f4 [64]
0.037751146 0.011709496 0.17267634 0.010985702 0.044276964 0.16614178 -0.0705119 0.079990976
0.24035428 -0.15637954 0.042761266 0.089213766 0.03711075 0.16747919 0.023862708 0.11547643
-0.030150115 -0.032718394 0.12034918 0.052574147 0.1278875 0.043883637 0.16562694 0.20928548
0.114763886 0.028584717 0.036510486 -0.14001402 0.10669101 -0.0777108 0.089675166 -0.14875038
0.21209648 -0.17826311 0.055744044 0.21142676 -0.0965499 0.13275512 -0.13141297 -0.034713008
0.15610808 -0.056056384 0.22188295 0.002441405 0.06130751 -0.11555631 -0.082011886 0.15099119
0.21117006 0.013016169 -0.019143004 -0.15001187 0.12503757 -0.026503855 -0.009464288 -0.14068288
0.17891888 0.15265518 0.09871849 0.018304419 -0.1417575 0.14501587 0.08934299 0.15751661
00000000: f2a0 1a3d 30d9 3f3c 11d2 303e 60fd 333c
00000010: c35b 353d 1221 2a3e 8b68 90bd 4fd2 a33d
00000020: 6f1f 763e f521 20be 7026 2f3d b5b5 b63d
00000030: 7101 183d aa7f 2b3e ba7b c33c e87e ec3d
00000040: 60fd f6bc b903 06bd a279 f63d fd57 573d
00000050: f1f4 023e 54bf 333d 1c9a 293e ef4e 563e
00000060: 5409 eb3d 7f2a ea3c 058c 153d d65f 0fbe
00000070: d180 da3d d726 9fbd 9da7 b73d 0552 18be
00000080: d22f 593e 9b8a 36be de53 643d 4280 583e
00000090: f4bb c5bd f5f0 073e 1f91 06be 3a2f 0ebd
000000a0: ccda 1f3e 619b 65bd 4935 633e fbff 1f3b
000000b0: 951d 7b3d c9a8 ecbd d9f5 a7bd 6f9d 1a3e
000000c0: f73c 583e c541 553c cad1 9cbc b69c 19be
000000d0: d909 003e 9d1e d9bc 1a10 1bbc 2c0f 10be
000000e0: 8336 373e a451 1c3e eb2c ca3d 26f3 953c
000000f0: e128 11be 0a7f 143e 75f9 b63d 094c 213e

Actor.weight f4 [5, 64]
-0.033977974 -0.06670089 0.09601251 0.04077274 -0.053160377 0.00661894 -0.033746574 -0.021278579
0.07032659 -0.09948979 0.11312914 0.07106241 -0.0037620503 -0.17490542 0.012028474 -0.08765234
0.06341638 -0.06877652 0.017495133 -0.122978866 0.06110261 0.08461855 0.09180499 0.008367183
0.067559995 0.047294226 0.083827004 0.0793614 -0.113744885 0.00212644 -0.04354029 -0.059611842
0.091992944 -0.024979258 0.017050285 0.097491495 0.07982845 0.055501044 -0.02182363 -0.11142434
-0.121419154 0.039291188 -0.0038458381 -0.08458631 0.06550459 0.11346124 0.07229686 -0.030367453
0.016168026 -0.07973306 0.04964637 -0.09686859 0.0850647 -0.05709365 -0.052688237 -0.104701445
-0.089564726 -0.0143898325 -0.059952054 0.08898109 0.05995735 -0.11336735 -0.015882384 0.04681082
0.13646929 -0.035472818 0.09417956 -0.0066136313 -0.050251354 0.077846035 -0.11461674 0.088514745
0.14371778 -0.03412804 0.04937774 0.13018037 0.056597706 0.09675338 0.07960852 -0.043595627
0.030618768 -0.04837758 0.11487817 -0.05356428 0.032109953 -0.036209837 0.084787756 0.021176118
0.07932618 -0.014586229 -0.07335146 0.06818079 -0.051019967 -0.096446685 0.066039585 -0.06748209
-0.028699089 -0.028821446 0.0017321174 -0.029551659 -0.026829675 -0.030474834 0.08759898 0.037428424
-0.043999817 -0.08640377 0.020081542 0.05717801 0.017146917 0.07317379 0.10513878 0.0388481
0.059957173 0.07252045 -0.015418069 0.02217269 0.10254974 -0.05985801 0.026131477 -0.048869893
-0.0829315 0.082693845 0.103089765 -0.067529425 0.047225498 0.054589655 0.071271956 0.087096155
0.1447845 0.0998523 -0.07439746 -0.046815146 0.06864563 -0.0679987 0.027871022 -0.033689212
0.056154907 0.06099257 0.039288983 0.09743991 0.013734402 0.093140155 0.066821866 -0.04331185
-0.07723132 0.14431638 -0.029419173 0.09415315 0.068434946 -0.0050335377 -0.07562617 0.038536463
-0.029219063 0.05372942 -0.04968603 0.103298165 -0.08395176 -0.03305161 0.04473851 0.017299222
0.124631815 -0.046159804 -0.09283818 0.103553176 0.06530183 0.081966616 -0.07398194 -0.073418185
-0.020746151 0.008887172 0.07348167 -0.03976942 0.01840691 -0.021604195 0.114054576 -0.041805424
0.14857973 -0.076666266 -0.06495988 -0.09401788 0.09236258 -0.08595982 0.0829143 -0.04593283
0.15500985 0.05115933 -0.107788846 0.021512955 0.016368007 -0.088735126 0.059656307 0.14328712
0.08692343 0.0019107596 0.02188262 0.031640477 -0.056243412 0.1242309 0.11010194 0.055180166
0.004327599 -0.117369354 -0.07195911 0.11950269 -0.059298366 -0.20112702 -0.04331395 0.036013052
-0.123686135 -0.066401474 -0.007891148 -0.04192926 0.09318667 0.035888866 -0.066838555 -0.05995415
0.13836364 0.03071094 -0.05468215 0.034566592 0.026818497 0.06231726 0.08951691 -0.059333738
-0.05206792 0.07928828 -0.07998083 0.041508388 0.07329652 -0.068101734 0.06809057 -0.08792345
0.081941806 0.01336886 0.10354052 -0.07211344 0.061253544 0.060938254 -0.08002713 0.03506567
0.050473735 0.10604374 -0.042812195 0.00085398555 -0.05248197 -0.030806616 0.08483458 -0.12055561
-0.01942037 0.15024759 0.05160002 0.09357467 -0.033243533 0.086482644 0.05808212 -0.0422855
00000000: 7d2c 0bbd 7a9a 88bd 35a2 c43d 5101 273d
00000010: b2be 59bd b1e3 d83b d939 0abd 6a50 aebc
00000020: 6307 903d 4ec1 cbbd 40b0 e73d 2b89 913d
00000030: bb8c 76bb 681a 33be 1413 453c 1283 b3bd
00000040: 72e0 813d b4da 8cbd f451 8f3c 58dc fbbd
00000050: bb46 7a3d 7e4c ad3d 4104 bc3d 8216 093c
00000060: e55c 8a3d 97b7 413d 7ead ab3d 3b88 a23d
00000070: 14f3 e8bd be5b 0b3b 4e57 32bd 8c2b 74bd
00000080: cc66 bc3d 4da1 ccbc 0aad 8b3c 9fa9 c73d
00000090: 197d a33d 1055 633d 78c7 b2bc 7232 e4bd
000000a0: 9baa f8bd ccef 203d 750a 7cbb 963b adbd
000000b0: 4527 863d 5e5e e83d 6010 943d 2ac5 f8bc
000000c0: cf72 843c 164b a3bd fe59 4b3d 0a63 c6bd
000000d0: 6736 ae3d 08db 69bd 9fcf 57bd b66d d6bd
000000e0: b66d b7bd 55c3 6bbc 4990 75bd b83b b63d
000000f0: d795 753d 242d e8bd c61b 82bc b4bc 3f3d
00000100: 9bbe 0b3e f24b 11bd 37e1 c03d 29b7 d8bb
00000110: 5dd4 4dbd be6d 9f3d 2ebc eabd 3847 b53d
00000120: c12a 133e d8c9 0bbd 5040 4a3d 014e 053e
00000130: ffd2 673d a326 c63d cb09 a33d 5491 32bd
00000140: 36d4 fa3c 9227 46bd 3f45 eb3d 3866 5bbd
00000150: ba85 033d c450 14bd 34a5 ad3d 8a79 ad3c
00000160: c475 a23d 14fb 6ebc 4a39 96bd 5fa2 8b3d
00000170: 50fa 50bd d785 c5bd c33f 873d 0d34 8abd
00000180: 5a1a ebbc f41a ecbc 3708 e33a 5216 f2bc
00000190: e8c9 dbbc 5ca6 f9bc 1867 b33d 8c4e 193d
000001a0: 2739 34bd 76f4 b0bd 0c82 a43c 7d33 6a3d
000001b0: b177 8c3c 24dc 953d 0053 d73d 2f1f 1f3d
000001c0: a795 753d 9a85 943d 129c 7cbc 80a3 b53c
000001d0: 9905 d23d ac2d 75bd ae11 d63c cc2b 48bd
000001e0: fed7 a9bd 645b a93d ba20 d33d de4c 8abd
000001f0: 866f 413d 6799 5f3d 08f7 913d 785f b23d
00000200: 6342 143e 5d7f cc3d b25d 98bd 3dc1 3fbd
00000210: 1496 8c3d e742 8bbd c551 e43c b3fd 09bd
00000220: b002 663d 58d3 793d 7ced 203d 938e c73d
00000230: 4206 613c 44c0 be3d e7d9 883d c467 31bd
00000240: 742b 9ebd acc7 133e 7a00 f1bc 5ed3 c03d
00000250: 9f27 8c3d 60f0 a4bb e5e1 9abd 69d8 1d3d
00000260: d15c efbc 6113 5c3d 9483 4bbd fd8d d33d
00000270: e6ee abbd 2061 07bd ba3f 373d 19b7 8d3c
00000280: f73e ff3d 1012 3dbd f221 bebd b013 d43d
00000290: f7bc 853d 1dde a73d d883 97bd 465c 96bd
000002a0: d5f3 a9bc 809b 113c 8f7d 963d 42e5 22bd
000002b0: 17ca 963c 48fb b0bc 7295 e93d 2a3c 2bbd
000002c0: 4925 183e 3403 9dbd b009 85bd 728c c0bd
000002d0: 9828 bd3d b40b b0bd f9ce a93d 1024 3cbd
000002e0: e7ba 1e3e 728c 513d 66c0 dcbd f03b b03c
000002f0: 3316 863c c3ba b5bd 2c5a 743d dcb9 123e
00000300: e904 b23d 7472 fa3a 2e43 b33c 7299 013d
00000310: 7e5f 66bd c56c fe3d 207d e13d 9904 623d
00000320: 88ce 8d3b 585f f0bd 4c5f 93bd d4bd f43d
00000330: d8e2 72bd 3ef4 4dbe f869 31bd 6c82 133d
00000340: 284f fdbd 7ffd 87bd e049 01bc 04be 2bbd
00000350: a7d8 be3d 3400 133d a7e2 88bd 7c92 75bd
00000360: 33af 0d3e 8295 fb3c 64fa 5fbd b395 0d3d
00000370: 77b2 db3c 6240 7f3d a454 b73d ef07 73bd
00000380: 2c45 55bd e561 a23d fdcc a3bd b304 2a3d
00000390: 7c1c 963d ec78 8bbd 1273 8b3d 3611 b4bd
000003a0: 1bd1 a73d 1009 5b3c 0d0d d43d 36b0 93bd
000003b0: ffe4 7a3d 649a 793d 44e5 a3bd 05a1 0f3d
000003c0: 8cbd 4e3d 762d d93d d75b 2fbd 00de 5f3a
000003d0: 56f7 56bd 285e fcbc c1bd ad3d dce5 f6bd
000003e0: 7817 9fbc 81da 193e 8b5a 533d 14a4 bf3d
000003f0: 5f2a 08bd d01d b13d 84e7 6d3d 8f33 2dbd

Actor.bias f4 [5]
0.07410542 0.038074538 -0.06677268 -0.17733723 0.03538833
00000000: 95c4 973d 0cf4 1b3d 1dc0 88bd e497 35be
00000010: 5bf3 103d

Critic.weight f4 [1, 64]
0.2536318 -0.035391428 0.22464503 -0.017741252 -0.10590738 -0.10448867 -0.08863644 -0.018622587
0.24423195 -0.058784604 -0.004455596 0.00074944634 0.33857715 -0.040861093 0.19990787 -0.08301318
-0.07763077 0.265085 -0.05930472 0.064115524 -0.04965923 0.09843309 0.36334333 0.2487785
0.26834175 0.35517585 0.074102044 -0.094604075 0.23790786 -0.09680159 0.34630576 -0.015823739
0.24156328 -0.061773065 -0.052055985 0.26406282 0.3314722 -0.040769212 0.011811703 0.113150835
0.3250621 -0.024438232 0.33534297 0.2800644 0.36095306 0.0037087053 -0.105936855 -0.015339104
0.256852 0.06665926 -0.1021362 0.097231194 -0.10552626 0.07324007 0.34134996 0.030804262
-0.03577876 0.3029935 -0.029984346 -0.092591584 -0.06918164 0.28859413 0.33147138 0.23387314
00000000: 07dc 813e 9af6 10bd 5909 663e 1a56 91bc
00000010: f8e5 d8bd 28fe d5bd 0687 b5bd 658e 98bc
00000020: f117 7a3e 20c8 70bd 4000 92bb 7e76 443a
00000030: fc59 ad3e f65d 27bd a6b4 4c3e d002 aabd
00000040: e2fc 9ebd 39b9 873e 82e9 72bd 004f 833d
00000050: 7a67 4bbd 4a97 c93d 2308 ba3e cbbf 7e3e
00000060: 1764 893e 9cd9 b53e d0c2 973d c8bf c1bd
00000070: 1e9e 733e e93f c6bd fd4e b13e c9a0 81bc
00000080: 5d5c 773e c105 7dbd a838 55bd 3e33 873e
00000090: b9b6 a93e 9efd 26bd e085 413c a0bb e73d
000000a0: 8a6e a63e b032 c8bc 13b2 ab3e 9a64 8f3e
000000b0: d7ce b83e c00d 733b 6cf5 d8bd de50 7bbc
000000c0: 1b82 833e a684 883d c92c d1bd 2621 c73d
000000d0: 271e d8bd e4fe 953d 6cc5 ae3e 3859 fc3c
000000e0: c08c 12bd f721 9b3e bba1 f5bc a8a0 bdbd
000000f0: 1baf 8dbd 9cc2 933e 9eb6 a93e 717c 6f3e
