PPO_Champion.pth (torch, 347522 bytes, 11 tensors)

Actor.0.weight f4 [128, 70]
0.015795374 0.07945866 -0.08645821 -0.09162313 -0.07821771 0.048705902 -0.033727035 0.111458644
-0.058205165 0.14740105 0.04946688 0.031107157 -0.097884834 -0.032620683 -0.032579727 -0.008739845
0.032177757 0.18355373 -0.04897655 -0.03575752 0.05510699 0.115940586 -0.026640689 0.10153478
0.080067694 0.0011410267 0.12493 -0.17742325 -0.05974747 -0.034790456 -0.040622417 0.20889321
-0.030515948 -0.03958077 -0.031626526 -0.09278832 -0.06011902 0.11003146 0.16255927 0.064350635
0.025395727 -0.10568542 0.04462704 -0.09779372 -0.111093126 0.03237055 0.10365083 0.09455385
-0.03976682 0.056214232 0.13086784 0.075578086 0.13822803 0.013803126 0.14039126 -0.06210357
0.04467018 -0.07501553 -0.07907028 -0.096802495 0.05052583 0.070308805 -0.07507558 0.04690368
0.07680485 -0.029390866 -0.016551988 0.0059644193 0.0848254 0.123873614 -0.084718354 -0.037378915
0.041985724 0.108661614 0.13315101 0.11278041 0.057532217 -0.096546225 -0.003450172 -0.06541475
-0.11390263 0.06749526 0.09828029 -0.13317724 0.029759929 -0.022196941 -0.008084809 -0.052383397
0.02882481 -0.06344566 0.058250573 0.06783245 0.08557067 0.03793587 -0.12879641 -0.103753395
0.06699413 0.025292287 -0.10811261 -0.091149285 0.14824082 0.07474323 -0.06137159 -0.04496707
-0.106173635 -0.009804831 -0.103893 -0.088881776 -0.01892159 -0.019064302 -0.056617722 0.036856577
-0.07633735 0.100514725 0.08116973 -0.12306442 -0.06252568 0.0018647215 0.019333752 0.033639736
0.050282925 0.005258361 -0.09047696 0.017185265 -0.10951046 -0.080870666 -0.017982205 -0.04600314
-0.053325355 -0.10676699 -0.058711804 0.037360165 -0.06662893 0.0029003988 0.094854996 -0.03271641
0.0031441182 -0.017236155 0.03285343 0.10000782 0.124835186 0.08468598 0.106107496 -0.008897241
-0.11950024 -0.045055505 0.07166784 0.010842597 -0.10819353 -0.003019937 -0.061519515 -0.06839929
-0.013068466 0.10623252 0.07623685 -0.13327618 0.090509035 -0.03341031 -0.0045044497 -0.037365247
0.012805344 -0.011850089 -0.11659253 -0.07000363 0.03601796 3.150987e-05 -0.042606406 0.025060156
-0.09822736 -0.018754018 0.12770635 0.014671362 0.12846658 0.05249212 -0.09253581 0.08168998
-0.021119034 -0.010886338 0.15142183 -0.10117752 0.018803272 -0.051386926 0.10146463 0.036931485
0.07429494 0.09209516 -0.02746346 -0.008951446 -0.1032522 0.11151233 0.13363709 0.063005015
-0.071509354 -0.034697875 -0.037842277 -0.10467327 -0.06347085 0.043365333 -0.015497715 -0.061864965
-0.0074576777 0.08319596 -0.08511549 -0.08830922 -0.07455807 0.1190242 -0.055431094 0.0791859
0.03686068 0.035102002 0.020913895 0.0011588462 0.054089878 0.010062775 0.001457544 0.03731717
-0.09055676 -0.040841673 0.18313333 -0.22613993 -0.07758282 0.06908337 0.065587096 -0.06538803
-0.08177539 0.115884766 -0.120488 -0.11185919 -0.05605253 0.0047091986 -0.039548695 0.12038683
0.060945764 0.07767729 0.0015432059 -0.039985195 0.07534418 -0.014112588 -0.028058134 0.08316534
-0.0056825103 0.016305564 -0.06824914 0.022976609 0.01758353 -0.097570375 0.12041877 -0.15399231
-0.069813445 -0.000862134 -0.04488258 0.043969695 0.098216414 -0.023260733 -0.08561708 -0.117063925
00000000: 4d65 813c 39bb a23d 0111 b1bd e8a4 bbbd
00000010: 9b30 a0bd d77f 473d 5c25 0abd 6e44 e43d
00000020: 8a68 6ebd 4df0 163e c89d 4a3d 70d4 fe3c
00000030: d877 c8bd 449d 05bd 5272 05bd 9131 0fbc
00000040: d3cc 033d 82f5 3b3e a39b 48bd 7a76 12bd
00000050: deb7 613d 4272 ed3d 933d dabc 77f1 cf3d
00000060: 88fa a33d 818e 953a 4ddb ff3d 71ae 35be
00000070: c3b9 74bd 7080 0ebd b163 26bd 1ae8 553e
00000080: 95fc f9bc 721f 22bd d18a 01bd cd07 bebd
00000090: 5d3f 76bd 2d58 e13d f075 263e 44ca 833d
000000a0: b30a d03c 9971 d8bd d8ca 363d 1348 c8bd
000000b0: cb84 e3bd fb96 043d e346 d43d 73a5 c13d
000000c0: 88e2 22bd e540 663d 3802 063e afc8 9a3d
000000d0: a68b 0d3e 8226 623c bac2 0f3e 5060 7ebd
000000e0: 14f8 363d bea1 99bd 99ef a1bd 6340 c6bd
000000f0: 2cf4 4e3d 10fe 8f3d 3ac1 99bd 131e 403d
00000100: dc4b 9d3d 1dc5 f0bc 0998 87bc 2d71 c33b
00000110: f0b8 ad3d 73b1 fd3d d180 adbd a21a 19bd
00000120: 39f9 2b3d fb89 de3d bd58 083e 6af9 e63d
00000130: e7a6 6b3d 07ba c5bd 481c 62bb 2bf8 85bd
00000140: c845 e9bd f43a 8a3d 2d47 c93d 9d5f 08be
00000150: 18cb f33c 5cd6 b5bc 2676 04bc f98f 56bd
00000160: 0222 ec3c ccef 81bd 2798 6e3d bdeb 8a3d
00000170: ad3f af3d a562 1b3d 35e3 03be a97c d4bd
00000180: 3834 893d c531 cf3c 256a ddbd 7aac babd
00000190: 71cc 173e fb12 993d c760 7bbd 642f 38bd
000001a0: 9071 d9bd 71a4 20bc dac5 d4bd a607 b6bd
000001b0: 7301 9bbc bd2c 9cbc fce7 67bd ecf6 163d
000001c0: c256 9cbd aada cd3d 513c a63d 3309 fcbd
000001d0: 770d 80bd ac69 f43a d161 9e3c d2c9 093d
000001e0: 78f5 4d3d 544e ac3b fc4b b9bd 1dc8 8c3c
000001f0: 0547 e0bd 859f a5bd 6b4f 93bc ca6d 3cbd
00000200: b06b 5abd a7a8 dabd ca7b 70bd f906 193d
00000210: c074 88bd 9e14 3e3b 5643 c23d a401 06bd
00000220: 8d0d 4e3b d632 8dbc 5191 063d e6d0 cc3d
00000230: 97a9 ff3d d86f ad3d e34e d93d bcc5 11bc
00000240: 8bbc f4bd 1f8c 38bd 97c6 923d 26a5 313c
00000250: 9294 ddbd 23ea 45bb e3fb 7bbd ed14 8cbd
00000260: 1f1d 56bc 6f90 d93d 1122 9c3d 8d79 08be
00000270: cd5c b93d 40d9 08bd 109a 93bb 4d0c 19bd
00000280: 81cd 513c e026 42bc 10c8 eebd 105e 8fbd
00000290: 9287 133d 7729 0438 0e84 2ebd f54a cd3c
000002a0: 6d2b c9bd 07a2 99bc 74c5 023e 2760 703c
000002b0: be8c 033e fa01 573d 6a83 bdbd 144d a73d
000002c0: d301 adbc 9c5c 32bc 530e 1b3e 2936 cfbd
000002d0: 5209 9a3c 197b 52bd b0cc cf3d 7845 173d
000002e0: f227 983d 639c bc3d 0dfb e0bc 16a9 12bc
000002f0: e475 d3bd 9460 e43d 29d8 083e c608 813d
00000300: 7f73 92bd 5c1f 0ebd 8100 1bbd f05e d6bd
00000310: 01fd 81bd d99f 313d 21ea 7dbc 1e66 7dbd
00000320: 895f f4bb a562 aa3d 0851 aebd 77db b4bd
00000330: e7b1 98bd f6c2 f33d b70b 63bd 382c a23d
00000340: 39fb 163d 1ec7 0f3d 9e53 ab3c 6de4 973a
00000350: 598d 5d3d 56de 243c 100b bf3a e4d9 183d
00000360: d375 b9bd 9949 27bd 4e87 3b3e 3a91 67be
00000370: bee3 9ebd 957b 8d3d 8752 863d 29ea 85bd
00000380: db79 a7bd fe54 ed3d 6ac2 f6bd 6e16 e5bd
00000390: 5697 65bd 9f4f 9a3b d0fd 21bd 5f8d f63d
000003a0: 44a2 793d 4515 9f3d 6645 ca3a 84c7 23bd
000003b0: 0d4e 9a3d 7c38 67bc 2cda e5bc 9752 aa3d
000003c0: 5a34 babb 3f93 853c 35c6 8bbd 7139 bc3c
000003d0: 560b 903c fad2 c7bd 1e9e f63d 29b0 1dbe
000003e0: 5afa 8ebd d500 62ba ccd6 37bd 9119 343d
000003f0: b025 c93d 4b8d bebc 0258 afbd 36bf efbd

Actor.0.bias f4 [128]
0.03099127 -0.085474215 0.096673466 -0.05822652 0.032876298 0.084769696 0.10875028 0.05112099
0.047949046 0.0336901 0.0700518 0.019582806 -0.071293056 0.14170593 -0.089994274 0.13983135
0.006590621 0.08749261 0.03268533 0.05240057 0.08150363 -0.086492755 0.070389345 -0.017092029
-0.10114746 -0.09997664 0.021329058 0.091599 -0.111006886 0.043481436 0.058240145 -0.11410668
0.03774912 -0.050710067 0.018673368 -0.043230012 0.097171985 -0.098244086 0.064264774 -0.044957217
0.03043895 0.019521825 -0.105867036 -0.04453143 0.0135212755 0.0026649672 -0.03473261 0.07841443
-0.04633265 -0.0634175 0.06617848 -0.012827686 0.05643922 0.08176065 -0.040412016 0.04504877
0.12426835 0.019367259 0.11192137 0.05960404 0.071913466 0.11376783 0.067453355 0.04192296
0.074589774 0.089329235 0.029840527 0.028725421 -0.054688938 0.024456268 0.0844003 -0.009353496
-0.034365766 0.029330518 -0.00018286667 0.018153036 0.004530277 -0.0011839714 -0.032185797 0.11323226
-0.07906263 -0.088607386 -0.017939176 0.0058597773 0.099651165 0.031794194 0.003652482 -0.11309732
-0.05644454 0.03158137 -0.035296537 -0.06262102 0.030138096 0.119337335 0.014702783 0.09124626
0.096050404 0.016505888 0.1224117 0.03839187 0.045774527 0.05592055 -0.089819804 0.061359458
0.119640805 0.022293815 0.003463998 -0.017545491 -0.09388065 0.013989321 0.06773592 0.056370717
0.11382287 -0.07337056 0.11579235 -0.025139077 -0.0061852424 -0.04689238 -0.06268338 0.030120805
-0.005306843 0.029086791 -0.10411588 -0.031430446 0.06798992 -0.048848897 0.11217406 -0.06436504
00000000: 67e1 fd3c 1b0d afbd bdfc c53d ee7e 6ebd
00000010: 4ca9 063d bc9b ad3d 78b8 de3d 3e64 513d
00000020: 3866 443d a1fe 093d 5177 8f3d 1f6c a03c
00000030: 1802 92bd 5c1b 113e eb4e b8bd f32f 0f3e
00000040: 23f6 d73b 532f b33d 0de1 053d fba1 563d
00000050: 60eb a63d 1d23 b1bd 4a28 903d 9504 8cbc
00000060: 6626 cfbd 8dc0 ccbd 47ba ae3c 4298 bb3d
00000070: 9457 e3bd 9719 323d 388d 6e3d c3b0 e9bd
00000080: d29e 1a3d 5cb5 4fbd e4f8 983c f411 31bd
00000090: 1b02 c73d 3234 c9bd 409d 833d 0f25 38bd
000000a0: 1b5b f93c 3cec 9f3c d1d0 d8bd 9766 36bd
000000b0: 5788 5d3c bba6 2e3b c843 0ebd bf97 a03d
000000c0: 4ec7 3dbd 09e1 81bd 9588 873d 372b 52bc
000000d0: d02c 673d 2172 a73d 1287 25bd 0f85 383d
000000e0: 6880 fe3d 16a8 9e3c 0837 e53d 5e23 743d
000000f0: 5e47 933d 1cff e83d fc24 8a3d 69b7 2b3d
00000100: 86c2 983d 3ff2 b63d 1f74 f43c 9351 eb3c
00000110: 8201 60bd 8358 c83c 11da ac3d 683f 19bc
00000120: 1ec3 0cbd 8e46 f03c e6bf 3fb9 adb5 943c
00000130: b872 943b 7d2f 9bba 41d5 03bd 51e6 e73d
00000140: 97eb a1bd ca77 b5bd 2ef5 92bc 6003 c03b
00000150: e915 cc3d a13a 023d 7b5e 6f3b 919f e7bd
00000160: 6432 67bd 775b 013d 1a93 10bd 733f 80bd
00000170: 2be4 f63c 2267 f43d f1e3 703c 52df ba3d
00000180: 13b6 c43d 5b37 873c fcb2 fa3d cb40 1d3d
00000190: 127e 3b3d f20c 653d 72f3 b7bd 0e54 7b3d
000001a0: 3d06 f53d 85a1 b63c 3e04 633b 90bb 8fbc
000001b0: 8044 c0bd 7733 653c 21b9 8a3d fbe4 663d
000001c0: f71b e93d 4e43 96bd 8a24 ed3d 77f0 cdbc
000001d0: 93ad cabb 3912 40bd 2560 80bd e8bf f63c
000001e0: 07e5 adbb 6c47 ee3c b53a d5bd 36bd 00bd
000001f0: 4d3e 8b3d c815 48bd 83bb e53d d1d1 83bd

Actor.2.weight f4 [256, 128]
-0.05385317 0.05878436 0.07118557 0.03758448 0.04351043 -0.06695353 0.016696727 -0.0055070133
-0.04539985 0.019106645 0.03209364 -0.06615369 -0.01407236 0.020892316 0.085565 -0.069383256
0.07802018 -0.009669155 0.016537847 -0.08077717 -0.0777491 -0.04604659 -0.007978263 0.012140783
0.07505625 -0.013909972 0.056806207 -0.078115985 0.045830406 -0.07939569 -0.08638983 0.051199544
-0.06194154 -0.05064884 -0.05219783 -0.028350994 0.043162197 0.0413209 -0.07006431 0.007125188
-0.07309268 -0.077397615 -0.026338672 -0.011370418 0.04059418 0.035393998 0.020346502 0.063288905
-0.011976474 -0.007842316 0.08416338 0.0060527087 0.059896447 -0.048436224 0.05604971 0.048878457
0.064107865 -0.055642612 -0.08850238 0.0125921015 -0.013851662 0.07990278 -0.02953572 -0.043055918
0.010337107 -0.07327072 -0.07411561 0.056912247 0.017786186 0.015340767 -0.013436972 0.049323127
-0.037538633 0.022610888 0.027707336 0.019665634 -0.06532035 -0.081862815 -0.042142875 -0.07964361
-0.079165176 -0.034173694 -0.011125105 0.00962877 -0.050604578 -0.060274422 -0.027108 0.051562086
0.04635601 0.07791659 0.036466427 0.058983527 0.0014288519 -0.055155184 0.027193999 0.07267679
-0.035160854 -0.0025950526 -0.081994474 0.06783586 -0.07189271 -0.0426559 -0.0036770694 -0.045960374
-0.0034651468 -0.048116613 0.085665785 -0.054461613 0.014252883 -0.08501831 0.009884253 0.056899127
-0.059714578 -0.02090678 -0.0028856094 -0.006681546 0.017148973 0.071357645 -0.025999494 0.025155623
-0.07914647 -0.056918222 -0.067674085 0.015903246 0.014539377 0.08170147 0.026268879 -0.012134612
-0.008367816 0.030453442 -0.040447652 0.0035123334 -0.035356518 -0.056524605 0.004945964 0.014389248
-0.026547559 0.036614805 -0.06600458 -0.036102183 -0.14647634 0.07358135 0.075403884 -0.10182291
-0.06798547 -0.12962659 0.04477931 0.03548244 -0.08409965 -0.06425662 0.07389828 -0.058321666
-0.13266237 0.032007463 0.09514731 0.07703686 -0.025249876 -0.059337802 -0.0097229965 0.08455569
0.0038187697 -0.05385391 0.046569496 0.07626429 -0.07510089 -0.10962092 0.08690442 0.04683989
-0.07649307 0.0018244867 0.07738532 0.018539814 0.060868572 0.005005938 0.013724696 0.05873785
-0.03320774 0.00048391958 -0.0060087745 -0.016027045 0.007612407 -0.024640271 -0.0012017505 0.07280069
0.051712062 0.09851563 0.0047917487 -0.031566426 0.079366714 -0.084684126 0.041039824 0.07745853
-0.053078316 -0.055163026 0.04242405 -0.0049284333 -0.051402707 -0.06187089 -0.10534714 -0.017198853
0.043255653 -0.010912817 -0.039190624 0.0038967023 0.005710249 -0.015701734 -0.026834443 0.02471193
0.025948752 0.0077575925 -0.013151395 0.004967169 -0.013296534 0.021138364 0.00018053409 0.062264193
0.037051093 0.041758306 0.013198795 -0.06281156 0.005917175 -0.14025791 0.0019317692 0.08560696
-0.011362017 0.062601194 -0.024203682 0.06925795 0.010323186 -0.05786342 -0.09910693 -0.04277965
0.040421005 0.085353866 -0.07112868 -0.020118518 0.03144339 -0.022313535 -0.116287306 -0.0726273
0.03800573 -0.07183393 -0.06254968 0.058324307 0.02756031 -0.021397514 0.07789188 0.037683044
0.037571747 0.006379761 -0.064748 0.08151677 -0.15419227 0.04513237 -0.022614919 -0.023311615
00000000: 2495 5cbd dec7 703d bdc9 913d 2ff2 193d
00000010: fe37 323d ef1e 89bd 93c7 883c 2d74 b4bb
00000020: 31f5 39bd 8a85 9c3c 9f74 033d 967b 87bd
00000030: c18f 66bc 5d26 ab3c b43c af3d cf18 8ebd
00000040: 0bc9 9f3d 606b 1ebc 617a 873c 806e a5bd
00000050: ec3a 9fbd 599b 3cbd 43b7 02bc 22ea 463c
00000060: 17b7 993d a7e6 63bc a0ad 683d 46fb 9fbd
00000070: aab8 3b3d 359a a2bd 27ed b0bd 9db6 513d
00000080: 6ab6 7dbd 2875 4fbd 64cd 55bd 5840 e8bc
00000090: d8ca 303d 1b40 293d e17d 8fbd 697a e93b
000000a0: 9db1 95bd a482 9ebd 33c4 d7bc fd4a 3abc
000000b0: 1546 263d 4cf9 103d b5ad a63c 9d9d 813d
000000c0: f938 44bc 0f7d 00bc da5d ac3d cd55 c63b
000000d0: fa55 753d 1065 46bd 6194 653d c734 483d
000000e0: fc4a 833d 82e9 63bd bc40 b5bd 1a4f 4e3c
000000f0: 15f2 62bc 12a4 a33d e5f4 f1bc 675b 30bd
00000100: f85c 293c f60e 96bd edc9 97bd d11c 693d
00000110: 56b4 913c d757 7b3c bf26 5cbc 0c07 4a3d
00000120: 1cc2 19bd 783a b93c 7ffa e23c d319 a13c
00000130: adc6 85bd b1a7 a7bd 029e 2cbd 301c a3bd
00000140: 5a21 a2bd b7f9 0bbd 1346 36bc fdc1 1d3c
00000150: bf46 4fbd 50e2 76bd 9911 debc c432 533d
00000160: cddf 3d3d bc92 9f3d d25d 153d b698 713d
00000170: 5048 bb3a 67ea 61bd f3c5 de3c 92d7 943d
00000180: d404 10bd c211 2abb b8ec a7bd 87ed 8a3d
00000190: 7c3c 93bd f4b7 2ebd fdfa 70bb f240 3cbd
000001a0: 8417 63bb ed15 45bd 8b71 af3d 2413 5fbd
000001b0: ed84 693c 141e aebd 90f1 213c 0f0f 693d
000001c0: 4697 74bd b244 abbc 7e1c 3dbb dff0 dabb
000001d0: 017c 8c3c f523 923d e4fc d4bc 2a13 ce3c
000001e0: 8b17 a2bd 1523 69bd b698 8abd 8647 823c
000001f0: 9136 6e3c 1a53 a73d d531 d73c 40d0 46bc
00000200: 2a19 09bc 7f79 f93c 70ac 25bd 2d2f 663b
00000210: ffd1 10bd 5886 67bd c111 a23b e1c0 6b3c
00000220: 447a d9bc 68f9 153d 692d 87bd e2df 13bd
00000230: e5fd 15be d2b1 963d 5a6d 9a3d 8888 d0bd
00000240: f73b 8bbd d5bc 04be 826a 373d 0956 113d
00000250: 703c acbd fa98 83bd fb57 973d b3e2 6ebd
00000260: a5d8 07be 421a 033d 98dc c23d 80c5 9d3d
00000270: d4d8 cebc 320c 73bd 344d 1fbc 892b ad3d
00000280: 5344 7a3b eb95 5cbd a8bf 3e3d 7430 9c3d
00000290: 7fce 99bd ef80 e0bd f2fa b13d 2fdb 3f3d
000002a0: 66a8 9cbd 9d23 ef3a 327c 9e3d cfe0 973c
000002b0: 5351 793d da08 a43b 8cdd 603c 1a97 703d
000002c0: d704 08bd 96b6 fd39 41e5 c4bb 264b 83bc
000002d0: 8071 f93b 65da c9bc 0e84 9dba 8718 953d
000002e0: 07d0 533d 90c2 c93d 1a04 9d3b cc4b 01bd
000002f0: 048b a23d df6e adbd 6019 283d 94a2 9e3d
00000300: a668 59bd a0f2 61bd d7c4 2d3d b27e a1bb
00000310: a58b 52bd 556c 7dbd 3ec0 d7bd 9ce4 8cbc
00000320: d72c 313d accb 32bc 5986 20bd d15f 7f3b
00000330: 0a1d bb3b eca0 80bc e8d3 dbbc ac70 ca3c
00000340: 7a92 d43c 6733 fe3b f378 57bc a2c3 a23b
00000350: b5d9 59bc 5d2a ad3c c04d 3d39 bd08 7f3d
00000360: e3c2 173d c20a 2b3d c23f 583c 59a3 80bd
00000370: dde4 c13b c59f 0fbe 6b33 fd3a b452 af3d
00000380: c127 3abc 0e35 803d cd46 c6bc 1dd7 8d3d
00000390: 9522 293c 3202 6dbd 93f8 cabd b739 2fbd
000003a0: 7f90 253d 02ce ae3d eaab 91bd 97cf a4bc
000003b0: c9ca 003d e0ca b6bc 0a28 eebd 9fbd 94bd
000003c0: e5ab 1b3d ab1d 93bd 0c1a 80bd 78e5 6e3d
000003d0: 29c6 e13c d749 afbc c785 9f3d 8959 1a3d
000003e0: d5e4 193d 500d d13b 999a 84bd 44f2 a63d
000003f0: 94e4 1dbe b8dc 383d ec42 b9bc 00f8 bebc

Actor.2.bias f4 [256]
0.08300496 0.025876472 0.06789835 -0.04330697 0.016700821 -0.0073948014 0.09677059 0.002290091
0.03221394 -0.004703509 0.04827566 -0.06836871 0.028177207 0.0017044431 -0.06000708 0.08434101
-0.05350416 -0.01809885 -0.07343807 0.009903796 0.031062515 0.09498535 -0.027438318 -0.0007873144
0.06064315 0.046867874 0.08480715 0.011493408 -0.06643266 0.0827709 0.06239865 0.0073906295
0.080152385 -0.023820903 0.025448075 -0.085057616 -0.0032844124 0.018549003 0.0002211354 0.05787019
-0.005042006 0.059996933 -0.069586076 -0.013235824 0.06158406 0.049941547 -0.006913779 -0.059902363
-0.068355165 -0.03179262 -0.038478546 0.035904296 0.0732046 0.028445793 0.059588313 0.0866035
0.09716932 0.091985635 -0.054340754 -0.037080754 0.003246005 0.08744591 -0.0076754047 -0.026250754
-0.038599912 0.04245582 -0.06823303 0.042100083 -0.07529679 0.0688713 -0.040612847 0.06790098
0.0774804 0.010183258 -0.04728348 -0.065666474 -0.053245716 -0.04190609 0.06558325 -0.06567792
-0.04847401 0.06500084 0.11017902 -0.004040684 0.01620795 -0.025140189 -0.025124481 0.027210834
0.0026208302 0.083685204 -0.021601994 -0.013379949 0.054622065 0.0006090966 0.015440051 0.0855752
-0.055971477 -0.06777812 0.027142886 -0.06988906 -0.04955718 -0.038156666 -0.041443154 0.038923368
0.03602206 0.061117146 -0.020886475 -0.004227814 -0.031104492 -0.042113304 0.014411464 0.009538047
-0.028543899 0.05243175 0.057682183 -0.009790263 0.03314148 -0.05902592 0.00564933 -0.027072906
-0.05102295 -0.046564564 -0.07544225 -0.044538297 -0.024805568 -0.024101377 -0.05854547 0.057759997
-0.06235641 0.052649513 -0.023379289 -0.058064822 0.038813006 -0.012891728 -0.067641005 -0.04594979
-0.011930487 0.0712221 0.018200167 0.05174459 0.046788044 -0.06369287 -0.016106369 -0.07537646
0.064902835 -0.03752946 -0.061133627 0.009956413 0.03393828 0.058990087 -0.016808923 -0.031690855
0.08114082 0.03872466 0.06181664 -0.04906757 0.055851042 -0.008825714 0.02445985 0.07297466
-0.005663945 -0.023149755 0.040371872 -0.05666752 0.04774189 -0.05425286 0.07552393 0.050246026
-0.027237594 0.044352725 -0.01800329 -0.06048729 -0.039244678 0.06627992 0.019805301 0.005214173
0.062373284 0.07633132 -0.06822525 -0.08284147 0.0015971232 -0.013926732 -0.009350461 -0.04208964
0.023626918 0.040733453 0.028384844 0.02801929 -0.071109004 0.010570458 0.055946123 0.04957633
0.028479142 0.017680837 0.06313479 0.028060073 0.036977734 0.07394531 0.07296638 -0.03129489
0.07039861 -0.05397536 -0.016925022 0.06643396 0.0491626 -0.08082792 -0.02927901 -0.08193311
0.035481278 -0.0031113345 -0.010136111 -0.010855693 -0.032560725 0.07113464 0.02175908 0.10452439
0.045682684 0.09632039 0.08057478 0.04549623 -0.016619503 0.060572293 -0.053642817 -0.026904441
-0.05406209 -0.013431289 0.08270929 -0.020285858 -0.07850113 0.012546538 -0.019119844 0.048485734
-0.06245916 0.034905262 -0.012558443 -0.040067423 -0.023646671 0.08489885 -0.022477213 0.06254839
0.02926093 -0.013725307 0.07171113 0.014928278 0.051836055 -0.036359765 -0.02023743 -0.029500691
-0.050767846 0.0031149304 0.049963307 -0.04643326 0.009860656 -0.082033366 -0.0632665 0.07998703
00000000: 81fe a93d e5fa d33c 4a0e 8b3d a662 31bd
00000010: 29d0 883c 1750 f2bb a92f c63d 5a15 163b
00000020: c4f2 033d e51f 9abb b3bc 453d e504 8cbd
00000030: e3d3 e63c 9f67 df3a fcc9 75bd fbba ac3d
00000040: 2e27 5bbd 0a44 94bc b366 96bd 8843 223c
00000050: d176 fe3c ae87 c23d 53c6 e0bc c663 4eba
00000060: f464 783d 87f8 3f3d 5faf ad3d d94e 3c3c
00000070: d90d 88bd ca83 a93d ba95 7f3d 182d f23b
00000080: ef26 a43d 0e24 c3bc 7b78 d03c b032 aebd
00000090: 4c3f 57bb 14f4 973c 95e0 6739 4b09 6d3d
000000a0: 6937 a5bb 58bf 753d 2583 8ebd 12db 58bc
000000b0: 913f 7c3d 828f 4c3d fb8c e2bb 2e5c 75bd
000000c0: cbfd 8bbd fa38 02bd ae9b 1dbd 6210 133d
000000d0: 4bec 953d 2707 e93c e012 743d 2d5d b13d
000000e0: b500 c73d f762 bc3d 6994 5ebd fde1 17bd
000000f0: edba 543b d716 b33d f681 fbbb d20b d7bc
00000100: f11a 1ebd 27e6 2d3d c2bd 8bbd 2371 2c3d
00000110: 3435 9abd 650c 8d3d a859 26bd ab0f 8b3d
00000120: 0bae 9e3d aed7 263c 53ac 41bd 257c 86bd
00000130: 2e18 5abd b8a5 2bbd 8350 863d 2582 86bd
00000140: af8c 46bd 291f 853d 8aa5 e13d b767 84bb
00000150: 89c6 843c ccf2 cdbc dbd1 cdbc 41e9 de3c
00000160: 3cc2 2b3b 2663 ab3d aaf6 b0bc 9337 5bbc
00000170: 63bb 5f3d c8ab 1f3a 45f8 7c3c 0d42 af3d
00000180: 5942 65bd 41cf 8abd c25a de3c ff21 8fbd
00000190: 78fc 4abd 2a4a 1cbd 4cc0 29bd 1c6e 1f3d
000001a0: de8b 133d f955 7a3d 1d1a abbc 7989 8abb
000001b0: d9ce febc 007f 2cbd 101e 6c3c 7845 1c3c
000001c0: e5d4 e9bc adc2 563d 2744 6c3d 5767 20bc
000001d0: 5cbf 073d 2ac5 71bd 041e b93b 00c8 ddbc
000001e0: 71fd 50bd 7cba 3ebd 7781 9abd ca6d 36bd
000001f0: 0c35 cbbc 4070 c5bc 60cd 6fbd bf95 6c3d
00000200: 6f69 7fbd 04a7 573d ec85 bfbc 61d5 6dbd
00000210: 63fa 1e3d d437 53bc 5e87 8abd d935 3cbd
00000220: 1778 43bc e4dc 913d 8418 953c 23f2 533d
00000230: d2a4 3f3d 6871 82bd 81f1 83bc f95e 9abd
00000240: c7eb 843d 7eb8 19bd 4167 7abd 3920 233c
00000250: de02 0b3d 979f 713d deb2 89bc 45ce 01bd
00000260: 292d a63d c09d 1e3d 7233 7d3d 14fb 48bd
00000270: 10c4 643d ba99 10bc 0660 c83c bd73 953d
00000280: 9d98 b9bb 8ea4 bdbc fa5c 253d 341c 68bd
00000290: 008d 433d 3f38 5ebd 4aac 9a3d c7ce 4d3d
000002a0: 6021 dfbc 34ab 353d a37b 93bc 85c1 77bd
000002b0: 07bf 20bd c4bd 873d ba3e a23c a7db aa3b
000002c0: 217b 7f3d 9853 9c3d aeb9 8bbd caa8 a9bd
000002d0: 9056 d13a f32c 64bc ad32 19bc 3066 2cbd
000002e0: 3d8d c13c 1fd8 263d 5587 e83c b688 e53c
000002f0: 99a1 91bd b72f 2d3c c327 653d 8d10 4b3d
00000300: 174d e93c 67d7 903c d04c 813d 3dde e53c
00000310: f775 173d a470 973d 666f 953d 122f 00bd
00000320: 252d 903d 4415 5dbd 58a6 8abc 870e 883d
00000330: b95e 493d 1c89 a5bd 89da efbc 8ccc a7bd
00000340: d154 113d 88e7 4bbb ee11 26bc 14dc 31bc
00000350: 655e 05bd 0aaf 913d 1940 b23c e210 d63d
00000360: c41d 3b3d a043 c53d 6404 a53d 415a 3a3d
00000370: a025 88bc a71a 783d 92b8 5bbd b466 dcbc
00000380: 3670 5dbd e90e 5cbc 7d63 a93d 872e a6bc
00000390: 33c5 a0bd ff8f 4d3c 38a1 9cbc fa98 463d
000003a0: 2dd5 7fbd d2f8 0e3d edc1 4dbc bd1d 24bd
000003b0: aab6 c1bc 73df ad3d 2222 b8bc 5f19 803d
000003c0: 9eb4 ef3c 1ce0 60bc 49dd 923d bc95 743c
000003d0: 0b52 543d faed 14bd f8c8 a5bc 6fab f1bc
000003e0: f2f1 4fbd dc23 4c3b 53a6 4c3d cd30 3ebd
000003f0: 978e 213c 1c01 a8bd de91 81bd 3dd0 a33d

Actor.4.weight f4 [5, 256]
0.028120112 -0.089799434 -0.029965598 -0.10209236 -0.054483358 -0.040932305 -0.13406517 0.040000767
-0.017969985 -0.0023874156 -0.05339388 -0.032749094 -0.010122838 0.0076736943 -0.0768542 -0.0653179
-0.10525007 0.0074938447 0.05363679 -0.028145937 -0.10468326 -0.11844592 0.05158693 0.049326807
-0.10507004 -0.10276738 -0.05730502 -0.077255 -0.07619103 -0.04647295 -0.012657118 0.004490953
-0.10766813 0.0314679 -0.06289246 7.484399e-05 -0.07235471 -0.09078862 -0.08358045 -0.11116252
0.058474086 -0.028301632 -0.012056358 -0.0027522952 0.033902686 0.014031262 -0.028968424 -0.13843185
0.0371369 0.041142788 0.041889504 -0.030474553 -0.06956453 0.059203465 -0.066858776 -0.09603205
-0.03321296 -0.08215653 0.0025247266 -0.14245807 -0.0057153516 -0.09455558 0.054617964 0.10509014
0.058219817 0.052730948 -0.058925427 -0.09529767 -0.016261883 -0.026216522 -0.055358034 -0.0036081523
-0.09775152 0.027461518 0.03300907 -0.08064975 -0.028782919 -0.01787777 0.08657417 -0.07702699
-0.112194136 -0.10868912 -0.0030314939 -0.0698554 0.019337825 -0.031159738 -0.018909482 -0.093687706
-0.056824397 -0.09818609 -0.08146908 -0.026733981 -0.075193875 -0.014321463 -0.10633942 -0.10226378
-0.030156553 -0.0076303035 -0.09833567 0.030840576 -0.05292777 -0.09781671 -0.04463486 0.0016736062
-0.07453121 -0.0034118122 -0.097003974 9.770684e-05 -0.12039253 -0.048644643 -0.047191966 -0.10819908
-0.049397245 -0.0850168 -0.033244397 -0.08528796 -0.13409822 -0.023414932 -0.07322003 -0.011041371
0.020073539 0.02801905 -0.04424453 -0.04104541 0.017732058 0.041154116 0.058747366 -0.11572819
-0.090895325 0.021577392 -0.0070557334 0.019679656 -0.14443089 -0.0023334413 -0.10924914 -0.0382693
-0.075513355 -0.03791255 0.0077921385 -0.022377877 -0.083713524 -0.08742148 0.04637621 -0.01612861
-0.05147667 0.0412542 -0.1508035 -0.11600999 -0.01805647 -0.008624382 0.002464821 -0.0644152
-0.016873213 -0.049267795 0.050811067 0.00077325216 -0.12146253 -0.107171915 -0.13402167 -0.037208535
0.04300699 -0.089340575 -0.017181033 -0.039216943 -0.03211547 0.008148948 0.02443307 0.051256616
0.049667004 -0.08624078 -0.00558559 -0.071182914 0.04039276 0.045119584 -0.05505002 0.03791932
0.018572204 -0.05597535 0.037765212 0.039018493 0.04925859 -0.061858952 -0.06459708 0.012321437
-0.028359616 -0.06367093 -0.11421607 -0.1365565 -0.031408705 -0.1251751 0.017941108 -0.017315615
0.039333276 -0.07188741 -0.06078262 -0.009619309 -0.049221694 -0.07413321 0.023382619 0.00035420453
-0.017776346 -0.05339915 -0.079798736 -0.12002657 -0.04013514 0.031198962 -0.13077009 0.048975945
-0.051124692 0.018323982 -0.07674947 -0.02743292 -0.04464322 -0.049863603 -0.03467536 -0.09713456
0.040964328 -0.08828925 -0.09788926 -0.09698084 -0.026854523 0.01473748 0.033551995 -0.08937096
-0.068206035 -0.0029513084 -0.11825126 0.05601137 0.0060945284 -0.076941356 0.03520911 -0.037217505
-0.1027219 0.007852388 0.00931734 -0.08254002 -0.094538204 -0.04400739 -0.06662253 -0.058452755
-0.09970242 -0.11884483 0.030200372 -0.03952228 -0.07629707 0.0102632595 -0.13083172 -0.002702513
0.03912228 0.04638617 -0.048727214 -0.030506067 -0.10130819 0.021074967 0.10883928 0.021580938
00000000: 265c e63c c4e8 b7bd 6a7a f5bc cd15 d1bd
00000010: f129 5fbd a2a8 27bd 6148 09be d8d7 233d
00000020: ca35 93bc 3076 1cbb 8bb3 5abd ea23 06bd
00000030: 43da 25bc 9d73 fb3b bc65 9dbd 64c5 85bd
00000040: 598d d7bd ed8e f53b 40b2 5b3d 4f92 e6bc
00000050: 2d64 d6bd c693 f2bd d14c 533d e80a 4a3d
00000060: f62e d7bd b477 d2bd abb8 6abd df37 9ebd
00000070: 0b0a 9cbd 6c5a 3ebd cd5f 4fbc d828 933b
00000080: 1c81 dcbd 7ce4 003d c3cd 80bd 90f5 9c38
00000090: b52e 94bd 62ef b9bd 3a2c abbd 2da9 e3bd
000000a0: 8682 6f3d d3d8 e7bc 0888 45bc da5f 34bb
000000b0: 8bdd 0a3d 61e3 653c 304f edbc 14c1 0dbe
000000c0: dd1c 183d 5785 283d 5494 2b3d c5a5 f9bc
000000d0: d977 8ebd 557f 723d 41ed 88bd 74ac c4bd
000000e0: 500a 08bd af41 a8bd e275 253b 87e0 11be
000000f0: d847 bbbb 5ba6 c1bd 16b7 5f3d 8039 d73d
00000100: e777 6e3d 68fc 573d ca5b 71bd 6d2b c3bd
00000110: a437 85bc 08c4 d6bc 1bbf 62bd c076 6cbb
00000120: f331 c8bd faf6 e03c 8534 073d b22b a5bd
00000130: 28ca ebbc 6774 92bc cc4d b13d 54c0 9dbd
00000140: 0ac6 e5bd 6798 debd 07ac 46bb 5910 8fbd
00000150: 5c6a 9e3c b542 ffbc 0fe8 9abc 57df bfbd
00000160: b3c0 68bd ca15 c9bd 43d9 a6bd 3901 dbbc
00000170: 3fff 99bd 92a4 6abc 7bc8 d9bd ac6f d1bd
00000180: e00a f7bc a007 fabb 3664 c9bd 60a5 fc3c
00000190: caca 58bd 2154 c8bd 0bd3 36bd e85c db3a
000001a0: d2a3 98bd b698 5fbb 05aa c6bd f6e7 cc38
000001b0: 5c90 f6bd 9b3f 47bd 5d4c 41bd 7b97 ddbd
000001c0: c454 4abd 4a1d aebd 472b 08bd 74ab aebd
000001d0: 0b51 09be acd0 bfbc 62f4 95bd dee6 34bc
000001e0: 4371 a43c 3588 e53c c139 35bd 3b1f 28bd
000001f0: d242 913c 3891 283d 14a1 703d e702 edbd
00000200: 5427 babd 12c3 b03c c833 e7bb 3b37 a13c
00000210: b1e5 13be a6ec 18bb 03be dfbd 45c0 1cbd
00000220: bfa6 9abd 314a 1bbd 3255 ff3b cf51 b7bc
00000230: ff71 abbd 080a b3bd fbf4 3d3d 2620 84bc
00000240: 33d9 52bd 2afa 283d 3c6c 1abe a596 edbd
00000250: 2aeb 93bc 484d 0dbc d688 213b 1eec 83bd
00000260: b139 8abc 07cd 49bd 441f 503d 13b4 4a3a
00000270: 59c1 f8bd f37c dbbd fa3c 09be fa67 18bd
00000280: 1928 303d 31f8 b6bd 3dbf 8cbc f2a1 20bd
00000290: 838b 03bd 2a83 053c dd27 c83c 75f2 513d
000002a0: a16f 4b3d 029f b0bd 5307 b7bb 59c8 91bd
000002b0: e172 253d 50cf 383d 217c 61bd 4a51 1b3d
000002c0: bc24 983c 6946 65bd b2af 1a3d dbd1 1f3d
000002d0: 60c3 493d d05f 7dbd 794b 84bd dadf 493c
000002e0: 6d52 e8bc e865 82bd 1dea e9bd 78d5 0bbe
000002f0: 6aa6 00bd e72d 00be 3bf9 923c 7ad9 8dbc
00000300: ee1b 213d b539 93bd 32f7 78bd 4e9a 1dbc
00000310: b09c 49bd 27d3 97bd e88c bf3c 87b4 b939
00000320: b39f 91bc 11b9 5abd 856d a3bd 7ed0 f5bd
00000330: bf64 24bd f794 ff3c 98e8 05be 009b 483d
00000340: 2068 51bd 2d1c 963c d32e 9dbd 01bb e0bc
00000350: cfdb 36bd c73d 4cbd c007 0ebd 7cee c6bd
00000360: 36ca 273d ffd0 b4bd 2a7a c8bd e49d c6bd
00000370: 04fe dbbc 7975 713c d16d 093d 1f08 b7bd
00000380: 9baf 8bbd bd6a 41bb b72d f2bd 2e6c 653d
00000390: 9cb4 c73b 6e93 9dbd 6d37 103d 6271 18bd
000003a0: dc5f d2bd 4da7 003c c2a7 183c be0a a9bd
000003b0: 3f9d c1bd 1841 34bd 6571 88bd 286c 6fbd
000003c0: c830 ccbd eb64 f3bd c566 f73c 1de2 21bd
000003d0: a341 9cbd 3b27 283c c0f8 05be a51c 31bb
000003e0: af3e 203d 6dff 3d3d 3096 47bd dce7 f9bc
000003f0: ab7a cfbd 69a5 ac3c 21e7 de3d 82ca b03c

Actor.4.bias f4 [5]
-0.07464013 -0.027097235 -0.027519539 -0.025779475 0.039251816
00000000: eddc 98bd 05fb ddbc a870 e1bc 7a2f d3bc
00000010: 83c6 203d

Critic.0.weight f4 [128, 70]
0.093238644 -0.013604826 -0.12731081 0.20958877 0.0292709 0.019621102 0.05715234 0.021263037
0.14671235 -0.14016268 0.13332954 0.03961216 0.16560678 -0.041942716 0.1425103 0.07432922
0.055689715 -0.00252592 -0.12700962 0.05337825 0.040761102 0.10396487 -0.08206551 -0.046910163
0.042047527 0.03155047 0.19550076 -0.02875855 0.10066628 -0.028388638 -0.13131379 -0.0047186376
-0.029999197 0.16297479 -0.08666582 -0.07364354 -0.09640258 -0.017760972 0.035135087 0.06421475
0.006955507 0.065825775 0.08772677 -0.044438094 -0.07956034 -8.5773216e-05 -0.08696494 0.11629214
0.053881433 0.0010431495 -0.04851766 0.007443917 0.0106446305 -0.13931863 -0.09123532 -0.01681267
-0.051055785 -0.07804025 -0.0020662143 0.074501626 -0.12406034 0.0075688064 0.06773983 0.0724717
0.04323861 -0.026520196 -0.0668475 0.09595335 -0.07267474 0.013536942 0.030643493 0.036973584
-0.17652643 0.09207454 -0.041409105 0.18255916 -0.0147766 0.1382238 0.029981194 -0.14679798
0.02628651 0.027176084 0.21516082 -0.105200924 0.047378745 0.15359378 0.08153345 -0.046749443
-0.07697503 -0.011367118 0.056184944 0.07382037 -0.007898879 0.08998934 -0.008371201 -0.06873148
-0.0060686185 0.10499932 0.072331786 0.12584081 -0.040247962 -0.024719901 0.03506069 0.15977842
0.0013207644 -0.04752267 -0.04352124 -0.051007044 0.04421742 -0.083382525 0.01253541 -0.024874965
0.14207695 0.031814054 0.0664418 -0.094817445 0.02970404 0.009887931 -0.07128659 0.06559427
-0.09479322 0.036031015 -0.076030284 -0.03641922 -0.058774844 -0.08352601 0.11877984 0.004392439
0.003313305 -0.12391209 -0.12149871 0.03918434 0.10772307 -0.07701811 0.118290514 0.001061743
0.07837367 0.11918207 -0.07219544 0.09300683 0.17343163 -0.08245602 -0.14636259 0.011135058
-0.118248634 0.073463 -0.043745615 0.15134743 0.010471406 -0.13205503 0.0015529996 -0.004460551
0.042308092 -0.0005967834 -0.021097861 -0.012522599 -0.01848512 0.04386112 0.06972008 0.066415936
-0.06301238 0.17810068 -0.07788738 0.09651901 0.11830499 0.08984657 0.16139293 -0.010577532
-0.03283264 -0.016295265 -0.08865826 0.026720725 0.08602214 0.09489734 0.051557858 -0.028291406
0.05657488 -0.01409428 -0.037435316 -0.02880401 -0.07151337 -0.07891527 0.098287284 -0.034806803
0.0055961995 -0.11642011 -0.005457066 -0.0007442435 -0.067382485 0.08187954 0.07489451 -0.07236147
0.040013302 0.061397474 0.0028184338 -0.06151091 -0.022267569 -0.004313386 0.11238938 0.09559481
-0.085249364 0.032966446 0.035879362 0.049355663 0.0782865 -0.022454457 0.012775055 -0.067268066
0.1085522 0.10480199 0.039249644 0.10642558 -0.060706444 -0.049235005 -0.05271777 -0.01182642
0.06940153 0.025208661 -0.031291533 -0.07272395 0.019460198 0.092359625 -0.046480495 -0.08494675
0.11199897 0.056516767 0.04548574 -0.02208468 0.116105355 -0.08153615 0.043581862 -0.07457686
-0.1149785 -0.08709754 0.115639746 0.10325159 -0.07813386 -0.048908878 -0.08339042 -0.045913544
0.05553274 -0.07714795 0.110818945 -0.054927662 0.07261485 -0.070385754 -0.068602316 0.04960378
0.053659994 0.06497188 0.0037799429 0.09836772 0.03204987 -0.03390389 -0.009834118 -0.051260635
00000000: e7f3 be3d c7e6 5ebc c45d 02be 709e 563e
00000010: 87c9 ef3c 6fbc a03c 9218 6a3d d22f ae3c
00000020: c33b 163e ce86 0fbe 8a87 083e 5c40 223d
00000030: d394 293e 20cc 2bbd 38ee 113e eb39 983d
00000040: e61a 643d e889 25bb cf0e 02be 27a3 5a3d
00000050: 1df5 263d 89eb d43d f611 a8bd df24 40bd
00000060: 073a 2c3d 113b 013d 5a31 483e 0d97 ebbc
00000070: 1f2a ce3d 4a8f e8bc 1f77 06be cd9e 9abb
00000080: e0c0 f5bc dde2 263e d97d b1bd 6dd2 96bd
00000090: b76e c5bd 757f 91bc cfe9 0f3d 0683 833d
000000a0: 06eb e33b aacf 863d 18aa b33d b804 36bd
000000b0: 88f0 a2bd 25e1 b3b8 ad1a b2bd 932a ee3d
000000c0: c7b2 5c3d 4aba 883a 74ba 46bd 1aec f33b
000000d0: d166 2e3c 8ba9 0ebe 95d9 babd b9ba 89bc
000000e0: df1f 51bd 91d3 9fbd 5369 07bb 4f94 983d
000000f0: 5913 febd c003 f83b 2ebb 8a3d 0b6c 943d
00000100: f81a 313d e240 d9bc 58e7 88bd 3183 c43d
00000110: 7ed6 94bd 0dca 5d3c 1008 fb3c 9d71 173d
00000120: 58c3 34be 9491 bc3d 989c 29bd caf0 3a3e
00000130: 8d19 72bc 8a8a 0d3e 1f9b f53c 3652 16be
00000140: cf56 d73c 61a0 de3c 1e53 5c3e 9573 d7bd
00000150: 3710 423d b047 1d3e 02fb a63d 587c 3fbd
00000160: 16a5 9dbd 263d 3abc 2f22 663d 222f 973d
00000170: 4d6a 01bc 554c b83d 5d27 09bc 17c3 8cbd
00000180: 43db c6bb e209 d73d b022 943d 6adc 003e
00000190: 0cdb 24bd 6481 cabc cc9b 0f3d f49c 233e
000001a0: 801d ad3a 22a7 42bd 5443 32bd c3ec 50bd
000001b0: 531d 353d 75c4 aabd 5261 4d3c 95c6 cbbc
000001c0: 9f7c 113e 744f 023d a312 883d a62f c2bd
000001d0: e355 f33c fd00 223c b4fe 91bd 4a56 863d
000001e0: f322 c2bd 4295 133d c4b5 9bbd 522c 15bd
000001f0: e4bd 70bd af0f abbd d842 f33d 73ee 8f3b
00000200: 0924 593b 9fc5 fdbd 51d4 f8bd c27f 203d
00000210: ea9d dc3d acbb 9dbd 4c42 f23d 2f2a 8b3a
00000220: 6082 a03d bb15 f43d 34db 93bd 5d7a be3d
00000230: 1098 313e b4de a8bd 13e0 15be d16f 363c
00000240: 572c f2bd c573 963d 9a2e 33bd d2fa 1a3e
00000250: 4390 2b3c 6f39 07be 058e cb3a d029 92bb
00000260: 404b 2d3d 7571 1cba 6cd5 acbc 962b 4dbc
00000270: 1b6e 97bc b8a7 333d 67c9 8e3d 1405 883d
00000280: a20c 81bd 0660 363e 6b83 9fbd c2ab c53d
00000290: e349 f23d 7a01 b83d 3044 253e 634d 2dbc
000002a0: 857b 06bd a67d 85bc 7692 b5bd 6ce5 da3c
000002b0: 602c b03d 8959 c23d 552e 533d 61c3 e7bc
000002c0: 10bb 673d b2eb 66bc c655 19bd 63f6 ebbc
000002d0: 9a75 92bd 549e a1bd d84a c93d 9491 0ebd
000002e0: 5360 b73b ab6d eebd 30d1 b2bb 5619 43ba
000002f0: d4ff 89bd 76b0 a73d 4b62 993d 4032 94bd
00000300: fde4 233d eb7b 7b3d 79b5 383b ddf2 7bbd
00000310: 7a6a b6bc 4e57 8dbb 672c e63d 36c7 c33d
00000320: 3897 aebd d307 073d 3df6 123d 2a29 4a3d
00000330: ac54 a03d 69f2 b7bc 774e 513c d7c3 89bd
00000340: 9e50 de3d 6da2 d63d 3cc4 203d a8f5 d93d
00000350: 52a7 78bd a5aa 49bd 97ee 57bd 9ac3 41bc
00000360: 6422 8e3d 6582 ce3c 8d2b 00bd 4bf0 94bd
00000370: fe6a 9f3c 0b27 bd3d 5562 3ebd 90f8 adbd
00000380: b75f e53d 207e 673d 414f 3a3d eeea b4bc
00000390: a5c8 ed3d 6dfc a6bd e582 323d c1bb 98bd
000003a0: d979 ebbd 3260 b2bd 88d4 ec3d 9275 d33d
000003b0: a504 a0bd ad54 48bd 99c8 aabd d70f 3cbd
000003c0: 4c76 633d bfff 9dbd 0bf5 e23d d4fb 60bd
000003d0: 18b7 943d 6826 90bd 5f7f 8cbd 552d 4b3d
000003e0: 95ca 5b3d fa0f 853d ebb8 773b 0475 c93d
000003f0: b946 033d cede 0abd 481f 21bc acf6 51bd

Critic.0.bias f4 [128]
0.12333803 0.07190087 0.12954518 0.01613054 0.19367023 0.00090055336 0.11507609 0.20213608
0.08334313 0.12615284 -0.05524982 -0.0068625673 0.14558442 0.023663053 -0.04749625 0.2070851
0.0017388593 0.17160437 0.011035105 0.014023228 0.099912494 -0.018140374 -0.042115483 0.040785424
0.057681225 0.17242064 0.03561666 0.18670987 0.12675858 0.02682786 0.0886169 0.12244484
0.15465377 0.1676725 0.15349707 0.16002257 -0.094854906 -0.10832321 0.13291179 0.14958894
0.19955972 0.14357033 0.05118788 0.083117776 0.108613305 -0.021001233 0.10573233 0.10136937
-0.025360962 0.14503485 0.06527203 0.15007982 0.12522972 -0.056836452 0.015475961 0.15391794
0.187468 -0.081074916 0.1775702 0.10204744 0.06820642 0.20603265 0.015158968 0.15981975
0.110674016 0.0056930296 0.18926533 0.20921946 0.017654175 0.14486979 0.16287924 0.04761561
0.19410929 -0.09928092 -0.025774758 0.101973794 0.03638187 0.12671718 0.118672445 0.18254606
0.049392123 0.18456435 -0.07145858 -0.018834187 -0.018268643 0.04238245 0.08105866 0.20624518
-0.05576389 0.13742778 0.07409132 -0.015014828 0.083736114 0.0052001616 0.09627579 0.12065049
-0.002016411 0.1864135 -0.013750942 0.09260965 0.117073 0.086575106 -0.0055191666 0.2038581
0.15534122 0.032422896 0.16686988 0.1832202 0.05347498 0.05888826 0.15644333 0.1914937
0.1574246 -0.047249798 0.15598671 0.13829672 0.11683725 0.056076877 0.16374391 0.070569605
0.122151084 0.019399224 0.16871034 0.047434162 0.17356892 0.11207055 0.11661881 -0.013838757
00000000: a698 fc3d c340 933d 7ea7 043e 3224 843c
00000010: 7d51 463e 1d13 6c3a 03ad eb3d c3fc 4e3e
00000020: ceaf aa3d 362e 013e a34d 62bd 63df e0bb
00000030: 1514 153e 05d9 c13c 6e8b 42bd 1e0e 543e
00000040: 70ea e33a 0eb9 2f3e 96cc 343c aec1 653c
00000050: ec9e cc3d 1f9b 94bc 4981 2cbd 9e0e 273d
00000060: 2643 6c3d 098f 303e c6e2 113d df30 3f3e
00000070: 00cd 013e 1ac6 db3c c77c b53d 5cc4 fa3d
00000080: 8f5d 1e3e 57b2 2b3e 562e 1d3e f5dc 233e
00000090: 4a43 c2bd 8fd8 ddbd 071a 083e d82d 193e
000000a0: 6259 4c3e 1a04 133e 62aa 513d a739 aa3d
000000b0: a770 de3d c70a acbc 318a d83d bf9a cf3d
000000c0: cbc1 cfbc 0484 143e 58ad 853d 86ae 193e
000000d0: 383c 003e 57cd 68bd e38e 7d3c aa9c 1d3e
000000e0: 9df7 3f3e 9b0a a6bd f6d4 353e 40fe d03d
000000f0: cfaf 8b3d 39fa 523e 525d 783c caa7 233e
00000100: 0fa9 e23d 988c ba3b c5ce 413e a03d 563e
00000110: 7d9f 903c bf58 143e d1c9 263e 9608 433d
00000120: 96c4 463e cc53 cbbd 9625 d3bc a3d7 d03d
00000130: 2805 153d 26c2 013e 8a0a f33d 5bed 3a3e
00000140: 654f 4a3d 70fe 3c3e e058 92bd 274a 9abc
00000150: 1fa8 95bc 3899 2d3d 1502 a63d f031 533e
00000160: ad68 64bd deb9 0c3e 31bd 973d c100 76bc
00000170: d77d ab3d 1e66 aa3b 3e2c c53d 9b17 f73d
00000180: c325 04bb 2ee3 3e3e a24b 61bc 21aa bd3d
00000190: f8c3 ef3d 4a4e b13d 20da b4bb 2ec0 503e
000001a0: c511 1f3e dfcd 043d f0df 2a3e 139e 3b3e
000001b0: 9508 5b3d d134 713d ae32 203e ed16 443e
000001c0: ea33 213e 0189 41bd fbba 1f3e a89d 0d3e
000001d0: 5e48 ef3d deb0 653d 7cac 273e cc86 903d
000001e0: 592a fa3d 1feb 9e3c 67c2 2c3e 534a 423d
000001f0: 0dbc 313e 3f85 e53d d8d5 ee3d f4bb 62bc

Critic.2.weight f4 [256, 128]
0.15486701 0.14597695 -0.03362826 0.010054373 0.07425493 0.11929592 0.123289935 0.13949947
0.05901355 0.13508905 0.05904425 0.0136752995 0.0019324525 -0.0072867367 0.05957185 0.0502611
-0.031323362 0.13019638 0.16018838 0.013109767 0.10979036 0.08577708 -0.026629126 0.11654145
0.14090063 0.04813785 0.13941774 -0.007546695 0.08094088 -0.06836266 -0.022719692 0.036866546
0.017615577 0.11080446 0.15792345 0.0040474683 -0.086499386 -0.037348513 0.027920201 0.08946216
0.14786507 0.05347625 0.101362534 0.04593705 0.0907148 0.11023987 0.029961139 0.028034028
0.025402319 0.033316556 -0.0153477425 0.025122624 -0.02155427 -0.0019399667 -0.025575694 0.1259477
0.13847305 -0.07463585 0.1410971 0.1009406 0.089796215 0.16190524 0.03869711 0.122649655
0.032688335 0.009145155 0.047853407 0.03336384 0.051759828 0.101401955 0.06178561 0.056244303
0.0730366 0.07446747 -0.008611191 -0.029891452 -0.042495023 0.13158058 0.048967533 0.063146934
0.02328591 0.08783077 0.07186732 -0.039604686 -0.03539757 0.029241033 0.15633747 0.010338422
-0.04793831 0.079502046 0.015315687 0.10624751 -0.024990454 0.041054472 0.12382437 0.0044345586
0.070292726 0.006229545 -0.04154546 0.032078654 0.0052670687 0.07985508 -0.09347096 0.067878135
0.093738295 -0.008175041 -0.011903572 0.12405519 0.008957061 -0.009210376 0.056950167 0.100880995
0.0683324 -0.08089122 0.06094137 -0.0021521114 0.11185393 0.08052591 -0.034644157 0.086016625
0.14455047 0.15678403 -0.007976393 0.101920456 0.021254921 -0.01867352 0.113500506 0.11233927
0.020632412 0.0797003 0.077069595 -0.07848833 0.08124908 0.026170282 0.032615565 -0.061561063
-0.002515635 -0.07944984 -0.010860326 -0.04688143 -0.016055359 0.007247244 -0.07677731 -0.045976162
0.057794925 0.02311321 -0.05361215 -0.077708006 0.03876314 0.07551356 0.02469951 -0.05239021
0.013413208 -0.022743039 -0.07449192 -0.007860088 0.014319162 -0.03956966 -0.030134922 -0.043776758
0.0770769 0.030704228 0.0061590197 0.071798526 0.055453334 0.05956517 -0.08462309 0.016675552
0.02668552 -0.052085977 0.021919148 -0.0438606 -0.031409334 -0.07048594 0.038744226 0.08768356
-0.023678342 -0.002122317 -0.085747704 0.07545742 -0.08980731 -0.07354947 0.07679495 -0.043196462
-0.07705912 0.019424176 -0.059766047 0.04794494 0.040565997 0.036981367 0.0695925 -0.055430975
0.06050414 0.04063102 -0.024311606 0.07071843 -0.07593974 0.014945822 -0.022838963 -0.030989232
-0.08126754 -0.031135172 0.06349963 0.010485624 -0.055737413 0.015391367 0.07184354 -0.035290033
0.04397427 0.038000718 -0.06374518 -0.019324962 -0.0074770753 -0.032489568 -0.076702975 -0.032775182
0.06683151 -0.028099017 0.0817858 -0.082667306 -0.08609776 -0.007749607 -0.060811058 -0.080326155
0.01777796 0.020062538 0.06836248 0.05937653 0.033831887 0.064457715 -0.024687953 0.026920933
-0.010623449 -0.08624938 -0.028730344 -0.08692909 0.081008516 0.08187493 -0.08401904 0.0019156573
0.06834557 -0.07272311 -0.043023694 0.0014502666 0.024172736 -0.07572333 -0.060402524 -0.0045517236
-0.030811373 0.07230882 -0.040781286 0.059594866 -0.023048127 0.035542 0.009192317 -0.0505855
00000000: 7595 1e3e fb7a 153e c9bd 09bd 19bb 243c
00000010: f812 983d 6b51 f43d 6f7f fc3d f3d8 0e3e
00000020: 31b8 713d c954 0a3e 62d8 713d 5d0e 603c
00000030: 594a fd3a 94c5 eebb 9d01 743d 95de 4d3d
00000040: ed4c 00bd 3352 053e 6c08 243e 59ca 563c
00000050: c5d9 e03d e5ab af3d 5325 dabc 49ad ee3d
00000060: 4148 103e 322c 453d 86c3 0e3e 444a f7bb
00000070: 55c4 a53d b901 8cbd a61e babc 6001 173d
00000080: 8b4e 903c 73ed e23d afb6 213e a0a0 843b
00000090: 9726 b1bd c1fa 18bd e8b8 e43c f037 b73d
000000a0: f169 173e ea09 5b3d 2997 cf3d 7d28 3c3d
000000b0: aec8 b93d 71c5 e13d 1071 f53c 9ea7 e53c
000000c0: 8618 d03c f176 083d 1975 7bbc f6cd cd3c
000000d0: 9592 b0bc 7b46 feba 1e84 d1bc 6ff8 003e
000000e0: e1cb 0d3e aeda 98bd c27b 103e f2b9 ce3d
000000f0: 14e7 b73d 7dca 253e dc80 1e3d be2f fb3d
00000100: 34e4 053d 8fd5 153c ef01 443d 86a8 083d
00000110: 1d02 543d d4ab cf3d e812 7d3d 6d60 663d
00000120: 3794 953d 6782 983d f415 0dbc ebde f4bc
00000130: 430f 2ebd 0fbd 063e 2e92 483d 2e53 813d
00000140: 18c2 be3c 9ee0 b33d 2c2f 933d 8638 22bd
00000150: 0bfd 10bd e48a ef3c ee16 203e 7c62 293c
00000160: f65a 44bd f8d1 a23d a6ee 7a3c 4b98 d93d
00000170: c8b8 ccbc bc28 283d a297 fd3d c64f 913b
00000180: a2f5 8f3d 3621 cc3b 922b 2abd e864 033d
00000190: 6097 ac3b 0f8b a33d b46d bfbd b103 8b3d
000001a0: ddf9 bf3d 9bf0 05bc 3307 43bc a610 fe3d
000001b0: a3c0 123c 1ee7 16bc 9444 693d b29a ce3d
000001c0: dbf1 8b3d 4caa a5bd a89d 793d 700a 0dbb
000001d0: ac13 e53d c5ea a43d 08e7 0dbd 7c29 b03d
000001e0: 0a05 143e fe8b 203e 6baf 02bc acbb d03d
000001f0: cd1e ae3c 36f9 98bc f472 e83d 2212 e63d
00000200: 4e05 a93c e939 a33d aad6 9d3d 7dbe a0bd
00000210: eb65 a63d 0f63 d63c e697 053d 7427 7cbd
00000220: 5add 24bb 99b6 a2bd 82ef 31bc be06 40bd
00000230: 8786 83bc 4a7a ed3b 6c3d 9dbd 8051 3cbd
00000240: 5fba 6c3d ea57 bd3c 6a98 5bbd 6025 9fbd
00000250: 19c6 1e3d daa6 9a3d a056 ca3c 1e97 56bd
00000260: 12c3 5b3c 9c4f babc 388f 98bd 99c7 00bc
00000270: eb9a 6a3c cc13 22bd 83dd f6bc 424f 33bd
00000280: 7eda 9d3d 6f87 fb3c 9ad1 c93b 1b0b 933d
00000290: 0923 633d 9cfa 733d df4e adbd 2b9b 883c
000002a0: 979b da3c 1b58 55bd c98f b33c 2ca7 33bd
000002b0: 13a7 00bd ef5a 90bd 44b2 1e3d 7093 b33d
000002c0: 15f9 c1bc 9216 0bbb 7e9c afbd 6b89 9a3d
000002d0: e5ec b7bd 1ba1 96bd ac46 9d3d c6ee 30bd
000002e0: 2cd1 9dbd 731f 9f3c 3ecd 74bd ea61 443d
000002f0: 8828 263d c679 173d 8386 8e3d 970b 63bd
00000300: 30d3 773d b66c 263d 2229 c7bc d3d4 903d
00000310: 4b86 9bbd 52df 743c c718 bbbc 21dd fdbc
00000320: 996f a6bd 300f ffbc 180c 823d e5cb 2b3c
00000330: ea4c 64bd 122c 7c3c b522 933d 488c 10bd
00000340: 5d1e 343d a4a6 1b3d d58c 82bd 624f 9ebc
00000350: 4102 f5bb c813 05bd 7316 9dbd 453f 06bd
00000360: f5de 883d e92f e6bc 507f a73d 7a4d a9bd
00000370: 0654 b0bd 6af0 fdbb 0415 79bd 0a82 a4bd
00000380: 16a3 913c 315a a43c a101 8c3d ce34 733d
00000390: 4e93 0a3d 6802 843d 643e cabc 4a89 dc3c
000003a0: fa0d 2ebc 84a3 b0bd e65b ebbc e107 b2bd
000003b0: cbe7 a53d 0bae a73d 2d12 acbd cb16 fb3a
000003c0: c3f8 8b3d dbef 94bd 9d39 30bd df16 be3a
000003d0: e705 c63c d514 9bbd a368 77bd a026 95bb
000003e0: 2268 fcbc a616 943d 470a 27bd bf19 743d
000003f0: 6dcf bcbc 7d94 113d 5f9b 163c be32 4fbd
