ppo_highway_agent.pth (torch, 39736 bytes, 7 tensors)

Network.0.weight f4 [64, 70]
0.045606416 0.11187117 -0.07238054 -0.044613462 -0.08249565 0.07872081 -0.040671594 0.14126965
0.03216749 0.10239451 -0.065289885 0.013188285 -0.06765603 -0.07563534 -0.0027687668 0.049474753
0.11123629 0.042738985 -0.045758925 -0.0055340147 0.045923706 0.14575157 0.021314463 0.15105
-0.04771422 0.048008796 0.15473801 -0.11561673 -0.028742798 0.016521715 0.019329114 0.07536472
-0.04191516 -0.008508205 -0.0829767 -0.06543931 -0.02274743 0.16528794 0.02592205 0.09326583
0.052792516 -0.07223802 0.06672263 -0.06468123 -0.016800711 -0.08875917 0.11180531 0.11659231
-0.05072367 0.042188596 0.12340946 0.17829615 0.020081244 0.052146506 0.12664546 -0.0733956
0.06877447 -0.045634236 -0.017583292 -0.08833185 0.08927892 0.094578184 -0.072408095 0.0826168
0.11297161 0.048126783 -0.021466227 0.06392041 0.120665096 0.11320756 -0.145316 -0.098323934
0.016826028 0.049078118 0.14299758 0.052077077 0.064723685 -0.15714376 -0.0379091 -0.14650656
-0.07661847 0.06803395 0.037642896 -0.11852944 -0.030837568 -0.07167465 -0.086198956 -0.020270446
0.00832211 -0.124015346 0.03959676 0.0072347806 0.032954622 -0.022177573 -0.08432841 -0.11566296
0.006457952 0.031113476 -0.14644669 -0.12215914 0.043989033 0.113815285 -0.09053461 -0.0833026
-0.112445265 -0.055357136 -0.14370638 -0.15733175 0.026293516 -0.020167504 -0.10216385 0.084768295
-0.12594299 0.054831605 0.010301016 -0.06819336 -0.06870035 -0.04782889 0.01747643 -0.024861122
-0.0067772344 -0.056128446 -0.02563668 0.017876819 -0.1678676 -0.06582857 -0.0831299 -0.11191081
-0.107563026 -0.066163376 -0.06310559 -0.027668713 -0.073970295 -0.05934762 0.03149097 -0.07720906
0.03450817 -0.049271304 -0.029032094 0.07619139 0.04786288 0.009284253 0.07625322 -0.07049969
-0.06081189 -0.12221791 0.12942842 -0.0661296 -0.11955369 -0.17104073 -0.06849352 -0.1443388
-0.089622125 0.06350047 -0.00073571195 -0.17876792 -0.0018173135 -0.050763153 -0.0679225 -0.11382952
-0.027291143 -0.08882199 -0.1720541 -0.17701313 0.022957353 -0.04392788 -0.11966457 0.05360075
-0.1729324 -0.07348996 0.027755802 -0.007725174 0.06276874 -0.022080258 -0.105300575 0.010267046
-0.07963542 -0.1261873 0.13633816 -0.14204219 -0.05253398 -0.008714808 0.019997988 -0.032448214
-0.022205524 0.08239601 -0.074338466 -0.09050478 -0.095087245 -0.00059191545 0.029044855 0.010869021
-0.044458635 -0.041728094 -0.14961748 -0.061661318 -0.1350024 -0.024873754 -0.14139175 0.036529075
-0.040136993 0.01168238 -0.08399782 -0.14741565 -0.13555185 0.010000091 -0.0045532794 0.05418366
-0.022147574 0.013806807 -0.054974206 -0.07864736 -0.012246125 -0.07830827 0.04461402 -0.039035127
-0.046739575 -0.11672996 0.04466217 -0.16818672 0.023591967 0.07444033 -0.010930477 -0.0077752545
-0.15766478 0.0057785823 -0.15730414 -0.0025706692 -0.08234613 -0.07179903 0.0038226647 0.04449892
-0.038891114 0.038376454 0.10398602 -0.11984829 -0.0004874783 -0.074377306 -0.10474107 -0.019406876
-0.028671162 0.119199716 -0.0823861 -0.05390651 0.05774669 -0.1696747 0.031593055 -0.17496642
0.031425003 -0.06542338 -0.117038324 0.024051722 0.04475124 -0.08959485 -0.14273213 -0.01549843
00000000: cbcd 3a3d b61c e53d 403c 94bd 9bbc 36bd
00000010: 7bf3 a8bd 6038 a13d 4297 26bd fea8 103e
00000020: 0fc2 033d 36b4 d13d b4b6 85bd ad13 583c
00000030: 3f8f 8abd b3e6 9abd 3374 35bb 0aa6 4a3d
00000040: dacf e33d 130f 2f3d b66d 3bbd ae56 b5bb
00000050: 7f1a 3c3d e63f 153e ab9b ae3c daac 1a3e
00000060: fc6f 43bd dfa4 443d a473 1e3e 77c8 ecbd
00000070: 0476 ebbc 8c58 873c 1758 9e3c d158 9a3d
00000080: 3baf 2bbd 0066 0bbc b0ef a9bd 0c05 86bd
00000090: d158 babc 3e41 293e 7b5a d43c 2802 bf3d
000000a0: f73c 583d 87f1 93bd e0a5 883d 9877 84bd
000000b0: a5a1 89bc 5ec7 b5bd 2ffa e43d f3c7 ee3d
000000c0: 9fc3 4fbd f3cd 2c3d 19be fc3d 4493 363e
000000d0: 6c81 a43c 9397 553d 59af 013e 6f50 96bd
000000e0: a1d9 8c3d f7ea 3abd d60a 90bc 54e7 b4bd
000000f0: ded7 b63d 35b2 c13d b24a 94bd ff32 a93d
00000100: a95d e73d 9720 453d f1d9 afbc b4e8 823d
00000110: 431f f73d 5dd9 e73d b8cd 14be 0f5e c9bd
00000120: bdd6 893c 2306 493d f56d 123e c64e 553d
00000130: da8d 843d 4bea 20be 9346 1bbd d105 16be
00000140: 25ea 9cbd 6255 8b3d 702f 1a3d 90bf f2bd
00000150: 119f fcbc 29ca 92bd 1489 b0bd 350e a6bc
00000160: 7659 083c c2fb fdbd 3630 223d bd11 ed3b
00000170: 6dfb 063d bead b5bc 60b4 acbd b4e0 ecbd
00000180: 3a9d d33b b0e1 fe3c 1ff6 15be 922e fabd
00000190: d82d 343d fd17 e93d 366a b9bd 8e9a aabd
000001a0: b449 e6bd 2abe 62bd c427 13be 931b 21be
000001b0: 8065 d73c 5236 a5bc 483b d1bd 009b ad3d
000001c0: 33f7 00be 1b97 603d 98c5 283c f6a8 8bbd
000001d0: c5b2 8cbd 3ae8 43bd bb2a 8f3c 8da9 cbbc
000001e0: 9013 debb f1e6 65bd 0404 d2bc 6872 923c
000001f0: 7ce5 2bbe 21d1 86bd 0240 aabd 7f31 e5bd
00000200: 014a dcbd aa80 87bd 813d 81bd 7fa9 e2bc
00000210: bd7d 97bd 7d16 73bd adfc 003d c91f 9ebd
00000220: 7058 0d3d b5d0 49bd b7d4 edbc 3b0a 9c3d
00000230: de0b 443d fb1c 183c a62a 9c3d 2462 90bd
00000240: e315 79bd 624d fabd e288 043e f56e 87bd
00000250: 91d8 f4bd 4d25 2fbe 5546 8cbd 8dcd 13be
00000260: ce8b b7bd 890c 823d cbdc 40ba f00e 37be
00000270: ec32 eeba 06ed 4fbd f41a 8bbd 741f e9bd
00000280: ad91 dfbc 4ee8 b5bd f32e 30be ee42 35be
00000290: 0f11 bc3c b8ed 33bd b312 f5bd 768c 5b3d
000002a0: 3115 31be e781 96bd 2360 e33c 7523 fdbb
000002b0: e68c 803d a8e1 b4bc d4a7 d7bd 1d37 283c
000002c0: e517 a3bd 3e37 01be 3b9c 0b3e 8273 11be
000002d0: df2d 57bd 8ec8 0ebc d2d2 a33c 6be8 04bd
000002e0: 5ce8 b5bc 3dbf a83d c43e 98bd 925a b9bd
000002f0: 1abd c2bd c62a 1bba 7aef ed3c fa13 323c
00000300: 421a 36bd 14eb 2abd 5335 19be 9490 7cbd
00000310: 123e 0abe 0bc4 cbbc 00c9 10be 839f 153d
00000320: b066 24bd 7467 3f3c 0d07 acbd 21f4 16be
00000330: 1bce 0abe 6cd7 233c ad33 95bb afef 5d3d
00000340: d46e b5bc f235 623c a22c 61bd de11 a1bd
00000350: f9a3 48bc 1660 a0bd 31bd 363d 4ce3 1fbd
00000360: ff71 3fbd 1e10 efbd aeef 363d 2439 2cbe
00000370: f143 c13c 2c74 983d be15 33bc 90c7 febb
00000380: e072 21be 435a bd3b 5614 21be ac78 28bb
00000390: 16a5 a8bd 5f0b 93bd ac85 7a3b 8044 363d
000003a0: 4a4c 1fbd a130 1d3d 9ff6 d43d 0573 f5bd
000003b0: 3b94 ffb9 2153 98bd 7c82 d6bd 2bfb 9ebc
000003c0: c9df eabc fb1e f43d 0bba a8bd 13cd 5cbd
000003d0: cb87 6c3d 34bf 2dbe b867 013d 662a 33be
000003e0: 81b7 003d b1fc 85bd cab1 efbd 1e08 c53c
000003f0: 144d 373d 817d b7bd 5f28 12be 20ed 7dbc

Network.0.bias f4 [64]
0.048660394 -0.14943433 -0.13507684 -0.10194169 -0.04894115 0.10035605 -0.06885232 0.019085543
0.111536406 -0.1736838 0.1361306 -0.063443355 0.12623444 0.037720405 -0.044100065 -0.01518374
-0.058113802 0.035930898 0.0165175 0.033566695 -0.009847822 0.048852593 0.030939262 0.10232392
0.13911197 -0.16247602 0.16434225 0.09370471 0.10904366 0.09492271 0.020781258 0.04739802
0.041034654 -0.15917984 0.06298787 0.025331784 -0.106947325 0.12185631 0.12688623 -0.03683618
-0.055316452 0.04047253 0.1587232 0.122833684 0.0090667885 0.014981881 -0.123678476 0.053205658
-0.16583562 0.024858486 -0.16592589 -0.1673361 -0.16512662 0.12337657 -0.0409214 0.056863375
0.07954688 -0.10112828 0.02453906 -0.14433567 0.02299353 -0.019186618 -0.04484809 0.13967817
00000000: 1f50 473d 5005 19be 9551 0abe cec6 d0bd
00000010: 8476 48bd 7987 cd3d 7202 8dbd 4959 9c3c
00000020: 336d e43d 2bda 31be d265 0b3e 97ee 81bd
00000030: 9a43 013e b680 1a3d 45a2 34bd 39c5 78bc
00000040: bd08 6ebd 472c 133d b54f 873c 3b7d 093d
00000050: c258 21bc a819 483d 5674 fd3c 348f d13d
00000060: 5e73 0e3e 1d60 26be 5649 283e 41e8 bf3d
00000070: 4852 df3d d666 c23d 753d aa3c 6d24 423d
00000080: f413 283d 0a00 23be c9ff 803d 9a84 cf3c
00000090: 3307 dbbd cd8f f93d 77ee 013e 89e1 16bd
000000a0: 8193 62bd 86c6 253d 5688 223e 3a90 fb3d
000000b0: de8c 143c 9076 753c 244b fdbd 2dee 593d
000000c0: d0d0 29be 06a4 cb3c 7ae8 29be 285a 2bbe
000000d0: f416 29be dbac fc3d 339d 27bd 92e9 683d
000000e0: 7ae9 a23d 581c cfbd 2406 c93c bbcc 13be
000000f0: ed5c bc3c 412d 9dbc a1b2 37bd cb07 0f3e

Network.2.weight f4 [64, 64]
-0.19204418 0.14621715 0.0029342643 0.050183047 0.118743844 -0.05215424 0.17999947 -0.12406535
-0.14518873 0.05029678 -0.1241292 -0.008236649 -0.18444799 0.030630892 0.09603648 0.0004957696
-0.018859005 0.1802352 0.19914006 -0.11738503 -0.01451655 -0.14513093 0.14377551 -0.05702474
-0.1347191 -0.01464923 -0.12007947 -0.11842302 -0.010921108 -0.16468513 0.1722318 0.13088964
-0.10755196 -0.015461868 0.20201294 -0.110379204 0.15883552 -0.15554847 -0.21496737 -0.021476032
0.028957844 -0.13804758 -0.0934872 0.01656801 -0.004868446 0.17462699 0.1941453 -0.1017878
0.027795931 0.08206832 0.12016247 0.15802315 0.04377972 -0.17660366 0.039829925 -0.20952608
-0.08539931 0.027276287 -0.17985001 0.092921644 0.015949624 0.012595129 -0.012271258 0.029717388
0.18245962 0.035583757 -0.07743226 0.015420947 -0.018238623 -0.040513556 -0.11877194 0.10175832
-0.00010695444 -0.12361856 0.18321943 -0.007727531 0.17625706 -0.061804336 -0.1394738 0.01835143
-0.018941753 -0.050944507 -0.1143927 0.10639267 -0.16747323 0.18265486 0.024405042 0.13425955
0.18220097 -0.0031823933 0.01301268 -0.03541149 0.077335015 0.1738995 -0.101620324 -0.08777816
0.15972313 -0.031096272 0.039191477 0.08689391 -0.042954225 0.04326146 0.05821875 -0.12134833
0.007256362 0.20525621 0.09777801 0.07042271 -0.13772215 -0.22380307 -0.09637266 -0.031631745
-0.18731892 -0.080355644 -0.09769469 -0.04866131 -0.14916554 0.15996826 -0.20173551 0.012562233
0.055506412 -0.08048649 0.15226604 -0.11826432 0.07764636 0.061181523 -0.10456052 0.03785713
-0.05684621 -0.043795407 0.004336142 0.19099753 0.14511155 -0.06770344 0.07218186 -0.10019583
-0.06471667 0.0073662465 -0.14524585 -0.036376335 -0.17772543 0.052891027 0.06790379 0.17395523
0.06245367 0.06381843 0.07197285 0.0001255772 0.046777625 -0.115470946 0.06379957 -0.1945941
-0.1090323 -0.02623844 -0.14175425 -0.1634613 0.018223498 -0.21238503 0.21347515 0.15491292
-0.16395213 0.19492294 0.042041678 -0.1867136 0.054347474 -0.02248681 -0.20788048 0.06008044
0.13793303 -0.1424837 -0.05527335 -0.12750258 0.020529898 0.20360081 -0.0059073027 -0.086462565
0.13965714 -6.310384e-05 0.1444544 -0.012233008 0.19254366 -0.05239572 0.07674514 -0.18632244
-0.11675327 0.1569686 -0.17818497 0.07457136 -0.19677079 -0.21928605 0.056490403 0.034566756
-0.076826446 0.10470672 0.040971488 0.044905238 0.06631967 -0.111362495 0.12846383 -0.02029386
-0.18809637 0.12099121 -0.13173409 -0.005882686 -0.082819596 0.023809578 0.0050778887 0.08256372
0.098146155 0.053088453 0.05235893 -0.044883143 0.021863734 -0.01811971 0.20260939 -0.102841526
-0.077997975 0.18091817 0.042027954 -0.16651627 -0.11841029 -0.22090124 0.1679139 0.19636248
-0.11260116 0.124488205 0.083689444 -0.17630248 0.10623799 -0.012319073 -0.07766596 0.06697472
0.10622062 -0.0036175179 0.059999697 -0.04859637 0.15029903 0.069490336 0.1487695 -0.104225814
-0.0062774303 0.11359274 0.119928874 0.100206055 0.111190714 -0.05276828 0.13269913 -0.021458853
-0.16911675 0.07889813 -0.08187824 0.068678975 -0.16271627 -0.08128968 0.13103978 -0.1214544
00000000: 3ba7 44be f3b9 153e c94c 403b bd8c 4d3d
00000010: f92f f33d af9f 55bd c851 383e f915 febd
00000020: 5bac 14be ff03 4e3d 7337 febd 03f3 06bc
00000030: efdf 3cbe a3ed fa3c c6ae c43d 89f6 013a
00000040: 337e 9abc 948f 383e 5feb 4b3e 9067 f0bd
00000050: d3d6 6dbc 349d 14be e339 133e c692 69bd
00000060: cef3 09be 5303 70bc 3aec f5bd c587 f2bd
00000070: 72ee 32bc 38a3 28be 885d 303e ef07 063e
00000080: 3444 dcbd c653 7dbc 7bdc 4e3e 7e0e e2bd
00000090: c7a5 223e 1948 1fbe 6820 5cbe 81ee afbc
000000a0: 0039 ed3c 585c 0dbe 3876 bfbd a3b9 873c
000000b0: 7c87 9fbb 6bd1 323e 07ce 463e 1f76 d0bd
000000c0: 4bb4 e33c 6f13 a83d be17 f63d d2d0 213e
000000d0: 5d52 333d 97d7 34be b424 233d 018e 56be
000000e0: d5e5 aebd 8572 df3c 9a2a 38be b44d be3d
000000f0: c9a8 823c cd5b 4e3c 630d 49bc e171 f33c
00000100: b2d6 3a3e 46c0 113d ce94 9ebd 24a8 7c3c
00000110: 2a69 95bc 8bf1 25bd b43e f3bd ab66 d03d
00000120: ba4c e0b8 ba2b fdbd e09d 3b3e 3a37 fdbb
00000130: bb7c 343e 8b26 7dbd 38d2 0ebe bd55 963c
00000140: bc2b 9bbc 30ab 50bd b846 eabd 66e4 d93d
00000150: 1a7e 2bbe e009 3b3e 15ed c73c 567b 093e
00000160: e492 3a3e b38f 50bb 2333 553c a30b 11bd
00000170: d261 9e3d b612 323e 511e d0bd 09c5 b3bd
00000180: 768e 233e 9cbd febc 3e87 203d 6ff5 b13d
00000190: c5f0 2fbd ee32 313d c976 6e3d 7985 f8bd
000001a0: c7c6 ed3b af2e 523e d63f c83d c839 903d
000001b0: 0907 0dbe a22c 65be 075f c5bd 4a90 01bd
000001c0: 88d0 3fbe 8091 a4bd 2714 c8bd 1551 47bd
000001d0: dabe 18be b8ce 233e c193 4ebe d3d1 4d3c
000001e0: b15a 633d 1ad6 a4bd a1eb 1b3e 9034 f2bd
000001f0: 0e05 9f3d 7a99 7a3d d323 d6bd 1410 1b3d
00000200: 92d7 68bd d062 33bd 3216 8e3b db94 433e
00000210: 1f98 143e 1aa8 8abd 15d4 933d 7933 cdbd
00000220: 2c8a 84bd 8e60 f13b 54bb 14be 5aff 14bd
00000230: a8fd 35be 43a4 583d 2411 8b3d 5221 323e
00000240: 6bcf 7f3d 3db3 823d 8066 933d 5fad 0339
00000250: e599 3f3d 087c ecbd 59a9 823d ad43 47be
00000260: 544c dfbd fff1 d6bc 0728 11be 6662 27be
00000270: 7249 953c 767b 59be 3b99 5a3e 7ea1 1e3e
00000280: 11e3 27be e199 473e e533 2c3d da31 3fbe
00000290: 759b 5e3d 4236 b8bc 9fde 54be e816 763d
000002a0: 513e 0d3e 3fe7 11be 4f66 62bd 0990 02be
000002b0: 512e a83c bb7c 503e 0c92 c1bb 4913 b1bd
000002c0: 4802 0f3e 9e56 84b8 dbeb 133e f46c 48bc
000002d0: 2a2a 453e e59c 56bd 8e2c 9d3d 4fcb 3ebe
000002e0: 571c efbd 60bc 203e 1f76 36be dfb8 983d
000002f0: 487e 49be 868c 60be 7b62 673d df95 0d3d
00000300: 2f57 9dbd 7a70 d63d b8d1 273d 8eee 373d
00000310: 9bd2 873d 0512 e4bd 068c 033e 4f3f a6bc
00000320: 569c 40be 3dca f73d 4de5 06be 8cc3 c0bb
00000330: 529d a9bd 4e0c c33c 6b64 a63b 2b17 a93d
00000340: da00 c93d 4773 593d 5176 563d 63d7 37bd
00000350: 931b b33c c96f 94bc d678 4f3e 949e d2bd
00000360: 67bd 9fbd 9d42 393e 8125 2c3d 3e83 2abe
00000370: 1881 f2bd ef33 62be 9ff1 2b3e 3f13 493e
00000380: 709b e6bd acf3 fe3d 5f65 ab3d a388 34be
00000390: 4e93 d93d f0d5 49bc 550f 9fbd 0b2a 893d
000003a0: 328a d93d e113 6dbb 3ec2 753d fd0c 47bd
000003b0: fde7 193e f350 8e3d 0857 183e 5874 d5bd
000003c0: e7b2 cdbb 4fa3 e83d 459d f53d d538 cd3d
000003d0: f5b7 e33d 8d23 58bd 48e2 073e 7aca afbc
000003e0: f12c 2dbe 5895 a13d c7af a7bd 90a7 8c3d
000003f0: 189f 26be 347b a6bd 4b2f 063e 16bd f8bd

Network.2.bias f4 [64]
-0.03847006 0.12232825 0.043133136 -0.053947058 0.033169653 -0.121987134 -0.08358141 -0.10175255
-0.101851285 0.016565897 0.07674644 -0.10385582 0.025144657 -0.04949756 -0.06387873 0.0947039
-0.0059737586 -0.076916955 0.040933196 0.038595777 0.1350525 -0.065857396 -0.02561198 0.12296829
0.06989875 0.14324965 0.109179765 0.08731901 0.115199685 -0.04850167 -0.06846371 -0.06999743
0.16925101 -0.115289584 -0.044090357 0.05583528 0.027550364 0.10961955 -0.08373061 0.044891134
-0.061358158 -0.073678814 0.16215707 -0.0017469343 -0.009131454 0.09585336 -0.027412372 -0.13536602
-0.033980384 -0.117086574 0.16212049 -0.03835245 0.15889367 0.042693213 0.0012255078 0.09201988
0.02182737 -0.01331714 0.054862585 -0.07345429 0.13326503 0.041455306 0.11102021 0.13291466
00000000: c892 1dbd 3c87 fa3d 5fac 303d 97f7 5cbd
00000010: e7dc 073d 64d4 f9bd bb2c abbd a463 d0bd
00000020: 6897 d0bd 34b5 873c 3d2d 9d3d 5cb2 d4bd
00000030: 2bfc cd3c f4bd 4abd dad2 82bd 1ef4 c13d
00000040: 85bf c3bb a386 9dbd 91a9 273d 9b16 1e3d
00000050: 344b 0a3e 3ee0 86bd 37d0 d1bc ccd6 fb3d
00000060: 1327 8f3d 09b0 123e a499 df3d 4fd4 b23d
00000070: d0ed eb3d b0a9 46bd b436 8cbd d05a 8fbd
00000080: 2350 2d3e f21c ecbd 1798 34bd 89b3 643d
00000090: 4db1 e13c 3780 e03d f47a abbd c4df 373d
000000a0: b152 7bbd ebe4 96bd 810c 263e 63f9 e4ba
000000b0: 189c 15bc c44e c43d e98f e0bc 649d 0abe
000000c0: 042f 0bbd 16cb efbd ea02 263e 7517 1dbd
000000d0: 06b5 223e 14df 2e3d 38a1 a03a eb74 bc3d
000000e0: 50cf b23c 2230 5abc 97b7 603d 346f 96bd
000000f0: a176 083e 0acd 293d 905e e33d c81a 083e

Actor.weight f4 [5, 64]
0.02418215 -0.024886496 0.04543013 -0.124821 -0.008518379 -0.025623888 -0.09609724 -0.00627329
0.02399336 -0.12498959 0.10283688 0.06977098 0.11894067 -0.052651502 -0.08960638 0.075815275
0.11748442 -0.07428655 -0.07812063 -0.0096019115 0.10987737 -0.019351346 -0.12131764 -0.051201764
-0.07118054 0.095018625 -0.08993353 0.09236808 0.04693489 -0.011265801 -0.030784523 0.0709555
-0.07136665 -0.048931904 0.112790346 -0.04776805 0.016603677 0.10371233 -0.098805495 0.017651217
0.00799268 -0.060371224 0.10594969 0.08415809 -0.010379109 -0.0073915413 0.07942971 -0.049098488
0.06521649 -0.08399422 -0.09970324 0.07892238 0.09031424 -0.09898876 -0.029122772 0.05323522
0.06700989 0.07424583 0.08545773 -0.058924794 0.026781997 0.10874481 -0.09833373 0.08141644
0.0050786524 0.032522585 0.098593794 -0.078616366 -0.007556448 -0.120081715 0.07784926 -0.118865974
0.08406686 -0.11826085 0.09850373 -0.09033763 0.082680084 -0.11081698 -0.1106769 -0.009574749
-0.07039993 0.09214127 0.017159916 -0.096936144 -0.06432067 -0.06995639 -0.007696964 -0.029352887
0.09929929 -0.0330113 0.06389761 0.11868627 -0.061922457 -0.07074054 -0.09348096 0.04940852
0.13063286 -0.10690274 0.009043768 0.10484648 0.123082876 0.09317203 0.0124633545 -0.0048824092
0.035745673 0.13596858 0.03364233 0.07607697 -0.037411664 0.12712958 -0.15188545 -0.06675119
-0.14663328 0.0028469411 -0.001133779 -0.13034727 -0.06588379 0.0073259166 0.06609296 0.13314241
0.058370687 -0.06963959 0.07427864 0.0920744 0.03339756 -0.09143143 -0.06122408 -0.08438523
0.07837783 0.051784575 0.137011 -0.01258905 -0.1131165 0.08214895 -0.016552432 0.039599314
0.0944611 0.011060608 -0.0028142747 0.03771949 0.17087328 -0.049951475 0.16136639 0.028594768
-0.16088326 0.07986589 0.044003528 0.1125686 0.036934648 -0.009906185 -0.021445509 -0.13797612
0.032657553 -0.15916948 -0.13489747 0.06009374 0.016170388 0.036569323 0.05647429 -0.16273762
-0.07571909 0.040978424 0.060173664 -0.08624778 -0.06360297 0.015671955 0.11771611 -0.025301151
-0.16703779 -0.10395126 -0.019990213 0.06373031 0.109112084 0.0164445 0.092914104 0.025318379
0.033453926 0.15154837 -0.029353375 0.08326112 0.017299602 0.1462209 0.092433445 -0.06280876
0.0009908644 -0.11840486 -0.009704631 0.15434602 0.049838006 -0.12538628 0.04767159 -0.07940919
-0.00862242 0.01644428 -0.08095812 -0.0517822 -0.040403176 -0.01628188 0.085466966 -0.005814618
-0.08033801 -0.084294334 0.099425934 0.079586335 -0.10143645 -0.078178324 -0.05365257 0.08908552
0.052645035 0.064080164 0.09701235 0.043805525 0.0683756 -0.07788129 0.12058043 0.035482474
0.01838745 0.057104852 -0.047412373 -0.080871314 -0.05594131 -0.116509125 -0.022140963 0.04181083
0.014214233 0.019025883 0.025578434 -0.13675156 -0.107029 -0.13094443 0.14976606 -0.08995106
0.03393856 0.06632348 -0.057999972 -0.044190712 0.12749083 -0.12286426 -0.09876154 0.005234832
0.0070069283 -0.030077951 -0.0153420055 0.09090313 0.04602339 0.06105068 0.11426692 -0.080691874
0.032065645 0.032223545 0.06486397 -0.02080911 0.0784094 -0.11878148 -0.08477075 -0.1411532
00000000: a519 c63c c4de cbbc f214 3a3d 27a2 ffbd
00000010: ac90 0bbc 30e9 d1bc a1ce c4bd 2c90 cdbb
00000020: b98d c43c 8bfa ffbd 249c d23d 16e4 8e3d
00000030: 2a97 f33d 1aa9 57bd 8d83 b7bd 0a45 9b3d
00000040: ac9b f03d 8c23 98bd b5fd 9fbd 5651 1dbc
00000050: 6307 e13d b786 9ebc 6275 f8bd f1b8 51bd
00000060: 1ac7 91bd 2099 c23d 122f b8bd 7a2b bd3d
00000070: cd3e 403d 3294 38bc d32f fcbc 1e51 913d
00000080: ae28 92bd d26c 48bd a0fe e63d 6ea8 43bd
00000090: 6f04 883c 2167 d43d 895a cabd 4999 903c
000000a0: bbf3 023c d147 77bd 27fc d83d 145b ac3d
000000b0: 230d 2abc be34 f2bb 0bac a23d 7f1b 49bd
000000c0: 3990 853d 2905 acbd 3631 ccbd 0fa2 a13d
000000d0: acf6 b83d 9eba cabd e192 eebc 2d0d 5a3d
000000e0: 7b3c 893d 330e 983d 7604 af3d 205b 71bd
000000f0: eb65 db3c 99b5 de3d 3263 c9bd aabd a63d
00000100: d36a a63b 6736 053d 8beb c93d 9e01 a1bd
00000110: 159c f7bb 67ed f5bd 6f6f 9f3d 0170 f3bd
00000120: 3f2b ac3d bf32 f2bd 53bc c93d ef02 b9bd
00000130: 2d54 a93d 03f4 e2bd 92aa e2bd 68df 1cbc
00000140: d72d 90bd 90b4 bc3d f492 8c3c 7586 c6bd
00000150: 8eba 83bd 4c45 8fbd d036 fcbb 7775 f0bc
00000160: 6d5d cb3d db36 07bd c0dc 823d ca11 f33d
00000170: 67a2 7dbd 6be0 90bd f272 bfbd 9760 4a3d
00000180: 9fc4 053e d3ef dabd 502c 143c c0b9 d63d
00000190: e012 fc3d fad0 be3d 1933 4c3c 9efc 9fbb
000001a0: 0e6a 123d 593b 0b3e 8acc 093d 3ece 9b3d
000001b0: f93c 19bd 422e 023e dc87 1bbe d9b4 88bd
000001c0: 0927 16be bf93 3a3b 4f9b 94ba c179 05be
000001d0: 15ee 86bd 3e0e f03b bf5b 873d 7c56 083e
000001e0: 1a16 6f3d 349f 8ebd 661f 983d 8191 bc3d
000001f0: e1cb 083d 6740 bbbd 1ac6 7abd 2ad2 acbd
00000200: 8e84 a03d 101c 543d 9d4c 0c3e 4e42 4ebc
00000210: a0a9 e7bd b53d a83d f798 87bc e432 223d
00000220: d274 c13d 8d37 353c b26f 38bb c07f 1a3d
00000230: 68f9 2e3e eb99 4cbd 3b3d 253e 933f ea3c
00000240: 95be 24be ba90 a33d 0b3d 343d 5e8a e63d
00000250: c948 173d 8d4d 22bc 7eae afbc 9d49 0dbe
00000260: edc3 053d 53fd 22be 9022 0abe da24 763d
00000270: c377 843c b7c9 153d 9651 673d b1a4 26be
00000280: 9c12 9bbd fed8 273d a978 763d ada2 b0bd
00000290: 4642 82bd 7962 803c 2515 f13d 5c44 cfbc
000002a0: f40b 2bbe 66e4 d4bd 84c2 a3bc 0985 823d
000002b0: 2876 df3d 9eb6 863c c049 be3d 7d68 cf3c
000002c0: fc06 093d 7f2f 1b3e 7d76 f0bc ce84 aa3d
000002d0: e5b7 8d3c eeba 153e bf4d bd3d e1a1 80bd
000002e0: e4df 813a 3f7e f2bd 2c00 1fbc e20c 1e3e
000002f0: f022 4c3d 4365 00be 4943 433d 49a1 a2bd
00000300: 0d45 0dbc 28b6 863c 5fcd a5bd 9219 54bd
00000310: cd7d 25bd 9461 85bc 4e09 af3d 8d88 bebb
00000320: 4188 a4bd 82a2 acbd d39f cb3d 29fe a23d
00000330: eabd cfbd f51b a0bd ccc2 5bbd 7872 b63d
00000340: 52a2 573d 763c 833d 69ae c63d 6c6d 333d
00000350: 8208 8c3d 3a80 9fbd dff2 f63d 1256 113d
00000360: 47a1 963c c7e6 693d 7a33 42bd dc9f a5bd
00000370: b722 65bd 569c eebd f760 b5bc d541 2b3d
00000380: d0e2 683c 2bdc 9b3c dd89 d13c 9a08 0cbe
00000390: 0532 dbbd 4c16 06be 465c 193e 4338 b8bd
000003a0: 2903 0b3d 9bd4 873d 6191 6dbd 5201 35bd
000003b0: f58c 023e 42a0 fbbd 7e43 cabd f488 ab3b
000003c0: 609a e53b 0966 f6bc 095d 7bbc 6c2b ba3d
000003d0: 0683 3c3d 4710 7a3d c604 ea3d c841 a5bd
000003e0: 4457 033d d6fc 033d 67d7 843d de77 aabc
000003f0: 1c95 a03d b443 f3bd 499c adbd 778a 10be

Actor.bias f4 [5]
0.06269804 0.10168994 -0.03111162 0.0029823163 -0.025668273
00000000: d467 803d d142 d03d ccdd febc f772 433b
00000010: 4546 d2bc

Critic.weight f4 [1, 64]
-0.47994444 0.53606653 -0.47572106 -0.5059342 0.50355625 -0.47766903 -0.45766684 -0.49938154
-0.47731087 -0.5083165 0.56912744 -0.55493164 -0.5629554 -0.50090927 -0.4698175 0.56193286
0.49079797 -0.47187904 -0.6026125 -0.5297978 0.49436978 -0.51225394 -0.5435747 0.49455062
0.5664693 0.4846326 0.5646139 0.5739932 0.46850583 0.59391075 0.51246387 0.5080087
0.49334872 -0.58870786 0.5199502 0.5751266 0.5004364 0.47587398 -0.49692696 -0.5702016
0.49504825 0.52191323 0.52556247 0.5941654 -0.54724544 0.5752058 -0.5045069 -0.50402606
-0.5270898 -0.5449381 0.50466716 -0.4974668 0.48802826 -0.5937758 -0.5215086 0.5342879
-0.53326076 0.5605621 -0.55516195 -0.54528505 0.5521784 0.58192074 0.538473 0.5296348
00000000: 47bb f5be a83b 093f b691 f3be e784 01bf
00000010: 10e9 003f 0991 f4be 4f53 eabe f0ae ffbe
00000020: 1762 f4be 0821 02bf 56b2 113f 0010 0ebf
00000030: d81d 10bf 973b 00bf eb8b f0be d5da 0f3f
00000040: df49 fb3e 219a f1be d044 1abf d4a0 07bf
00000050: 091e fd3e 1323 03bf b627 0bbf bd35 fd3e
00000060: 2204 113f c421 f83e 898a 103f 38f1 123f
00000070: ffdf ef3e 890a 183f d530 033f dc0c 023f
00000080: 3498 fc3e 8fb5 16bf 751b 053f 7f3b 133f
00000090: 9a1c 003f c1a5 f33e 366d febe bbf8 11bf
000000a0: f776 fd3e 1b9c 053f 438b 063f 391b 183f
000000b0: 4718 0cbf b040 133f 5d27 01bf da07 01bf
000000c0: 5bef 06bf 1081 0bbf de31 013f f8b3 febe
000000d0: d7de f93e b101 18bf 9681 05bf 18c7 083f
000000e0: c783 08bf ff80 0f3f 181f 0ebf cd97 0bbf
000000f0: 905b 0d3f c2f8 143f 5ed9 093f 2596 073f
