ppo_highway_agent1.pth (torch, 39748 bytes, 7 tensors)

Network.0.weight f4 [64, 70]
0.038927566 0.10388118 -0.07097978 -0.0473635 -0.0906517 0.071991876 -0.04657967 0.1345907
0.026786873 0.09343197 -0.07971191 0.021793757 -0.07436382 -0.062460516 -0.009447726 0.043475833
0.103980325 0.028561538 -0.03598256 -0.012220441 0.04825902 0.13907279 0.014939165 0.15092495
-0.0624914 0.05861446 0.14804529 -0.10413364 -0.03542165 0.009250364 0.00813012 0.06065551
-0.033983294 -0.015199061 -0.081372015 -0.07211835 -0.030184964 0.15952441 0.009767465 0.10381697
0.046109043 -0.0551944 0.060043886 -0.0718625 -0.026851352 -0.10460051 0.120864384 0.10990294
-0.040593434 0.035509773 0.116223365 0.17514867 0.0046035307 0.059803087 0.1199607 -0.06298974
0.06209357 -0.052865863 -0.022423174 -0.10437131 0.097432405 0.08788871 -0.068511866 0.07590177
0.10541333 0.045298807 -0.03841993 0.070638575 0.11394491 0.11738417 -0.1381992 -0.089851506
0.015089981 0.05216357 0.15160522 0.059239633 0.071131945 -0.15002711 -0.032206602 -0.14011644
-0.061819 0.05856193 0.044788398 -0.12879924 -0.023720862 -0.06519022 -0.081089675 -0.005366347
-0.0021806937 -0.11689275 0.037138604 0.01435146 0.039985407 -0.020819988 -0.068664156 -0.12616864
0.013589179 0.020162242 -0.13932988 -0.1145037 0.053036664 0.12939048 -0.09776713 -0.0761752
-0.11105057 -0.048240513 -0.13576443 -0.15225996 0.042951796 -0.03055503 -0.09504134 0.06433011
-0.11882655 0.062495552 0.019424595 -0.05153375 -0.07761995 -0.040700573 0.0041090273 -0.01774444
0.0009072076 -0.054416563 -0.009300652 0.009854178 -0.16074516 -0.0784967 -0.0760114 -0.10424079
-0.10436005 -0.049201712 -0.07181786 -0.020543182 -0.07765081 -0.05220358 0.039534494 -0.0782954
0.052641716 -0.056858156 -0.021882283 0.06857186 0.05577529 0.018488552 0.07387837 -0.06664572
-0.05482174 -0.11424939 0.13340056 -0.058216885 -0.11374104 -0.16431269 -0.052267443 -0.15317103
-0.08169026 0.048431482 0.007176909 -0.17099763 0.0024514368 -0.034109194 -0.07898014 -0.105911605
-0.033525508 -0.08090981 -0.16386165 -0.17588714 0.04071592 -0.050749402 -0.1117383 0.039933294
-0.1650195 -0.06484591 0.03719115 0.0102997925 0.057584185 -0.01415859 -0.1080308 0.018179718
-0.07071062 -0.1253802 0.15524632 -0.15004158 -0.04461855 -0.028840864 0.027910654 -0.023824938
-0.015035265 0.101508126 -0.082131214 -0.08258184 -0.110073134 0.0073207123 0.037654117 0.009336055
-0.025053129 -0.046766225 -0.1417016 -0.07191451 -0.12708712 -0.016432343 -0.14104772 0.056165554
-0.046033952 0.019603306 -0.08736863 -0.13945787 -0.12669234 0.011362518 0.01627559 0.048806295
-0.0141879665 0.0075837127 -0.04671946 -0.06940663 -0.014676744 -0.07334844 0.053346187 -0.030695641
-0.03892149 -0.10847527 0.053126574 -0.1567318 0.03771276 0.06369506 -0.0026589306 -0.016877316
-0.14940937 0.014551156 -0.14850582 0.012256691 -0.09485886 -0.06353321 -0.007637623 0.05275373
-0.030292323 0.045269992 0.119436406 -0.12876433 0.0077765514 -0.08680847 -0.096486405 -0.010176921
-0.017697878 0.13538994 -0.0925067 -0.045641214 0.049930412 -0.16141932 0.040943205 -0.16208719
0.048142623 -0.07437199 -0.108780086 0.014250856 0.053006068 -0.08058089 -0.13289817 0.0019293753
00000000: 8372 1f3d a8bf d43d d95d 91bd 3b00 42bd
00000010: 99a7 b9bd 7a70 933d 53ca 3ebd 25d2 093e
00000020: 2570 db3c 4359 bf3d ff3f a3bd d288 b23c
00000030: 0f4c 98bd 99d6 7fbd a3ca 1abc b713 323d
00000040: a3f3 d43d e3f9 e93c 7362 13bd 3f38 48bc
00000050: 40ab 453d 1969 0e3e 66c3 743c 128c 1a3e
00000060: fbf6 7fbd b715 703d 2f99 173e 0544 d5bd
00000070: 4b16 11bd d78e 173c 3234 053c e971 783d
00000080: 1132 0bbd 7b05 79bc 5fa6 a6bd c9b2 93bd
00000090: 7546 f7bc 5e5a 233e b807 203c fe9d d43d
000000a0: d6dc 3c3d 8613 62bd 94f0 753d a52c 93bd
000000b0: 5ef7 dbbc cb38 d6bd bf87 f73d cb14 e13d
000000c0: 4d45 26bd b272 113d 8406 ee3d 2c5a 333e
000000d0: 37d9 963b 15f4 743d f5ad f53d c400 81bd
000000e0: d455 7e3d e089 58bd ceb0 b7bc a0c0 d5bd
000000f0: a48a c73d fffe b33d f34f 8cbd 6372 9b3d
00000100: f2e2 d73d 3e8b 393d 375e 1dbd f5aa 903d
00000110: f35b e93d 1d67 f03d 1784 0dbe 1104 b8bd
00000120: f83b 773c 78a9 553d 663e 1b3e 42a5 723d
00000130: a0ad 913d b5a0 19be 12eb 03bd af7a 0fbe
00000140: eb35 7dbd a2de 6f3d 0a74 373d f3e3 03be
00000150: 4152 c2bc 7382 85bd 5812 a6bd 2ed8 afbb
00000160: f8e9 0ebb 7765 efbd a61e 183d 6322 6b3c
00000170: bdc7 233d ae8e aabc cb9f 8cbd 5a32 01be
00000180: 26a5 5e3c 492b a53c 7eac 0ebe ea80 eabd
00000190: f93c 593d f07e 043e 223a c8bd be01 9cbd
000001a0: 7b6e e3bd d897 45bd d505 0bbe 09ea 1bbe
000001b0: 39ee 2f3d 8b4e fabc 09a5 c2bd 81bf 833d
000001c0: 565b f3bd 56fb 7f3d 5420 9f3c 0e15 53bd
000001d0: 35f7 9ebd a5b5 26bd 05a5 863b ca5c 91bc
000001e0: acd1 6d3a e7e3 5ebd c361 18bc 6b73 213c
000001f0: 619a 24be e1c2 a0bd ddab 9bbd 327c d5bd
00000200: b9ba d5bd bc87 49bd 3e15 93bd 2d4a a8bc
00000210: 6307 9fbd 6cd3 55bd ecee 213d 5759 a0bd
00000220: d79e 573d 19e4 68bd 7942 b3bc 676f 8c3d
00000230: a174 643d 4e75 973c 8b4d 973d 8d7d 88bd
00000240: c38c 60bd 96fb e9bd 289a 083e d474 6ebd
00000250: 10f1 e8bd 9641 28be 6316 56bd ded8 1cbe
00000260: 394d a7bd 1760 463d 472c eb3b 011a 2fbe
00000270: 49a8 203b 15b6 0bbd 57c0 a1bd 2fe8 d8bd
00000280: 0b52 09bd 0bb4 a5bd 59cb 27be c21b 34be
00000290: bdc5 263d 9bde 4fbd 0dd7 e4bd 1891 233d
000002a0: dffa 28be efcd 84bd bf55 183d 76c0 283c
000002b0: 65dd 6b3d 6ef9 67bc 413f ddbd a2ed 943c
000002c0: bbd0 90bd ab63 00be e4f8 1e3e 80a4 19be
000002d0: f1c1 36bd ad43 ecbc e2a4 e43c 842c c3bc
000002e0: 7956 76bc 7ee3 cf3d 6934 a8bd ab20 a9bd
000002f0: 066e e1bd 96e2 ef3b 343b 1a3d 41f6 183c
00000300: 383c cdbc f18d 3fbd 391a 11be ea47 93bd
00000310: 2023 02be 1f9d 86bc d06e 10be da0d 663d
00000320: 198e 3cbd 1d97 a03c 53ee b2bd 0bce 0ebe
00000330: a3bb 01be db29 3a3c 6354 853c 1ce9 473d
00000340: a574 68bc cb80 f83b e85c 3fbd 1025 8ebd
00000350: ba76 70bc b537 96bd 8881 5a3d 6d75 fbbc
00000360: 246c 1fbd 4828 debd 409b 593d 4d7e 20be
00000370: b278 1a3d 8e72 823d 7441 2ebb 4c42 8abc
00000380: c5fe 18be f967 6e3c e911 18be 4ad0 483c
00000390: 5d45 c2bd b31d 82bd 0745 fabb 4c14 583d
000003a0: 9b27 f8bc 076d 393d 139b f43d ccda 03be
000003b0: 71d2 fe3b a4c8 b1bd aa9a c5bd 1abd 26bc
000003c0: 24fb 90bc a9a3 0a3e 2774 bdbd 48f2 3abd
000003d0: d583 4c3d 1b4b 25be 10b4 273d 2ffa 25be
000003e0: 3331 453d 5850 98bd 18c8 debd 6c7c 693c
000003f0: e41c 593d 9807 a5bd 7516 08be 18e3 fc3a

Network.0.bias f4 [64]
0.041981608 -0.14231756 -0.1271644 -0.093687 -0.039428856 0.09097966 -0.061461277 0.007843194
0.10258425 -0.16477628 0.12272719 -0.056344517 0.11958195 0.046588212 -0.035488117 -0.0066993525
-0.048281446 0.0438256 0.024967674 0.026094526 -0.0010389109 0.03971655 0.038233913 0.09355219
0.13183992 -0.15449378 0.15700321 0.085734375 0.100940794 0.08318449 0.031196639 0.060214743
0.032989174 -0.14960016 0.0709278 0.017481433 -0.09868528 0.114234604 0.11870892 -0.029354552
-0.047653347 0.031341355 0.15089242 0.11470292 0.019183164 0.026275033 -0.11405901 0.041967247
-0.15716235 0.03134008 -0.15898238 -0.15781856 -0.1576736 0.019994017 -0.034541618 0.048682142
0.06800232 -0.0915022 0.015065788 -0.13045147 0.014546425 -0.027720056 -0.036613356 0.133118
00000000: e8f4 2b3d b2bb 11be 6237 02be f8de bfbd
00000010: 2780 21bd 8b53 ba3d d2be 7bbd bd80 003c
00000020: b117 d23d 1dbb 28be 6558 fb3d 82c9 66bd
00000030: 62e7 f43d 48d3 3e3d fd5b 11bd 3e86 dbbb
00000040: c4c2 45bd 7982 333d 0289 cc3c 30c4 d53c
00000050: 112c 88ba d2ad 223d 2a9b 1c3d 4a98 bf3d
00000060: 0b01 073e 9e33 1ebe 73c5 203e 8195 af3d
00000070: 0cba ce3d a15c aa3d 1890 ff3c bca3 763d
00000080: a81f 073d c930 19be 9842 913d 3935 8f3c
00000090: 821b cabd d5f3 e93d aa1d f33d f578 f0bc
000000a0: 2830 43bd cb5f 003d 8b83 1a3e 5de9 ea3d
000000b0: 0326 9d3c bd3e d73c c597 e9bd d9e5 2b3d
000000c0: 2bef 20be 755e 003d 47cc 22be 309b 21be
000000d0: 3075 21be 7eca a33c 837b 0dbd ed66 473d
000000e0: cd44 8b3d 8165 bbbd 7fd6 763c 1295 05be
000000f0: 2154 6e3c 2c15 e3bc e3f7 15bd 1650 083e

Network.2.weight f4 [64, 64]
-0.17811671 0.13317803 -0.013310095 0.033493545 0.101726234 -0.041194182 0.16752718 -0.09404749
-0.12832174 0.034312267 -0.10028893 -0.022165844 -0.16939719 0.01512559 0.08163542 -0.012972384
-0.033889394 0.16428217 0.1853165 -0.10496577 -0.030233158 -0.12887435 0.12855458 -0.039314095
-0.11886582 -0.030172657 -0.10660085 -0.102462515 0.0028550983 -0.14354311 0.15544485 0.102267206
-0.09422578 -0.032513544 0.18897545 -0.09481713 0.1458835 -0.1393935 -0.2011397 -0.0336719
0.012104939 -0.12032871 -0.08157407 0.030202417 -0.029423743 0.14719449 0.17949265 -0.07697227
0.012110654 0.069781765 0.10445968 0.13973242 0.030329509 -0.0035754542 0.021853864 -0.1949767
-0.055999797 -0.0047991117 -0.1589774 0.08078584 0.028623605 0.03009393 -0.024605103 0.041913632
0.16959071 0.047286917 -0.060459144 0.032061294 -0.0013348378 -0.048664257 -0.10923894 0.071901664
-0.017614132 -0.10945464 0.16136663 0.005088563 0.16173786 -0.047577213 -0.12692495 0.030743672
-0.011751022 -0.036361385 -0.10296766 0.0963746 -0.15177494 0.16711238 0.03953329 0.11579946
0.16432163 0.011183132 0.0014878431 -0.050948173 0.06548825 0.15207988 -0.08334558 -0.064256266
0.1483935 -0.013887055 0.049318556 0.0722701 -0.0325975 0.027441373 0.046454094 -0.11164358
0.024140764 0.18584378 0.088710696 0.058620322 -0.11601127 -0.1983554 -0.081959486 -0.04646046
-0.17291439 -0.07005685 -0.08218959 -0.032067336 -0.13824952 0.07700488 -0.1843194 -0.0015809848
0.020956947 -0.06271476 0.13420561 -0.10307254 0.06724318 0.04220319 -0.094794214 0.028143106
-0.0401399 -0.059548657 -0.014881531 0.1717992 0.124761365 -0.054589905 0.057496283 -0.06627151
-0.044777323 -0.010816655 -0.115390636 -0.0531514 -0.15973033 0.034343027 0.051688638 0.15802328
0.049484774 0.04484203 0.0556537 0.015005613 0.028237175 -0.096122436 0.04552997 -0.17367704
-0.08978979 -0.04454582 -0.12563327 -0.1445697 0.03465491 -0.18866965 0.19401138 0.12271986
-0.14810184 0.17422517 0.026667388 -0.16817334 0.038943473 -0.0032408102 -0.19187471 0.045604825
0.11758537 -0.122283876 -0.04111989 -0.11181738 -0.007115231 0.17365618 -0.023572197 -0.059931938
0.12229016 -0.014887063 0.12565957 -0.03379077 0.1766769 0.08029642 0.05609643 -0.16870044
-0.082184784 0.12358117 -0.1554741 0.058751993 -0.1816189 -0.19924255 0.041786123 0.04907256
-0.06158974 0.09085555 0.020908715 0.024877056 0.04669959 -0.10181464 0.11741299 0.013476386
-0.16740446 0.10379922 -0.107020885 -0.020883847 -0.06597712 0.007474539 -0.010001267 0.06791804
0.09081737 0.036146596 0.039008457 -0.03325734 0.003322331 0.00020732499 0.18453781 -0.081250384
-0.057066478 0.1638609 0.055443585 -0.14850287 -0.10463944 -0.19554968 0.14623515 0.1708711
-0.09917497 0.10437902 0.071985155 -0.15934384 0.09418517 0.0060282326 -0.06343952 0.05566516
0.08658255 0.019049281 0.07053391 -0.034549594 0.12599777 0.040914018 0.13167375 -0.087897964
-0.02393115 0.1015876 0.101934284 0.08093963 0.098456874 0.02548645 0.112121075 -0.0048352424
-0.12987672 0.05947009 -0.060454946 0.050136413 -0.15052594 -0.05901466 0.119636886 -0.11009327
00000000: 3a64 36be d25f 083e 9612 5abc 8730 093d
00000010: d855 d03d 3bbb 28bd 3f8c 2b3e f89b c0bd
00000020: c666 03be 058b 0c3d 4864 cdbd 2595 b5bc
00000030: 7576 2dbe 53d1 773c 7930 a73d 1f8a 54bc
00000040: 9bcf 0abd 9639 283e 9cc3 3d3e 4bf8 d6bd
00000050: 87ab f7bc a3f7 03be d0a3 033e d107 21bd
00000060: ec6f f3bd a62c f7bc 8c51 dabd ded7 d1bd
00000070: 9a1c 3b3b f7fc 12be ef2c 1f3e 7871 d13d
00000080: 72f9 c0bd ec2c 05bd c882 413e 7c2f c2bd
00000090: 7c62 153e 2bbd 0ebe 91f7 4dbe 8ceb 09bd
000000a0: cb53 463c e66e f6bd 4e10 a7bd 0f6b f73c
000000b0: 100a f1bc 27ba 163e eccc 373e a3a3 9dbd
000000c0: c46b 463c bee9 8e3d f5ee d53d 0416 0f3e
000000d0: 9775 f83c 2b52 6abb e006 b33c f9a7 47be
000000e0: 0b60 65bd de41 9dbb f9ca 22be 0c73 a53d
000000f0: 0d7c ea3c 8c87 f63c a490 c9bc a1ad 2b3d
00000100: 30a9 2d3e edaf 413d 02a4 77bd b452 033d
00000110: b9f5 aeba 2c54 47bd aab8 dfbd 2e41 933d
00000120: 834b 90bc c129 e0bd 4b3d 253e f6bd a63b
00000130: 9c9e 253e 53e0 42bd 9df8 01be 27da fb3c
00000140: 5c87 40bc adef 14bd b5e0 d2bd 0c60 c53d
00000150: e46a 1bbe 821f 2b3e a9ed 213d 4428 ed3d
00000160: ee43 283e 7539 373c bb03 c33a 08af 50bd
00000170: b41e 863d d4ba 1b3e 16b1 aabd ca98 83bd
00000180: 77f4 173e 8886 63bc 4102 4a3d 5902 943d
00000190: f584 05bd bbcc e03c a646 3e3d 64a5 e4bd
000001a0: dac2 c53c d54d 3e3e f4ad b53d dd1b 703d
000001b0: 5197 edbd ae1d 4bbe 60da a7bd 534d 3ebd
000001c0: 7810 31be f779 8fbd 0453 a8bd 0a59 03bd
000001d0: 4891 0dbe bcb4 9d3d 3abe 3cbe 0c39 cfba
000001e0: e7ad ab3c 9970 80bd 326d 093e b217 d3bd
000001f0: cbb6 893d 41dd 2c3d 7823 c2bd 5f8c e63c
00000200: bc69 24bd 4be9 73bd aad1 73bc 21ec 2f3e
00000210: e382 ff3d aa99 5fbd 3981 6b3d 5cb9 87bd
00000220: 6d68 37bd 5738 31bc ed51 ecbd 48b5 59bd
00000230: 5990 23be 46ab 0c3d 77b7 533d dbd0 213e
00000240: 8cb0 4a3d 47ac 373d 22f5 633d 1ada 753c
00000250: a651 e73c d7db c4bd a27d 3a3d 65d8 31be
00000260: b6e3 b7bd ae75 36bd 02a6 00be 140a 14be
00000270: 4ff2 0d3d 9e32 41be ebaa 463e 8d54 fb3d
00000280: 02a8 17be 1568 323e 9175 da3c a235 2cbe
00000290: 3183 1f3d c663 54bb ce7a 44be 20cc 3a3d
000002a0: 99d0 f03d f86f fabd 546d 28bd 8300 e5bd
000002b0: e226 e9bb edd2 313e 7b1a c1bc 317b 75bd
000002c0: 4373 fa3d dee8 73bc e7ac 003e 3168 0abd
000002d0: caea 343e 7372 a43d 5fc5 653d cfbf 2cbe
000002e0: 7f50 a8bd 2018 fd3d 9a34 1fbe eea5 703d
000002f0: 4efa 39be 3d06 4cbe ed27 2b3d 4f00 493d
00000300: 8645 7cbd 7912 ba3d c148 ab3c f8ca cb3c
00000310: 1248 3f3d 3284 d0bd 3976 f03d 0fcc 5c3c
00000320: 136c 2bbe af94 d43d c42d dbbd 9a14 abbc
00000330: 031f 87bd faec f43b 5bdc 23bc 9d18 8b3d
00000340: 75fe b93d 740e 143d 55c7 1f3d d938 08bd
00000350: 77bb 593b 6165 5939 7bf7 3c3e 9a66 a6bd
00000360: 8abe 69bd 27cb 273e d018 633d 2311 18be
00000370: 344d d6bd 2d3e 48be abbe 153e d5f8 2e3e
00000380: 3f1c cbbd abc4 d53d f46c 933d 082b 23be
00000390: 28e4 c03d 7b88 c53b 94ec 81bd 2701 643d
000003a0: 3152 b13d 3d0d 9c3c 1574 903d e083 0dbd
000003b0: 8f05 013e 7595 273d 7cd5 063e d903 b4bd
000003c0: 420b c4bc 290d d03d ecc2 d03d adc3 a53d
000003d0: c2a3 c93d f6c8 d03c bc9f e53d f470 9ebb
000003e0: 67fe 04be e996 733d 9b9f 77bd d75b 4d3d
000003f0: 7923 1abe 5bb9 71bd 2f04 f53d 9578 e1bd

Network.2.bias f4 [64]
-0.028478138 0.11558526 0.0548888 -0.046076972 0.0245421 -0.11239279 -0.06967523 -0.09467604
-0.089201145 0.027750527 0.070722386 -0.095080085 0.03422845 -0.037460584 0.062362242 0.08656174
-0.016483445 -0.06571353 0.05122584 0.04775517 0.12284841 -0.056948714 -0.019041028 0.11629298
0.060205806 0.12879993 0.09944138 0.08211942 0.10672511 -0.05378591 -0.07544466 -0.08051329
0.15600267 -0.106764294 -0.053443104 0.048456218 0.019198142 0.09721186 -0.0762032 0.054644268
-0.07187956 -0.0833618 0.15153587 -0.01039842 -0.0026964669 0.08620756 -0.02054339 -0.124969676
-0.024805222 -0.111079566 0.15403384 -0.027287634 0.14699198 0.051615596 0.009867839 0.08470917
0.029650267 -0.026013117 0.06340639 -0.06546992 0.12721825 0.032238655 0.10041702 0.12596288
00000000: fc4a e9bc f7b7 ec3d 14d3 603d 35bb 3cbd
00000010: 840c c93c 312e e6bd e3b1 8ebd 83e5 c1bd
00000020: 17af b6bd 1355 e33c e6d6 903d 59b9 c2bd
00000030: 2233 0c3d 4570 19bd 8d6f 7f3d 4847 b13d
00000040: 4a08 87bc d194 86bd 30d2 513d ed9a 433d
00000050: f297 fb3d 0e43 69bd eefb 9bbc 042b ee3d
00000060: 5d9a 763d 21e4 033e eca7 cb3d 3a2e a83d
00000070: b292 da3d 9d4e 5cbd bb82 9abd 27e4 a4bd
00000080: 2abf 1f3e 3da7 dabd 28e7 5abd 077a 463d
00000090: 6c45 9d3c 0317 c73d 6c10 9cbd abd2 5f3d
000000a0: 9735 93bd 97b9 aabd 382c 1b3e 225e 2abc
000000b0: 35b7 30bb 978d b03d 9d4a a8bc 1af0 ffbd
000000c0: 5234 cbbc af7d e3bd 0cbb 1d3e 518a dfbc
000000d0: 1185 163e e06a 533d b7ac 213c 007c ad3d
000000e0: 1ee5 f23c 7619 d5bc 36db 813d 1815 86bd
000000f0: 8045 023e ae0c 043d 70a7 cd3d 6afc 003e

Actor.weight f4 [5, 64]
0.022338629 -0.024609994 0.04755657 -0.12425689 -0.008662617 -0.025275826 -0.09539766 -0.0064328914
0.024471873 -0.12274645 0.10203743 0.06846232 0.12028207 -0.05374145 -0.09012891 0.07689534
0.116047926 -0.07343107 -0.07522337 -0.013119268 0.10693731 -0.021554193 -0.1200577 -0.052065283
-0.06849869 0.09316776 -0.08915036 0.095794156 0.046689622 -0.011201786 -0.031378098 0.06947936
-0.07493303 -0.048356187 0.1114055 -0.048137914 0.014478501 0.10242187 -0.09802899 0.019356454
0.0066635082 -0.061765287 0.106269576 0.08522866 -0.00950997 -0.011762582 0.07808363 -0.044363733
0.068723366 -0.08300907 -0.10136121 0.079558164 0.08641565 -0.099642634 -0.028731817 0.052857704
0.065166995 0.070812844 0.0839335 -0.057517648 0.02659094 0.109937444 -0.09944432 0.080664925
0.019526998 0.015908616 0.11103895 -0.062062357 -0.021010036 -0.10354739 0.09443447 -0.10163616
0.099623226 -0.10226484 0.0816382 -0.07625251 0.09631845 -0.09472841 -0.062159758 -0.025724396
-0.08422404 0.10848106 0.03484611 -0.07969347 -0.079099245 -0.055045933 0.008671007 -0.046207488
0.08572453 -0.04648966 0.05068039 0.10282442 -0.07872008 -0.08723802 -0.10943839 0.037080992
0.11718602 -0.0906088 -0.002791429 0.08831847 0.10719709 0.08236948 0.02886704 0.007645042
0.020136097 0.12259193 0.017278705 0.060007043 -0.019750848 0.114720784 -0.13540956 -0.054063942
-0.1338809 0.019486997 -0.017838066 -0.116059706 -0.08030444 0.02140609 0.08329671 0.11675286
0.072209835 -0.08318737 0.091658935 0.10847674 0.016293693 -0.10578312 -0.078779005 -0.10063344
0.067276865 0.05729055 0.12683988 -0.01726737 -0.106334664 0.07670503 -0.021823457 0.03512392
0.08641445 0.0027794177 0.0015739617 0.028665459 0.16147539 -0.055820305 0.06023784 0.03545778
-0.15459049 0.075339824 0.03605061 0.105979174 0.04473924 -0.020167502 -0.026351266 -0.13357978
0.041847404 -0.15086205 -0.12268208 0.0669515 0.02006004 0.040228546 0.062206045 -0.15338856
-0.06761728 0.035856582 0.06880963 -0.08089387 -0.057346188 0.026315907 0.11283137 -0.034110513
-0.15873383 -0.09545021 -0.012279944 0.07079581 0.10292307 0.024524875 0.0861885 0.016404731
0.024933964 0.14725186 -0.023042314 0.07459837 0.02651136 0.13703373 0.085022226 -0.057696734
-0.009800206 -0.112348005 -0.015669838 0.14836228 0.055139 -0.1145647 0.054867186 -0.07500926
-0.034364562 0.043162335 -0.10127932 -0.077097416 -0.016955387 -0.04265584 0.06016421 -0.033785176
-0.10828508 -0.11198393 0.12366452 0.057852246 -0.12311885 -0.106266715 -0.08333759 0.11731141
0.06374636 0.037306286 0.06659081 0.018623145 0.087085515 -0.10182986 0.09489403 0.06018399
0.042821046 0.07888934 -0.026100568 -0.057374414 -0.030483719 -0.09000323 0.004059479 0.062994674
0.013838236 -0.007758584 0.046654895 -0.11027504 -0.07790213 -0.110285304 0.120071486 -0.11270082
0.06243575 0.08902515 -0.03437807 -0.016260495 0.098369434 -0.10334342 -0.12926657 -0.017263724
-0.0149082 -0.054045923 0.013546527 0.0668991 0.06478376 0.0367489 0.08421293 -0.054962125
0.009569443 0.03450776 0.03842097 -0.048212912 0.10518472 -0.0951828 -0.05623459 -0.11701258
00000000: 80ff b63c e69a c9bc aeca 423d 657a febd
00000010: a6ed 0dbc 400f cfbc d95f c3bd 01cb d2bb
00000020: 3d79 c83c 7e62 fbbd 00f9 d03d f935 8c3d
00000030: 7256 f63d ff1f 5cbd 8295 b8bd 4e7b 9d3d
00000040: 89aa ed3d 0763 96bd b60e 9abd 33f2 56bc
00000050: f301 db3d 6b92 b0bc d0e0 f5bd 6842 55bd
00000060: 0b49 8cbd bdce be3d 7794 b6bd ba2f c43d
00000070: 9e3d 3f3d b287 37bc 5286 00bd 324b 8e3d
00000080: 7d76 99bd 2311 46bd 9128 e43d 432c 45bd
00000090: 3c37 6d3c 8fc2 d13d 6cc3 c8bd 6d91 9e3c
000000a0: 8f59 da3b 99fd 7cbd dda3 d93d 5d8c ae3d
000000b0: b5cf 1bbc d8b7 40bc 4fea 9f3d bfb6 35bd
000000c0: d6be 8c3d a900 aabd 7796 cfbd 64ef a23d
000000d0: b0fa b03d 7011 ccbd fd5e ebbc 5281 583d
000000e0: 4676 853d 5306 913d 54e5 ab3d a097 6bbd
000000f0: 3ed5 d93c e226 e13d 77a9 cbbd a733 a53d
00000100: 15f7 9f3c c952 823c 6468 e33d 1935 7ebd
00000110: 3d1d acbc a710 d4bd dc66 c13d 9e26 d0bd
00000120: 4307 cc3d 3a70 d1bd ee31 a73d 472a 9cbd
00000130: 9c42 c53d f800 c2bd 3b9b 7ebd f8bb d2bc
00000140: a77d acbd 512b de3d cbba 0e3d 5436 a3bd
00000150: c9fe a1bd d877 61bd d710 0e3c 1044 3dbd
00000160: 5890 af3d f16b 3ebd 3e96 4f3d 9c95 d23d
00000170: fe37 a1bd d9a9 b2bd 3c21 e0bd 3de2 173d
00000180: 39ff ef3d 1b91 b9bd 68f0 36bb 50e0 b43d
00000190: 268a db3d 54b1 a83d 927a ec3c 4383 fa3b
000001a0: 75f4 a43c 7a11 fb3d 128c 8d3c f2c9 753d
000001b0: 88cc a1bc bbf2 ea3d cea8 0abe 2772 5dbd
000001c0: 1318 09be 32a3 9f3c 2321 92bc b6b0 edbd
000001d0: a776 a4bd d35b af3c 7797 aa3d 201c ef3d
000001e0: c0e2 933d 245e aabd aeb7 bb3d 0e29 de3d
000001f0: 5a7a 853c d2a4 d8bd e356 a1bd e818 cebd
00000200: 74c8 893d 7fa9 6a3d 50e2 013e 4d74 8dbc
00000210: fdc5 d9bd 8717 9d3d 1bc7 b2bc 19de 0f3d
00000220: 0ffa b03d e426 363b 644d ce3a d3d3 ea3c
00000230: ce59 253e d5a3 64bd f4bb 763d 2d3c 113d
00000240: f84c 1ebe c44b 9a3d cea9 133d 9c0b d93d
00000250: 7e40 373d 5136 a5bc 9cde d7bc 23c9 08be
00000260: 2f68 2b3d 957b 1abe be40 fbbd de1d 893d
00000270: f454 a43c b0c6 243d c4cb 7e3d e411 1dbe
00000280: ee7a 8abd 5ade 123d 10ec 8c3d afab a5bd
00000290: d6e3 6abd 7594 d73c 2214 e73d 77b7 0bbd
000002a0: 1f8b 22be 667b c3bd d131 49bc 65fd 903d
000002b0: 55c9 d23d 64e8 c83c 9983 b03d 3763 863c
000002c0: 5042 cc3c 31c9 163e 3cc3 bcbc 08c7 983d
000002d0: 5a2e d93c 9252 0c3e 2220 ae3d 6953 6cbd
000002e0: 0b91 20bc b616 e6bd 085e 80bc 48ec 173e
000002f0: 6fd9 613d e6a0 eabd 6abc 603d 749e 99bd
00000300: dbc1 0cbd fdca 303d 886b cfbd 40e5 9dbd
00000310: 06e6 8abc e4b7 2ebd bf6e 763d 5362 0abd
00000320: 91c4 ddbd d557 e5bd d343 fd3d 7af6 6c3d
00000330: bc25 fcbd 5da2 d9bd e6ac aabd f740 f03d
00000340: 748d 823d 7ace 183d c360 883d 918f 983c
00000350: e459 b23d 2c8c d0bd cd57 c23d 7d83 763d
00000360: 1f65 2f3d bc90 a13d dcd0 d5bc 6f01 6bbd
00000370: feb8 f9bc 9d53 b8bd 6105 853b 5a03 813d
00000380: c5b9 623c b83b febb 3419 3f3d e1d7 e1bd
00000390: 278b 9fbd 43dd e1bd 0ae8 f53d b0cf e6bd
000003a0: a1bc 7f3d d152 b63d 05d0 0cbd bb34 85bc
000003b0: ea75 c93d b7a5 d3bd 755e 04be a76c 8dbc
000003c0: 8641 74bc 425f 5dbd 41f2 5d3c 6502 893d
000003d0: 59ad 843d 0486 163d d477 ac3d f71f 61bd
000003e0: 27c9 1c3c 0258 0d3d 4f5f 1d3d e77a 45bd
000003f0: 166b d73d 33ef c2bd 3e56 66bd 4ba4 efbd

Actor.bias f4 [5]
0.06160224 0.085773274 -0.028181024 0.023152677 -0.024924377
00000000: a152 7c3d e6a9 af3d e4db e6bc afaa bd3c
00000010: 352e ccbc

Critic.weight f4 [1, 64]
-0.23302868 0.28939477 -0.23072326 -0.25850457 0.2592447 -0.23146531 -0.21087343 -0.2531356
-0.22999306 -0.26340213 0.32196 -0.30814594 -0.31654447 -0.25356948 0.2221792 0.31447232
0.24576327 -0.22453858 -0.35491228 -0.28263974 0.2501712 -0.26607364 -0.29672346 0.2471893
0.3191956 0.2409162 0.31731004 0.32719624 0.22180918 0.34704006 0.26568344 0.26222807
0.24720939 -0.3409012 0.275094 0.32723713 0.25266936 0.22897515 -0.24927588 -0.3237787
0.24816957 0.27462363 0.27863252 0.3458321 -0.29996622 0.32881278 -0.25760308 -0.25837
-0.2809099 -0.29768294 0.2578806 -0.25312355 0.24315852 -0.3468862 -0.2745854 0.2871068
-0.2867611 0.31418845 -0.3075781 -0.2994697 0.30491865 0.33592686 0.2932052 0.2825341
00000000: 129f 6ebe 8d2b 943e b842 6cbe b65a 84be
00000010: b9bb 843e 3e05 6dbe 34ef 57be fd9a 81be
00000020: 4d83 6bbe a5dc 86be f1d7 a43e 4ec5 9dbe
00000030: 1e12 a2be dcd3 81be f282 633e 8402 a13e
00000040: 5ea9 7b3e 71ed 65be 10b7 b5be 28b6 90be
00000050: 7116 803e ce3a 88be 23ec 97be 311f 7d3e
00000060: 9b6d a33e bdb2 763e 7676 a23e 4486 a73e
00000070: f221 633e 3caf b13e a907 883e c242 863e
00000080: 7524 7d3e 9a8a aebe 1fd9 8c3e a08b a73e
00000090: e15d 813e 7678 6a3e 2d42 7fbe 52c6 a5be
000000a0: 2a20 7e3e 789b 8c3e eca8 8e3e e810 b13e
000000b0: 2c95 99be 265a a83e 8de4 83be 1349 84be
000000c0: 6cd3 8fbe e669 98be ed08 843e 6999 81be
000000d0: 8cfe 783e 119b b1be 7596 8cbe aaff 923e
000000e0: 5ad2 92be 4fdd a03e e07a 9dbe 1854 99be
000000f0: 4c1e 9c3e 9bfe ab3e fe1e 963e 4fa8 903e
