ppo_highway_agent.pth (torch, 39736 bytes, 7 tensors)

Network.0.weight f4 [64, 70]
00000000: a6fa 3e3d f6ea e73d 2108 94bd bc9b 31bd
00000010: 8139 abbd e453 a33d 10ba 27bd 48b4 113e
00000020: ea24 043d 4907 bb3d af8e 8abd 3b05 5f3c
00000030: e978 88bd 4e57 8abd 394f e5ba 6407 4d3d
00000040: df80 e73d 82a7 273d 0efb 31bd 53df 93bb
00000050: c49b 363d 2b4b 163e a0bd b33c 0272 1d3e
00000060: fcc4 48bd 8d64 4a3d 607f 1f3e aa1d ebbd
00000070: 671c e3bc 8782 8c3c 48dc 653c eb70 963d
00000080: b8b7 27bd 485d f5bb b34e b5bd 89ee 83bd
00000090: 9bf8 b2bc 130d 313e 28ef c23c 6e06 c13d
000000a0: fb6b 5c3d afda 7cbd 60bc 8a3d 7b18 82bd
000000b0: 11ca afbc e412 b9bd 8fad e03d 32dd f03d
000000c0: fabc 55bd cffa 303d c556 ff3d 22e4 353e
000000d0: 2f6b 9c3c 7a3f 523d 2bbc 023e 26c0 8abd
000000e0: a8ef 8e3d 9d36 35bd 2bd3 56bc 50dd b6bd
000000f0: abb0 bb3d 31c9 c33d 13ae a2bd 3845 ab3d
00000100: 1308 ea3d 85ee 553d adb7 b5bc 1d1d 813d
00000110: 0733 f93d 4285 f13d 03a7 15be bbb5 cbbd
00000120: 64a8 883c 799a 443d 04e9 123e e3dc 513d
00000130: 82ae 833d a3c3 21be 1b9e 1bbd a5be 0bbe
00000140: 8652 98bd 99c8 8a3d d8c8 163d 051f 01be
00000150: f7b4 01bd 92cf 93bd 0874 b1bd 6a31 98bc
00000160: b0d8 c53b 8db0 ffbd 1d10 293d 89e5 d13b
00000170: 9483 053d 0021 bebc b3cb a9bd 138f edbd
00000180: 2c72 b83b b1af e33c 6bcf 16be c55e fbbd
00000190: 656b 483d de04 ed3d 8897 b9bd 014d acbd
000001a0: 5670 d9bd a423 66bd a6e2 13be e95d 28be
000001b0: 802e e73c 598f a7bc 36ef d2bd 078a 913d
000001c0: 84d0 01be c28d 5c3d b9ad 6b3c 609a 88bd
000001d0: dcd1 87bd 134a 47bd 086e 913c 6f74 d2bc
000001e0: 7d2a 02bc 1c1a 69bd b121 cbbc c66c a03c
000001f0: 3ec0 2cbe 85b1 96bd 52f2 abbd a3f0 e7bd
00000200: a63a e9bd 45fc 85bd 627b 84bd 4d7a e9bc
00000210: 57eb 88bd 0577 76bd 6c59 f83c 2ad5 a7bd
00000220: 96ee 0f3d e991 45bd 3a9d f4bc f7d6 8f3d
00000230: b47c 423d 64e5 0a3c 1728 9b3d 5ad3 91bd
00000240: 208d 7cbd 0419 fbbd 7a38 033e 8b36 88bd
00000250: eb61 f3bd 28de 26be 8adb 88bd edf3 12be
00000260: c958 b8bd aeb5 5b3d 1558 92ba 9990 36be
00000270: b313 7cbb 669e 46bd 6d9d 90bd 67e9 e9bd
00000280: 3187 d4bc 1ab0 b6bd c48b 2fbe 23a3 35be
00000290: 1d4b cb3c 7555 2fbd 91db f5bd 934c 583d
000002a0: 0179 31be d892 96bd 20d8 043d 83e7 abbb
000002b0: 3c5b 813d aafe b7bc b433 cabd 6ffa 213c
000002c0: e558 a3bd b6e5 07be 9d77 0d3e 3b9a 0fbe
000002d0: 17c2 58bd 7bcf b4bc acb4 a03c 5d0b 06bd
000002e0: ff2a 8ebc 0002 ad3d 29c5 93bd d91f babd
000002f0: cd4c c3bd 2efe 7eba ea27 e83c b826 243c
00000300: 6d2c 30bd 2557 16bd ad9a 19be e2af 88bd
00000310: 86a1 0abe 1243 d4bc dc07 18be 12fc 163d
00000320: ec47 20bd e125 393c b1dd 98bd 9a57 17be
00000330: fd9d 0bbe 733d b13b 3c7d 8dbb 3219 673d
00000340: b092 b8bc f7da 053c be15 65bd 117f a3bd
00000350: 7a82 64bc ebb6 a2bd 2d56 313d 31bd 23bd
00000360: ed3d 44bd f204 f1bd 08ce 373d 68ba 27be
00000370: fdc7 ce3c 2bfa 9f3d 63cf 42bc ba2a 94bb
00000380: cb6c 22be ff10 ae3b b87a 21be d622 52b9
00000390: 8773 a7bd 65fc 94bd bfc0 673b 645b 323d
000003a0: a371 21bd a003 143d f056 d83d 3a23 f1bd
000003b0: 0b6f bdba 6626 97bd 5277 d8bd a183 a6bc
000003c0: 29fc c8bc 3927 f93d 8ffb a8bd d5b0 60bd
000003d0: f843 823d 27b9 2ebe 537b fb3c f0d6 2abe
000003e0: c2ba 043d 60ff 80bd e5a7 f1bd f35d b13c
000003f0: fa63 333d a664 b9bd ad16 10be 6a64 59bc
0.046625756 0.11324112 -0.07228113 -0.04336141 -0.083605774 0.07974985 -0.040948927 0.14228928
0.032261766 0.09132249 -0.06765496 0.013612087 -0.06663687 -0.06754933 -0.0017494924 0.050055876
0.11303877 0.040931232 -0.043452315 -0.0045127063 0.044582143 0.14677112 0.021941006 0.15375522
-0.049015984 0.0494123 0.15575933 -0.11480267 -0.027723504 0.017152084 0.01402957 0.07345756
-0.040946692 -0.0074879266 -0.08852901 -0.06441981 -0.02184706 0.17290144 0.02379568 0.094250545
0.053813916 -0.06173199 0.06774211 -0.063523255 -0.021458657 -0.09036806 0.10970604 0.1176094
-0.052182175 0.04320794 0.12467722 0.17762807 0.019094078 0.051330067 0.12767093 -0.06774931
0.069793046 -0.044241536 -0.01311187 -0.08928931 0.09164556 0.095598586 -0.07943358 0.08362812
0.11427321 0.052229423 -0.02218231 0.06304381 0.12167936 0.11792995 -0.14614491 -0.09946772
0.016681857 0.04799888 0.14346701 0.051236045 0.06429769 -0.15797286 -0.037992578 -0.13646944
-0.07437615 0.06776542 0.036812633 -0.1260949 -0.031666722 -0.07217325 -0.08664709 -0.01857825
0.006037794 -0.12484846 0.041275132 0.0064055366 0.032596186 -0.023209095 -0.08290806 -0.11599555
0.0056288447 0.027793737 -0.14727561 -0.12273935 0.048930544 0.11573194 -0.090621054 -0.08413125
-0.106171295 -0.056186333 -0.14441928 -0.16442074 0.028220415 -0.020454096 -0.10299532 0.07106405
-0.12677199 0.05384613 0.01438468 -0.0667007 -0.066318244 -0.048654627 0.017752662 -0.025690285
-0.0079447 -0.056909665 -0.024796339 0.019583117 -0.1687021 -0.07358078 -0.08395828 -0.11325195
-0.113881394 -0.06542257 -0.06468846 -0.0285007 -0.066855125 -0.0601721 0.030316077 -0.08194955
0.035139643 -0.048234854 -0.029860128 0.07023423 0.047482207 0.008477543 0.07576006 -0.0712039
-0.061658025 -0.12260631 0.12814513 -0.06651028 -0.11883911 -0.16295683 -0.06682499 -0.14350863
-0.090013094 0.05364006 -0.0011165167 -0.17828597 -0.003846389 -0.048490904 -0.070612766 -0.11421471
-0.02594337 -0.089203075 -0.1714316 -0.17738013 0.02481609 -0.042806108 -0.120047696 0.052807402
-0.17331316 -0.07352227 0.032432675 -0.005246104 0.0631623 -0.0224603 -0.09873143 0.009886368
-0.0797594 -0.13271222 0.1381516 -0.14023678 -0.052919473 -0.02207159 0.019617401 -0.03272568
-0.017354487 0.08447647 -0.0721534 -0.09088106 -0.09536133 -0.0009727207 0.028339345 0.010018997
-0.043011118 -0.0367042 -0.1500041 -0.06674172 -0.13538179 -0.025910888 -0.14846748 0.036861487
-0.03913109 0.011300535 -0.07464159 -0.14779511 -0.13634486 0.0054089366 -0.0043179076 0.056420512
-0.022530884 0.008169881 -0.055928938 -0.0798322 -0.013947124 -0.07945045 0.043295074 -0.03997535
-0.04791062 -0.11768521 0.04487422 -0.16379702 0.025241846 0.07811388 -0.011890265 -0.004521695
-0.15861814 0.0053120847 -0.1576947 -0.00020040138 -0.08176332 -0.07274703 0.0035362688 0.04354419
-0.039415013 0.03613627 0.10563457 -0.11774297 -0.0014452649 -0.07380371 -0.105696335 -0.020326437
-0.024534302 0.12165684 -0.08251106 -0.05485614 0.0636062 -0.17062818 0.030698454 -0.16683555
0.03240467 -0.06298709 -0.117996015 0.021651244 0.043796517 -0.090524 -0.1407115 -0.0132685695

Network.0.bias f4 [64]
00000000: 047d 4b3d a5de 19be 52b5 0abe a4bb d2bd
00000010: 0f9d 4bbd 6ce2 cd3d 47b7 8ebd 18a7 ac3c
00000020: e833 e43d 678f 32be 66e5 0e3e abb5 83bd
00000030: 203e 023e 1aa4 173d 24b9 37bd e2db 84bc
00000040: 56cd 80bd cd27 0f3d f633 803c 118f 0c3d
00000050: 1a63 31bc 2aae 4c3d 4a22 f93c a507 d43d
00000060: e994 0f3e 4059 27be c51d 293e 5abf c13d
00000070: 45fa e03d e0f1 c53d 8815 a53c 9a27 3d3d
00000080: a995 2b3d b154 23be a917 7e3d 6f25 d73c
00000090: 3d05 ddbd bd4c fb3d 2f67 023e 9c6a 19bd
000000a0: 9474 66bd 3a6f 2c3d 295c 233e e525 fe3d
000000b0: 277f 033c fcea 5f3c 15dd febd 6c52 673d
000000c0: da10 2abe 9434 c43c c7d9 2abe 9404 2dbe
000000d0: 450b 2abe 9c43 053e e0cf 2abd 2e3c 6c3d
000000e0: 033c a73d ecf1 d2bd ec70 cc3c 120d 14be
000000f0: 1124 c33c be9f 92bc 1bb0 3abd 96ec 0f3e
0.04967977 -0.15026338 -0.1354573 -0.10289696 -0.04971033 0.10052952 -0.06968551 0.02107577
0.11142713 -0.17437516 0.13954696 -0.06431135 0.12719011 0.037021734 -0.0448543 -0.01621813
-0.06289165 0.034950066 0.015649777 0.034316126 -0.01082685 0.049970783 0.030411858 0.103530206
0.14021648 -0.1634264 0.16515262 0.094603255 0.10985235 0.096652746 0.020151868 0.046180345
0.041890774 -0.15950276 0.062034283 0.026262967 -0.10792015 0.12270496 0.12734674 -0.037455186
-0.05626352 0.04209826 0.15953125 0.124095716 0.008025921 0.0136668645 -0.12444512 0.056475088
-0.16607991 0.023950852 -0.16684638 -0.16896278 -0.16605861 0.13014072 -0.04170215 0.05767458
0.08165743 -0.10300049 0.02495619 -0.14458111 0.023820909 -0.017898437 -0.045578104 0.14055094

Network.2.weight f4 [64, 64]
00000000: 1b57 46be 3ba7 173e 3f18 683b 401b 523d
00000010: 3035 f73d 8a3e 5fbd fad4 3a3e bb69 ffbd
00000020: a29e 16be 67ea 4e3d 011b 04be 7a13 cdbb
00000030: 1d96 3ebe ff0e 063d b179 c63d 382d 003b
00000040: 7609 43bc ace0 3a3e 0c4f 4e3e 5437 f5bd
00000050: 7578 62bc 0a68 16be 4912 143e ff9a 6ebd
00000060: 880b 0bbe dadb 52bc 8b6d fabd 8b4e f6bd
00000070: 10ac 58bc ae06 2abe 58b4 313e b18d 063e
00000080: 5652 e0bd 8f9e 5cbc ec49 513e 2242 e6bd
00000090: f913 253e 1f64 21be 385e 5dbe 96a4 9bbc
000000a0: 9acb fe3c 79a7 0dbe aa52 c4bd 3081 793c
000000b0: b9d6 7dbb 8ef9 323e 454c 493e bfe5 dbbd
000000c0: bc13 e43c 43ed ab3d f1e2 f93d 2a4a 233e
000000d0: 5e7d 3c3d 36a7 3dbe 3011 2c3d 3569 58be
000000e0: 6c8f adbd 21d4 ea3c bb7e 37be 4d5d c13d
000000f0: 112b 633c 20e5 3f3c 70fe 23bc b62c e23c
00000100: 450f 3c3e ed92 0d3d 71d3 9dbd b230 5d3c
00000110: b8ce a0bc bcba 1fbd 5573 f6bd 4f8a d83d
00000120: ae7d ac3a 8b3e 00be c915 423e d655 16bc
00000130: 5dd1 353e 4610 81bd b813 10be a86c 883c
00000140: 4b2b b6bc 5cee 58bd f0ea ecbd 2fae dd3d
00000150: e95b 2cbe e6b3 3c3e 816d c23c 6c77 0a3e
00000160: 3a9d 3a3e e658 82bb 808c 723c 0d0c 0bbd
00000170: 541c a23d 132e 333e 5ddd d3bd c082 b8bd
00000180: 2f47 253e a537 08bd 9572 1a3d 43c5 b43d
00000190: fb57 37bd 6be9 373d 2777 743d 8539 fcbd
000001a0: 4afb ad3b 1da7 513e 5656 cb3d f244 943d
000001b0: 0935 0fbe dd04 66be db32 c9bd 4386 debc
000001c0: 5b51 40be 7f2a a7bd 03cd cbbd 20a8 51bd
000001d0: 77fb 19be ba8e 2c3e 8161 4fbe e879 643c
000001e0: 1503 763d 062c b1bd 639d 1e3e 08c8 f4bd
000001f0: ddae a13d 00bf 7a3d e3b7 d9bd 2abb 203d
00000200: 9531 6dbd f31e 2dbd aeee 9a3b 6e71 443e
00000210: e8ef 153e 8013 8fbd cbd6 983d cd53 d1bd
00000220: bf97 87bd 8add fd3b 75f2 1abe dda4 0ebd
00000230: 964c 37be 066d 5f3d 6f75 8d3d b2a4 333e
00000240: aa98 8c3d baae 863d 986e 973d f71b 07bb
00000250: 423e 423d af4c eebd febe 833d 60b5 47be
00000260: e293 e0bd 172c ccbc d217 13be b400 29be
00000270: 6a1f 853c a9de 59be 8e6f 5b3e 6079 1f3e
00000280: aaaa 29be 79cf 483e 3957 353d 7fef 40be
00000290: 7c2d 673d 1485 c9bc 1659 56be 9023 803d
000002a0: 2afc 0e3e 877a 11be 8073 6bbd c106 04be
000002b0: 846d aa3c c9dd 503e 2d97 81bb 6121 bebd
000002c0: fa5d 0f3e 2573 d03a 61a0 153e ad75 28bc
000002d0: 5152 473e 578a 82bd 0881 a03d 3d5b 40be
000002e0: b43a f1bd 6ecd 233e f705 36be af59 9b3d
000002f0: 6f76 4bbe 475f 61be 5931 703d 1773 053d
00000300: cb77 9fbd 9c2c d83d 4524 253d 7406 3f3d
00000310: ae5c 8a3d 15e5 e6bd f811 053e 993f c6bc
00000320: 99d3 41be cc0d fb3d d2f8 0cbe 64fd 95bb
00000330: 26ea abbd b6d3 cb3c 788d cc3b 4568 ac3d
00000340: b85a cf3d 0bd6 613d 655d 5b3d ef2c 3fbd
00000350: 6495 b83c 552e a0bc 661b 503e 8903 d5bd
00000360: fb53 9fbd 33e0 393e 9235 253d b5e9 2bbe
00000370: 2b24 f6bd 2a08 63be eae2 2d3e 5e17 4b3e
00000380: 8cda e9bd 4db2 013e 0a3a ae3d 27d1 35be
00000390: 2026 dd3d f011 63bc 28e8 a1bd 9dbc 8c3d
000003a0: 1551 dd3d d531 42bb a80a 703d e8ee 4ebd
000003b0: eb70 1c3e ec84 8f3d 850d 1a3e 79d9 ddbd
000003c0: 674c c5bb f4dd ea3d 9938 f93d 1bff d13d
000003d0: 61e8 e53d 0a73 78bd 8c48 083e fb2b babc
000003e0: 4166 32be 8ae2 ad3d ef7f adbd 12ff 8e3d
000003f0: ffd1 27be 2dc4 a6bd 16da 073e ae4f fbbd
-0.19369166 0.14809887 0.0035414842 0.05129552 0.120706916 -0.054503 0.18245307 -0.12471338
-0.14708951 0.050516512 -0.12900926 -0.0062584253 -0.18611951 0.032729145 0.096911795 0.0019558202
-0.011904111 0.18249768 0.20147341 -0.119734436 -0.0138226645 -0.14688125 0.144601 -0.058253285
-0.13578618 -0.0128697995 -0.12227925 -0.120267 -0.013224617 -0.1660411 0.17353952 0.13139988
-0.10953204 -0.013465538 0.20438355 -0.112430826 0.161209 -0.1576085 -0.21617973 -0.01899938
0.031102944 -0.13833417 -0.095860794 0.015228555 -0.003873272 0.1747801 0.19658001 -0.1073718
0.027841441 0.083948635 0.12201489 0.1594626 0.046017997 -0.18520817 0.04200858 -0.21133883
-0.08474621 0.028665604 -0.17919438 0.09441624 0.013865248 0.0117123425 -0.010009393 0.02760921
0.183652 0.034563947 -0.07706345 0.013500379 -0.019629821 -0.038996443 -0.120337166 0.10573255
0.0013160014 -0.12523858 0.18953623 -0.009175738 0.17755647 -0.06301932 -0.14070022 0.016653374
-0.02223744 -0.052961692 -0.11568248 0.108242385 -0.16831936 0.18428001 0.023733856 0.13522118
0.1822404 -0.0039778827 0.014804006 -0.03394704 0.079155594 0.17498045 -0.10344956 -0.090093136
0.16140436 -0.03325619 0.03770693 0.08826687 -0.04476164 0.04490034 0.059683945 -0.123156585
0.005309497 0.20473905 0.09928577 0.07239713 -0.13985075 -0.22462793 -0.09824153 -0.02716363
-0.18781035 -0.08162402 -0.09951212 -0.051185727 -0.15037332 0.16851321 -0.20252039 0.01394508
0.060061533 -0.08650975 0.15489726 -0.119522154 0.07894681 0.061217308 -0.10630777 0.039240994
-0.057908613 -0.042265844 0.00472816 0.19183895 0.14642298 -0.06986141 0.074628435 -0.10221062
-0.0662074 0.007747357 -0.15131553 -0.034825195 -0.17900309 0.054547332 0.06907164 0.17543295
0.06865056 0.06576295 0.07394141 -0.0020616034 0.047422655 -0.1163572 0.06432913 -0.19502783
-0.109657064 -0.024923367 -0.14364555 -0.16504174 0.016250331 -0.21276344 0.21429273 0.15573645
-0.1656901 0.19610395 0.044272635 -0.1884136 0.05643986 -0.02459959 -0.20932421 0.06256783
0.1396338 -0.14206897 -0.057483196 -0.12893201 0.020804174 0.20397104 -0.003954789 -0.0928371
0.14000693 0.0015903456 0.14611961 -0.010281962 0.19464995 -0.063740425 0.07837111 -0.18784805
-0.11778775 0.15996334 -0.17775713 0.07585465 -0.19869398 -0.22009002 0.05864081 0.03258046
-0.077865206 0.105553836 0.040317792 0.046637014 0.067559585 -0.11274163 0.12995136 -0.024200248
-0.18928374 0.12258491 -0.13766792 -0.0045773257 -0.0839427 0.024881225 0.0062424503 0.08418325
0.10124725 0.055135768 0.053555865 -0.04667371 0.022532173 -0.019553343 0.20322952 -0.10401065
-0.0777969 0.18151931 0.04033429 -0.16788371 -0.12018617 -0.22171083 0.16981092 0.19833133
-0.11418638 0.12665673 0.08507164 -0.17755567 0.107982874 -0.013859257 -0.079056084 0.06871913
0.10806481 -0.0029631753 0.058603913 -0.050520808 0.1527745 0.07007775 0.1504422 -0.10832495
-0.0060210708 0.114681154 0.12168998 0.10253736 0.112259634 -0.060656585 0.13308924 -0.02272605
-0.1742182 0.084904745 -0.08471667 0.069822446 -0.16388701 -0.08142886 0.13266787 -0.12271057

Network.2.bias f4 [64]
00000000: c023 27bd 7f7f fd3d c64f 273d 706f 62bd
00000010: c256 0f3d bb89 fdbd 79ae b1bd 067e d3bd
00000020: 374e d4bd 546a 703c 17dd 9f3d 04fa d7bd
00000030: 4d0a c13c 541f 54bd af32 87bd 31f0 c43d
00000040: f1e0 80bb da2c a1bd cb54 203d f009 183d
00000050: cb6b 0c3e d32a 8abd 741f dbbc b076 fe3d
00000060: b3d0 923d 70ec 143e 54e5 e23d dbfb b43d
00000070: 84ab ef3d da5c 42bd 7cce 89bd 8f58 8bbd
00000080: 0f14 303e 3190 efbd d61b 2dbd 89a0 6a3d
00000090: 251a ed3c 6778 e43d 464f aebd 1d6a 303d
000000a0: 39e8 73bd da67 93bd 3ffe 273e a83a 4138
000000b0: b80f 27bc 90f7 c73d b4b9 eabc aeca 0cbe
000000c0: 8c59 12bd cf29 f2bd c7c1 273e ecf2 24bd
000000d0: 42ed 243e e064 283d fa87 95b9 cb8b bf3d
000000e0: 6dfb a43c f15e 38bc 1c0b 5b3d cf8a 99bd
000000f0: 1c8d 093e 9d3d 303d 0ac5 e63d 9c67 093e
-0.04080558 0.123778336 0.040847562 -0.055282056 0.034994848 -0.123797856 -0.08675856 -0.103267714
-0.10366481 0.014673788 0.078058414 -0.105457336 0.023564482 -0.05178769 -0.06601464 0.096161254
-0.003933065 -0.07869883 0.039143365 0.037118852 0.13712995 -0.06746449 -0.026748396 0.124249816
0.071687125 0.14543319 0.11078897 0.088371 0.11702636 -0.04745183 -0.06728837 -0.068040006
0.17195152 -0.11697424 -0.042262875 0.057282005 0.02894313 0.111557774 -0.08511214 0.043069948
-0.059547637 -0.071975425 0.16405581 4.6069414e-05 -0.010196619 0.09764016 -0.028653003 -0.13749191
-0.03572993 -0.118243806 0.16382514 -0.04027073 0.16106132 0.041111827 -0.00028520805 0.09352835
0.02013942 -0.011253105 0.05347739 -0.07497179 0.13432735 0.04302751 0.11268051 0.1341843

Actor.weight f4 [5, 64]
00000000: e843 013d c4de ebbc 9aaf 613d 12d8 f6bd
00000010: 2f6a 55bc 0851 b4bc 9ff5 bbbd d5c9 06bb
00000020: ee63 033d e779 f0bd 63f8 c93d 2423 9c3d
00000030: b47f 023e ee62 49bd 0572 acbd cc8e 913d
00000040: e1af e63d 6a92 8ebd 76de 91bd 9f95 a3bb
00000050: 689c d43d b32d 61bc 73ba eebd 3068 63bd
00000060: 74ac a1bd 88d2 b83d e5dd c7bd 2c70 b13d
00000070: 4a51 313d 2f30 74bc dada 11bd e751 7d3d
00000080: a499 a1bd b4fb 35bd b53d d73d d7dd 55bd
00000090: 4177 303c 8498 bf3d 62ec c1bd fb7d de3c
000000a0: 5df1 033a 3673 90bd cb0a cf3d 8bd9 a53d
000000b0: 0ba8 85bb e1f2 68bc a871 ac3d a815 1ebd
000000c0: 0438 983d 13b9 a2bd 504c d7bd 8060 b23d
000000d0: 3aff a93d 2058 bdbd ae57 c0bc 2076 493d
000000e0: 75ad 963d d774 8b3d db01 bc3d 92a9 58bd
000000f0: 65aa b73c 07b0 d03d cb13 d4bd b5b7 9d3d
00000100: d459 3db9 68c7 073d fafa ba3d d0d4 a0bd
00000110: a329 f8ba 86eb f7bd 0cb4 9f3d 6601 f4bd
00000120: 47ae a03d 1ae0 f9bd 8566 c83d acc1 c2bd
00000130: bbf8 9e3d 8b47 e5bd b9af e1bd 21f0 c9bb
00000140: 45a6 90bd 4757 ba3d 518b 7d3c cd16 c7bd
00000150: daae 81bd aa21 96bd 3135 0abc 9725 f8bc
00000160: 4f23 d63d 4c3b fcbc eb66 8f3d 8d1f f53d
00000170: 4a8b 7dbd 02cd 8fbd 36ea babd 4c3a 623d
00000180: e82e ff3d 736a ddbd b40e 833c 8f25 d83d
00000190: 0ced 013e 02e7 d03d 0d47 363c 2d3a 39bc
000001a0: 3834 213d aabf 113e 72c2 1b3d af4d 9e3d
000001b0: 9b4f 1bbd d26f 073e 6254 1dbe aede 95bd
000001c0: f579 1bbe b265 6b3b 24d1 6b3a c7ab 0abe
000001d0: 1dce 80bd 992b 4b3b 74bb 823d 5ec8 083e
000001e0: 6e9b 5a3d c548 9abd 8485 963d 6094 b93d
000001f0: 8fd5 073d 420d b2bd 9f50 77bd db11 adbd
00000200: 5604 bd3d 4900 033d 1e6a 1d3e 61c4 f53b
00000210: 34d1 07be 68a2 d03d 9173 2c3b c4a7 743d
00000220: 78a4 e63d 4656 ed3c 1e39 babc c358 5d3d
00000230: 462e 403e fccf fbbc 9c4b 363e b071 1f3c
00000240: 4587 30be 0892 cd3d 2b59 7c3d b0ba 043e
00000250: 36e8 ce3c 37bf a93b 2036 a7ba 8ec7 21be
00000260: f9f5 8b3c 4201 30be 3f3a 19be fed6 363d
00000270: 5339 99bb c9c7 7b3c 1ed3 143d 1ae2 36be
00000280: 1e0c b3bd 3cb7 793d aacb 2f3d 51d8 d8bd
00000290: 6211 adbd 1adb 963a a8ff 0d3e 8947 0bbc
000002a0: ca7c 3dbe 46ac f8bd 4b02 24bd 09ab 3f3d
000002b0: 6aa6 023e df80 2e3b 931f e03d ae13 273d
000002c0: 5141 4e3d 01ae 2f3e 14e5 46bd c6b0 c93d
000002d0: 1614 c23b df98 273e 31d2 e33d 7d76 a9bd
000002e0: 3b63 863c 9ac4 05be e1af 143c ad8c 313e
000002f0: 5843 f53c 65fe 0ebe 71b3 e23c c00f ccbd
00000300: 5ebf bc3a 3e69 a93b 4455 90bd d751 2cbd
00000310: d449 52bd 4428 96bb 39eb c23d 5420 9d3b
00000320: b495 8cbd 2d1a 94bd 749d b83d 1109 b93d
00000330: 8459 bbbd 62ac 87bd b104 35bd 91d2 9c3d
00000340: 3f7e 3c3d 9384 993d 52a6 e13d aecf 5d3d
00000350: 4f79 7f3d f773 89bd b8dd 053e 2286 d73c
00000360: 11ed fd3b a425 473d 2349 6dbd d0c2 b8bd
00000370: 4f95 86bd 1bd5 01be aef2 08bd a1ef 053d
00000380: da58 0c3c 0a5f f73c 42f9 773c ca81 16be
00000390: d475 f3bd 993e 10be 36e7 243e 8693 a3bd
000003a0: 5601 c13c 9a68 643d d139 90bd 0be9 63bd
000003b0: 81cb 0c3e ee50 08be 7490 b4bd 040f 7d3c
000003c0: 51a3 813c 1ec5 adbc 030c ddbc cc37 ce3d
000003d0: 4191 193d ddf2 903d f587 013e 3c77 babd
000003e0: e057 303d 146f e53c b72e 9b3d e4e3 2abc
000003f0: c915 8b3d 3abe 04be 0458 c8bd 9bfd 19be
0.0315589 -0.028792746 0.055099107 -0.12052931 -0.013025804 -0.022011295 -0.09177708 -0.0020567079
0.032077722 -0.11742001 0.09861829 0.0762389 0.12744027 -0.049166612 -0.08420185 0.071073145
0.11264015 -0.0696152 -0.07122509 -0.0049922015 0.103813946 -0.013743806 -0.11656656 -0.055519283
-0.07894221 0.09024531 -0.0975912 0.08663973 0.043290414 -0.014904066 -0.035609104 0.061845686
-0.07890633 -0.044429496 0.105098166 -0.052213516 0.01077062 0.09355262 -0.094689146 0.027159682
0.00050332193 -0.07053225 0.101094805 0.08098134 -0.00407887 -0.014218063 0.08420116 -0.03859487
0.07432559 -0.07945456 -0.10512602 0.08709812 0.08300634 -0.09245324 -0.023479309 0.04918492
0.07357303 0.06809395 0.091800414 -0.05289609 0.022420118 0.101898246 -0.10355338 0.07701055
-0.00018057908 0.033149153 0.09129901 -0.07853091 -0.0018933307 -0.121054694 0.07798013 -0.11914329
0.07845741 -0.12200947 0.09785179 -0.09509596 0.07762285 -0.11195286 -0.110198446 -0.006162659
-0.070629634 0.09098678 0.01547511 -0.09721146 -0.063321784 -0.0733064 -0.008435533 -0.030291362
0.10455953 -0.030789994 0.07002052 0.119689085 -0.061900415 -0.07021524 -0.091267034 0.055231377
0.124601185 -0.10811319 0.015998222 0.10554039 0.12688082 0.10200311 0.011125338 -0.011305374
0.03935644 0.1423327 0.038027234 0.07729661 -0.037917715 0.1322625 -0.1536422 -0.073178634
-0.15183242 0.003591877 0.0008995703 -0.1354209 -0.06289313 0.0031001328 0.0638341 0.13357684
0.053370886 -0.07533411 0.07349685 0.090615034 0.03316265 -0.08693935 -0.06037962 -0.08450671
0.09229343 0.031982694 0.15372512 0.007500217 -0.13263398 0.101872265 0.0026314 0.059730306
0.11261839 0.028971802 -0.022732314 0.054039728 0.18767652 -0.030738823 0.1780228 0.009731695
-0.17239101 0.10037619 0.061608475 0.1296184 0.025257211 0.0051802653 -0.0012757219 -0.1579878
0.017085062 -0.1718798 -0.14963625 0.044638626 -0.004676023 0.015367457 0.03633415 -0.17859688
-0.087425455 0.06096576 0.04291884 -0.10588134 -0.08450581 0.0011509389 0.13867056 -0.008500942
-0.18504634 -0.121422336 -0.04004125 0.04679397 0.12758794 0.0026627106 0.10943522 0.040790252
0.05035526 0.17156221 -0.04855831 0.0984817 0.0059228046 0.1636691 0.11124075 -0.08274553
0.016404739 -0.13063279 0.009075136 0.1733882 0.029939339 -0.13964231 0.027673455 -0.099639416
0.0014400294 0.0051700165 -0.07047513 -0.042070236 -0.05133994 -0.0045824368 0.095175214 0.0047951136
-0.06864491 -0.07231555 0.09014407 0.090349324 -0.09147933 -0.06624676 -0.044193927 0.0765735
0.046018835 0.0749599 0.11018051 0.054153137 0.06237155 -0.06711572 0.1307286 0.026309077
0.007749208 0.04861988 -0.057931077 -0.090215325 -0.06571447 -0.1267895 -0.033434562 0.03269923
0.008566106 0.030196685 0.015135111 -0.14697948 -0.11887708 -0.14086379 0.16103825 -0.07987122
0.023560207 0.05576382 -0.070422776 -0.05564217 0.13749506 -0.13312122 -0.08816615 0.015445475
0.015824946 -0.021212157 -0.026983267 0.10069236 0.03749204 0.070775725 0.1264952 -0.091047734
0.043052554 0.028007068 0.075772695 -0.01043031 0.067912646 -0.1296319 -0.09782413 -0.15038149

Actor.bias f4 [5]
00000000: 4f4d 703d fc4b cc3d e120 53bd fe1f 5dbb
00000010: c119 8fbc
0.058667477 0.0997543 -0.051545028 -0.0033740993 -0.017468335

Critic.weight f4 [1, 64]
00000000: feef fcbe d916 0d3f dcf6 fabe 2280 05bf
00000010: 39b2 043f c454 fcbe e270 f2be 00ab 03bf
00000020: 5845 fcbe fdf1 05bf baba 153f 39fc 11bf
00000030: 6c0b 14bf 91f8 03bf 56f2 f7be eb85 133f
00000040: 8d33 013f bc63 f9be 55eb 1dbf 9f7b 0bbf
00000050: 5025 023f e7dc 06bf e222 0fbf 32a9 023f
00000060: c5cd 143f cc61 ff3e d157 143f f8e4 163f
00000070: 2bdf f73e 3aed 1b3f 8613 073f 20e7 053f
00000080: b957 023f 7181 1abf 7acf 083f e11e 173f
00000090: 7be1 033f f377 fb3e a2f7 02bf afc8 15bf
000000a0: 845c 023f 7585 093f 34f7 093f f0b1 1b3f
000000b0: 7527 10bf 29cc 163f ad00 05bf 64b3 04bf
000000c0: edc4 0abf a39d 0fbf bef1 043f 2825 03bf
000000d0: a886 003f 52e5 1bbf dd3d 09bf 6fac 0c3f
000000e0: 0c4b 0cbf 7d78 133f 03e1 11bf a369 0fbf
000000f0: 5d46 113f f7be 183f 6991 0d3f 71aa 0b3f
-0.4940185 0.5511299 -0.49016464 -0.5214864 0.51834446 -0.4928342 -0.47351748 -0.514328
-0.49271655 -0.5232237 0.5848805 -0.57025486 -0.5782993 -0.5155116 -0.48427075 0.5762622
0.50469285 -0.48708904 -0.61687213 -0.54485506 0.50838184 -0.5268082 -0.559126 0.5103942
0.5812648 0.498793 0.579465 0.5894313 0.4841245 0.60908854 0.52764165 0.52305794
0.50915104 -0.6035376 0.53441584 0.5903149 0.5151593 0.49114951 -0.5115911 -0.58509344
0.5092242 0.53719264 0.5389283 0.60818386 -0.56310207 0.58905274 -0.51954156 -0.5183623
-0.54206735 -0.5609991 0.5193137 -0.5122857 0.5020547 -0.6089679 -0.5361002 0.5495061
-0.5480201 0.57605726 -0.56983966 -0.56020564 0.5674799 0.5966639 0.55300003 0.5455695
