singleTraining.pth (torch, 190228 bytes, 7 tensors)

Network.0.weight f4 [256, 50]
00000000: cf15 393a 7d56 523d 08f3 e7bd aae2 683d
00000010: cbf7 9bbd aec4 373d f38b 853d 8704 51be
00000020: f3b0 793d 869b 903c 5df1 4d3c 8e72 973d
00000030: 327a f53d a478 fb3c 0e37 ba3d e824 90bd
00000040: 4865 19be b97d b83d 89ac 0c3a 918d 613c
00000050: 531d a13c fcdd 0ebe a7d7 e73d 755e 81bc
00000060: 8cb1 83bd 0d38 ecbc 142c e5bc 0351 97bd
00000070: f7f6 913d 1830 3c3d 1ff6 46bd 1693 b9bd
00000080: 830e 84bd 58eb 8f3d d0c1 9abd 06b6 6bbc
00000090: 3baa dc3d 759d 383d 6bba 03bc 0878 f73d
000000a0: 3408 34bd 3b48 f5bd 6c13 54bd ea0b 8b3d
000000b0: b683 94bd 7910 bbbd a51a 183e ddbd a93c
000000c0: a6d8 b4bc 8da9 3d3d d12f 713d d20d c0bc
000000d0: b350 4ebd b5df 003e c525 af3d 53ac 4a3d
000000e0: fab2 17bd f085 aebc a4f9 a6bd a846 be3c
000000f0: 784a eb3c bd20 193d 05cb 083d 983e 923d
00000100: e08b f8bd 7b19 5c3d 861c b73d c3a5 df3d
00000110: 5780 0ebd b50f db3c 6352 ca3d 9802 19bd
00000120: 2d70 d33d 6011 273e 866b c2bd 74d4 00be
00000130: 901c af3d 8b1b 4abd 0d32 4fbe 3d6b 17bd
00000140: e5c9 553d 9266 8d3c cb16 753d ebe8 1fbe
00000150: 731f 24bd bc9d 1d3e d81e b8bd 3d11 bf3d
00000160: 4b1f 0f3c a6b7 a33b 9ce0 09be f3f8 ecbc
00000170: 4b9d b7bb 9334 5c3e 2e50 113e 4445 68bd
00000180: 3cfd 653d feeb 22bd 8c30 0c3e 9207 043d
00000190: c255 07bd e618 efbd a137 673d b603 2ebe
000001a0: dcf5 ddbd b1d1 2cbd 8b88 e93d edb6 aabd
000001b0: 84f1 8e3d d7d2 593d 25f8 babc 83a8 0b3e
000001c0: 2173 473e 6e75 a3bd 418b 72bc acb3 383d
000001d0: 24fc 38bd 06a7 c1bd 7e29 183d 817d 4ebd
000001e0: d58a a73d e92c d8bd 68a1 18bd 2b86 1fbb
000001f0: 8da9 ffbb a454 09be 0722 15be ee8f 463d
00000200: a1ff 0bbd 97f7 123e 0d97 6bbd 4335 bc3d
00000210: 5a21 f43d ca7d 1e3d 0e95 48bd 21e0 a93d
00000220: b7b7 5bbd 9eb7 95bc 60af d23d 7be1 15bd
00000230: c231 abbc 84f1 bbbd 2a94 acbd cb87 9b3d
00000240: 1736 e53c 2405 8a3d 443a ee3d dd5a 15be
00000250: e896 8b3d 2d8b 683d 4cab dd3c bdf8 8ebc
00000260: 3944 923d 829a 8f3d 2a67 2fbe 0edb f53d
00000270: 27c7 7d3b 389f cb3c 8a5e 263d fa04 703c
00000280: 625e 73bd e7d0 2c3d 6749 f8bb 42c6 b73d
00000290: 8f41 363d 5654 ddbd cea7 99bd b71a 853d
000002a0: d507 b13a 1bc3 623d ef15 653c 2fef 33bc
000002b0: b3a7 653c 1843 0ebd cb9a 4abd 1bef 67bc
000002c0: e009 493e 7868 bebd a55c 543d 96c5 be3c
000002d0: 108e 36bc 4b97 e1bd 4b5b a93c cc0b 163e
000002e0: 39d9 adbd 7356 7cbd 8562 31bd 0586 29be
000002f0: 9de6 08bd 362a 23be bf2d 2fbe b151 fe3b
00000300: 03c4 0bbe dc99 b53c 4199 0abe a095 4a3e
00000310: e7b1 463e da84 f1bd aea3 1c3d 2a75 e0bd
00000320: a436 97bd 9d42 453d b30f 883c bde8 80be
00000330: 0320 453d 7b65 df3d 6d76 88bd 4310 6d3e
00000340: 8c6c 443a a50a a4bd 077c 2f3d d352 013c
00000350: 45cc 453d 22d9 bcbd ac4e 9a3d 7a65 c7bd
00000360: b12b bbbd a356 aa3a a745 dcbc 5263 86bb
00000370: 858a 9d3d 1d10 a53d 494f d6bd 8de2 aebc
00000380: 7dd2 7d3d 54c8 163d 154a b13d 6bfb bebd
00000390: 312a b2bd a197 36be d520 afbc 8982 b53d
000003a0: 2a33 33bd bddd cc3d 5e2c 463d 9c39 21bd
000003b0: 7f66 3ebd 755c a13d 9f93 2a3e cbed c03d
000003c0: ae6e 90bd 72ae 493e b79a 1a3e d55e dfbd
000003d0: b7a7 bdbd 7497 08be 14b1 adbc 5933 05bd
000003e0: 6d16 00bd 5ab7 c8bc 7afd 87bc 4d04 533e
000003f0: f3c8 89bb fc0e 383e 57cf 45bd 9c1d 313e
0.00070604397 0.051352013 -0.113256514 0.05685679 -0.07615622 0.044865303 0.06520834 -0.20411883
0.060959768 0.017652284 0.0125697525 0.073948964 0.119861975 0.030697174 0.09092532 -0.07038289
-0.14980042 0.09008355 0.0005366286 0.013766662 0.019667303 -0.13951868 0.11320429 -0.015792111
-0.06430349 -0.02883532 -0.02797512 -0.07388499 0.07127183 0.045944303 -0.048574563 -0.090612575
-0.064480804 0.0702731 -0.07556498 -0.0143866595 0.107746564 0.045072038 -0.008040051 0.12083441
-0.043953136 -0.119766675 -0.051776335 0.06789382 -0.07251684 -0.09134001 0.14853914 0.020720417
-0.022075962 0.046304274 0.058883492 -0.02344409 -0.05036993 0.12585337 0.08552126 0.049480747
-0.03703592 -0.0213041 -0.08153084 0.02322705 0.028722033 0.037384737 0.03339674 0.07140845
-0.12136054 0.053735238 0.08940987 0.109202884 -0.034790363 0.026740888 0.09878995 -0.03735599
0.1032413 0.16315222 -0.09493165 -0.12581044 0.0855037 -0.049342673 -0.20233937 -0.036967505
0.052194495 0.017260823 0.05983619 -0.15616195 -0.040069055 0.15392202 -0.08990258 0.0932946
0.008735488 0.004996258 -0.13464588 -0.028927302 -0.0056034676 0.2150443 0.14190742 -0.05670668
0.056149706 -0.03977584 0.13690394 0.032233782 -0.03304077 -0.11674671 0.056449536 -0.16993603
-0.108379096 -0.042192165 0.11402997 -0.083356716 0.06979659 0.05317959 -0.022823403 0.13638501
0.19477512 -0.07981382 -0.0148037085 0.045093223 -0.045162335 -0.09455685 0.037148945 -0.05041266
0.08180777 -0.10555441 -0.037263304 -0.0024341445 -0.0078021945 -0.13411194 -0.14563762 0.048477106
-0.034179334 0.1435226 -0.0575171 0.09189846 0.11920424 0.03869418 -0.048970275 0.08294702
-0.053642 -0.018276032 0.102873564 -0.036591988 -0.02089775 -0.09176925 -0.084266976 0.0759426
0.027979894 0.06739262 0.11632207 -0.14585443 0.068158925 0.056773353 0.02705922 -0.017452592
0.07141919 0.07011892 -0.17129198 0.12004672 0.003872344 0.024856195 0.040617503 0.014649624
-0.059416182 0.042191412 -0.0075771096 0.089733616 0.044496115 -0.108071014 -0.07502709 0.06499236
0.0013506362 0.05536185 0.01398228 -0.010982319 0.014017033 -0.034731954 -0.04946403 -0.014156128
0.19632673 -0.092972696 0.051846165 0.023287576 -0.011142269 -0.11015185 0.020673415 0.14652938
-0.084886976 -0.061605882 -0.043306846 -0.1655503 -0.033423055 -0.15934071 -0.17107294 0.007761203
-0.13648991 0.022168092 -0.13535024 0.1978364 0.19403802 -0.117929175 0.038242035 -0.10959847
-0.07383469 0.04815923 0.016609048 -0.25177565 0.048126232 0.10908028 -0.06663213 0.23150735
0.00074929814 -0.08009843 0.04284289 0.007893282 0.04829051 -0.09221102 0.07534537 -0.09736152
-0.09139193 0.001299579 -0.026888682 -0.0041011954 0.07692436 0.08059714 -0.10464341 -0.021348262
0.061968315 0.03681214 0.08656708 -0.09325298 -0.086994536 -0.1783128 -0.02137796 0.08862788
-0.043749966 0.10003231 0.048382156 -0.03936158 -0.046484467 0.07878963 0.16657875 0.094203554
-0.070523605 0.19695452 0.15098082 -0.1090676 -0.09260505 -0.13339025 -0.021202601 -0.032519672
-0.031271387 -0.024501491 -0.01660036 0.2060711 -0.004204863 0.17974466 -0.048293438 0.17296451

Network.0.bias f4 [256]
00000000: 0000 0000 3118 fb39 cb8f 38b9 1285 f4b9
00000010: ea44 fbb9 317a fbb9 b2f6 dfb9 4004 fcb9
00000020: 0000 0000 be2d fd39 a827 fc39 445f e8b9
00000030: 1c7d f439 4151 f8b9 35fe f939 1497 fab9
00000040: 1966 fd39 0000 0000 d82a fd39 0000 0000
00000050: 82db fc39 f388 f1b9 2936 ac39 060d fc39
00000060: fa97 fbb9 156a f6b9 0000 0000 f904 fc39
00000070: 0000 0000 9f40 fd39 76c6 f9b9 5817 fbb9
00000080: b0b3 fe39 808c f4b9 a577 ff39 0000 0000
00000090: 8adb fc39 0000 0000 aeb2 fb39 c80e fc39
000000a0: 0000 0000 0000 0000 1088 fab9 68b6 fb39
000000b0: 21f0 bc39 c317 fc39 dc0c fd39 98cb fb39
000000c0: 48a5 fb39 36e3 fb39 0786 f9b9 c8e6 7036
000000d0: 0ea8 fbb9 0000 0000 0000 0000 a024 fbb9
000000e0: a61d f639 7942 f9b9 8e8f fab9 0000 0000
000000f0: 3317 fc39 e7d0 fb39 4cfc fcb9 d442 fb39
00000100: c4c7 f9b9 a210 fc39 9694 fbb9 0000 0000
00000110: a167 aeb9 8136 f2b9 c2f4 fe39 5f2c fbb9
00000120: 88a7 f3b9 0000 0000 c81e fd39 0000 0000
00000130: 0000 0000 8e7a f539 700b 5139 0979 fd39
00000140: 2add f8b9 86dc f8b9 222c fc39 91eb fab9
00000150: d0e7 f5b9 2457 fc39 4eba be39 e4ee fab9
00000160: e166 fbb9 dbba fa39 f34d f8b9 a81f fc39
00000170: 0000 0000 5cb7 ee39 0000 0000 0000 0000
00000180: 0000 0000 ce9d f7b9 993e fab9 ee8e fbb9
00000190: 6bd2 fb39 e2c3 e8b9 47d7 f639 5ce5 fa39
000001a0: 7825 f8b9 aadc b1b9 f580 fb39 d8cb f9b9
000001b0: e432 d939 6753 ce39 0000 0000 82fd fb39
000001c0: 5e2c fb39 3c36 fc39 9e89 fa39 0000 0000
000001d0: 0000 0000 8f27 fc39 4cd2 f6b9 afbf f839
000001e0: 0000 0000 df27 fc39 0000 0000 0000 0000
000001f0: 0000 0000 a06d fb39 4f97 fc39 bf61 fab9
00000200: 859a fbb9 68ff fc39 3371 fc39 818b fa39
00000210: 0000 0000 021b bab8 0000 0000 3c68 fa39
00000220: 6a51 fa39 b05e edb9 9cb7 d339 0000 0000
00000230: 0000 0000 0000 0000 4264 fdb9 3e4e f9b9
00000240: 8448 fbb9 0000 0000 0000 0000 0000 0000
00000250: 19aa fab9 a9db fbb9 d246 f4b9 d05c fbb9
00000260: 0000 0000 6358 fab9 0000 0000 26ca fb39
00000270: f951 efb9 6d69 8e39 ee83 a6b9 3d74 fab9
00000280: 665b fd39 e72d fc39 2eef fab9 6ee4 efb9
00000290: 1a0f b5b9 a132 fbb9 7353 fb39 1784 eeb9
000002a0: 9d70 fbb9 0000 0000 0000 0000 492e f7b9
000002b0: 2e52 fbb9 0000 0000 26d2 fbb9 ce97 ce39
000002c0: e76c fb39 ae33 fc39 704c fc39 bc99 fb39
000002d0: 0000 0000 9adc fc39 452d fb39 8a6c fbb9
000002e0: 0000 0000 c42d f7b9 0000 0000 0fc1 fab9
000002f0: 0000 0000 0000 0000 646b c8b9 942d fb39
00000300: 0000 0000 a8c2 fb39 acac f9b9 0000 0000
00000310: b44b e7b9 503e f8b9 db1e fc39 48bd f839
00000320: 6de0 fab9 96a5 f9b9 20f7 f9b9 0000 0000
00000330: 28a5 fb39 da05 fab9 0000 0000 8472 fa39
00000340: d812 fbb9 dbee fb39 e752 fb39 0000 0000
00000350: 60c4 f9b9 6064 fd39 ae9e fab9 36a1 fb39
00000360: a051 f4b9 0000 0000 dbb8 fa39 3441 fb39
00000370: c853 fb39 fc89 fbb9 0000 0000 d0ee fab9
00000380: 0924 fc39 6106 fbb9 62e5 fb39 3509 f1b9
00000390: c779 fab9 f1eb fab9 0000 0000 0000 0000
000003a0: 1248 fab9 54b4 f9b9 0000 0000 e881 fbb9
000003b0: 9d5a d2b9 a3d0 fb39 6677 fc39 0000 0000
000003c0: fed9 fc39 ef39 fe39 45ac f639 3057 f239
000003d0: 03ab f939 0000 0000 c48b fc39 927f f4b9
000003e0: 0000 0000 7778 f9b9 1e51 fe39 80b6 fb39
000003f0: e117 fb39 b37c fbb9 0000 0000 d489 f0b9
0.0 0.00047892475 -0.00017601174 -0.00046638452 -0.00047925796 -0.0004796549 -0.00042717677 -0.00048068352
0.0 0.0004829 0.00048094732 -0.00044321467 0.0004663252 -0.00047362785 0.0004768238 -0.00047796278
0.0004833199 0.0 0.00048287841 0.0 0.00048228732 -0.00046069137 0.0003284675 0.0004807489
-0.00047987682 -0.00046999814 0.0 0.0004806889 0.0 0.00048304067 -0.00047640846 -0.00047891843
0.00048580533 -0.00046643987 0.00048726532 0.0 0.00048228755 0.0 0.00048007577 0.00048076198
0.0 0.0 -0.0004778509 0.00048010354 0.00036037064 0.0004808289 0.000482655 0.0004802614
0.00047997595 0.00048043736 -0.0004759284 3.589712e-06 -0.0004799966 0.0 0.0 -0.00047901738
0.00046942866 -0.00047542507 -0.00047790672 0.0 0.0004808247 0.00048030095 -0.0004825316 0.00047924242
-0.00047641818 0.00048077578 -0.00047985156 0.0 -0.00033265076 -0.00046198445 0.00048629014 -0.0004790751
-0.00046473392 0.0 0.00048278854 0.0 0.0 0.00046821352 0.00019936054 0.000483461
-0.00047467026 -0.0004746655 0.00048098067 -0.00047859226 -0.00046902755 0.0004813011 0.00036378432 -0.00047861703
-0.000479511 0.00047822934 -0.00047360323 0.0004808877 0.0 0.0004553151 0.0 0.0
0.0 -0.00047229085 -0.00047730355 -0.00047980942 0.00048031224 -0.00044396432 0.0004708117 0.00047854602
-0.00047330162 -0.00033924478 0.0004797053 -0.00047644856 0.00041427382 0.0003935352 0.0 0.0004806333
0.00047907507 0.00048105593 0.0004778625 0.0 0.0 0.0004809466 -0.0004707746 0.00047445062
0.0 0.00048094892 0.0 0.0 0.0 0.00047956128 0.0004817792 -0.00047756542
-0.00047989577 0.00048255478 0.00048149526 0.00047787654 0.0 -8.874202e-05 0.0 0.00047761376
0.00047744374 -0.0004527471 0.00040381856 0.0 0.0 0.0 -0.00048330618 -0.00047551276
-0.0004792848 0.0 0.0 0.0 -0.00047810448 -0.0004803811 -0.00046592072 -0.000479436
0.0 -0.0004774957 0.0 0.00048025063 -0.00045646707 0.000271629 -0.00031760283 -0.0004777032
0.00048324018 0.00048099385 -0.0004786192 -0.00045755826 -0.00034534262 -0.00047912172 0.00047936625 -0.00045493312
-0.00047958354 0.0 0.0 -0.00047145996 -0.0004793568 0.0 -0.00048031023 0.00039404485
0.0004795559 0.0004810369 0.00048122136 0.00047988992 0.0 0.00048229547 0.0004790818 -0.0004795532
0.0 -0.0004714561 0.0 -0.00047827556 0.0 0.0 -0.00038226985 0.0004790841
0.0 0.0004801948 -0.00047621632 0.0 -0.00044116157 -0.00047348673 0.00048088175 0.00047443272
-0.00047850926 -0.00047616352 -0.00047677103 0.0 0.00047997502 -0.00047688076 0.0 0.00047769037
-0.0004788849 0.00048052412 0.00047936218 0.0 -0.00047639292 0.00048330706 -0.0004780194 0.00047994562
-0.00046600122 0.0 0.00047821444 0.0004792303 0.00047936873 -0.00047977257 0.0 -0.00047861645
0.00048092034 -0.00047879203 0.00048045354 -0.00045973962 -0.00047774447 -0.00047859506 0.0 0.0
-0.00047737412 -0.00047627336 0.0 -0.00047971238 -0.00040121833 0.00048029897 0.00048154144 0.0
0.00048227602 0.0004848982 0.00047049127 0.00046222797 0.00047620395 0.0 0.0004816932 -0.00046634354
0.0 -0.00047582734 0.00048507092 0.00048010424 0.00047892242 -0.0004796736 0.0 -0.00045879057

Network.2.weight f4 [128, 256]
00000000: 6798 07bd 71b2 f53d 2e06 e6bd baa7 e4bd
00000010: bcfa 40bd ab58 463d 7870 bfbb 10da f9bd
00000020: 5f0d 073e 750c dfbd 3eec 08be 6922 22be
00000030: cf78 723d 8eb8 30bd b1f6 ecbc 5912 213d
00000040: 3b13 3abe a03f c23d 9ff8 c73b 6db7 efbd
00000050: 298b c2bc 9462 f13d d4ce 943a af4a 7d3c
00000060: c293 e93c af3d e4bc b6f8 fe3c 7d70 c8bd
00000070: 02ee 9f3c 13b2 683d 7940 e3bd 882d 043e
00000080: 8cef e63d 0053 603d 7aed 05bd 84ee adbd
00000090: 7c31 6fbd 4523 26be 173b 9f3c 38fb 0f3e
000000a0: 695e b1bd 0660 bcbc 2a6f 973d 491f d3bd
000000b0: 99b1 f2ba 28cc 6abe e640 1f3d a27a 6bbc
000000c0: a507 1cbe 1d24 e73c 227a 773d 0718 13be
000000d0: bec0 64bc 18e9 f03d 2e73 fd3d 027e 9b3c
000000e0: b932 c439 0f27 97bc 055b 313d f146 4bbc
000000f0: 54d6 003e 47ee 0a3d 06f4 71bd 5e3a 09be
00000100: 5484 783d 9782 b23d 6a96 c8bd 9158 783d
00000110: 5be9 24bd 7545 363d 0949 b93d 8348 153c
00000120: 9495 86bd 3fb0 a6bd 6441 bf3d 1411 adbd
00000130: 25f9 ac3d 51f9 30be bb5c 61bd b623 a8bc
00000140: b2d2 263d 305b 943d eb39 133d 9cd8 30bc
00000150: eb84 ecbc 74c1 4fbd 4aff b6bd 695a 20bd
00000160: 06cf 50bd 33ac 233d fe9b f2bc 7d71 4fbc
00000170: e723 f036 7b3f 723e 9c31 173c 0ad1 b9bd
00000180: da64 e63d c99b 9fbe 7e40 d0bd c99a 09bd
00000190: 340a 10be a7f3 1c3e 275a 78bd 1213 b03d
000001a0: 83bc 0bba 8e01 5b3d 06ee 833d 8d55 afbc
000001b0: 4bfd 9c3c b651 16bc 3176 8abd 69d7 a53d
000001c0: 1479 b5bd 3d55 06be 9895 adbd f214 6c3d
000001d0: e672 4dbc b1d0 a8bd 751e f8bd 0871 b9bd
000001e0: b288 10be 861e bdbc f7bb 8a3a 6257 06be
000001f0: b353 82bc 9517 04be 677d 9dbc a61f 47be
00000200: 1a22 56be 197c 903c 0052 153e 1860 8bbc
00000210: a84a 56bd ae22 393e 6776 173d fced f6bc
00000220: eab8 efbc 73be 0dbe 8d06 ee3d c9b0 0bbe
00000230: fdd0 a8bd 100f c03c 4396 febd dc55 c73d
00000240: fea0 043e 80f4 d5bd 4ad5 2bbe dd3c fbbd
00000250: 15ec 99bd 9b9b 6abb 5862 3dbd 8527 19be
00000260: e5ec a4bd 4765 87bd a2f8 403c 3fe5 de3b
00000270: 231b 4a3d 2d05 c13d 6998 f93c af2d 793c
00000280: b30f 393e d770 23bd 468f 503d ffcd b53d
00000290: cce9 c0bd 1cd9 e0bd 03fe 473b 72d2 0e3d
000002a0: ea13 c43d 32e3 1bbc 4a4c 8ebd 3548 0abd
000002b0: 2a8c 763c a45c 21bc 00c7 4cbd c2f6 22bd
000002c0: c4ef 973c fca8 c93d 44ad 903c 40f5 003d
000002d0: 4729 bcbc 01b3 993d ce42 5c3d 578d 033d
000002e0: ab57 d33d 3705 b73c 9b42 99bd f14b 1f3d
000002f0: a80e 373e 484c c5bd 89bc 1f3d cd42 1a3d
00000300: 26c2 ca3c 4059 14bd c69a 853d ae6c 74bd
00000310: 4f4f e1bd 1bf2 f5bc 196a 763d 7766 75bd
00000320: 1db2 a53d fba0 023e f623 4d3c 1f59 063e
00000330: 697d 773d bcce 0cbe 9d8b 9c3d 7351 f83a
00000340: 19fa 89bd e7bf 2f3d 1460 9abd c3b0 503c
00000350: 082e 083c a482 bb3b 115a f33c 0d18 c8bb
00000360: 882a bb3c d788 483d 8486 1bbd 9c94 07be
00000370: cc92 81bd 93eb 493d e5de d53d 4819 ac3d
00000380: b214 593e 9e96 923d aa53 193a 5b89 483d
00000390: c89b 63bd 226d 09be db98 05bd f2e4 903d
000003a0: 64fc e53d 4149 4abd f403 12be 2701 cbbd
000003b0: b2d3 28bd dcab 433d da05 903b fa61 373d
000003c0: 0717 873d d5ff 32bd a45d 1c3e 2d9f c2bc
000003d0: e943 09be 33da 863d 2d17 00be 75c7 e5bd
000003e0: 937e d83c df00 2ebc a468 6d3d 7a58 133c
000003f0: a98c 37be 4243 553d 6638 0ebd 5f7f 383e
-0.033104327 0.119969256 -0.112316474 -0.11164804 -0.04711412 0.048424404 -0.0058422647 -0.12199795
0.13188694 -0.10891048 -0.13371369 -0.15833439 0.059197243 -0.043144755 -0.028926225 0.03932414
-0.18171398 0.09484792 0.006102636 -0.117049076 -0.023747997 0.117863804 0.0011353143 0.0154597005
0.02851284 -0.027861444 0.031124454 -0.097870804 0.01952267 0.05681045 -0.110962816 0.12907994
0.11276159 0.054766655 -0.03269718 -0.08492759 -0.0583968 -0.16224392 0.019437356 0.14060676
-0.086605854 -0.022995006 0.0739425 -0.103087015 -0.0018516063 -0.22929442 0.03888025 -0.0143725
-0.15237291 0.028215462 0.06041921 -0.14364634 -0.013961969 0.11763209 0.123754844 0.018980984
0.00037421825 -0.018451242 0.043299694 -0.0124070505 0.1258176 0.033918645 -0.05907061 -0.13401172
0.060673073 0.08716314 -0.09794314 0.06063134 -0.040261608 0.044499833 0.090471335 0.009111526
-0.065714985 -0.08139085 0.09338644 -0.08450523 0.08445958 -0.17282607 -0.055020075 -0.02052484
0.04072828 0.07243955 0.035943907 -0.010793831 -0.028871974 -0.0507216 -0.08935411 -0.03914872
-0.050978683 0.039959144 -0.029615398 -0.012661335 7.156737e-06 0.23657028 0.009228136 -0.09073074
0.11249705 -0.31173542 -0.10168551 -0.03359488 -0.14066392 0.15327321 -0.06063285 0.085973874
-0.00053305196 0.05346828 0.06441884 -0.021403098 0.019163748 -0.009174755 -0.067608245 0.08097727
-0.088609844 -0.13118453 -0.08475798 0.057637163 -0.012539601 -0.0824293 -0.12115184 -0.09054762
-0.14114645 -0.023085844 0.0010584582 -0.13119271 -0.015909052 -0.12899621 -0.019224836 -0.19445667
-0.20911446 0.0176373 0.14582062 -0.017013595 -0.05231729 0.18079636 0.03697815 -0.030142777
-0.029262979 -0.13842182 0.11622343 -0.13641657 -0.08242986 0.023444682 -0.12431004 0.09733173
0.12952039 -0.10447025 -0.16780582 -0.12267468 -0.07515732 -0.0035798314 -0.046236366 -0.14956482
-0.080529965 -0.06611114 0.011778029 0.0068022306 0.049342286 0.09424815 0.030468183 0.015208646
0.18072395 -0.039902534 0.050917886 0.08877181 -0.09419593 -0.1097891 0.0030516393 0.034868665
0.09574111 -0.009514617 -0.06948145 -0.03376027 0.015048066 -0.009848747 -0.04999447 -0.039786108
0.018546946 0.09846684 0.017660744 0.03148389 -0.022968901 0.075048454 0.053774647 0.032117214
0.10319456 0.022341354 -0.07483407 0.038890783 0.17876685 -0.0963369 0.03899816 0.037661362
0.02475078 -0.036217928 0.06523661 -0.059673958 -0.11001455 -0.030022671 0.060159776 -0.05991217
0.08090613 0.12756722 0.012520781 0.13119934 0.060422335 -0.13750738 0.076438166 0.0018945172
-0.067371555 0.04290762 -0.07537857 0.012737456 0.008311756 0.0057223607 0.029706033 -0.0061063827
0.022847429 0.048958626 -0.03797008 -0.13240284 -0.063268274 0.049296927 0.104429044 0.084032595
0.21199301 0.07157634 0.0005848954 0.048959117 -0.055568486 -0.13420537 -0.032616477 0.07074918
0.1122978 -0.049386267 -0.1425932 -0.09912329 -0.041217513 0.04777132 0.004395229 0.044771172
0.06596189 -0.04370101 0.15270096 -0.023757542 -0.13404812 0.06584587 -0.12508841 -0.11219684
0.026427543 -0.010620325 0.05796112 0.008993262 -0.17924751 0.052066095 -0.034721754 0.18017338

Network.2.bias f4 [128]
00000000: b698 fd39 4bc0 fb39 0000 0000 ca50 f8b9
00000010: b186 fbb9 6fcd fb39 1178 fa39 7cb5 fb39
00000020: d7b1 fb39 0000 0000 0000 0000 0000 0000
00000030: 0000 0000 9670 fbb9 c69e fbb9 1cc2 fb39
00000040: 49c0 fb39 0cdb fb39 2351 fc39 b760 cf39
00000050: 0000 0000 94bd fb39 55f0 fc39 04a9 fbb9
00000060: 0000 0000 2244 fbb9 8b8c eab9 b4ce fb39
00000070: a442 fbb9 0000 0000 a1b7 fc39 0000 0000
00000080: 36be fb39 0000 0000 50dd fd39 9159 fab9
00000090: c232 fbb9 8cd1 fc39 2cb6 fb39 0000 0000
000000a0: 08cf fb39 cca8 fbb9 0c14 bcb9 4e98 9839
000000b0: 0000 0000 0000 0000 0000 0000 f7c9 fb39
000000c0: 1b22 f639 94bf fb39 0000 0000 0abd fb39
000000d0: 2ac2 fb39 d863 f2b9 0ad7 f039 ac15 f1b9
000000e0: f4fc fa39 c5c8 fb39 458d f6b9 6a8b fab9
000000f0: 3093 fbb9 70b2 fb39 7fa0 fbb9 e171 f9b9
00000100: b4be fb39 53d5 fb39 bf02 fbb9 0000 0000
00000110: 928f a039 55a9 fbb9 c6a6 fbb9 6b87 fbb9
00000120: 0000 0000 0000 0000 0000 0000 ad98 fbb9
00000130: 41c4 f9b9 0000 0000 0000 0000 a9da fb39
00000140: b20b fb39 1ea2 fbb9 bd26 f639 cd91 fbb9
00000150: 0a7b f8b9 50f0 f8b9 1dfd fb39 1f3d fbb9
00000160: d941 f7b9 92eb cf39 97bd fab9 5adf fb39
00000170: b2c3 fb39 577f fbb9 494e fbb9 aace e4b9
00000180: 77f8 f7b9 9758 fbb9 5465 adb9 6ca0 f8b9
00000190: 0000 0000 96e8 f8b9 0000 0000 7da0 fbb9
000001a0: 0000 0000 fabb fb39 0000 0000 6f24 fbb9
000001b0: 7690 fab9 d95d fc39 795a fc39 95f1 f9b9
000001c0: e02a fd39 fb8b fbb9 0519 f639 d4a3 fbb9
000001d0: 0000 0000 326b db39 2abf f9b9 489f fbb9
000001e0: c4a1 fbb9 c182 fbb9 0000 0000 403e fc39
000001f0: 0000 0000 0000 0000 97b4 fb39 7b9d fbb9
0.000483697 0.0004801772 0.0 -0.0004736244 -0.00047974804 0.0004802751 0.00047773172 0.00048009667
0.00048006952 0.0 0.0 0.0 0.0 -0.00047958334 -0.00047992746 0.00048019073
0.00048017714 0.00048037653 0.00048125637 0.00039554175 0.0 0.00048015697 0.00048244247 -0.00048000377
0.0 -0.00047925214 -0.0004473667 0.00048028457 -0.00047924102 0.0 0.00048202 0.0
0.0004801617 0.0 0.0004842081 -0.00047750448 -0.00047912268 0.0004822131 0.0004801018 0.0
0.000480287 -0.00048000214 -0.0003587309 0.00029105175 0.0 0.0 0.0 0.00048024926
0.00046946187 0.00048017188 0.0 0.00048015296 0.00048019114 -0.00046232226 0.00045936584 -0.0004598325
0.0004787218 0.00048024036 -0.0004702603 -0.00047787587 -0.00047984114 0.00048007397 -0.0004799403 -0.00047577827
0.00048016536 0.0004803339 -0.00047876497 0.0 0.00030624546 -0.00048000613 -0.00047998707 -0.00047975345
0.0 0.0 0.0 -0.00047988203 -0.00047639202 0.0 0.0 0.00048037365
0.00047883164 -0.00047995237 0.0004694964 -0.0004798308 -0.00047393917 -0.00047481293 0.00048063035 -0.0004791999
-0.00047160572 0.0003965763 -0.0004782497 0.0004804086 0.00048020255 -0.00047969326 -0.00047932778 -0.00043641526
-0.00047296632 -0.00047940455 -0.00033072627 -0.0004742177 0.0 -0.00047475536 0.0 -0.00047994024
0.0 0.00048014504 0.0 -0.00047901596 -0.00047791348 0.00048135107 0.00048132593 -0.00047672974
0.00048287865 -0.00047978744 0.00046939417 -0.00047996512 0.0 0.00041850802 -0.0004763541 -0.00047993124
-0.00047994975 -0.0004797187 0.0 0.00048111565 0.0 0.0 0.00048009 -0.00047991783

Actor.weight f4 [5, 128]
00000000: f297 d9ba d5ab efbb 536d 84bb 2b5d 6abc
00000010: 86c0 543c 66e6 e3bb f766 023c a17c 6e3c
00000020: 3f60 f43b 9c9f ae3b ec53 b5bb 2719 563b
00000030: 87aa e23b 8173 7d3c 06af eb3b 8da8 983c
00000040: 4235 94ba 79f3 203c 5694 9cba 2eb6 b4bc
00000050: 2b2d 2bbb 9157 ea3c aafb c43a 059e c13a
00000060: fa39 70ba c7ae 9f3b 36e2 e23b e644 093c
00000070: 1555 81bc afcd 3bbc 872c 023c 9595 1239
00000080: c2b6 32bc 99e5 02bc 0f25 8539 a230 f33b
00000090: effe 5f3c 0b89 103a aeaa 073c 57ee 123c
000000a0: 7eb9 d43b e70e 80ba df95 d43a 7784 853c
000000b0: 02c7 30bc 89b3 1a3a 6f25 903a 2a58 0a3b
000000c0: 2526 03bc 2631 69bc 2db6 97bb b3d4 d0bb
000000d0: a322 9b38 c8fd 10bc ee64 a5bc 7bc2 84bc
000000e0: b7f9 b4ba b0d2 95bb 5dfd 0f3c 2b33 e2bb
000000f0: 8e1a 8abb f0d5 3c3b aa4f a73b 40f0 1e3c
00000100: 56ef 023b 5a30 113c 49f2 4fbb 6af0 50bb
00000110: a8e6 273c 2d37 a63b 5202 18bc d20b 78bb
00000120: a351 3d3a 57c6 aabb 5a71 cf3a f5fc afbb
00000130: 403f e6b8 5fb5 f5bb f29c 073c e0c5 25bb
00000140: a516 17bb caca 643b c8cb 1f3c 3efb 88bc
00000150: ce61 e2b9 87da b6bb 3856 743b 5682 98bb
00000160: 97b5 fe3b af4f cdba 70e6 8c3c b873 ebb9
00000170: 2ad8 5c3b 9213 6c3b 4924 8d3b 4fdd c0ba
00000180: a0b2 80bc f025 d93b 860a 1f3c 1918 5abb
00000190: a037 913a 6c97 d63a 0f13 23bc 4190 8d3b
000001a0: 280f 473b 64c4 b1bb b83a 07bb 91cc f83b
000001b0: b66c 1ebb c95f 9d3b 3151 b3bb 9cb9 c03b
000001c0: 546b 853b ebc8 8dbc c047 883c 9a80 abbc
000001d0: 79e4 9f3b e50c 24bb c365 ae3b 9e31 ce3b
000001e0: 1ad5 a0bc aceb 2e3b 1878 87bc b8b9 263a
000001f0: c4eb b63b 6be3 ddbb 2f42 d5bb 4a82 363b
00000200: f00f bc3a a22a 44bb 2c3b 383c 3702 56bb
00000210: 3ca4 9ebc 955b 84bb c4dd 15ba 5483 083c
00000220: 3a8c 1cbb 6ab6 613b c1d5 b13b d7c4 9fbc
00000230: 6f7f 72bb 12cb 16bc 1a5e b1ba 44ae afba
00000240: e2ff e2bb 4f8b 4e3c 2aaf 023b f76c 133c
00000250: f251 bab7 ba13 42bc b060 b43b eb90 8f3b
00000260: ba3b d4bb 0272 8ebc 58e1 6cbc 7522 193c
00000270: 2276 5fbb 28cd e4bb df70 e0bb 27a8 063c
00000280: 5730 05bb a9ba bfbb 2348 823a e66b c43b
00000290: eec7 df3b 60ad 96bb 42d6 123b 1de6 733b
000002a0: 9e2c 4fbb efd4 67bc 4628 503a a7a3 0c3c
000002b0: f3d2 c9bb d52a 4fbb bb3b d6ba db7d 96bc
000002c0: 61f7 86bb 3abd 8dbb aa25 693c fc06 9eba
000002d0: 4a6e 983c 44a3 9db8 1523 69bb 91dd 093c
000002e0: 7b4a a43b 6b37 a2bb 0daa 623c c183 b3b8
000002f0: 0b06 23bc 887f e73b ae70 b83b aad2 49bc
00000300: 8d4f 33bb 73dc 9ebb 5053 493b a4a0 a43a
00000310: 6c61 cd3a cb51 4dbb dbe4 86bc ef73 08bb
00000320: d696 b03b b876 ca3b 0a7a 65bc 6706 d3bb
00000330: 4d16 543c d2ce dd3b a589 c23a 98d9 3fbc
00000340: 482e 493c fc09 faba c493 2d3b 4b0f a0bc
00000350: c36e f6bb e998 d73b 3350 43bc 65f8 c93b
00000360: f5d9 973b 2565 0fbc 5909 923c f585 403c
00000370: 10d4 f3bb 07eb c43b 9064 5cba bcbe 32ba
00000380: e783 51ba 25ab b83b 80b7 eabc f189 b03b
00000390: 0251 fa3b 92e8 1a3c 2ffd 0cbc f6d5 3e3b
000003a0: 560b 3f3c 40db abb4 fbb2 54bc 2e89 6abb
000003b0: d89e 863c b6e0 69bc 4558 593c a6ba 4e3b
000003c0: 40cd 723b 9d47 57ba 6bc1 febb 7e44 9bbb
000003d0: d0aa 53bb 33cb bd3b 11e2 9eba 58a4 2d3c
000003e0: 2cf9 f7ba 1b29 823c 6334 7a39 1f60 4bbc
000003f0: b0e7 4cbc f3ea af3b fc46 373b 2e5b 9cba
-0.0016601069 -0.007314185 -0.004041353 -0.01430444 0.012985354 -0.006954956 0.007959119 0.014556081
0.0074577625 0.0053290855 -0.005533686 0.00326688 0.006917301 0.015469433 0.0071924953 0.018635059
-0.0011307376 0.009823673 -0.0011946063 -0.022059526 -0.0026119452 0.028606208 0.0015028615 0.0014771825
-0.00091639126 0.00487313 0.006923939 0.008378243 -0.01578764 -0.011462613 0.007945186 0.00013979369
-0.010907831 -0.007989311 0.00025395348 0.007421569 0.013671621 0.0005513585 0.008280439 0.008967957
0.006491839 -0.0009770066 0.0016218981 0.016298516 -0.010789635 0.00059013866 0.0010997484 0.0021109679
-0.0080047 -0.014232909 -0.0046298713 -0.006373012 7.3974275e-05 -0.008849569 -0.020189729 -0.016206017
-0.0013807331 -0.004572235 0.008788434 -0.0069030724 -0.0042145913 0.002881404 0.0051059322 0.009700835
0.001997908 0.008861626 -0.0031730107 -0.003188158 0.010247864 0.0050724954 -0.009277897 -0.0037848842
0.00072219427 -0.0052116322 0.0015826628 -0.005370731 -0.00010979036 -0.0074984278 0.008277165 -0.0025294945
-0.0023054269 0.003491091 0.009753175 -0.016721364 -0.0004317895 -0.0055802497 0.0037282836 -0.004654209
0.007773112 -0.0015664006 0.017199725 -0.0004490891 0.003369818 0.0036022407 0.004307304 -0.0014714393
-0.015710175 0.006626837 0.009707099 -0.0033278523 0.00110792 0.0016372032 -0.009953274 0.004320175
0.0030374024 -0.005425023 -0.0020634364 0.0075927456 -0.0024173683 0.0048026782 -0.0054723253 0.0058815014
0.0040716324 -0.01730772 0.016635776 -0.020935345 0.004879531 -0.00250321 0.0053221895 0.006292536
-0.019632865 0.0026690764 -0.016536757 0.0006360072 0.0055823047 -0.006771495 -0.006508134 0.0027848654
0.0014348011 -0.0029932638 0.011244576 -0.0032655129 -0.019365422 -0.0040392377 -0.00057169446 0.008332092
-0.0023887292 0.0034441003 0.005427093 -0.01950304 -0.0037002226 -0.009203689 -0.0013532073 -0.0013403376
-0.0069274763 0.012606456 0.0019940832 0.008998147 -2.2211087e-05 -0.0118455235 0.00550469 0.0043812892
-0.0064768465 -0.017388348 -0.014458023 0.009346594 -0.0034097512 -0.0069824643 -0.006849393 0.008218802
-0.0020323002 -0.005851109 0.0009939711 0.005994308 0.0068292534 -0.0045983046 0.002240554 0.0037216016
-0.0031612287 -0.014149888 0.00079405715 0.00858394 -0.0061591803 -0.0031611223 -0.0016344705 -0.01837056
-0.0041188453 -0.004325536 0.014230171 -0.0012056525 0.018607277 -7.516754e-05 -0.003557389 0.008414642
0.0050137616 -0.004950454 0.013834489 -8.559926e-05 -0.009950171 0.0070647635 0.005628667 -0.012318293
-0.0027360648 -0.004848057 0.0030719824 0.0012560082 0.0015669293 -0.003132927 -0.016466549 -0.0020821055
0.005389075 0.006178703 -0.014006147 -0.006439972 0.01294477 0.0067690397 0.0014842047 -0.011709593
0.012279101 -0.0019076462 0.002648578 -0.019538542 -0.007520528 0.0065795076 -0.011920976 0.006163644
0.004634137 -0.008752142 0.017826723 0.011750688 -0.0074410513 0.0060094628 -0.0008407319 -0.0006818583
-0.0007992372 0.0056356364 -0.028651953 0.0053875376 0.0076390514 0.009454863 -0.008605286 0.002911923
0.011660418 -3.2010757e-07 -0.012982125 -0.0035787332 0.016433164 -0.014274767 0.013265674 0.0031544357
0.0037048608 -0.00082122703 -0.007774522 -0.0047383895 -0.0032297857 0.0057920455 -0.0012121816 0.010598265
-0.0018918863 0.015888741 0.00023861373 -0.012413054 -0.0125064105 0.0053685843 0.0027965894 -0.0011929029

Actor.bias f4 [5]
00000000: 2413 4db9 f7c8 2339 09d6 55b9 481e b039
00000010: da6f 6db9
-0.00019557454 0.00015619757 -0.00020392997 0.00033591897 -0.00022643749

Critic.weight f4 [1, 128]
00000000: 3ade 083e be32 4d3d 467d e13b f851 cabc
00000010: fc4f 8ebd 7748 2a3d 2444 343e e7ca 3f3e
00000020: 55a0 013e 8f34 ec3d 211a a33d 72cd 5d3c
00000030: e7db 10bd dddd 9bbc 4318 77bd f75c c33d
00000040: a0f5 af3d a555 2e3d b759 0b3c 71b3 893d
00000050: fc35 fcbc ba83 2f3e 946b 0d3c 6b53 07be
00000060: 2db9 ef3d 40e5 08bd da59 02bd 15f0 f63d
00000070: 397e 58be 04bc 03bd 2d30 ed3d f07b 013d
00000080: c53f 2d3d 198a 27be 2cda b83c 8132 0bbc
00000090: 7530 4dbc e3d0 d53d fdbf 173e fb6d 8ebc
000000a0: ea26 5e3d 955e 10be 4df6 bbbc 2a6e 473c
000000b0: 4e27 4a3c c022 7bba 2083 8cbd 7600 893d
000000c0: 184b 083e 666b b63d ee92 1b3e 70dc 8b3d
000000d0: 4629 0a3d 89bc 0bbc 81c4 ec3b a673 9cbc
000000e0: f1aa 1d3d 72dd 9d3d 72e9 91bc d779 99bd
000000f0: 8f56 d4bc 0311 073e ee19 92bd 1b56 f7bd
00000100: ea8f db3d 9f4e 963d 4c11 f1bb 09f2 febd
00000110: 40fe cb3d 429f a2bd d038 1dbe 6f12 23bd
00000120: 67c6 5dbd c346 16be 937b 28be 7a11 0cbd
00000130: d469 9fbb de75 c2bd 19d8 773d 25a5 9b3c
00000140: 1d20 0b3e 642f debd 15bd 173e 40d8 1fbd
00000150: 3f4d 7fbd 2144 bcbd f40e 4c3d d397 b8bb
00000160: 2fac 95bd c123 eb3c cc04 20bd 8d41 c63d
00000170: 1b9a 8a3d c45a 8bbc 624c 3ebd 8b4b 98bd
00000180: 63f5 cebd 2fa4 2cbd 1419 b4bc e1bc cfbd
00000190: 66e2 bcbd f99e 9fbd 4b8c acbd 38c4 cebd
000001a0: b2a0 edbc 2af8 343d 091e ee3d 3830 05bd
000001b0: 3778 4bbd b962 a43d ed5c c63d 7000 bfbc
000001c0: 9bd3 a43d 0742 a7bd 4d81 183d 48fc 41be
000001d0: 89dc f6bd c3de 773a a4ff 02bd 2de5 13be
000001e0: 04c1 e4bc 7055 02be 272c 3dbe c111 043d
000001f0: 66c2 0a3d 4776 73bd 8f13 203e 0dee a3bd
0.13366023 0.05009722 0.006881389 -0.024697289 -0.069488496 0.041573014 0.17604119 0.18729745
0.12658818 0.11533462 0.07963968 0.0135377515 -0.035365965 -0.019026691 -0.060325872 0.09539216
0.08591771 0.042562146 0.008505276 0.06723679 -0.03078746 0.17140093 0.008631606 -0.13215415
0.11705241 -0.033421755 -0.03182397 0.12057511 -0.211419 -0.032161728 0.115814544 0.031612337
0.042297143 -0.16361274 0.02256497 -0.008495928 -0.01252376 0.104402326 0.14819331 -0.017386427
0.05423633 -0.1409858 -0.022944594 0.012172261 0.0123384725 -0.0009580068 -0.068609476 0.06689541
0.13309896 0.089072034 0.15192768 0.068291545 0.033730768 -0.008528837 0.0072255735 -0.019098114
0.0384931 0.07708253 -0.01781151 -0.07493942 -0.02592018 0.13190083 -0.07133852 -0.1207697
0.10720809 0.073392145 -0.0073567983 -0.12448508 0.09960604 -0.07940532 -0.15353703 -0.0398125
-0.05414429 -0.14675431 -0.1645339 -0.034196354 -0.0048649106 -0.09495138 0.06050882 0.018999645
0.13586469 -0.10848883 0.14818223 -0.03902459 -0.062329527 -0.09192682 0.049818948 -0.005633333
-0.07308232 0.028703572 -0.039067075 0.096804716 0.067676745 -0.017011054 -0.046459563 -0.07436284
-0.101053976 -0.042148765 -0.021984614 -0.10143448 -0.092228696 -0.077939935 -0.08425196 -0.100960195
-0.02900729 0.04418198 0.116268225 -0.032516688 -0.049675193 0.08026642 0.09685693 -0.023315638
0.08048173 -0.081668906 0.037232686 -0.18943894 -0.120537825 0.00094554963 -0.03198208 -0.14442892
-0.027924068 -0.12727904 -0.18473874 0.032243494 0.0338768 -0.05943897 0.15632461 -0.08004389
