singleTraining.pth (torch, 190228 bytes, 7 tensors)

Network.0.weight f4 [256, 50]
00000000: d6e4 2e3d 7da2 be3d 025e 61bd f5be 443e
00000010: bd27 f2bd 7408 18bc d4c0 003d 4b2b c1be
00000020: 977c 5cbc a2cd 523d 8fbb 6c39 01b6 893d
00000030: e039 d83d 9f25 b6bd 285d 333e 9b79 21be
00000040: 70a4 65be 7c21 14bd 8993 8bbe ae58 37bd
00000050: c4f9 d8bd 95e6 2cbe ba8e 2d3e 3f6f d0bb
00000060: 24a3 65bd 3db3 9bbd 620c f1bc f4c4 08be
00000070: 07a9 f73d 1415 3a3d 217d e8bd e5dd 2cbe
00000080: 0480 983d b0b0 a9bd 195c e6bb d55a 42bc
00000090: 95cc e23d d0bc f73c 3c7d 63bc b6d0 ab3d
000000a0: 3408 34bd 3b48 f5bd 6c13 54bd ea0b 8b3d
000000b0: b683 94bd 7910 bbbd a51a 183e ddbd a93c
000000c0: a6d8 b4bc 8da9 3d3d 68ce b73d 7718 e93b
000000d0: 59f0 2ebd 0d18 4e3e 92dd e13c ea17 b4bc
000000e0: 68ee 16bf ad1a 00bd 6c1b bb3e 4376 393b
000000f0: 026d e4ba c2e2 94bd b2b5 373c ceee 8f3e
00000100: 91fc 3bbe 370b 6c3a 5e42 333e 5e24 7a3d
00000110: a640 0d3c af2a 493d 7530 023e 3d52 413d
00000120: 53c0 ac3b e5ff 173d dd8e debc 43f3 42be
00000130: 6b2e 173e 6d27 d1bc 3dff 78be 005c 843d
00000140: b63c c7bd 6997 eebd b992 143c 1c59 cabd
00000150: 8d35 8e3d 7300 153e 872c cebd f952 053e
00000160: dae5 033d 95eb 13bd 0d5e 0abe 0fe4 f0bc
00000170: 09df c5bb 6db1 5c3e 251a 113e e138 6abd
00000180: d609 643d dae4 21bd e9ac 0c3e 7c04 033d
00000190: 6bc9 143d 5c87 41bd 80ce a93c e370 69be
000001a0: 4466 a2be 716b d83c 433e a23e 9bcc 22bd
000001b0: 87ea edbd 155e 013e 9284 a1ba 156d 9a3e
000001c0: 4004 3a3e b4af 2e3e 025a 1abd 9f1c bf3d
000001d0: 1223 303e e548 3abe f374 dc3e a61b 8d3c
000001e0: 4aca 9c3d c798 2fbe 035b f5bd a385 ba3e
000001f0: 1999 1e3d dc3f f2bb 1144 a4bd 1083 cc3c
00000200: efcb 22bd 8b22 3f3e 56a7 94bb d5cd f03d
00000210: 3d9a 133e bfaf 0c3d 1f7e d0bd ecd1 a53d
00000220: ea26 53bd 60cf 17bd ddd8 a33d 8adb 193c
00000230: dfd0 f7bc 8d19 cfbd 15c0 98bd 3db1 ae3d
00000240: d953 e63c 6d61 8a3d 8796 ee3d 8c88 15be
00000250: 6445 8b3d 0e1a 693d 8886 e23d 30fb 863d
00000260: 41c1 283d 4956 633e 5c70 b7be ae27 c93d
00000270: 2a01 0ebe 0c40 62bd dd9c 8cbd 0506 b9b9
00000280: 1424 80bd 34b8 cd3d 4762 c13d a45d a7bc
00000290: ce1a 5f3c 184a 59be e76f e8bd 7c40 473c
000002a0: dc47 cabd 4601 c73b f80e 86be 36a7 8bbe
000002b0: d663 883e acf2 d83c 935d 01be 577c 03be
000002c0: 755c 073e 423a 0dbe 91d9 23bc 8117 733c
000002d0: 3ba0 bfbd cbb5 36be bd5b 08be cb30 803e
000002e0: 17d8 33be 686d 7abd 277b 2fbd e132 29be
000002f0: b1ca 0abd fd8d 23be d2b2 2ebe ead6 063c
00000300: f0e7 0bbe 8ac9 b13c 9dfc 0abe 1611 4b3e
00000310: 602d 473e 6b64 f2bd 83b9 1a3d e53e e1bd
00000320: 1b88 2d3d 307b 283e 7c51 a03d ffee 55be
00000330: 6cd1 083e 59be 353e babd 813c 9f4d 063f
00000340: 2682 d3be ec2d dfbd ae0a 0b3e 5a30 57be
00000350: 19a0 323e 6053 8bbe af11 183d 79e4 733d
00000360: e7a7 96bd 2e82 bf3c b24e f1bd c7b1 2dbd
00000370: 2ddd c43d f14d 0e3c 1383 43be 5c10 f9bd
00000380: 11d4 9b3d a7ec 003e 960e 5a3d 00b1 c5bd
00000390: f540 70bd 886c 86be c0c9 cbbb 58f6 ab3d
000003a0: 7442 30bb 2a09 2e3e c509 e8bc 2d24 bbbc
000003b0: ce6f dcbc 32f3 953d ffa7 053e 416b f93d
000003c0: 0cb4 84bd 7398 4f3e 96a4 153e 8eac d7bd
000003d0: a41b b9bd 4a1c 08be c3d8 a9bc ba5f 03bd
000003e0: 15ff 01bd 2723 cabc ffff 72bc d784 543e
000003f0: 888b 323d 9d67 7e3e 8be1 8f3d 30b3 a13d
0.042698704 0.09308336 -0.055021293 0.1921347 -0.11823986 -0.009279359 0.031433895 -0.37728342
-0.013457439 0.051465638 0.00022576585 0.067241676 0.10557914 -0.088938944 0.17516005 -0.15769045
-0.22426009 -0.036164746 -0.27260998 -0.044762306 -0.10594514 -0.16884835 0.16948977 -0.006360918
-0.056063786 -0.07602546 -0.02942485 -0.13356382 0.12092786 0.045430258 -0.113519914 -0.16881521
0.07446292 -0.082856536 -0.007030022 -0.011862476 0.11074177 0.0302414 -0.013884839 0.08389418
-0.043953136 -0.119766675 -0.051776335 0.06789382 -0.07251684 -0.09134001 0.14853914 0.020720417
-0.022075962 0.046304274 0.08974916 0.007113512 -0.042709682 0.20126362 0.027571473 -0.02198406
-0.5895753 -0.03127544 0.3654436 0.002829925 -0.0017427506 -0.07269813 0.011212753 0.2811188
-0.18358065 0.00090043567 0.17505786 0.06106984 0.00862137 0.049112972 0.12713797 0.04719757
0.0052719503 0.037109274 -0.027167732 -0.1903811 0.14763801 -0.025531495 -0.24316116 0.0646286
-0.097283766 -0.11649973 0.0090681845 -0.098802775 0.06943808 0.14550953 -0.10067087 0.13019933
0.032201625 -0.03611334 -0.1351244 -0.029405622 -0.0060385508 0.21552058 0.1417013 -0.05718315
0.055673443 -0.03952489 0.13737835 0.0319867 0.0363249 -0.04724823 0.02072835 -0.22796969
-0.31718647 0.02641842 0.31688127 -0.03974591 -0.11616998 0.12633546 -0.0012322834 0.30161348
0.18165684 0.17059213 -0.037683494 0.09331631 0.17200878 -0.1819187 0.43057975 0.017225098
0.07655771 -0.17148124 -0.1198025 0.36430082 0.038720224 -0.0073928665 -0.08020795 0.02496484
-0.039745267 0.18665521 -0.0045365496 0.11758009 0.14414306 0.034347292 -0.10180306 0.0809668
-0.051550783 -0.037063003 0.08000348 0.009390721 -0.030250965 -0.10112295 -0.07458512 0.08529899
0.028116154 0.06756864 0.116498046 -0.1460287 0.068003446 0.056909613 0.11060816 0.06590879
0.041199926 0.22200884 -0.3582791 0.098220214 -0.13867632 -0.05523686 -0.06865857 -0.00035290435
-0.06256881 0.100448996 0.09442573 -0.020430394 0.013617231 -0.21219671 -0.11349469 0.01216137
-0.09876987 0.00607315 -0.26183295 -0.2727601 0.2663867 0.026482902 -0.12633352 -0.128404
0.13218863 -0.13791755 -0.010000602 0.014837147 -0.093567334 -0.17842786 -0.13316245 0.25037226
-0.175629 -0.061139494 -0.042842057 -0.16523315 -0.033884708 -0.15972133 -0.17060402 0.00822995
-0.13662696 0.021702547 -0.13572927 0.19830737 0.19450903 -0.118355595 0.037774574 -0.10998324
0.04236613 0.16453242 0.07828042 -0.20891951 0.13361138 0.17748393 0.015837539 0.5246219
-0.41310233 -0.10897431 0.13578293 -0.21014538 0.17443885 -0.27212048 0.03712624 0.05954406
-0.073562436 0.023377504 -0.11782588 -0.04240587 0.096124984 0.008685575 -0.1909297 -0.121613234
0.07608808 0.12590276 0.053236566 -0.09652901 -0.058655698 -0.26254678 -0.006219119 0.08396596
-0.0026895078 0.16995683 -0.028324971 -0.022844398 -0.026908781 0.073217764 0.13052367 0.1217866
-0.06479654 0.20272999 0.14613566 -0.10530959 -0.09038475 -0.13292041 -0.020733243 -0.032073714
-0.031737406 -0.024674965 -0.014831542 0.207538 0.0435901 0.24844213 0.07025441 0.078955054

Network.0.bias f4 [256]
00000000: 9200 2c3d fb63 003d 69b3 8d3d 2927 aa3d
00000010: 9aff ec3d 14f4 a83a ef3f 103d 5e76 7d3d
00000020: b889 e8bc 8312 18bc 2f6e b13d f6e8 45bc
00000030: 10e1 19bc 67b6 4e3d 2761 d33a 9129 f23d
00000040: dcf5 8f3d 8852 16bc aa22 84bd 0000 0000
00000050: 3938 f5bc ce6e f4bc 78d0 a83d e4a4 493d
00000060: 1f57 993d 31fd e33d e445 babc 35ce 69bc
00000070: 0000 0000 ace3 48bc cad7 1bbc 1f8b ea3c
00000080: 999d b1bc 6f56 e63d 1424 d73d 501c 923d
00000090: 5ce5 593d 090a 0c3c 8c82 0bbd daf7 bb3d
000000a0: 0000 0000 cbcb e13d bc0d 8abb 5ad8 50bc
000000b0: d6c6 823d c0c5 cd3d edcc 673d aa24 b3bc
000000c0: 72d1 263d 5e1c b33d b84a 2f3d 1eaf bf3c
000000d0: a801 1cbd 650c 1cbc b7cf 823d ac62 8f3c
000000e0: 0000 0000 8c0c 333d b7c3 023c 1386 32bc
000000f0: c007 e13d ba62 323d cb55 893c 8d94 c33d
00000100: 24a9 ae3d df30 863c 088a a93d 37ba 2cbb
00000110: 2d41 97bc 1ba4 67bb 02a1 813d 7e22 45bd
00000120: 08e7 7b3d 0000 0000 de17 71bd 0000 0000
00000130: 4d1d 54bd e1b6 17bc 1ab0 9f3d eef0 ffbc
00000140: 60f6 8a3d 3069 dcbd 251b 8c3c 096a 293d
00000150: 51c6 0a3c 9f86 393d 3fb9 663b 903b e7bd
00000160: effd 113d ea13 ed3c bd81 483c 6cb1 443d
00000170: c6be acbc 1212 893d 0000 0000 4b62 f9bc
00000180: 0000 0000 483c ba3d ca3f 073c 0921 99bd
00000190: cb6f c8bd 4ee1 1bbc cf34 a33d ad91 d33d
000001a0: 9ec0 1d3d 9628 7f3d b944 fb3d 177c a13c
000001b0: e280 893d 96aa ab3d 3e53 cf3d 00f3 d03c
000001c0: 434b 903c 25a5 783d 6b0c d63d 0000 0000
000001d0: b75f 5c3e b894 843d cc7e 1e3e 2dd7 8a3d
000001e0: 0000 0000 058e 843c 0000 0000 0000 0000
000001f0: 0000 0000 9cfd e13d 38bf c6bc ce42 b73d
00000200: 5317 873d 596d c73d 4d3b d53d 3f08 84bc
00000210: 7e21 bfbd a253 aabd 7c13 8cbc e182 3abd
00000220: 9754 493c 90d1 c63d 7228 373d 22a8 debb
00000230: ba2a e7bc 3c5e df3d 3f1b 353d 8835 013e
00000240: a29c 58bb 52ab 833b 4368 f9bc 0000 0000
00000250: 2646 fe3c 5f85 153c 0000 0000 ce46 293d
00000260: 4890 1bbc 7780 a93d 3b1a c73d 0266 92bc
00000270: aedb f5bc d813 083e b152 e63d 31f5 aa3d
00000280: 800c 933d fd28 bf3a 9139 acbc a27f aa3d
00000290: ad68 f0bc 8ace d83d f7c5 1fbd c1b6 fb3d
000002a0: 7d6f c63d 512f 013e 95e7 463d 7f6d df3c
000002b0: e522 a33d bc90 bc3c 7ed9 c1bb 8c61 f23d
000002c0: 4c5d 16bd 24b2 473d ec15 413d 5620 b63d
000002d0: ec62 cb3d 74f9 8c3d 94e7 febb 6daa 723d
000002e0: 88e1 e43c 6730 d13d 19f5 183e a814 853c
000002f0: a638 463d 4581 623d cb9c 2fbd 125a c6bd
00000300: e406 8a3d 1fce 7b3c 3cd0 333d 7c1d 523d
00000310: 54a9 283c d68a 8bbc 450a c4bc b528 c73c
00000320: 98ab a63c 9df6 0cbd 2362 fbbb b245 d43d
00000330: 7044 793d 42d0 bc3c 3a3a 2bbc 5ee1 6b3d
00000340: e370 8e3d 493b 7e3d e46c ae3d bfb0 28bd
00000350: 10c8 0e3d b93f a63d c83b 3d3b c875 633d
00000360: 2feb 693d 9e8f ea3a f4cd eebc b499 7e3d
00000370: 7ee5 4dbd 4a0b d43d 8312 14bc 28e8 7f3d
00000380: 6730 8cbd 5689 f13c a258 923b 518d cc3c
00000390: 6b2e 00bd 7b80 a23d 0000 0000 0000 0000
000003a0: b5b1 543d 7758 293d 37ae bc3d 5ca1 143d
000003b0: 8eee 11bd 990b b83c f921 c23d 4ba7 1e3c
000003c0: 7056 b73c 54c0 a33d cd81 133d b421 d13d
000003d0: 7c3c 933d 45f6 9ebd 6fe9 1a3d 0eb3 963d
000003e0: 0000 0000 4795 e5bc 5d06 123d d50a 9d3d
000003f0: 61f1 973d b0bb b23c 149d 39bd d0be 843c
0.04199273 0.03134535 0.069189854 0.083082505 0.1157219 0.0012890124 0.03521722 0.061880462
-0.028385982 -0.009281757 0.08663594 -0.012079468 -0.009392038 0.05046692 0.0016126976 0.118243344
0.07029316 -0.00917495 -0.06451924 0.0 -0.029934036 -0.029837992 0.08242887 0.049229518
0.0748732 0.11132277 -0.022738405 -0.014270355 0.0 -0.012261312 -0.009511897 0.028630791
-0.021681594 0.11246955 0.10504928 0.071343064 0.05319725 0.008547314 -0.034060046 0.09178133
0.0 0.110251985 -0.004213063 -0.012746895 0.06385581 0.100474834 0.056591917 -0.021868069
0.040727086 0.08745645 0.042795867 0.023398932 -0.038087517 -0.009524439 0.06387275 0.017503105
0.0 0.043713138 0.007981232 -0.010896224 0.10987806 0.043551184 0.016764542 0.09549818
0.08528355 0.016380725 0.082782805 -0.002635611 -0.018463695 -0.0035345617 0.06329538 -0.048128597
0.061499625 0.0 -0.058860652 0.0 -0.051785756 -0.00925991 0.077972606 -0.031242814
0.067852736 -0.107622504 0.017102787 0.04136089 0.008470134 0.0452944 0.003520563 -0.112906575
0.03564256 0.02894016 0.012237963 0.048020765 -0.021087062 0.066929 0.0 -0.030442378
0.0 0.09093529 0.008254955 -0.07477004 -0.09786948 -0.009514166 0.07969057 0.1033052
0.038513772 0.062294565 0.12268967 0.019712491 0.067140356 0.08382146 0.10123299 0.025506496
0.017614013 0.06070437 0.10451587 0.0 0.21520887 0.06473678 0.15478057 0.06779323
0.0 0.016181001 0.0 0.0 0.0 0.110347 -0.024261102 0.08948289
0.065962456 0.09737653 0.10411701 -0.016117213 -0.0933256 -0.08316733 -0.017099135 -0.045534972
0.012288234 0.097079396 0.044716306 -0.0067949453 -0.028218616 0.10906646 0.044215437 0.12618077
-0.0033052345 0.0040182257 -0.030445224 0.0 0.031039309 0.009126036 0.0 0.04132729
-0.009494849 0.08276456 0.097218 -0.017870907 -0.030011978 0.1328882 0.11246241 0.08347548
0.071801186 0.0014584359 -0.021023544 0.08325125 -0.029346788 0.10586269 -0.039007153 0.12290717
0.096892335 0.12615706 0.048560698 0.027273891 0.0796564 0.023018233 -0.0059158197 0.11835012
-0.03671007 0.048753873 0.047140047 0.08892886 0.09930977 0.06883517 -0.007779071 0.059244562
0.027939573 0.1021431 0.14937247 0.016245201 0.048393868 0.055299062 -0.04287414 -0.09685148
0.067395955 0.015368967 0.04389976 0.05129765 0.010294277 -0.017033976 -0.023930678 0.024311403
0.020345494 -0.034414876 -0.007671611 0.10364856 0.060856283 0.023048524 -0.010450894 0.057587974
0.06955125 0.062068257 0.08516863 -0.041184183 0.034858763 0.08117623 0.0028874744 0.055532247
0.057109054 0.0017895584 -0.02915094 0.0621583 -0.05026769 0.10353716 -0.009037617 0.06247726
-0.068451695 0.029484432 0.0044661323 0.024969729 -0.031294268 0.07934662 0.0 0.0
0.051927287 0.041344132 0.09212916 0.036286697 -0.035627894 0.022466468 0.09479136 0.00968344
0.022380084 0.07995668 0.03601246 0.102115065 0.07189271 -0.07761816 0.037820276 0.07358371
0.0 -0.028025283 0.0356506 0.07668082 0.07419086 0.021818012 -0.045315817 0.016204268

Network.2.weight f4 [128, 256]
00000000: 6798 07bd 0fb5 f43d 2e06 e6bd aa8d e5bd
00000010: d1e9 42bd 835e 443d 0f4a cfbb 18d7 fabd
00000020: 5f0d 073e c406 e0bd 196b 09be 2164 22be
00000030: 7913 713d f1b0 32bd 5cec f0bc 3f1d 1f3d
00000040: fe91 3abe a03f c23d 7959 b83b 6db7 efbd
00000050: ad7d c6bc aa7c f03d d4ce 943a 5b5f 753c
00000060: 18af e53c b92f e8bc b6f8 fe3c b96d c9bd
00000070: 02ee 9f3c 07b7 663d 2d82 e3bd 66ae 033e
00000080: 56f2 e53d a65a 5e3d 7aed 05bd 84ee adbd
00000090: 972e 71bd 4523 26be b547 9b3c 147d 0f3e
000000a0: 695e b1bd 0660 bcbc ea7b 963d f21c d4bd
000000b0: 9234 18bb 904a 6bbe 0145 1d3d 925e 73bc
000000c0: 5b81 1cbe 0f2d e33c 7288 753d 0718 13be
000000d0: 68a0 6cbc 18e9 f03d 2e73 fd3d 528a 973c
000000e0: b932 c439 0deb 9abc 4d64 2f3d f146 4bbc
000000f0: 1658 003e 5af4 083d 28c5 73bd e8b7 09be
00000100: 5484 783d ea84 b13d 3994 c9bd 9158 783d
00000110: 09e9 25bd 7545 363d 0949 b93d f663 0d3c
00000120: f489 87bd 3fb0 a6bd b257 be3d 1411 adbd
00000130: 25f9 ac3d 6172 31be 9f57 63bd 39fd abbc
00000140: edd9 243d 305b 943d 2c3e 113d 51c6 38bc
00000150: 1076 f0bc f1bd 51bd 5efc b7bd 1455 22bd
00000160: 25cb 52bd 75b2 213d e865 f6bc 2a5b 57bc
00000170: e723 f036 7b3f 723e 9c31 173c 0ad1 b9bd
00000180: da64 e63d 35db 9fbe b73e d1bd 2b8f 0bbd
00000190: f787 10be 648d 1c3e df42 7abd 2526 af3d
000001a0: f771 84ba c507 593d 8bf4 823d 094e b3bc
000001b0: 5b8c 993c b651 16bc 3176 8abd 49db a43d
000001c0: ad76 b6bd 3d55 06be dd88 aebd f214 6c3d
000001d0: e672 4dbc c4ce a9bd 1ce9 f8bd 0f62 babd
000001e0: b288 10be 4712 c1bc f7bb 8a3a 6257 06be
000001f0: b353 82bc df95 04be b1d3 a0bc 869e 47be
00000200: 9c9f 56be 7d87 8c3c 38d3 143e b417 8fbc
00000210: a84a 56bd b0a9 383e 6776 173d 9d9e fabc
00000220: b3aa f3bc c4cf 0dbe 61d7 ed3d c9b0 0bbe
00000230: fdd0 a8bd 100f c03c e993 ffbd cc5f c63d
00000240: f022 043e 80f4 d5bd 4ad5 2bbe dd3c fbbd
00000250: 3de9 9abd c3c6 84bb 5862 3dbd eea5 19be
00000260: e5ec a4bd ec5d 88bd a2f8 403c 21fd ce3b
00000270: fe40 483d a58e c03d c6a4 f53c af4b 713c
00000280: 2191 383e 9268 25bd bc9d 4e3d 89d0 b43d
00000290: 198e c1bd d6c7 e1bd ef47 283b 72d2 0e3d
000002a0: d617 c33d 32e3 1bbc 4a4c 8ebd f60b 0cbd
000002b0: 8bbe 6e3c a45c 21bc 0fc1 4ebd 0def 24bd
000002c0: b94a 943c 69ab c83d cdb5 8c3c e1f3 fd3c
000002d0: 4729 bcbc 8bb5 983d 1e4c 5a3d e491 013d
000002e0: ab57 d33d 3705 b73c 9b42 99bd 7d51 1d3d
000002f0: a80e 373e 484c c5bd 89bc 1f3d 4457 183d
00000300: 26c2 ca3c 9254 16bd a9aa 843d ae6c 74bd
00000310: 7526 e2bd 7799 f9bc a46e 743d f355 77bd
00000320: e0b4 a43d 3122 023e c285 453c 1f59 063e
00000330: fbac 753d 2c4d 0dbe 9d8b 9c3d c1b1 ba3a
00000340: 76f5 8abd 89c4 2d3d 785d 9bbd c3b0 503c
00000350: 9440 003c eb9f ab3b 7266 ef3c 077c d7bb
00000360: 882a bb3c d788 483d b782 1dbd 6b0f 08be
00000370: 6290 82bd 4ef1 473d e5de d53d ba1c ab3d
00000380: f995 583e 4899 913d 209d d238 b693 463d
00000390: 518b 65bd 23ea 09be db98 05bd f2e4 903d
000003a0: aafe e43d 9643 4cbd f403 12be 63f9 cbbd
000003b0: 37c7 29bd c9b2 413d 2bee 803b fa61 373d
000003c0: bb23 863d 8df9 34bd dfde 1b3e 2153 c6bc
000003d0: 5b86 09be 33da 863d d595 00be f2b5 e6bd
000003e0: 937e d83c 8380 35bc 546d 6b3d 6779 0b3c
000003f0: c60b 38be c749 533d 6638 0ebd 9003 383e
-0.033104327 0.11948597 -0.112316474 -0.11208661 -0.047586266 0.047941696 -0.006325967 -0.12248057
0.13188694 -0.109387904 -0.13419761 -0.15858509 0.05885646 -0.043625776 -0.02940958 0.03884625
-0.18219754 0.09484792 0.0056259003 -0.117049076 -0.024229849 0.11742528 0.0011353143 0.014976348
0.028037593 -0.028343068 0.031124454 -0.09835381 0.01952267 0.056326892 -0.111088134 0.12859496
0.112278625 0.054285668 -0.03269718 -0.08492759 -0.058882322 -0.16224392 0.018955091 0.14012557
-0.086605854 -0.022995006 0.073478535 -0.103570834 -0.0023224694 -0.22977662 0.038395885 -0.01485409
-0.1528372 0.027731447 0.059944578 -0.14364634 -0.014442541 0.11763209 0.123754844 0.018498573
0.00037421825 -0.01891091 0.042820264 -0.0124070505 0.12533602 0.033436157 -0.059514195 -0.13449061
0.060673073 0.086679295 -0.09842724 0.06063134 -0.040505443 0.044499833 0.090471335 0.00862979
-0.06618109 -0.08139085 0.0929407 -0.08450523 0.08445958 -0.17328788 -0.055503484 -0.02099477
0.040246893 0.07243955 0.035459682 -0.011277751 -0.029353172 -0.051206533 -0.08983682 -0.039631918
-0.051463265 0.03947683 -0.03007789 -0.013144294 7.156737e-06 0.23657028 0.009228136 -0.09073074
0.11249705 -0.3122193 -0.1021704 -0.034072082 -0.14114366 0.15288311 -0.06109893 0.08552197
-0.0010104765 0.052985925 0.06394299 -0.021887796 0.018743685 -0.009174755 -0.067608245 0.08049638
-0.08909354 -0.13118453 -0.08522198 0.057637163 -0.012539601 -0.082913905 -0.12153837 -0.091007344
-0.14114645 -0.023568286 0.0010584582 -0.13119271 -0.015909052 -0.12947796 -0.019632192 -0.19494066
-0.20959324 0.01715445 0.14533699 -0.017467357 -0.05231729 0.1803348 0.03697815 -0.03059321
-0.029744482 -0.13848788 0.11613346 -0.13641657 -0.08242986 0.023444682 -0.124793835 0.096862406
0.12903953 -0.10447025 -0.16780582 -0.12267468 -0.07564018 -0.0040520146 -0.046236366 -0.15004703
-0.080529965 -0.06658539 0.011778029 0.0063167964 0.048890106 0.09402207 0.029985797 0.014727517
0.18024112 -0.04038293 0.050443396 0.088288374 -0.09450931 -0.11024444 0.0025677641 0.034868665
0.09526031 -0.009514617 -0.06948145 -0.034191094 0.014571796 -0.009848747 -0.050477084 -0.04026704
0.018102037 0.09798319 0.017176533 0.03100008 -0.022968901 0.074565016 0.053295247 0.031633273
0.10319456 0.022341354 -0.07483407 0.03840779 0.17876685 -0.0963369 0.03899816 0.037192598
0.02475078 -0.036701746 0.06477863 -0.059673958 -0.11042491 -0.030468686 0.059675828 -0.060384702
0.08042312 0.12708355 0.012055816 0.13119934 0.05997942 -0.1379897 0.076438166 0.0014243649
-0.06785099 0.04242376 -0.07586187 0.012737456 0.007827897 0.0052375696 0.029223654 -0.0065760645
0.022847429 0.048958626 -0.038454738 -0.13287131 -0.06375195 0.04881411 0.104429044 0.083550885
0.2115096 0.07109314 0.00010042847 0.048480712 -0.056041066 -0.13468222 -0.032616477 0.07074918
0.11181386 -0.049869142 -0.1425932 -0.09959676 -0.04144975 0.047289643 0.003934642 0.044771172
0.06549784 -0.044183303 0.15221737 -0.02420956 -0.13430159 0.06584587 -0.12557156 -0.11265172
0.026427543 -0.011078003 0.05747731 0.008512831 -0.17973241 0.05158403 -0.034721754 0.17970109

Network.2.bias f4 [128]
00000000: 0000 0000 d678 f43c 88eb 7d3d a03c 3b3d
00000010: 60bf a33c 18a8 113d 9f41 ce3c 4850 ab3c
00000020: 3c47 d23c 0155 15bd 0a3c b73c f046 9cbc
00000030: 7b19 713c a0eb ee3c ffa7 903d 55ce db3c
00000040: 86dc e03c 3669 033d 59e7 5c3d 619f 003d
00000050: 8a96 003d 5d2f b93c 303c 763d 6e08 d0bb
00000060: b311 b3bc 699d 3abc a70c 18bc 9be5 be3c
00000070: 58b8 f7bb c777 dd3d d037 6e3d e472 1c3d
00000080: 2ea6 0f3d 8078 5cbc f3d1 283d a9fb a6bb
00000090: 7535 9d3d 1449 0abd 7699 d13c 10fb 7abc
000000a0: 37c8 033d 08be ad3d 546d 95bc e7ff 453d
000000b0: 30bd 5a3d 2a12 8c3d d481 c93c aa9f df3c
000000c0: 3ecc 083d 0b42 e43c 598c 96bb 78c6 f43c
000000d0: db1b 1f3d 22c9 32bc 2f1f 803d 8104 17bd
000000e0: 1e6e a9ba 74c8 e13c a7d9 313d 8830 d7bc
000000f0: 5058 a13d f063 fa3c fd86 583d 1cac d63d
00000100: 699d c73c b3e7 e93c 33aa af3c 66ac dfbc
00000110: b8c2 053d b220 843d 9054 e13d fa22 bcbc
00000120: 5943 d83c 39e5 f53b f8fe 8ebb d949 8fbc
00000130: c863 7c3d 832d ad3d ae28 ea3c 4865 373d
00000140: d7bf cb3c 128d 083c ded2 113d 4389 01bd
00000150: c1fe 513d a6ed 9fbd 2220 fd3c 69ef ab3c
00000160: ceff 8dbc 107c 223d 3534 94bc a0d0 cc3c
00000170: 7daf 0f3d 37d9 e33d 0601 c63c 4eef 853d
00000180: 3467 6dbc ad71 94bc 6a7f 50bc e385 3d3d
00000190: c700 95bc 386a f4bc 33db 16bc 47e1 ddbc
000001a0: 632c 1abc 4bdd 1e3d 3062 c33c eb97 4d3c
000001b0: 7f24 0fbd dd0c e33c 7bd6 ae3c 2bd7 29bc
000001c0: fd44 823d acff babc 192a 253d 9eae 023e
000001d0: 0000 0000 0a0b 8ebc a3c9 96bc 6d17 02bd
000001e0: 5a49 9b3d 3c1b e8bc 3685 9bbc 9c02 163d
000001f0: 0000 0000 484b 25bc ee10 bf3c 9747 d43d
0.0 0.029842775 0.0619922 0.045712113 0.019988716 0.035560697 0.025177775 0.020912305
0.025668733 -0.03645802 0.022367496 -0.019076794 0.014715548 0.02916509 0.07063293 0.026831785
0.027448904 0.03208276 0.053931568 0.031401996 0.031393565 0.022605592 0.060115993 -0.006348661
-0.021859026 -0.011390069 -0.00928036 0.023302844 -0.0075598173 0.10813861 0.058158696 0.038195506
0.03507059 -0.013456464 0.04121585 -0.005095918 0.07676212 -0.0337611 0.025585871 -0.015318647
0.03217336 0.08483511 -0.018240608 0.04833975 0.05340308 0.06839402 0.02459804 0.027297813
0.033397906 0.027863523 -0.0045943675 0.029879794 0.038844924 -0.010912212 0.06255948 -0.03686953
-0.0012926494 0.027561404 0.04342046 -0.026268259 0.078781724 0.030565232 0.05286311 0.10482046
0.024367051 0.028552866 0.021443462 -0.027303886 0.0326564 0.06451549 0.11002457 -0.022965897
0.026399301 0.007504132 -0.0043638907 -0.017491268 0.061618596 0.08455946 0.02858385 0.044774324
0.02487175 0.008334415 0.03560149 -0.031625044 0.051268343 -0.07809 0.030899111 0.020988183
-0.017333891 0.039669096 -0.0180913 0.025001824 0.035079468 0.11125415 0.02417041 0.06539784
-0.014489938 -0.018120611 -0.01272569 0.046270262 -0.018188847 -0.029835805 -0.009207535 -0.02708496
-0.009409997 0.03878526 0.02385053 0.012548427 -0.034946915 0.027716095 0.021342507 -0.010366241
0.06360815 -0.022826992 0.04032335 0.12761924 0.0 -0.017339248 -0.018406695 -0.03176062
0.0758235 -0.028333299 -0.018984418 0.036623582 0.0 -0.010088749 0.023323502 0.10365217

Actor.weight f4 [5, 128]
00000000: 00ac a2ba 3b55 a5bc 977c c7bc 1067 a33c
00000010: f8ff e53d 2389 93bc 8c06 8ebc 7652 c03a
00000020: 82cf 04bc 02aa 89bb f050 e73d 2719 563b
00000030: 046a 303e 9414 2f3e d982 f7bb 714b d6bb
00000040: 3f6e 48bc 08f0 bfba e763 e4bb 2ebf e2bc
00000050: 1ec3 333d a4f5 d73b fea9 13bc aa6e ab3d
00000060: 4937 a8bd 0f8f 273b fc4b 9a3b 2389 d93b
00000070: 8ae9 3c3c 92e6 2c3e 1051 f9bc 7c58 2b3b
00000080: b431 09bd 280e f8bb b004 60bc 9d6d fb3b
00000090: d4ec 643e 541b 0a3e 98b2 3cbb bcdf 8f3c
000000a0: 77e5 96bc f107 363e 1098 d53d 98b8 573c
000000b0: 81d2 f6bc 122a f9bb fb6f 943e 9c8a d1bc
000000c0: 811c fbbc 696f 18bd ef2d 9f3d 3ff8 f7bc
000000d0: 6229 2ebb 7d33 2ebc 4530 23bd ab6d 94bc
000000e0: 8e43 1ebe 820c 07bd f575 103d e770 17bc
000000f0: 86ba 203d a439 37bd cbe1 4d3e efa7 e63d
00000100: 41d0 b73a e543 ddba 6679 8a3d 9942 9e3b
00000110: c1e9 d1bc d09a 453e a576 f23d d190 853a
00000120: d46b ac3c 9156 a0bc 1237 053d 8e41 f2bb
00000130: 7019 16ba 3581 0e3e 7514 6abb f3d2 b9bc
00000140: da9d d93b aa68 543d 8b86 70bc bc86 c9bc
00000150: 46ee 1e3e 410d cc3d 6323 e6bc 6ba7 c83d
00000160: 24d7 d8bc 3c41 91bc 89b3 723c 78ea afbc
00000170: 7cb7 7abc 2968 d33d a2e9 2b3d c9ee ed3d
00000180: 506b 97bc c28c 223d acaa 223c 792f 9b3c
00000190: a037 913a ba54 04bd 0933 003d 6847 fa3a
000001a0: 280f 473b 7da6 edbb b128 00bd c4eb 23bc
000001b0: 81c0 54bb 5047 09bc b6fd c63c ba5f 9f3d
000001c0: 1c9c 92be b672 a7bc cf69 a4bc 11c9 11bc
000001d0: 79e4 9f3b f2d1 0dbc a92e ffba 6ca9 e43b
000001e0: f168 a63d fe43 4a3b afc5 bfbc ff53 e7bc
000001f0: c4eb b63b 6bde 3fbc cbab fbbc a75e d53d
00000200: 6bf3 963a a7be 983c b2fa ac3c fe9b 613d
00000210: 308c 05bd 45b8 213b df2d 4e3c ebf8 243c
00000220: 740e ad3c d43f a83c 6098 b5bd 4493 babc
00000230: 9e3f 32bd e69f 2dbd da26 dfbc a7e5 cd3c
00000240: 41e5 2c3c e8b7 a93c 6051 373b 40ba 923c
00000250: e8fe 0f3e 0a72 45b9 580f 4f3c ee1f 4bbd
00000260: d2dc 853d cce1 70bc 68a9 52bc 27b8 963c
00000270: 82d4 d53d 02fb 72bd ef4e 973c 091a c13b
00000280: 0923 873c fb90 08bc 7764 043c d728 153c
00000290: de12 44bd 5207 b33b e3eb 533c 12a8 a3bb
000002a0: 4070 0f3c 4ca8 9dbd b94b 353b cef4 083c
000002b0: 6281 5abb 18f3 0f3c 09f5 2c3d 876f 9fbc
000002c0: a038 643c 5431 3d3c 68fb 56bc c1fc 9f3c
000002d0: 775d 143d 057b aa3a 964c 5a3c a607 da3b
000002e0: b035 463d abee 8b3c 894f d73d 78e5 fc3a
000002f0: 2a34 cd3b d4d6 8b3c 770b d7bd fded 9dbd
00000300: 0c56 0439 2430 c1b8 0503 9b3c a195 86bc
00000310: 2086 b83c 29cd 6f3d 21ed 90bd 8e1f a6bc
00000320: 7785 8c3d c75f 773b 08af 10bd dfc7 29bb
00000330: b8df e03c 3abc 47bd e289 453c 31d0 b4bb
00000340: 94ee 753c eb0a e23c bd06 df3c cf04 e13a
00000350: f043 aebd 6302 3abc 3c55 bd3b f5c2 503d
00000360: 8241 95bd 6e28 bf3b f40d 0b3c 83cd 833c
00000370: 4570 483c bf19 35bd 7617 583c 333c d4bd
00000380: aac8 013b 0e6f ef3b 4f53 e9bc 3426 1c3d
00000390: 64c1 c53b f47e ae3d 8c65 5cbc eda3 68bb
000003a0: 966e ec3b 2de0 533c 6aba 253c e0d6 42bc
000003b0: 236b c93c 2b12 0f3b fbac 483d 2c9a c0bc
000003c0: 4b92 5d3d 3095 593c d782 443c b5a0 82bd
000003d0: d0aa 53bb 38ea 813b bcee daba 58a6 da3c
000003e0: 6581 abbd 8760 6b3c 55ed 0ebc 15bc 9d3b
000003f0: b0e7 4cbc 93d8 bb3c 03fe 9e3c 71de cdbd
-0.0012410879 -0.020182243 -0.024351401 0.019946605 0.11230463 -0.018009728 -0.017337106 0.0014673013
-0.008106114 -0.0042011747 0.112947345 0.00326688 0.17227942 0.17097694 -0.00755344 -0.006539755
-0.012233316 -0.0014643678 -0.006969917 -0.027679052 0.04388725 0.006590562 -0.009012697 0.08370717
-0.0821367 0.0025567447 0.004708765 0.0066386624 0.011530289 0.1688483 -0.030434161 0.002614527
-0.033494666 -0.007570047 -0.013672993 0.007672979 0.22355968 0.13486987 -0.0028792974 0.01756274
-0.018419964 0.17776467 0.10429394 0.013166569 -0.030129673 -0.007603892 0.28991684 -0.02557879
-0.03065324 -0.037215624 0.07772433 -0.03026974 -0.002657496 -0.010632393 -0.039840955 -0.0181187
-0.15455458 -0.032970913 0.035268743 -0.009243227 0.039240383 -0.044732705 0.20105664 0.112624995
0.0014023856 -0.0016881196 0.06761436 0.0048297164 -0.025624158 0.19297338 0.11839036 0.0010190253
0.02104751 -0.019572528 0.032523222 -0.0073930686 -0.00057258364 0.13916476 -0.003571776 -0.022683596
0.006641132 0.051857628 -0.014680515 -0.02460038 0.15520582 0.099634655 -0.028093046 0.097975574
-0.026469775 -0.017731301 0.014813312 -0.021474108 -0.015302535 0.10322601 0.041970856 0.1161781
-0.018483788 0.03968502 0.009928387 0.018943535 0.00110792 -0.032307364 0.03129867 0.0019094767
0.0030374024 -0.007252513 -0.031288806 -0.010004941 -0.0032463374 -0.008378819 0.0242909 0.0778193
-0.28634727 -0.02044044 -0.020069985 -0.008898036 0.004879531 -0.008656012 -0.0019468862 0.0069782045
0.08125485 0.003086328 -0.023409693 -0.028238295 0.0055823047 -0.011710743 -0.030721566 0.10418444
0.0011516636 0.018645598 0.021115635 0.055080406 -0.032604396 0.0024676484 0.012584179 0.010069112
0.021125056 0.020538248 -0.08866954 -0.0227753 -0.0435177 -0.04238882 -0.027240206 0.02513392
0.010552705 0.020717576 0.0027972087 0.017911077 0.14062083 -0.00018829867 0.012637936 -0.049590997
0.06536259 -0.014702272 -0.012857772 0.018398358 0.10440923 -0.05932141 0.018470256 0.005892996
0.016496198 -0.008335347 0.008080593 0.009103975 -0.047869556 0.005463519 0.012934658 -0.004994401
0.00875479 -0.07698116 0.0027663542 0.008359147 -0.0033341278 0.008785985 0.04222587 -0.01946236
0.013929516 0.011547405 -0.013121463 0.019529702 0.036221948 0.0013006633 0.013323924 0.006653744
0.048391044 0.01708158 0.10513217 0.0019294461 0.006262322 0.017070211 -0.105002336 -0.07711408
0.00012620556 -9.211924e-05 0.018922338 -0.01642877 0.022524893 0.058545265 -0.07076479 -0.020278718
0.06861394 0.0037746297 -0.035323173 -0.0025906486 0.027450427 -0.04876349 0.0120568 -0.0055179824
0.015010495 0.027593097 0.027224893 0.0017167571 -0.08509052 -0.011353108 0.005777983 0.050967176
-0.07287885 0.005833677 0.008487213 0.016089207 0.012233798 -0.044214007 0.013189187 -0.103630446
0.0019803443 0.00730694 -0.028482107 0.03812237 0.006035017 0.08520308 -0.013451945 -0.0035498098
0.0072153313 0.012931866 0.010115245 -0.0118920505 0.02458722 0.0021830897 0.048993092 -0.023511015
0.054094594 0.013280198 0.011994085 -0.06378309 -0.0032297857 0.0039646886 -0.0016703228 0.026690647
-0.083742894 0.014366276 -0.008723577 0.004813681 -0.0125064105 0.02293042 0.019408232 -0.10052193

Actor.bias f4 [5]
00000000: 4246 2d3c 2cae 82bc a1f1 4b3d 8d21 1abd
00000010: 9e92 633d
0.010575833 -0.015952192 0.049790982 -0.037629653 0.055559747

Critic.weight f4 [1, 128]
00000000: 1060 083e 3244 9c3e 14a2 893e 0c95 afbf
00000010: 9c30 70bf 4c16 943e a350 f53e 9b66 e83e
00000020: c7e2 cf3e bcd7 ca3d 3b36 133e 7d27 873c
00000030: c0a7 40bf d055 d3be e9d1 79bf 9359 bd3e
00000040: 5f11 bb3e ba78 953e 6d13 863e 0af6 ba3e
00000050: cf25 4dbf 8181 e33e 3518 8a3e 2d7d 54bf
00000060: 050b 6c3f d91d d0bc 948d ccbc 5f21 c93e
00000070: 6660 47bf 067a 80bf 867d c43e a602 b33e
00000080: 5966 a53e 1b55 16be 62df 873e a68e 93bb
00000090: 9f45 03bf bd3b dc3e 010e d73e 5e39 9fbb
000000a0: 95b2 af3e 0748 9ebf 345f d2bc 0e4b 753e
000000b0: 0892 9c3e 5f34 8b3e 3b95 04bf 196c ab3e
000000c0: 9aea d53e 6794 b13e 3804 3c3f e6c4 b23e
000000d0: c972 953e 8d0c ce3b 60f6 943e 09ed fdbb
000000e0: b895 153f b822 b53e 4b5d bfbe 9b00 75bd
000000f0: 7c95 33bf a2dd d53e d749 89bf 3850 94bf
00000100: 2435 c13e de55 ab3e 237f b7be e848 c8bd
00000110: 02b8 d43e 5645 fbbe 2966 89bf a735 cfbc
00000120: a6d7 0bbf c019 41be 61f0 35bf 3d9b adbc
00000130: 019f 823e d0d5 19bf 6811 b63e 82c8 a53e
00000140: b460 d63e 0f87 00bf b689 de3e aa5a c0bc
00000150: a4f7 e6be 1e84 11bf 840a 9c3e b4e4 e33e
00000160: 04ee 7ebe f1e6 993e 0f2c dfbc e688 c03e
00000170: f9ce b23e 021f a0bf dd05 f0be 3c50 d9be
00000180: 55b9 bcbd cac9 47bd 1bd6 55bc bbe0 f1be
00000190: ead2 aabd 2629 8cbe dfe8 c4bd f3fe 9bbd
000001a0: 524c a1bc 4325 a23e eb3f c73e 4eb9 c7be
000001b0: 6b3d a5bc 96b9 b43e ef49 fd3e c09e 04bf
000001c0: c1de 3f3f 0b10 8cbd 2b8f b73e 3599 acbf
000001d0: 89dc f6bd f072 0ebc b757 2abc 7425 f7bd
000001e0: a4c5 93bf c50f d6bd 16db 2cbe d354 993e
000001f0: 66c2 0a3d 211c 5fbd 4b55 ea3e b372 92bf
0.13317895 0.3052078 0.26881468 -1.371736 -0.9382417 0.2892326 0.47913083 0.45390782
0.40602705 0.09904429 0.14376156 0.016498322 -0.75255966 -0.41276407 -0.9758592 0.36982402
0.3653669 0.2919367 0.26186696 0.36515838 -0.80135816 0.4443474 0.26971593 -0.83003503
0.92204314 -0.025404857 -0.024969853 0.39283273 -0.7788147 -1.0037239 0.38377017 0.34962958
0.32304648 -0.14680903 0.26537615 -0.004503089 -0.5127811 0.43014327 0.42002872 -0.0048591336
0.34315935 -1.2365731 -0.025680162 0.23954412 0.30580163 0.27188393 -0.5179021 0.3348091
0.4178055 0.34683535 0.7344394 0.34915847 0.29189137 0.0062881173 0.2909422 -0.007749204
0.5843158 0.3537805 -0.37375864 -0.05981503 -0.7014997 0.41770655 -1.0725659 -1.1586981
0.37735856 0.3346395 -0.35839185 -0.09779531 0.41546637 -0.49076337 -1.0734302 -0.025294138
-0.5462593 -0.18857479 -0.71069914 -0.021192187 0.25511935 -0.60091877 0.35560155 0.32379538
0.41870654 -0.50206083 0.4346444 -0.023480732 -0.4511081 -0.5684222 0.30476773 0.44510424
-0.24895483 0.30059007 -0.027242688 0.37604445 0.34923533 -1.2509463 -0.46879473 -0.42444026
-0.09215037 -0.048776425 -0.013051535 -0.47241768 -0.0834101 -0.27375144 -0.09614729 -0.07616987
-0.019689713 0.31669053 0.38915953 -0.39008564 -0.020170888 0.3529784 0.4947047 -0.51804733
0.7494927 -0.068389975 0.35851416 -1.3484255 -0.120537825 -0.008694395 -0.010396889 -0.120676905
-1.154469 -0.104522265 -0.1688045 0.29947528 0.0338768 -0.054470185 0.45768198 -1.1441253
