singleTraining.pth (torch, 190228 bytes, 7 tensors)

Network.0.weight f4 [256, 50]
00000000: e3f7 263d 0535 bb3d 8767 96bd f882 c63d
00000010: 7b76 a2bd aec4 373d f38b 853d 8704 51be
00000020: f3b0 793d 869b 903c 5df1 4d3c 8e72 973d
00000030: 327a f53d a478 fb3c 0e37 ba3d e824 90bd
00000040: 4865 19be b97d b83d 89ac 0c3a 918d 613c
00000050: 531d a13c fcdd 0ebe a7d7 e73d 755e 81bc
00000060: 8cb1 83bd 0d38 ecbc 142c e5bc 0351 97bd
00000070: f7f6 913d 1830 3c3d 1ff6 46bd 1693 b9bd
00000080: 830e 84bd 58eb 8f3d d0c1 9abd 06b6 6bbc
00000090: 3baa dc3d 759d 383d 6bba 03bc 0878 f73d
000000a0: 3408 34bd 3b48 f5bd 6c13 54bd ea0b 8b3d
000000b0: b683 94bd 7910 bbbd a51a 183e ddbd a93c
000000c0: a6d8 b4bc 8da9 3d3d 9de9 cc3d fa38 913c
000000d0: 1d15 16bc 271b 2b3e b722 a73d 22b6 483d
000000e0: bda3 19bd db37 b2bc 5efe a5bd 3f32 bc3c
000000f0: 175e e73c 742c 173d 2eb8 0a3d 1c39 933d
00000100: 43f8 f8bd 4b23 5a3d 2522 b63d 7383 e03d
00000110: 2f8a 0cbd 1cd6 da3c 4a57 c93d 2bf8 1abd
00000120: 8785 d23d 878e 273e ecf7 c2bd fe51 01be
00000130: b321 ae3d a512 4abd 04b5 4ebe 359e 18bd
00000140: b4d3 533d 5b7b 893c 0a05 773d 8b6b 1fbe
00000150: 441c 25bd 3220 1d3e bc19 b9bd c533 be3d
00000160: 1af5 163c 1e79 983b 0d5e 0abe 0fe4 f0bc
00000170: 09df c5bb 6db1 5c3e 251a 113e e138 6abd
00000180: d609 643d dae4 21bd e9ac 0c3e 7c04 033d
00000190: 339d 06bd 9dbc eebd 5eee 673d a0d6 2dbe
000001a0: 4c3d debd 2219 2cbd 3573 e93d 7b0f abbd
000001b0: 289d 8e3d b861 5a3d 0487 b9bc 46d4 0b3e
000001c0: 6d9b 473e f1cc a3bd be4f 70bc 3b6c 393d
000001d0: 984c 38bd 6502 c2bd 368a 173d a0ee 4dbd
000001e0: 1ee7 a73d 47d4 d7bd 8652 19bd 8dfd 29bb
000001f0: 8532 fbbb 8226 09be fdf4 14be 1d31 473d
00000200: 67ac 0cbd 501b 133e 7ede 6abd 9290 bc3d
00000210: f271 f43d a5d4 1d3d 2d06 48bd 6a3c aa3d
00000220: 4200 5bbd d819 97bc 535c d23d 9a52 15bd
00000230: a1c0 a9bc 8395 bbbd 9243 acbd c933 9b3d
00000240: d953 e63c 6d61 8a3d 8796 ee3d 8c88 15be
00000250: 6445 8b3d 0e1a 693d fee7 8f3d cafb d23c
00000260: e011 eb3d 7057 e83d e4fc 34be 93cf f63d
00000270: 1393 7f3b 621f cd3c dc7d 243d dca6 693c
00000280: 5775 71bd 199e 2e3d d4c5 03bc 89d2 b63d
00000290: 73df 343d d15f dcbd 72b6 98bd 5629 843d
000002a0: e302 693a 3432 613d 17ba 6c3c e25f 2cbc
000002b0: 8d57 6c3c 5b29 10bd ed27 4cbd f34a 60bc
000002c0: 2483 493e 017b bebd 0a7b 523d 7388 bb3c
000002d0: e8e9 2ebc 79a4 e0bd 7936 a63c d891 153e
000002e0: 538b aebd 686d 7abd 277b 2fbd e132 29be
000002f0: b1ca 0abd fd8d 23be d2b2 2ebe ead6 063c
00000300: f0e7 0bbe 8ac9 b13c 9dfc 0abe 1611 4b3e
00000310: 602d 473e 6b64 f2bd 83b9 1a3d e53e e1bd
00000320: 5e3b 96bd 2739 473d fffc 8b3c f5a9 80be
00000330: 654f 453d c160 e03d 877b 87bd f58a 6d3e
00000340: 35d8 8e39 243e a4bd 9172 313d 012b 093c
00000350: 0d93 463d 8cd3 bdbd 8b18 9a3d 346a c6bd
00000360: 5430 babd 718f e83a a02a e0bc 9357 8dbb
00000370: cb85 9e3d 570b a63d d55c d5bd 11cb b2bc
00000380: cebb 7d3d debe 183d 5845 b23d 682a bebd
00000390: 0224 b3bd 899b 36be c233 abbc ca7d b63d
000003a0: 5348 31bd 80e4 cb3d 4931 463d 1243 1fbd
000003b0: 2870 3cbd 384e a23d 3116 2a3e 005e c13d
000003c0: 4e73 8fbd 1b2c 4a3e 2604 1b3e b758 e0bd
000003d0: f3d6 bdbd 4a1c 08be c3d8 a9bc ba5f 03bd
000003e0: 15ff 01bd 2723 cabc 73df 04bc ffb5 5b3e
000003f0: d70a 293b 16d0 403e cf28 50bd 579b 313e
0.040763747 0.09140972 -0.07343965 0.09692949 -0.079327546 0.044865303 0.06520834 -0.20411883
0.060959768 0.017652284 0.0125697525 0.073948964 0.119861975 0.030697174 0.09092532 -0.07038289
-0.14980042 0.09008355 0.0005366286 0.013766662 0.019667303 -0.13951868 0.11320429 -0.015792111
-0.06430349 -0.02883532 -0.02797512 -0.07388499 0.07127183 0.045944303 -0.048574563 -0.090612575
-0.064480804 0.0702731 -0.07556498 -0.0143866595 0.107746564 0.045072038 -0.008040051 0.12083441
-0.043953136 -0.119766675 -0.051776335 0.06789382 -0.07251684 -0.09134001 0.14853914 0.020720417
-0.022075962 0.046304274 0.10005496 0.017727364 -0.009160307 0.16709577 0.08160918 0.04900182
-0.03750967 -0.02175515 -0.08105157 0.022973178 0.028243108 0.03690763 0.033867054 0.07188627
-0.12156727 0.053256314 0.08893231 0.10962572 -0.03431147 0.026713423 0.09831102 -0.037834328
0.102793746 0.16362964 -0.095199436 -0.12628934 0.08502521 -0.049334187 -0.2018624 -0.037260253
0.051715568 0.016782453 0.06030754 -0.15568368 -0.04031016 0.15344313 -0.090381116 0.09287218
0.00921371 0.00465311 -0.1351244 -0.029405622 -0.0060385508 0.21552058 0.1417013 -0.05718315
0.055673443 -0.03952489 0.13737835 0.0319867 -0.03286476 -0.11657069 0.05662381 -0.16976404
-0.10851535 -0.042016156 0.11398927 -0.08352562 0.06963569 0.053315848 -0.022647388 0.13655195
0.19492884 -0.07998074 -0.0146674495 0.045269232 -0.04499492 -0.09473113 0.036997043 -0.0502764
0.08198379 -0.105385356 -0.037432216 -0.0025938482 -0.0076659345 -0.13393596 -0.1454658 0.048630822
-0.034344103 0.14365888 -0.05734109 0.09207262 0.11935796 0.03853287 -0.048834015 0.08312304
-0.053467043 -0.01844494 0.10271516 -0.036455728 -0.020721735 -0.091593765 -0.084113255 0.075782366
0.028116154 0.06756864 0.116498046 -0.1460287 0.068003446 0.056909613 0.07026671 0.025754828
0.11478019 0.113448024 -0.17674595 0.120513104 0.0038997575 0.025039379 0.04015909 0.014260974
-0.058949795 0.042631242 -0.008042771 0.08926875 0.04415841 -0.10760463 -0.07456674 0.06453197
0.0008888675 0.054979518 0.014448664 -0.010520907 0.014425171 -0.03519569 -0.049842764 -0.013689744
0.19678932 -0.09300805 0.05138687 0.022892212 -0.010675885 -0.10968871 0.020289646 0.14606416
-0.08522668 -0.061139494 -0.042842057 -0.16523315 -0.033884708 -0.15972133 -0.17060402 0.00822995
-0.13662696 0.021702547 -0.13572927 0.19830737 0.19450903 -0.118355595 0.037774574 -0.10998324
-0.07335542 0.04863849 0.017088411 -0.25129667 0.04817142 0.10955954 -0.06615358 0.23197539
0.00027245437 -0.08019665 0.04332215 0.008372069 0.048480082 -0.09268865 0.075242124 -0.096882254
-0.09091249 0.0017742944 -0.027364075 -0.004313418 0.07740363 0.08107632 -0.10418097 -0.021825345
0.061946683 0.0372914 0.087046325 -0.09285432 -0.08747102 -0.1783277 -0.020898703 0.08910711
-0.043281864 0.09955692 0.048386846 -0.038882323 -0.046005398 0.07925075 0.16610028 0.09441757
-0.070044145 0.19743387 0.15138301 -0.10954421 -0.09269514 -0.13292041 -0.020733243 -0.032073714
-0.031737406 -0.024674965 -0.008109915 0.21456145 0.0025793815 0.18829378 -0.050820168 0.17344414

Network.0.bias f4 [256]
00000000: 8c13 243d 9a99 2a3d 0000 0000 5411 2f3d
00000010: 0000 0000 aa3f 033c 7477 513d 0000 0000
00000020: 1abf 573c 5e54 373d 0000 0000 613e cfbc
00000030: 0000 0000 58e8 bf3c 636d 103d 6d89 2a3d
00000040: 8fcd 4d3d c865 213d 0000 0000 0000 0000
00000050: a5ec 363d 0000 0000 daf3 303d 4225 3a3d
00000060: 0000 0000 1c7c 563d 0000 0000 0f24 333d
00000070: 0000 0000 8651 1a3d 0000 0000 8806 92bc
00000080: 0000 0000 29ad 463d 6e1d 473d 0000 0000
00000090: 78e8 353d 0000 0000 353d 1a3d 4196 273d
000000a0: 0000 0000 09be 4f3d f508 08bc 0000 0000
000000b0: 3b80 4e3d f939 363d 8186 2a3d 95c9 2c3d
000000c0: 0000 0000 2bd1 173d 0000 0000 0000 0000
000000d0: 0000 0000 0000 0000 0000 0000 3d77 343d
000000e0: 0000 0000 daea 443d 0000 0000 5797 2a3d
000000f0: 0a31 113d e945 2a3d 1302 1b3d cc02 2c3d
00000100: 5456 4b3d 9da3 2f3d 8c4a 343d 0000 0000
00000110: 0000 0000 0000 0000 0000 0000 7f52 8cbc
00000120: 0000 0000 0000 0000 0000 0000 0000 0000
00000130: 0000 0000 0000 0000 bbf5 2f3d 0000 0000
00000140: 0000 0000 f453 16bc 0000 0000 9fb9 943c
00000150: 0000 0000 88dd f63c 6425 acbc e824 45bc
00000160: d550 acbc 0000 0000 0000 0000 2f62 363d
00000170: 0000 0000 0000 0000 0000 0000 0000 0000
00000180: 0000 0000 b8b5 433d 0000 0000 9ef8 6ebc
00000190: 0000 0000 0000 0000 2f47 383d 0000 0000
000001a0: da88 303d 09de 483d 4610 2c3d 3504 bfbb
000001b0: 1b2e 3f3d 7472 353d 0689 2f3d 1aa7 503d
000001c0: 0000 0000 8b39 2a3d 27bc 3c3d 0000 0000
000001d0: 60dd 4b3d 17be 1e3d cc2b 353d 6203 543d
000001e0: 0000 0000 b471 593c 0000 0000 0000 0000
000001f0: 0000 0000 0000 0000 0000 0000 0000 0000
00000200: eba5 21bc 7fba 433d 6f53 443d 0000 0000
00000210: 29b9 30bc 0000 0000 0000 0000 0000 0000
00000220: 0000 0000 0000 0000 0000 0000 0000 0000
00000230: 0000 0000 0000 0000 9037 363d 8b93 cdba
00000240: 71c1 263d 26b3 4c3d 0000 0000 0000 0000
00000250: 88af 243d 2811 853b 0000 0000 525a 353d
00000260: 0000 0000 f393 2a3d 0186 133d 9539 3a3d
00000270: 0000 0000 0000 0000 e200 153d 0000 0000
00000280: 5d93 fd3c 0000 0000 0000 0000 8e55 493d
00000290: e35e 313d 0000 0000 8d2d 413d a261 173d
000002a0: cd39 2b3d 0000 0000 0c81 1a3d 0000 0000
000002b0: 0000 0000 0000 0000 65c5 0b3d 0000 0000
000002c0: 0000 0000 00f9 373d fab1 313d 0b08 343d
000002d0: 460b 583d 165a 1c3d 0000 0000 8900 7ebc
000002e0: f391 2d3d 0000 0000 e02c 153d 83db febb
000002f0: 0000 0000 0000 0000 0000 0000 0000 0000
00000300: 0000 0000 2dd4 283d 0000 0000 32f9 5a3d
00000310: c78f 593c 5324 32bc 0000 0000 d956 3d3d
00000320: 055a 223d 59e2 b03c 0000 0000 0000 0000
00000330: c271 483d 0000 0000 0000 0000 667c 243d
00000340: 8dcb 983c a6b8 423d 7529 1b3d bc04 063d
00000350: deff 333d 347e 2d3d 6de9 3a3d 918e 453d
00000360: b929 353d 3773 b23b bd25 053d 0000 0000
00000370: a397 23bb aca1 cc3c 0000 0000 5eed 323d
00000380: 0000 0000 50b9 393c 14e6 133d 0000 0000
00000390: fa1d 6dbc 0000 0000 0000 0000 0000 0000
000003a0: 2135 303d 5d04 093d 1ed0 103d a458 a9bb
000003b0: 749b 933c 0000 0000 0eef 2d3d c68c d9bb
000003c0: 0000 0000 0000 0000 0000 0000 be33 343d
000003d0: 3650 2a3d 9446 443a e9b0 3c3d 1374 5abc
000003e0: 0000 0000 0000 0000 0000 0000 35d3 143d
000003f0: 0000 0000 eb03 c33c e8c9 233d 90a7 2d3d
0.040057704 0.041650392 0.0 0.042741135 0.0 0.008010784 0.05113931 0.0
0.013168121 0.044758193 0.0 -0.0252983 0.0 0.02342622 0.03526057 0.041634966
0.050244864 0.039403707 0.0 0.0 0.044659276 0.0 0.043201305 0.045445688
0.0 0.052364454 0.0 0.04373556 0.0 0.037675403 0.0 -0.01782538
0.0 0.048504982 0.04861205 0.0 0.044411153 0.0 0.037656028 0.040914778
0.0 0.05071834 -0.008302917 0.0 0.05041526 0.04448888 0.04163218 0.04218443
0.0 0.037064712 0.0 0.0 0.0 0.0 0.0 0.044059027
0.0 0.048075534 0.0 0.041648235 0.035447158 0.041570578 0.037843775 0.041994855
0.049642876 0.042880643 0.044016406 0.0 0.0 0.0 0.0 -0.017129181
0.0 0.0 0.0 0.0 0.0 0.0 0.042958956 0.0
0.0 -0.009175289 0.0 0.018154917 0.0 0.030134931 -0.021013923 -0.012032725
-0.021034637 0.0 0.0 0.04452723 0.0 0.0 0.0 0.0
0.0 0.047780722 0.0 -0.014585642 0.0 0.0 0.04498976 0.0
0.04309926 0.049039874 0.042007707 -0.005829359 0.04667483 0.044298604 0.042855285 0.05094061
0.0 0.041558784 0.046077874 0.0 0.049771667 0.038755503 0.04423122 0.05176104
0.0 0.013271738 0.0 0.0 0.0 0.0 0.0 0.0
-0.009866218 0.04778528 0.04793113 0.0 -0.010786333 0.0 0.0 0.0
0.0 0.0 0.0 0.0 0.0 0.0 0.044486582 -0.001568423
0.040711824 0.049975537 0.0 0.0 0.040206462 0.004060883 0.0 0.04427559
0.0 0.041645 0.036016468 0.04546507 0.0 0.0 0.036377795 0.0
0.030954057 0.0 0.0 0.049153857 0.04330338 0.0 0.04716258 0.036958344
0.04180317 0.0 0.037720725 0.0 0.0 0.0 0.034123797 0.0
0.0 0.0449152 0.043382622 0.043952983 0.052745126 0.03817185 0.0 -0.015503057
0.042375516 0.0 0.03641975 -0.0077776327 0.0 0.0 0.0 0.0
0.0 0.04121797 0.0 0.053460307 0.013278908 -0.010872918 0.0 0.046225403
0.03963663 0.021592306 0.0 0.0 0.048936613 0.0 0.0 0.040157698
0.018651748 0.047539376 0.037881333 0.03271936 0.043945186 0.042356685 0.04563277 0.048231665
0.044229243 0.0054458636 0.032506693 0.0 -0.0024962209 0.024979435 0.0 0.043683402
0.0 0.011335686 0.03610809 0.0 -0.014472479 0.0 0.0 0.0
0.043019418 0.033451427 0.035354726 -0.0051680375 0.018018462 0.0 0.04246431 -0.006639096
0.0 0.0 0.0 0.043994658 0.0415804 0.00074873236 0.046067152 -0.013333338
0.0 0.0 0.0 0.036334235 0.0 0.02380558 0.039987475 0.04239613

Network.2.weight f4 [128, 256]
00000000: 6798 07bd 0fb5 f43d 2e06 e6bd aa8d e5bd
00000010: d1e9 42bd 835e 443d 0f4a cfbb 18d7 fabd
00000020: 5f0d 073e c406 e0bd 196b 09be 2164 22be
00000030: 7913 713d f1b0 32bd 5cec f0bc 3f1d 1f3d
00000040: fe91 3abe a03f c23d 7959 b83b 6db7 efbd
00000050: ad7d c6bc aa7c f03d d4ce 943a 5b5f 753c
00000060: 18af e53c b92f e8bc b6f8 fe3c b96d c9bd
00000070: 02ee 9f3c 07b7 663d 2d82 e3bd 66ae 033e
00000080: 56f2 e53d a65a 5e3d 7aed 05bd 84ee adbd
00000090: 972e 71bd 4523 26be b547 9b3c 147d 0f3e
000000a0: 695e b1bd 0660 bcbc ea7b 963d f21c d4bd
000000b0: 9234 18bb 904a 6bbe 0145 1d3d 925e 73bc
000000c0: 5b81 1cbe 0f2d e33c 7288 753d 0718 13be
000000d0: 68a0 6cbc 18e9 f03d 2e73 fd3d 528a 973c
000000e0: b932 c439 0deb 9abc 4d64 2f3d f146 4bbc
000000f0: 1658 003e 5af4 083d 28c5 73bd e8b7 09be
00000100: 5484 783d ea84 b13d 3994 c9bd 9158 783d
00000110: 09e9 25bd 7545 363d 0949 b93d f663 0d3c
00000120: f489 87bd 3fb0 a6bd b257 be3d 1411 adbd
00000130: 25f9 ac3d 6172 31be 9f57 63bd 39fd abbc
00000140: edd9 243d 305b 943d 2c3e 113d 51c6 38bc
00000150: 1076 f0bc f1bd 51bd 5efc b7bd 1455 22bd
00000160: 25cb 52bd 75b2 213d e865 f6bc 2a5b 57bc
00000170: e723 f036 7b3f 723e 9c31 173c 0ad1 b9bd
00000180: da64 e63d 35db 9fbe b73e d1bd 2b8f 0bbd
00000190: f787 10be 648d 1c3e df42 7abd 2526 af3d
000001a0: f771 84ba c507 593d 8bf4 823d 094e b3bc
000001b0: 5b8c 993c b651 16bc 3176 8abd 49db a43d
000001c0: ad76 b6bd 3d55 06be dd88 aebd f214 6c3d
000001d0: e672 4dbc c4ce a9bd 1ce9 f8bd 0f62 babd
000001e0: b288 10be 4712 c1bc f7bb 8a3a 6257 06be
000001f0: b353 82bc df95 04be b1d3 a0bc 869e 47be
00000200: 9c9f 56be 7d87 8c3c 38d3 143e b417 8fbc
00000210: a84a 56bd b0a9 383e 6776 173d 9d9e fabc
00000220: b3aa f3bc c4cf 0dbe 61d7 ed3d c9b0 0bbe
00000230: fdd0 a8bd 100f c03c e993 ffbd cc5f c63d
00000240: f022 043e 80f4 d5bd 4ad5 2bbe dd3c fbbd
00000250: 3de9 9abd c3c6 84bb 5862 3dbd eea5 19be
00000260: e5ec a4bd ec5d 88bd a2f8 403c 21fd ce3b
00000270: fe40 483d a58e c03d c6a4 f53c af4b 713c
00000280: 2191 383e 9268 25bd bc9d 4e3d 89d0 b43d
00000290: 198e c1bd d6c7 e1bd ef47 283b 72d2 0e3d
000002a0: d617 c33d 32e3 1bbc 4a4c 8ebd f60b 0cbd
000002b0: 8bbe 6e3c a45c 21bc 0fc1 4ebd 0def 24bd
000002c0: b94a 943c 69ab c83d cdb5 8c3c e1f3 fd3c
000002d0: 4729 bcbc 8bb5 983d 1e4c 5a3d e491 013d
000002e0: ab57 d33d 3705 b73c 9b42 99bd 7d51 1d3d
000002f0: a80e 373e 484c c5bd 89bc 1f3d 4457 183d
00000300: 26c2 ca3c 9254 16bd a9aa 843d ae6c 74bd
00000310: 7526 e2bd 7799 f9bc a46e 743d f355 77bd
00000320: e0b4 a43d 3122 023e c285 453c 1f59 063e
00000330: fbac 753d 2c4d 0dbe 9d8b 9c3d c1b1 ba3a
00000340: 76f5 8abd 89c4 2d3d 785d 9bbd c3b0 503c
00000350: 9440 003c eb9f ab3b 7266 ef3c 077c d7bb
00000360: 882a bb3c d788 483d b782 1dbd 6b0f 08be
00000370: 6290 82bd 4ef1 473d e5de d53d ba1c ab3d
00000380: f995 583e 4899 913d 209d d238 b693 463d
00000390: 518b 65bd 23ea 09be db98 05bd f2e4 903d
000003a0: aafe e43d 9643 4cbd f403 12be 63f9 cbbd
000003b0: 37c7 29bd c9b2 413d 2bee 803b fa61 373d
000003c0: bb23 863d 8df9 34bd dfde 1b3e 2153 c6bc
000003d0: 5b86 09be 33da 863d d595 00be f2b5 e6bd
000003e0: 937e d83c 8380 35bc 546d 6b3d 6779 0b3c
000003f0: c60b 38be c749 533d 6638 0ebd 9003 383e
-0.033104327 0.11948597 -0.112316474 -0.11208661 -0.047586266 0.047941696 -0.006325967 -0.12248057
0.13188694 -0.109387904 -0.13419761 -0.15858509 0.05885646 -0.043625776 -0.02940958 0.03884625
-0.18219754 0.09484792 0.0056259003 -0.117049076 -0.024229849 0.11742528 0.0011353143 0.014976348
0.028037593 -0.028343068 0.031124454 -0.09835381 0.01952267 0.056326892 -0.111088134 0.12859496
0.112278625 0.054285668 -0.03269718 -0.08492759 -0.058882322 -0.16224392 0.018955091 0.14012557
-0.086605854 -0.022995006 0.073478535 -0.103570834 -0.0023224694 -0.22977662 0.038395885 -0.01485409
-0.1528372 0.027731447 0.059944578 -0.14364634 -0.014442541 0.11763209 0.123754844 0.018498573
0.00037421825 -0.01891091 0.042820264 -0.0124070505 0.12533602 0.033436157 -0.059514195 -0.13449061
0.060673073 0.086679295 -0.09842724 0.06063134 -0.040505443 0.044499833 0.090471335 0.00862979
-0.06618109 -0.08139085 0.0929407 -0.08450523 0.08445958 -0.17328788 -0.055503484 -0.02099477
0.040246893 0.07243955 0.035459682 -0.011277751 -0.029353172 -0.051206533 -0.08983682 -0.039631918
-0.051463265 0.03947683 -0.03007789 -0.013144294 7.156737e-06 0.23657028 0.009228136 -0.09073074
0.11249705 -0.3122193 -0.1021704 -0.034072082 -0.14114366 0.15288311 -0.06109893 0.08552197
-0.0010104765 0.052985925 0.06394299 -0.021887796 0.018743685 -0.009174755 -0.067608245 0.08049638
-0.08909354 -0.13118453 -0.08522198 0.057637163 -0.012539601 -0.082913905 -0.12153837 -0.091007344
-0.14114645 -0.023568286 0.0010584582 -0.13119271 -0.015909052 -0.12947796 -0.019632192 -0.19494066
-0.20959324 0.01715445 0.14533699 -0.017467357 -0.05231729 0.1803348 0.03697815 -0.03059321
-0.029744482 -0.13848788 0.11613346 -0.13641657 -0.08242986 0.023444682 -0.124793835 0.096862406
0.12903953 -0.10447025 -0.16780582 -0.12267468 -0.07564018 -0.0040520146 -0.046236366 -0.15004703
-0.080529965 -0.06658539 0.011778029 0.0063167964 0.048890106 0.09402207 0.029985797 0.014727517
0.18024112 -0.04038293 0.050443396 0.088288374 -0.09450931 -0.11024444 0.0025677641 0.034868665
0.09526031 -0.009514617 -0.06948145 -0.034191094 0.014571796 -0.009848747 -0.050477084 -0.04026704
0.018102037 0.09798319 0.017176533 0.03100008 -0.022968901 0.074565016 0.053295247 0.031633273
0.10319456 0.022341354 -0.07483407 0.03840779 0.17876685 -0.0963369 0.03899816 0.037192598
0.02475078 -0.036701746 0.06477863 -0.059673958 -0.11042491 -0.030468686 0.059675828 -0.060384702
0.08042312 0.12708355 0.012055816 0.13119934 0.05997942 -0.1379897 0.076438166 0.0014243649
-0.06785099 0.04242376 -0.07586187 0.012737456 0.007827897 0.0052375696 0.029223654 -0.0065760645
0.022847429 0.048958626 -0.038454738 -0.13287131 -0.06375195 0.04881411 0.104429044 0.083550885
0.2115096 0.07109314 0.00010042847 0.048480712 -0.056041066 -0.13468222 -0.032616477 0.07074918
0.11181386 -0.049869142 -0.1425932 -0.09959676 -0.04144975 0.047289643 0.003934642 0.044771172
0.06549784 -0.044183303 0.15221737 -0.02420956 -0.13430159 0.06584587 -0.12557156 -0.11265172
0.026427543 -0.011078003 0.05747731 0.008512831 -0.17973241 0.05158403 -0.034721754 0.17970109

Network.2.bias f4 [128]
00000000: 0000 0000 09d9 0a3d 1396 443d f80a 69bb
00000010: f568 11bc 2c99 103d 47e3 013d bebf fa3c
00000020: 3890 023d 0000 0000 0000 0000 0000 0000
00000030: f5b3 e7bb 6152 83bb 835a 08bc 19d2 033d
00000040: 866d 053d 597a 0e3d 11c2 313d fa91 0a3d
00000050: a619 ecba 78a1 fc3c f4dd 3b3d 53a7 a3bc
00000060: 0000 0000 efc3 19bc 314f 17bc d09c 003d
00000070: 7ecc 9cbb 66d3 35bb 3448 4a3c 9cf0 173d
00000080: 26f8 103d 0000 0000 1460 1b3d 39bb a5bb
00000090: 80f1 f7ba 0000 0000 bbfc 023d 3271 54bb
000000a0: 138f 0b3d 1c86 d7bb 0000 0000 6cdd 2a3d
000000b0: b60f 303d e1bb 493d ec97 cfbb 4d67 063d
000000c0: 02e1 163d 9cc4 043d 0000 0000 e631 083d
000000d0: 345f 173d 9ac8 17bc 95ee 3e3d 5813 e9bb
000000e0: 0000 0000 10e4 063d 0000 0000 d399 82bc
000000f0: ac2e 02bc 0000 0000 be78 18bc 0000 0000
00000100: 7ad9 013d 9f35 073d a788 dbbb 0000 0000
00000110: 9128 133d c2ca bfbb 0000 0000 3547 00bc
00000120: bac8 abbb 0000 0000 0000 0000 80bb 03bc
00000130: 44a0 1b3d 0000 0000 cc90 083d 51ab 1f3d
00000140: 0713 023d b23b 31bc 5d96 123d 7d26 20bc
00000150: 42d5 d4bb 1dc4 14bc 055d 0b3d 0000 0000
00000160: d669 60bc 8b88 173d c859 10bc 2a77 023d
00000170: 1709 153d 6ede 0ebc 20c9 7bbb 96dc e3bb
00000180: 95c4 47bc 8305 4bbc 0000 0000 1c60 1bbc
00000190: 0000 0000 0000 0000 0000 0000 0000 0000
000001a0: 0000 0000 6e83 193d 9d05 013d ef45 e4bb
000001b0: 0000 0000 fe95 053d 0000 0000 e29e 2dbc
000001c0: 0000 0000 d8a5 f5bb 6bd4 1a3d d5ff 9abb
000001d0: 0000 0000 0000 0000 a5ea 04bc 2539 90bb
000001e0: bc24 b6bb 4cd8 0dbc 0000 0000 a26c 133d
000001f0: 0000 0000 54fe eaba 2d13 ff3c a9c6 f7bb
0.0 0.033898387 0.047994684 -0.0035559516 -0.008875121 0.035302326 0.03171089 0.030609008
0.03187582 0.0 0.0 0.0 -0.007071013 -0.004007623 -0.008322361 0.032182787
0.032575153 0.03478465 0.043397967 0.03383062 -0.0018013015 0.030838713 0.045865968 -0.019977247
0.0 -0.009385093 -0.009235189 0.031399548 -0.0047851196 -0.0027744411 0.012346316 0.037094697
0.035392903 0.0 0.037933424 -0.005057719 -0.0018916577 0.0 0.031979304 -0.0032416102
0.034071993 -0.0065772664 0.0 0.04171507 0.042983733 0.04925144 -0.006335249 0.03281336
0.036835678 0.032414064 0.0 0.03325071 0.036956027 -0.009264136 0.04661425 -0.0071129017
0.0 0.03293234 0.0 -0.01594249 -0.007945698 0.0 -0.009306131 0.0
0.031701542 0.03301012 -0.00669964 0.0 0.03592736 -0.005853028 0.0 -0.007829477
-0.0052424343 0.0 0.0 -0.008040309 0.037994638 0.0 0.033341214 0.03898174
0.031756427 -0.010817455 0.03578793 -0.009774801 -0.006495149 -0.00907996 0.034024257 0.0
-0.013697108 0.036995452 -0.008810468 0.031851925 0.036385622 -0.008720024 -0.003841944 -0.006953786
-0.012192865 -0.012391451 0.0 -0.0094833635 0.0 0.0 0.0 0.0
0.0 0.037478857 0.031499494 -0.0069663445 0.0 0.032613747 0.0 -0.010596963
0.0 -0.0074965768 0.037800234 -0.0047302046 0.0 0.0 -0.008112584 -0.0044013434
-0.0055585783 -0.008657526 0.0 0.035992272 0.0 -0.0017928579 0.031137073 -0.007561524

Actor.weight f4 [5, 128]
00000000: 00ac a2ba 5274 1abc c781 cfba 8c4a 80bc
00000010: d5c9 353c 497b 18bc 9f98 b43b 6340 4a3c
00000020: e0ba 9f3b 9c9f ae3b ec53 b5bb 2719 563b
00000030: 60a9 bd3b d471 723c 43ff b83b 1af6 833c
00000040: 5d1c 50bb 804d 003c 3254 57bb da0d cfbc
00000050: 03ca 8ebb 2788 d93c f61a a8b9 62ea 83ba
00000060: fa39 70ba d0d0 373b e06f a13b eb19 ce3b
00000070: 66e7 75bc 60b2 12bc c99b 7d3b caf5 ebba
00000080: ae6d 58bc 99e5 02bc 564f e2ba b5d2 f93b
00000090: 77d7 4c3c 7b48 5c3a d5c2 ba3b 0089 183c
000000a0: d348 8e3b 370b 00bb cb53 ce3a b666 633c
000000b0: 0de3 51bc 1287 c0ba faa2 813a 00ec 1e35
000000c0: 5d39 acbb de61 83bc 2db6 97bb d726 12bc
000000d0: 6332 e2ba 8bb0 29bc d0bb babc 06ce 96bc
000000e0: 9cab 85ba 3c8a d9bb 7188 153c 7580 10bc
000000f0: 7841 acbb d201 4d3b 5f79 373b 8603 233c
00000100: 40d3 f6b7 b562 da3b 801b 8fbb 6af0 50bb
00000110: b07d fb3b 9b16 243b e9c4 14bc 57fb bebb
00000120: 66a1 673a 57c6 aabb 5a71 cf3a 9ff3 e7bb
00000130: 3073 26bb 5fb5 f5bb 052b bf3b ef0f 8abb
00000140: 4487 7fbb 0aaf b93a 4517 1f3c 0e71 98bc
00000150: d3d2 4bba bf54 08bc 8ef4 ad3a eb33 92bb
00000160: 3c6f bf3b 921a 88bb 2197 753c 1a67 22bb
00000170: 7edc 123b 92f4 a73a e349 913b d9ef 5cbb
00000180: fac3 94bc db8c 8f3b acaa 223c 3090 b1bb
00000190: a037 913a b54f 063b 0f13 23bc 93e9 933b
000001a0: 280f 473b 6c68 cabb dd76 8cbb 56dc f03b
000001b0: 67d3 34bb 8197 343b 1b81 aabb 37c0 643b
000001c0: 498e 903b 768f 99bc c958 853c a868 a9bc
000001d0: 79e4 9f3b 4788 3ebb f51f 483b ecba d83b
000001e0: 4ef3 9dbc 6f67 7539 1878 87bc be72 7eba
000001f0: c4eb b63b 0d43 06bc bf23 0ebc 1d53 c23a
00000200: 6bf3 963a 4059 6939 4896 603c 70b6 acbb
00000210: 5148 90bc a7b1 a5ba ab27 2d3b 2b72 3c3c
00000220: 2d36 123a 6ab6 613b c1d5 b13b d7c4 9fbc
00000230: 8a0b 36bb 8305 e4bb 812e 3dba 6c2e 933a
00000240: 57cc 5dbb 8380 833c 3d1c a43b 8c5a 353c
00000250: 372b e4ba 8fd7 0bbc 7ebb 063c 993d fb3b
00000260: ba3b d4bb e69d 7dbc 8d57 57bc 92ee 483c
00000270: 1b64 5bba 8f4b a0bb 4484 afbb 1669 293c
00000280: 5c7b da3a a9ba bfbb ab6b 543b 7d1d 133c
00000290: 6c41 ff3b 0b40 9cbb 9e62 8b3b a2f8 363b
000002a0: 4880 5fba 7e61 6fbc 23b7 713a 1468 4a3c
000002b0: 648f 38bb dcf5 f139 ccfa e53a 9f0f 7ebc
000002c0: 4686 30ba ff3d 98ba aa25 693c abb3 023b
000002d0: 8287 a93c 43cb 143b b089 863a 69e7 133c
000002e0: 7099 a03b 5f11 c7ba 98d8 653c bf64 1b3b
000002f0: c959 12bc f21d e23b f8a5 043c 4d1b 50bc
00000300: 765c 353a e88d f2ba 4aa4 b13b a4a0 a43a
00000310: 13eb d13b 671b 86bb 7fc2 88bc 3414 55ba
00000320: 0ec9 023c b876 ca3b 0a7a 65bc af28 a4bb
00000330: 4caf 7e3c d2ce dd3b 9d8d a13b b7e1 1bbc
00000340: aba6 663c a465 7a39 9419 bb3b 1a4f 91bc
00000350: 9428 17bc 2963 0b3c abcf 13bc 426c c73b
00000360: 863f ea3b f3e5 b3bb 3f73 943c 8fea 763c
00000370: da74 5dbb 3068 043c 1ee3 5fb9 2129 d539
00000380: 8060 a73a c117 053c 6b32 ecbc fe18 bd3b
00000390: 0251 fa3b cc30 153c 2ffd 0cbc 63d3 333b
000003a0: 560b 3f3c ed6a 593b 41d4 1ebc 0ba6 8dba
000003b0: 70e1 863c f0d0 37bc 4ae4 563c 2a31 8f3b
000003c0: a7a8 5d3b ad02 d939 355f bbbb f713 2cbb
000003d0: d0aa 53bb d09d bd3b 53b9 35ba f8cf 4b3c
000003e0: c2a4 7f37 3790 8f3c 6334 7a39 7315 1cbc
000003f0: b0e7 4cbc 1708 e13b 7819 a53b 5103 a2b9
-0.0012410879 -0.009427147 -0.0015831523 -0.015660547 0.011095484 -0.009306737 0.005511358 0.012344453
0.004874572 0.0053290855 -0.005533686 0.00326688 0.0057880133 0.014797647 0.005645664 0.016108561
-0.0031755187 0.007830977 -0.003285658 -0.02527516 -0.004357578 0.02655418 -0.00032063544 -0.0010064358
-0.00091639126 0.0028048046 0.0049266666 0.0062897108 -0.015008783 -0.008953661 0.0038697592 -0.0018002328
-0.013209743 -0.007989311 -0.0017266076 0.007623995 0.012502543 0.00084031344 0.0056994953 0.009310007
0.0043421774 -0.0019537935 0.0015741525 0.013879469 -0.012810481 -0.0014688692 0.000989049 5.920301e-07
-0.0052558617 -0.016037878 -0.0046298713 -0.008920393 -0.0017257448 -0.0103570325 -0.022794634 -0.018408787
-0.0010198238 -0.0066387933 0.009126768 -0.008819689 -0.005256828 0.0031281603 0.0027995927 0.0099495705
-2.9423856e-05 0.006664599 -0.004367292 -0.003188158 0.007674895 0.0025037888 -0.00908015 -0.005828302
0.0008836001 -0.0052116322 0.0015826628 -0.0070786024 -0.0025398247 -0.0074984278 0.0058339857 -0.004213325
-0.0038990537 0.0014166546 0.009710138 -0.018608596 -0.00077752507 -0.008320986 0.0013271736 -0.0044617555
0.0058421176 -0.004153558 0.014989645 -0.0024780692 0.0022409256 0.0012813977 0.004433857 -0.0033712296
-0.018159855 0.004380805 0.009928387 -0.0054188 0.00110792 0.0020494286 -0.009953274 0.004513928
0.0030374024 -0.006176999 -0.0042866305 0.007350485 -0.0027591826 0.0027556124 -0.005203379 0.0034904608
0.004411493 -0.018745165 0.016277688 -0.020679787 0.004879531 -0.0029072927 0.0030536626 0.0066140797
-0.019281056 0.00023403553 -0.016536757 -0.0009706429 0.0055823047 -0.008194697 -0.008675515 0.0014825795
0.0011516636 0.0002225386 0.013707705 -0.0052707717 -0.017612608 -0.0012641446 0.002642135 0.011501829
0.0005577531 0.0034441003 0.005427093 -0.01950304 -0.0027777874 -0.006958665 -0.00072167075 0.0011229045
-0.003384372 0.01605249 0.005008249 0.011068951 -0.0017407899 -0.00853528 0.008223413 0.007667255
-0.0064768465 -0.01547954 -0.013143432 0.012263911 -0.0008369104 -0.00489182 -0.0053563435 0.010339996
0.0016668844 -0.005851109 0.0032412808 0.0089791985 0.0077897813 -0.0047683767 0.0042536994 0.0027919193
-0.00085258903 -0.014610646 0.000922071 0.012353916 -0.002816164 0.00046150282 0.0017546057 -0.015506654
-0.00067338755 -0.0011615156 0.014230171 0.0019943516 0.020694498 0.0022704161 0.0010264423 0.00902734
0.0049011037 -0.0015187672 0.014028691 0.0023711172 -0.008932539 0.0069005424 0.008096211 -0.0127018215
0.000691838 -0.0018505426 0.005421196 0.0012560082 0.006406197 -0.004092622 -0.016694305 -0.00081283157
0.0079825055 0.006178703 -0.014006147 -0.0050097327 0.015544724 0.0067690397 0.0049302117 -0.009514264
0.014077823 0.00023879722 0.0057098363 -0.017737914 -0.009225983 0.008507528 -0.00902168 0.0060859034
0.007148686 -0.0054900586 0.01812136 0.015070572 -0.0033791573 0.008081481 -0.00021351545 0.0004065717
0.0012769848 0.008123339 -0.028832635 0.0057708016 0.0076390514 0.009105872 -0.008605286 0.0027439229
0.011660418 0.0033175305 -0.00969416 -0.0010806931 0.016464919 -0.011219248 0.013115952 0.0043698745
0.0033822448 0.0004139146 -0.0057181367 -0.0026257017 -0.0032297857 0.005786635 -0.00069322175 0.01243972
1.5237545e-05 0.017524822 0.00023861373 -0.009526598 -0.0125064105 0.0068674195 0.0050384365 -0.0003090152

Actor.bias f4 [5]
00000000: 9ff8 1dbb 10b2 503b f2f0 0bbb eb98 c23b
00000010: c69c 99bb
-0.0024104489 0.0031844415 -0.0021353331 0.0059386394 -0.0046878783

Critic.weight f4 [1, 128]
00000000: 1060 083e b686 c43d 2284 843d ec65 b5bc
00000010: ae17 81bd bc6f c03d 649b 693e 9ef6 6a3e
00000020: d861 373e 8f34 ec3d 211a a33d 72cd 5d3c
00000030: ccef f2bc 0bed 84bc 0cde 5cbd 1c96 153e
00000040: 220d 0d3e 055c ba3d 69cc 623d d20a f63d
00000050: 467c edbc deb6 5e3e f68e 893d 6e21 f2bd
00000060: 2db9 ef3d 3cfa d5bc 63be ccbc 702d 293e
00000070: 03b1 54be 95fd f2bc 7610 023e 2224 b23d
00000080: 1f18 c23d 198a 27be 09bf 903d 2a04 95bb
00000090: 40bb 36bc 84d3 d43d 28d2 4c3e 2f42 6ebc
000000a0: 40ca d83d 466f 0bbe 736b bebc 4164 7d3d
000000b0: 567b 8d3d e5ea 5c3d 617f 81bd 97e5 e23d
000000c0: f027 423e c3f0 103e ee92 1b3e a8f1 f53d
000000d0: 7c3c b33d 9088 b6b9 59ac 813d 525e 5dbc
000000e0: 42be 1b3d 932f 023e b9bb 95bc 90d4 81bd
000000f0: 8f08 a2bc aa92 063e 6f30 83bd 4a4b f8bd
00000100: 0430 1d3e 0f17 003e af46 bcba 09f2 febd
00000110: 3f9d 1d3e 4fa8 99bd 36b6 1dbe 20da 0bbd
00000120: 4bf9 4abd c346 16be 937b 28be 5607 e8bc
00000130: ca41 333d de75 c2bd a71a de3d 30f5 8a3d
00000140: 8bf1 3f3e fd2b cebd 3c42 4f3e 45bc 02bd
00000150: 6728 6ebd 50c7 aebd 5abd c53d fe4d c8bb
00000160: c9a0 81bd 664b a33d 11b8 04bd bfe8 103e
00000170: 84b2 f93d ae24 2abc e607 32bd 5aa8 8dbd
00000180: 8cdf bcbd 220a 03bd 859b b6bc 8ac3 c1bd
00000190: 66e2 bcbd fc93 a0bd 4b8c acbd f7be cfbd
000001a0: b2a0 edbc 0e12 cc3d b680 263e e3d0 dcbc
000001b0: 546b 4dbd 6551 043e 555f c53d b5b0 6fbc
000001c0: cad6 a33d c6fb 9bbd 308e ba3d 7d7a 3ebe
000001d0: 89dc f6bd 87c7 f339 cadf d1bc 9861 10be
000001e0: ccd7 c0bc 839f f7bd 272c 3dbe 63b7 a23d
000001f0: 66c2 0a3d bc35 6cbd d1d0 543e 8ea6 98bd
0.13317895 0.095960066 0.06470515 -0.022143327 -0.06303345 0.09396312 0.22813183 0.2294564
0.17908418 0.11533462 0.07963968 0.0135377515 -0.02965536 -0.016226312 -0.053922698 0.14608043
0.13774541 0.090995826 0.055370722 0.120137826 -0.028989922 0.21749446 0.06716721 -0.118227825
0.11705241 -0.026120298 -0.024993127 0.1652124 -0.2077065 -0.029661933 0.12701592 0.08698298
0.09477257 -0.16361274 0.07067687 -0.0045476155 -0.011153042 0.10391906 0.20002043 -0.014542147
0.10585451 -0.13616666 -0.023244595 0.061863188 0.0690829 0.05393495 -0.06323124 0.11078947
0.18960547 0.14154343 0.15192768 0.12008983 0.08751771 -0.00034815492 0.06331701 -0.013511257
0.03802324 0.1271346 -0.01827799 -0.06339371 -0.019779472 0.13141885 -0.06405722 -0.12123735
0.15350348 0.12508796 -0.0014364327 -0.12448508 0.15392016 -0.075028054 -0.15401539 -0.034143567
-0.04955415 -0.14675431 -0.1645339 -0.02832381 0.043763913 -0.09495138 0.10844927 0.06785047
0.18744485 -0.10066984 0.2024011 -0.03191783 -0.058144 -0.085341096 0.096552566 -0.006112813
-0.063294955 0.079733655 -0.032402102 0.14151286 0.12192252 -0.010384722 -0.043464564 -0.06916876
-0.09222326 -0.031992085 -0.022290954 -0.09461124 -0.092228696 -0.07840726 -0.08425196 -0.101438455
-0.02900729 0.09964381 0.16260037 -0.026955074 -0.050151184 0.12921675 0.09637324 -0.014629533
0.07999952 -0.07616381 0.09109151 -0.18601413 -0.120537825 0.0004649723 -0.025619406 -0.14099729
-0.0235404 -0.12090971 -0.18473874 0.079451345 0.0338768 -0.057668433 0.20782782 -0.07453643
