singleTraining.pth (torch, 167700 bytes, 7 tensors)

Network.0.weight f4 [128, 50]
000000 6c 11 9c 3a 0e 0c df 3c d8 5d b0 3d 41 09 84 be
       0.0011907048 0.027227428 0.08611649 -0.2578831
000010 f8 67 18 3e 0e 8c 24 3d 08 d7 5d 3e e8 e8 a9 3e
       0.14883411 0.04017263 0.21664059 0.33185506
000020 42 23 31 3e 26 fa a3 3e e8 d8 25 bd 00 16 c3 3d
       0.17298606 0.32026786 -0.04049006 0.095256805
000030 80 a8 12 bc ae 1c 1c 3e 82 c5 73 3d 2f 5e f5 3b
       -0.008951306 0.15245315 0.05951453 0.007488034
000040 6b 75 03 3e 8f 6f 58 3e 1e cc d6 3c 52 be c5 bd
       0.1283776 0.21136306 0.026220378 -0.09655441
000050 7a 9c 5b 3d cc 41 e6 3d 79 28 de 3c 64 3d 3a 3e
       0.053616025 0.112430185 0.027118908 0.18187481
000060 e0 58 1f 3c 99 e1 9c 3c e1 6a d8 3d 03 ca d0 3c
       0.009725779 0.019150542 0.105672605 0.025486952
000070 5e 0b eb bd 32 70 4f bd 8a 19 97 3a 7b fc 8a 3d
       -0.114767775 -0.050644107 0.0011527997 0.06786438
000080 4b 23 66 be c3 e0 4d be 86 0d 26 bd 02 74 9f 3c
       -0.224744 -0.20105271 -0.04054024 0.019464497
000090 d7 0e c1 bd 8f 86 9c 3e 46 5a 21 be 2d 78 bb 3d
       -0.094266586 0.3057141 -0.15757093 0.09153781
0000a0 cf 3b 1b 3e ec 08 ce bc 91 da fa 3d f3 8a c8 be
       0.15159534 -0.025150739 0.122487195 -0.3916851
0000b0 42 d5 c6 bd 5e cf 35 be 16 ac cf bc a5 b3 9c 3d
       -0.097086444 -0.17754886 -0.025350612 0.07651452
0000c0 5c 89 8e be be b4 10 bd 62 28 d8 3d 3b 2a d1 3d
       -0.27839172 -0.03532862 0.105545774 0.10213133
0000d0 b1 01 a1 3d f5 6a e2 bd bb 0e 62 3e 52 9d 8b bd
       0.07861651 -0.11055557 0.22075932 -0.06817116
0000e0 54 dc 6f 3e 8f 16 49 be 29 1b 4e 3e ca 0d 7d be
       0.23423892 -0.19637512 0.20127548 -0.24712291
0000f0 98 f8 a1 3d fc 41 54 3e cf 06 c9 bc ad 0e 9b 3e
       0.079087436 0.20728296 -0.02453938 0.30284634
000100 a9 b8 96 3d 3c 5f 34 bb c9 2a 12 3e 8d 98 04 3e
       0.0735944 -0.0027522584 0.14274134 0.12948819
000110 47 84 30 3e 29 a7 36 3e 82 46 c0 bd d4 51 85 bd
       0.1723796 0.17837204 -0.09388448 -0.06509748
000120 c2 ab 0c 3e c1 34 6a 3e 4f 39 6e 3e be 9d 10 3e
       0.13737395 0.22871687 0.23264049 0.14122674
000130 36 84 53 bd e7 9f 08 bd 5a 11 87 ba ef 2c 24 bc
       -0.051639758 -0.03335562 -0.0010304854 -0.010020479
000140 2a 67 7d bd 0f 3f c4 3c f8 01 8d 3e e1 3e cf be
       -0.061865963 0.02395585 0.27540565 -0.4047766
000150 65 f4 aa 3d db 7f f1 3d 5e e5 fd bd 5a 3f d2 3b
       0.08347396 0.117919646 -0.12397264 0.0064162435
000160 28 6f 92 be 80 ee 07 bd 5e 7f 04 3e 51 c2 ee 3c
       -0.2860043 -0.033186436 0.12939212 0.029145392
000170 94 67 02 3e 18 b6 22 be 71 13 00 be 3c 15 fe bd
       0.12734824 -0.15889776 -0.12507416 -0.12406394
000180 01 81 1c 3d 9f f7 f5 3d 0f d6 8c be 78 fc d1 bd
       0.038208965 0.120101206 -0.27507064 -0.10253233
000190 9a 99 04 3e 0a 26 2b 3c 4f 21 b6 bb 7c 6d 76 be
       0.1294922 0.010446081 -0.00555817 -0.24065202
0001a0 03 d2 12 3d 7b 9c c7 bb 9a de 93 3d e4 82 ef bd
       0.035844814 -0.006091652 0.07220192 -0.11694887
0001b0 70 83 8d 3e 7d af 56 3d c6 c3 7b bd f3 09 c9 3e
       0.2763934 0.052413452 -0.061466 0.39265403
0001c0 3e 5d 1a bd 30 52 d1 3e b7 23 40 3e 49 82 fb bd
       -0.03768658 0.40883017 0.18763624 -0.12280709
0001d0 c4 d5 5f 3d 5c 60 b4 3d 19 2c a3 3e 2b 3a ca 3d
       0.054647222 0.088074416 0.3186958 0.09874376
0001e0 0f c8 54 3d 68 29 bc 3b 37 a4 a9 3c 0b 63 91 3e
       0.051948603 0.0057422407 0.020708187 0.28395876
0001f0 ae 58 9b bd a6 0b b0 bd 15 78 6c bd 7f 73 77 3c
       -0.07585274 -0.08595972 -0.057731707 0.01510322
000200 3e 7c 64 bd a7 a3 9d bd 08 2b 05 3c 32 9a 9f bd
       -0.05578255 -0.0769723 0.008127935 -0.07793082
000210 7d 7c f3 3c ee ad d3 bd 84 18 3b 3e 9f b2 d8 3d
       0.029722447 -0.10335909 0.1827107 0.10580944
000220 c1 1e c3 bd 23 d5 ba 3d d8 de 34 be ae 16 44 3e
       -0.0952735 0.09122684 -0.17663133 0.19149277
000230 30 d9 8f 3e 20 cd 75 3d 03 2f 20 3e 7d ba ee be
       0.28095388 0.060010076 0.15642934 -0.46626654
000240 38 80 68 bd 8a fd f4 bb 2c b7 11 3e 5b 64 83 3d
       -0.056762904 -0.0074765133 0.14230031 0.06415626
000250 a3 a4 b4 be cb 9f 06 be 04 e9 24 be 92 0f 62 be
       -0.35281858 -0.13146894 -0.16104513 -0.22076252
000260 d7 f8 f8 3d b0 f8 ef bd 6c 04 5b 3e 86 0c 29 be
       0.121568374 -0.11717355 0.21388406 -0.16508684
000270 0a b8 aa 3e ae 98 f2 bd 98 03 a6 3e 6e af 4c 3c
       0.33343536 -0.118455276 0.32424617 0.012492998
000280 ee 1c 65 bd 17 44 69 3e 0e da 3f be fd ac 3e 3e
       -0.055935793 0.2277988 -0.18735525 0.18620677
000290 48 7d fd 3c 3a 18 dc bc 01 04 15 bc b5 5e d5 3d
       0.030943528 -0.02686702 -0.009095193 0.104184546
0002a0 4e c5 f0 3d f9 e8 8b 3d 76 f0 c3 3d 68 85 12 be
       0.11756383 0.068315454 0.09567349 -0.14308703
0002b0 7b 14 30 3e 6e 63 80 3e 60 7b aa bc 91 f5 78 3d
       0.17195313 0.2507586 -0.020810783 0.060781065
0002c0 78 eb ce bd 7a 04 92 bd 01 a7 b6 3d 34 f0 98 bd
       -0.10103506 -0.0712976 0.08918572 -0.0746769
0002d0 a2 2f a3 3c bc d3 45 be 7a 81 ed 3d aa 26 b9 3a
       0.019920174 -0.19319052 0.11596961 0.0014125903
0002e0 5f 35 07 3e 7a 1f 17 3e 77 00 41 be b5 e0 aa 3c
       0.13203953 0.14758101 -0.18847834 0.020859102
0002f0 f6 c8 da be 2b 94 0e 3e c7 19 56 3e 18 13 16 3d
       -0.42731446 0.13923709 0.20908271 0.036639303
000300 53 81 d0 bd d9 92 ba be aa a0 bb bd 3f 55 b6 bd
       -0.10180917 -0.3644016 -0.091615036 -0.08902978
000310 d1 60 c1 bd e2 57 8e 3d cc c8 2b be 8e c7 04 3c
       -0.094422944 0.06950356 -0.16775817 0.008104218
000320 a1 6c de 3b ba 7a 02 3e 68 b0 72 3e 8b b8 ce bc
       0.006787852 0.12742129 0.23700106 -0.025234481
000330 0c 7a 73 be 25 70 cc 3d df a1 9e 3e 99 67 91 3e
       -0.23777026 0.09982327 0.30982873 0.2839935
000340 a7 a8 1b 3f 82 f4 37 3e b0 bf 60 b9 da fe f3 3d
       0.6080422 0.17964366 -0.00021433714 0.119138435
000350 85 22 42 3e 04 6d 65 3e 38 24 83 bd 8d b0 9a 3c
       0.1895848 0.22404867 -0.064033926 0.018883014
000360 cd 1a bd bd f9 c5 16 bd 23 a5 89 3e 4e ed 19 be
       -0.092336275 -0.036809895 0.26883802 -0.15031931
000370 b8 a3 18 bc 6d 22 97 3d 51 ab 46 3e 4b 82 3c 3e
       -0.009316377 0.07379613 0.1940129 0.18409078
000380 44 c2 3b be 27 87 8f 3d aa 19 f9 bd 0b 4c 99 3c
       -0.18335825 0.070082 -0.12163098 0.018713018
000390 4d ee 1b 3e 6a 15 be bd b0 88 93 bc 4e 05 c8 3d
       0.15227623 -0.09281428 -0.018009514 0.09766637
0003a0 3e 2a 48 bb bc 33 de 3e 94 e4 f6 3c aa 44 0e bd
       -0.0030542756 0.43398845 0.030138291 -0.034733452
0003b0 1e 5d 4c 3e 47 c5 78 3d 8c 14 bd 3e c7 7a 89 bb
       0.19957396 0.060735013 0.3692974 -0.0041955444
0003c0 21 8c c2 3d bf c3 82 3e 8b c2 cc bb 2b 01 cb 3e
       0.09499384 0.25539967 -0.0062487773 0.3964933
0003d0 4e a4 c7 3b 32 df 3f be 1a b9 85 3d 1c b5 ad bd
       0.0060925847 -0.18737486 0.06529446 -0.084818095
0003e0 2b ca fe 3e 76 ce 79 bd 45 f3 9e bd 7e f8 7e 3c
       0.49763617 -0.060987912 -0.07761244 0.015562175
0003f0 8d 23 e9 3d b0 9a 35 bd c2 f3 ab bd 70 0d 63 bd
       0.11383734 -0.044336975 -0.083961025 -0.055432737

Network.0.bias f4 [128]
000000 b2 86 32 3d b7 0e 2d bd 3f 6f 38 bd 34 5e 96 bb
       0.043585487 -0.04225036 -0.045027968 -0.0045888666
000010 5e a6 fc 3c 55 7c ef 3d af f7 2e 3e bd 43 98 3c
       0.030841049 0.11693636 0.17086671 0.018586988
000020 35 fe 04 3e 2b ab 92 bd 15 4f 0f bb 24 00 f9 bd
       0.12987597 -0.07161554 -0.0021867205 -0.1215823
000030 a1 24 d8 3d c2 2c 50 3d 40 bb 53 bd 99 ff dc bd
       0.105538614 0.050823934 -0.051692247 -0.10790939
000040 39 4e 76 bc 3c c7 64 bc 05 10 61 bd 0e 3b 92 bd
       -0.015033298 -0.013963517 -0.054946918 -0.0714017
000050 37 86 45 bd cd a4 04 3e f5 72 8e bd c5 c7 6b 3d
       -0.0482237 0.12953492 -0.0695552 0.057563562
000060 6e 2a ec 3c 34 3e 23 3c 27 10 34 3d 91 3e f4 3d
       0.028828826 0.009963561 0.043960717 0.11925996
000070 b4 4d 6d 3d d5 fe 2b 3d 22 4e 07 3e 4b c6 93 3d
       0.05793543 0.041991074 0.13213399 0.07215556
000080 66 56 31 3d 76 4d 21 3e ef ea d4 bd 54 f3 fe 3d
       0.043295287 0.15752205 -0.103963725 0.12448755
000090 77 50 4e bd 50 4d 5e bc 65 67 b6 bd ef df 98 3d
       -0.050369706 -0.013568237 -0.0890644 0.07464587
0000a0 3d 98 bf bd 37 86 5a bc 76 6a e0 3c 2c 50 14 bd
       -0.09355209 -0.013337663 0.027394515 -0.03620927
0000b0 f8 51 8d 3c f2 95 10 3e a0 16 00 be 71 17 98 bd
       0.017251 0.141197 -0.12508631 -0.07426346
0000c0 af 12 60 bd 2a 3a 31 3e 5c e9 8a 3c 65 61 2d bd
       -0.054705318 0.17307344 0.016956978 -0.04232921
0000d0 a9 e3 fb bd e7 a1 fd 3d e7 c5 44 3e 3f b3 83 bd
       -0.12299282 0.12384396 0.19216119 -0.06430673
0000e0 8d 41 14 3d ec dc 4c bd dc 80 c8 3d 07 d1 a3 bd
       0.036195327 -0.050015375 0.09790203 -0.07998853
0000f0 ab fd e5 3d a5 7b f7 3d 3e 3f a9 3d f1 58 bf 3b
       0.11230024 0.1208413 0.082640156 0.00583946
000100 d9 e4 91 3d ad c5 a4 3d 3a 36 e1 bd d7 5e 3f bd
       0.07123727 0.08045516 -0.10996671 -0.046721306
000110 e1 28 f6 bd 83 93 cc 3d 27 db 28 bd 29 3a 18 3e
       -0.12019516 0.09989073 -0.041224625 0.14865936
000120 58 3b e3 bc 9e d5 ab bc 62 fe 90 3d 6f 1e 27 bd
       -0.027738258 -0.020975884 0.0707977 -0.040800508
000130 72 5a c4 bd ab a2 c8 3a 31 87 3d bd 32 e2 f5 bd
       -0.095875636 0.0015307268 -0.046271507 -0.12006034
000140 34 b9 7a bd 54 4e 27 3d fa 95 83 bc ee ac 8f bd
       -0.06121178 0.040846184 -0.016062725 -0.070154056
000150 3f a6 b0 3d 0b 54 35 bd bc e0 b4 bd 0d 4d e6 3d
       0.08625459 -0.044269603 -0.08831927 0.11245165
000160 d4 60 1d bc 27 a9 c1 bc 65 5c 9c 3d 78 00 e7 3d
       -0.009605605 -0.023640228 0.0763481 0.11279386
000170 e8 62 cb bd 26 56 17 3e 22 9c 1b 3e 1c b8 02 be
       -0.09930974 0.14778957 0.15196279 -0.12765545
000180 cd 0e f7 bd e2 e0 d0 bd e1 c8 19 bd 5f 38 a1 3b
       -0.1206337 -0.10199143 -0.03754509 0.00492005
000190 df d4 cd 3d 76 dd 0c 3d 35 f0 8c 3d 45 1c e2 bd
       0.100503676 0.03439089 0.06881753 -0.11040548
0001a0 f8 ac 02 3e f7 84 0b 3e be 41 ae 3d bb 1d 99 3c
       0.12761295 0.13624941 0.08508633 0.018690934
0001b0 54 c3 3c bd 88 1f 0e 3d 29 10 94 bd 9a 9d 1a 3e
       -0.046084717 0.03469804 -0.07229645 0.15099183
0001c0 1c 6a 02 be 25 53 e8 3d 74 b3 21 3e ca 9e 11 bd
       -0.1273579 0.113439836 0.15791112 -0.035551824
0001d0 68 fc cd bd 86 83 41 3d 8c 79 bc bd a1 9c 05 be
       -0.10057908 0.04724457 -0.09202871 -0.1304803
0001e0 dc 6b 76 bd 78 06 ae 3d 6c e9 9a bd 77 d4 67 bd
       -0.060161456 0.084973276 -0.07564053 -0.056599107
0001f0 f7 e8 67 bc a6 1f f5 3d 1e 88 1c 3d d4 4d 8c 3d
       -0.014154664 0.11968927 0.03821575 0.06850782

Network.2.weight f4 [256, 128]
000000 ac 22 d5 3d 76 63 64 bd d9 17 35 3e f4 7d 78 3e
       0.10407004 -0.055758916 0.17684878 0.24266797
000010 07 62 e9 3b d7 b2 ae bd a4 df 0d 3d 7a 66 03 3e
       0.0071222815 -0.08530205 0.03463711 0.1283206
000020 5e fd c2 3c 0f 78 6f 3d aa 15 0e bd 75 cc ad 3d
       0.023802456 0.058464106 -0.03468863 0.08486263
000030 a2 ae 0e 3e a3 0d 49 3d d6 8d 4b bb 80 3c be 3c
       0.13933805 0.04908527 -0.0031059883 0.023222208
000040 af 8b 69 3d 77 4a 5e 3d 69 ad a6 3c 5f c3 ba 3d
       0.05701798 0.054270234 0.02034636 0.09119295
000050 5b 2a 62 3e 1f f0 46 3e d9 c6 18 bd ac bc 55 bd
       0.2208647 0.19427536 -0.03729901 -0.052181885
000060 d9 49 d1 3a cb eb 93 bb 8e 69 68 3d 98 86 1a bc
       0.0015967443 -0.0045141927 0.05674129 -0.009431504
000070 9e bf 8a be bb 52 ea 3d 83 fb 41 3e f0 d9 ac 3d
       -0.27099317 0.11441561 0.189436 0.08440006
000080 59 aa b5 3c e0 4d 40 bd 68 4c 43 3d 08 b8 11 bd
       0.022175955 -0.046949267 0.04768029 -0.035575897
000090 7e da b6 be 4a e8 3e bd e0 a1 63 3e 57 3c 24 3d
       -0.3571357 -0.046608247 0.22229719 0.040096607
0000a0 f1 7a de bd 22 af 5c 3e ae 5c 32 3d 50 54 18 3d
       -0.10863293 0.21551183 0.043545417 0.03718978
0000b0 14 91 2c 3d 1a ec 8f bc 13 a9 6e bd 1a 90 2b 3e
       0.042130545 -0.017568637 -0.05826671 0.16754189
0000c0 f4 36 1a 3e 58 9e 96 be 8d 9d 00 bd e4 20 cf 3d
       0.15060025 -0.29417682 -0.031400252 0.10113695
0000d0 02 02 64 bd 35 22 7e 3d ea 48 4d be f9 3c 86 3c
       -0.055665977 0.06204434 -0.20047346 0.016386496
0000e0 95 5b a4 bd 55 62 eb 3e c2 40 19 be ab 11 d9 3d
       -0.080252804 0.4597346 -0.1496611 0.10599073
0000f0 51 b0 34 3e 6b 32 4c 3d a1 77 b3 3d 22 15 1f 3e
       0.17645384 0.04985277 0.08763052 0.15535405
000100 a1 3c e5 3d f1 65 bf 39 15 37 46 3e 21 1a 2d bd
       0.11193205 0.0003650631 0.1935695 -0.042261247
000110 ce 35 05 3e 6f e8 38 bd a7 83 84 3e 6e f5 22 be
       0.13008806 -0.04514354 0.25881693 -0.15913936
000120 bb a7 3b 3d 53 f7 53 3e 0a dd 26 bb 2c eb 63 3e
       0.045814257 0.20699815 -0.002546134 0.2225768
000130 37 df 04 bd 44 85 e0 3c 88 97 14 bd d3 6e 93 3d
       -0.032439437 0.027407296 -0.036277324 0.071988724
000140 58 27 4e 3d fd 5c 2f 3d e9 9a 3a 3e 73 78 74 3e
       0.05033049 0.04281329 0.18223156 0.23874073
000150 64 15 f0 3d 17 e2 08 ba 85 63 19 3e 37 64 41 be
       0.1172283 -0.00052216783 0.1497937 -0.18885885
000160 4a 44 56 3c cb dd 3c 3d dc b6 4d 3e d0 e6 22 3e
       0.013077805 0.046109956 0.20089287 0.1590836
000170 36 eb e2 3d 82 aa f9 3d ce d9 35 bf 02 43 ae 3e
       0.11080019 0.12190725 -0.7103547 0.34035498
000180 1e d8 6e 3e f2 eb 95 3e 88 88 6d 3b d6 2c 96 3e
       0.2332463 0.29281574 0.003624471 0.29331082
000190 56 43 f8 bd 5f 87 6e 3e ba 21 67 3e 81 e8 6c 3d
       -0.12122218 0.23293827 0.2257146 0.05783892
0001a0 34 ff 7a 3e 57 e3 d3 3d 65 db 90 bc e4 27 e9 3c
       0.24511415 0.10346096 -0.01768274 0.028461404
0001b0 97 dd 51 3e 33 9c ad be eb 2d 1f 3e e0 da 2d 3e
       0.20494686 -0.33908233 0.1554486 0.16978025
0001c0 73 73 4a bd 99 9c 89 3e 56 f8 b5 3d 63 49 15 3e
       -0.049426507 0.26877287 0.08885257 0.14578776
0001d0 7e 73 20 3e 6f 84 26 bd e8 b7 0d 3e f4 72 45 bc
       0.15669057 -0.040653642 0.13839686 -0.012051333
0001e0 a7 be 1d 3e a8 20 6f 3e 4c f6 80 3e e2 08 4a 3d
       0.1540476 0.23352301 0.2518791 0.049324878
0001f0 39 c1 29 be 7b 91 16 3e 9e 0e fb 3c ae d8 04 3e
       -0.16577615 0.14703934 0.030646618 0.12973282
000200 7a e3 27 3e a9 74 4f bd 2e c9 59 3e 6b 2e 39 3e
       0.16395369 -0.050648365 0.2126815 0.18084113
000210 fb 24 95 bd de 78 30 39 d6 a4 d2 3d 0c cd 55 3d
       -0.07282444 0.00016829695 0.10285346 0.0521975
000220 64 80 a3 bd 37 16 92 bb 9c 96 c4 3c 0d ab d1 3c
       -0.07983473 -0.0044582146 0.023997597 0.025594259
000230 57 f1 2f bd 0c 8f 86 3d c8 f4 dd 3b 6b 70 d5 3c
       -0.04295477 0.06570253 0.006773565 0.026054582
000240 96 73 ce bc e1 37 81 3d c9 b3 01 bd 38 12 14 3d
       -0.0252016 0.06309486 -0.031665597 0.036150187
000250 02 44 45 3e 5c 4e 16 3e 62 52 6f bc dd cc a0 3d
       0.19264224 0.14678329 -0.014607044 0.078515746
000260 0c 45 04 bc cf 5b 63 bc 13 03 01 bd ef e2 d3 3b
       -0.008073103 -0.013876869 -0.031497072 0.0064662616
000270 8b de 93 be c8 69 d5 3d e8 58 35 3e 66 fe 35 3e
       -0.28880724 0.10420567 0.17709696 0.17772827
000280 76 53 a6 bc 20 dd 35 be ba 19 97 3d ac f5 88 bd
       -0.02030347 -0.17760134 0.07377954 -0.06687483
000290 79 10 7d be ff 8f be bd 8f 15 4c 3e f8 88 b8 3c
       -0.24713315 -0.09304809 0.19930099 0.02252625
0002a0 f1 a2 df 3c 2f 13 d6 3d 7a a8 cb bd 62 30 f9 3d
       0.027299376 0.10452878 -0.09944244 0.121674314
0002b0 c2 7f 78 bd 34 5a 87 bd 95 ed 3a 3d 4f dc 33 3e
       -0.060668714 -0.06609002 0.045636732 0.1756451
0002c0 1f 9a fe 3d f9 df 84 be 6e ea db bc bd c7 05 bc
       0.1243174 -0.25952128 -0.026845183 -0.008165297
0002d0 ec 5f 7d 3d d1 93 c2 3d 1a 16 18 be 95 75 a1 3d
       0.061859056 0.0950085 -0.14852181 0.07883755
0002e0 96 1a 34 bd 11 d3 08 3f 72 93 c1 bd ea 03 9f 3c
       -0.043970667 0.5344706 -0.09451951 0.019411046
0002f0 3d b7 ed 3c a3 5c df bd c3 f8 50 bd 2f 2f 69 3e
       0.029018039 -0.10906341 -0.051018488 0.22771905
000300 dc 41 69 3d 30 d2 5e bd 30 0b 67 3e 7e 68 9d 3b
       0.056947574 -0.05439967 0.22562861 0.004803716
000310 9c d1 17 3e 9a db 74 b9 c1 f8 79 3e 94 0c 16 be
       0.14826053 -0.00023351461 0.24411298 -0.14653236
000320 25 ae 14 bb c3 8d 66 3e c5 48 72 bc ea 3c 5e 3e
       -0.0022686806 0.22515015 -0.014787857 0.21702924
000330 7f a1 a5 3d 22 e1 a9 bd 9a 3b be bd 01 e3 f5 3d
       0.080874436 -0.08294894 -0.09288712 0.12006188
000340 86 43 54 3d a7 32 0b bd 7e e3 ef 3d cd 06 02 3e
       0.051822208 -0.033983853 0.117133126 0.12697907
000350 7f e0 b7 3b fe fc a6 3d 11 97 2a 3d b0 03 37 be
       0.005611479 0.08153723 0.041647974 -0.178725
000360 16 c1 79 3d 49 ad 35 3d 7f c1 81 3e 74 4c 58 3e
       0.060975157 0.04435471 0.25342938 0.21122915
000370 6e b7 1c 3e 26 ae 1f 3e 17 76 33 bf c3 67 6f 3e
       0.15304348 0.15593776 -0.70102066 0.23379426
000380 78 46 ae 3d c6 6b 36 3e 34 09 9d 3d 17 76 98 3e
       0.085095346 0.1781455 0.07667771 0.29777595
000390 50 4e 04 be b0 d5 28 3e 6c b5 88 3e e2 92 86 bc
       -0.12920499 0.16487765 0.26700914 -0.016427461
0003a0 30 1e 73 3e 96 68 e1 3d 22 97 10 3d a8 80 bd bc
       0.23741984 0.11006276 0.03530038 -0.023132637
0003b0 1d f3 2a 3e 7a a1 a4 be d0 4f dc 3d ad 7a 02 3e
       0.16694303 -0.32154447 0.107574105 0.1274211
0003c0 2e 7f 2f 3d 44 94 39 3e f4 71 e8 3d 3b a1 25 3e
       0.042845897 0.18122965 0.1134986 0.16174786
0003d0 43 4e 10 3c b8 ec aa ba 3b b5 03 3e d8 79 3b 3d
       0.008807722 -0.0013040518 0.12862103 0.045770496
0003e0 1e 94 1f 3e 33 00 4c 3e 38 e7 0d 3e 92 17 04 bc
       0.15583846 0.19921951 0.13857734 -0.00806226
0003f0 cf 1c 4e be c8 c1 9f 3d a5 a9 c3 bd 49 1a 30 3c
       -0.20128177 0.07800633 -0.095538415 0.010748454

Network.2.bias f4 [256]
000000 74 4b bb 3d 19 81 b5 bd 0c 62 9e 3c 9f 65 4d bc
       0.09145251 -0.08862514 0.019333862 -0.012536435
000010 47 a2 d5 bd d0 a4 96 3d d6 2f ad bd 6f 92 86 3d
       -0.104313426 0.07355654 -0.084563896 0.06570899
000020 4f dc 34 bd 30 e0 55 3d 49 cc 2e bd 7f 79 9b 3d
       -0.044155415 0.052215755 -0.04267529 0.07591533
000030 e8 bf 3f 3d 79 3b ff 3b 43 17 30 3d d8 22 ff bb
       0.046813875 0.007789072 0.042990934 -0.007786136
000040 5c 91 7e 3c 8d 0b 8e 3d 38 71 05 3d 36 7e a1 3d
       0.015537586 0.06935797 0.032578677 0.07885401
000050 a1 cd 1f bb ff f1 c3 3d 24 5b fa 3c 17 98 3d 3d
       -0.002438404 0.095676415 0.030561037 0.046287622
000060 57 f3 01 3c c7 0f d3 bc 24 d2 85 3d a5 73 be bc
       0.007931552 -0.02576436 0.06534222 -0.023248503
000070 45 db 83 3d 2e 3e 35 bc 9f e0 2c bc b6 4e 06 3e
       0.06438307 -0.011062188 -0.010551601 0.13115963
000080 a8 7f 90 bd 5d 98 26 3c 6f 21 10 bd 9e 88 2a bd
       -0.070555985 0.010168162 -0.035188135 -0.041634195
000090 c2 a9 5c 3d 3e ca 4f bd 90 a6 f5 bb 58 8b 34 bd
       0.05387283 -0.050729983 -0.0074966624 -0.0440782
0000a0 67 ba a3 bc f8 f9 e4 3b e6 c8 a1 bc 29 73 90 3d
       -0.019986345 0.0069878064 -0.019749116 0.07053215
0000b0 32 db 8d bd 0a ea a6 3d 0e 5b af 3d 23 00 1c 3d
       -0.06926574 0.08150108 0.08562289 0.038086068
0000c0 7a f1 f2 bd 87 5d 74 3c 88 1e d6 3d d9 9b 58 bd
       -0.11862464 0.014914877 0.10455042 -0.052883003
0000d0 8d 27 02 bd 54 07 45 bd 82 da 47 3d ec 3e 93 bd
       -0.031776 -0.04810269 0.04879237 -0.07189736
0000e0 29 2a 88 bd 6a e1 27 bc 85 30 a7 3b e1 38 0b 3d
       -0.066486664 -0.010246614 0.0051022195 0.03398979
0000f0 d7 17 6c 3b 04 51 75 3c a1 2f b8 bd c1 4d 98 ba
       0.0036024952 0.014972929 -0.089934595 -0.0011619852
000100 69 2a 5f 3b ee 7d 9d 3d 68 af b3 bd 36 f3 9d 3d
       0.0034052378 0.07690035 -0.087736905 0.077124044
000110 c4 a9 8e bd ee 68 44 bd f5 78 f0 3c b4 ee 4d bd
       -0.06965974 -0.04795163 0.029354552 -0.050276473
000120 2e 53 15 bd 36 0f aa 3d 18 e3 68 bd 5a 54 d3 3d
       -0.03645628 0.083036825 -0.0568572 0.10318823
000130 2e e6 56 bd c9 40 bb bc 37 d3 8b 3c 6f 14 18 39
       -0.05246561 -0.02285804 0.017068489 0.00014503462
000140 dd cb ac 3d df f0 c0 3d c0 88 16 bd b6 50 80 3d
       0.08437321 0.094209425 -0.03675151 0.062653944
000150 19 39 88 3d ba 51 82 bd e1 bc c9 3c f9 d8 2f bc
       0.066515155 -0.06363244 0.024626197 -0.010732883
000160 4d 6c 0e 3c 1d 50 e5 bc 5e 6d 0b bd a4 50 41 bb
       0.008692813 -0.027992303 -0.034039848 -0.0029497528
000170 6c 52 52 bd b3 1e 87 bd 1a 16 8a bb 3a 8d 9e 3c
       -0.051348135 -0.06597652 -0.0042140605 0.019354451
000180 1e f2 ac 3d 17 5f 8d bd 28 c7 db bc 07 24 c1 3d
       0.08444618 -0.069029026 -0.026828364 0.094307
000190 0a 97 4a bd 2d 95 bf 3d af 22 aa bb 34 13 92 3d
       -0.04946045 0.09354625 -0.005192123 0.07132569
0001a0 a8 d6 e5 bc 7a 77 c9 3d fe 88 c9 3d 80 d5 84 bd
       -0.028056458 0.098372415 0.09840582 -0.064860344
0001b0 09 16 5a bc 9b 61 0b 3c b5 3d 0a 3d 96 d5 3e bc
       -0.013310918 0.008507158 0.033750255 -0.011647603
0001c0 ea 8b 9b bc 9a 98 b3 3c ee bd 99 3c fa 9f c5 3d
       -0.018987615 0.021923352 0.018767323 0.09649654
0001d0 48 99 90 bd cd 5d 52 bc 3a 76 c5 bc bf 00 a2 3c
       -0.07060486 -0.012839747 -0.024104226 0.019775746
0001e0 14 c6 47 3d 11 16 5f 3c 14 2c ea bc 39 c8 31 bd
       0.048772886 0.013616101 -0.028585471 -0.043403838
0001f0 0d 60 8b bd 28 0c 9b bd 66 5f 4f 3d 58 43 80 bc
       -0.068054296 -0.07570678 0.05062809 -0.015657112
000200 45 2b c7 3d 8d 6e 5f 3c a4 d7 db bc a8 26 5b bc
       0.0972505 0.013637197 -0.026836224 -0.013375916
000210 f0 2e 26 bd 42 78 49 bd 4d 1e c0 3d 35 6d 89 3d
       -0.040572107 -0.049186952 0.093807794 0.06710283
000220 a3 04 03 3d 51 9c 9a bd 33 02 ca 3d 92 90 92 bd
       0.031986844 -0.07549346 0.09863701 -0.07156481
000230 e2 b1 da 3d b5 21 74 bd d5 3b 4d bd 82 1a 98 bc
       0.1067846 -0.059602458 -0.05010589 -0.018567327
000240 4f 42 26 bc 0d 4e a0 3d 1d 0c ae 3d 5f 1e 00 3d
       -0.010147645 0.07827387 0.08498404 0.031278964
000250 e9 87 d3 bd c4 50 9b 3d 3a ae b5 3c 24 a7 28 bd
       -0.10328657 0.07583764 0.022177804 -0.041175023
000260 45 50 b8 3c 56 3f 5c bd 6a b9 01 3d a6 80 6e 3d
       0.022499213 -0.05377134 0.031670965 0.058228157
000270 ef f8 22 3d b8 bd 85 3d d6 ee 13 3d 76 c1 d6 3d
       0.039788183 0.065303266 0.036116444 0.104861185
000280 18 c8 b2 3b a5 70 3a 3d fe 4e 3a bd ed a8 f9 3d
       0.005455982 0.045517582 -0.04548549 0.12190423
000290 5b 9c 40 3d da f3 ee 3c a2 0a c9 3d b0 22 cb 3c
       0.047024112 0.029169012 0.09816481 0.024796814
0002a0 81 a5 8e bd 3d 25 bf bd 14 c8 2f 3c 70 41 8b 3d
       -0.06965161 -0.093332745 0.010728855 0.067995906
0002b0 f8 82 38 3d b1 b2 8a bc cb 85 ae bd 97 97 40 bd
       0.045046777 -0.01693091 -0.08521613 -0.047019567
0002c0 c9 a2 bb 3c b4 bf 07 3d 37 38 10 bd 75 aa 2f 3d
       0.02290477 0.033141807 -0.03520986 0.04288717
0002d0 c5 7e 26 3d f1 af ae bd 27 a4 ba 3d 15 dc b3 bd
       0.04064824 -0.08529652 0.09113341 -0.08782212
0002e0 a7 18 d2 3d 37 e7 53 bd 78 9e ef 3d 29 b1 99 bd
       0.10258608 -0.051734176 0.117001474 -0.07504494
0002f0 ce 0b a1 3c 6f 3e 82 bc 8b 8e c9 bb 58 e5 de 3d
       0.01965895 -0.015898911 -0.0061510256 0.108835876
000300 d2 52 29 bb 0b e5 80 bd 5c 8c a4 3d 51 49 b0 3d
       -0.0025836718 -0.062936865 0.08034584 0.08607734
000310 78 29 90 bc 9f f2 07 bd 29 c9 51 bc 0e 07 bb 3c
       -0.017597899 -0.033190366 -0.012804308 0.022830512
000320 79 c9 cd bc 33 ea 26 bc 10 ec 08 bd db 21 00 bd
       -0.025120484 -0.010187673 -0.03342825 -0.031282287
000330 fd ad 69 bd 79 94 44 3d 50 7d 84 3d 8e cf 4a 3d
       -0.057050694 0.047993157 0.06469214 0.049514346
000340 a7 b7 bf bc 2a 8e 8d 3a dc 7b 43 3d 4c 5c 01 bc
       -0.023403002 0.0010799814 0.047725543 -0.00789554
000350 02 80 3e 3b 81 2a b8 39 7c 0f 86 bd 40 02 7e bc
       0.0029067998 0.00035126883 -0.06545922 -0.015503466
000360 ec 43 d6 3d 30 88 a5 3c f5 96 a6 bc 95 33 92 3c
       0.10462174 0.02020654 -0.020335654 0.017846862
000370 6d 3c 1d bd ed ec 86 3d 3d 26 1c 3d e5 07 ae bc
       -0.038387705 0.06588159 0.038122404 -0.021243999
000380 73 cd 9e bc f1 e9 03 bd 6d dc 27 3c 4e 06 9e 3d
       -0.019385075 -0.032205526 0.010245425 0.07716046
000390 d4 85 04 3d 72 13 a1 3d 09 db b3 3c e6 f3 c5 3d
       0.03235419 0.07865037 0.02195503 0.096656606
0003a0 9c 81 32 3d 67 2b a4 bd 22 34 02 3d 86 46 b2 3d
       0.043580636 -0.08016091 0.031788 0.087048575
0003b0 c4 80 30 3d 8a f8 91 3d c3 29 f4 3d 2d 8b 0c bc
       0.04309155 0.07127483 0.11922028 -0.008578104
0003c0 10 54 8d 3d fc b2 b4 3d c0 83 16 3d f9 c0 75 3d
       0.06900799 0.08823201 0.03674674 0.059998486
0003d0 9a 03 49 3d b0 d6 8c bd 77 92 bf 3d a7 99 3f 3c
       0.0490757 -0.06876886 0.09354108 0.011694348
0003e0 88 84 7f 3d 37 80 64 3d 41 9c 68 bc e2 67 58 bb
       0.06238225 0.055786338 -0.01419741 -0.0033020903
0003f0 fb b9 11 bd ea 69 81 3d 53 02 cc bc 91 f8 45 3d
       -0.035577755 0.0631903 -0.024903452 0.048332755

Actor.weight f4 [5, 256]
000000 13 8e a4 bc 78 7b 89 3c f1 3e d4 3c aa e1 fd bc
       -0.020087278 0.016782507 0.025908919 -0.030991394
000010 3d d8 3d 3d ce 80 a2 bd 5f 29 2b bd 7a ee 51 bb
       0.0463488 -0.07934724 -0.0417875 -0.0032033012
000020 c6 ec ad 3d 82 29 d1 39 b1 7e 9e bb 0f d0 f4 3b
       0.084924266 0.00039894512 -0.00483688 0.0074710916
000030 dd 42 a0 bc c6 e3 0d bd f9 28 b6 bb c0 21 75 bd
       -0.019563133 -0.03464105 -0.0055590835 -0.05984664
000040 80 f8 6d 3c 14 61 dc bb 64 b5 86 bc 43 b1 3b bd
       0.014524579 -0.00672544 -0.016443916 -0.045823347
000050 9d 46 99 bd 61 27 5c 3c e1 a1 2f bd 2b 08 0b bd
       -0.074841715 0.013437123 -0.04287899 -0.033943336
000060 41 d3 d7 3c 1f 44 ae bc 2d 56 14 bd 18 b7 27 3d
       0.02634585 -0.021272717 -0.036214996 0.040946096
000070 3d b7 57 bd b4 2a 31 3d 74 01 61 bc 08 fa 4c bd
       -0.052664984 0.043253615 -0.013733257 -0.050043136
000080 37 2a 8b bd da 72 9d bd a7 b5 6a bd ad 41 e3 bc
       -0.06795161 -0.07687922 -0.057302143 -0.027741278
000090 3f 74 b0 3c 9b 77 f1 bc 9c c0 e8 39 c2 cc f4 bc
       0.021539805 -0.029475978 0.00044393993 -0.029882792
0000a0 e2 30 d7 bc 2f c3 ba bc 73 fe 56 3c 3e 44 a1 bd
       -0.026268426 -0.022798149 0.013122189 -0.07874344
0000b0 f8 f5 a6 bd d2 06 a6 bb 3a d8 d9 3c e2 88 d6 3c
       -0.081523836 -0.005066731 0.026592363 0.026188318
0000c0 dd 53 2c 3c 9c 64 20 bd c1 b0 c7 bd 51 00 51 3d
       0.010518041 -0.03915845 -0.0975051 0.051025692
0000d0 c4 77 12 3c 00 b2 6d bb f2 61 fe bc 2a 8f b6 3c
       0.008939687 -0.0036269426 -0.031052563 0.022285063
0000e0 9f 27 8b bd bc d2 b1 bd 1d f0 ec 3c d1 eb 25 3c
       -0.067946665 -0.086827725 0.028923089 0.010127024
0000f0 f9 43 2f bd 61 4d 62 bd 70 cc 81 3c 04 ab 12 bd
       -0.042789433 -0.055249576 0.015844554 -0.035807624
000100 49 87 65 bc 79 79 11 bd 28 54 28 3d f1 7c 3c bb
       -0.014009305 -0.035516236 0.041095883 -0.0028760994
000110 9a 77 2e bd 01 76 2e bd 68 42 87 3b b6 b3 17 bd
       -0.04259453 -0.042593006 0.0041277893 -0.03703662
000120 69 50 c4 bc 2f ec 73 3d 98 b1 06 bd 1f b1 8d 3c
       -0.023964124 0.059551414 -0.03288421 0.017296372
000130 8f 9e 36 3c 0c e2 18 bd 63 76 08 bd 9e 26 ff 3b
       0.011146202 -0.03732495 -0.033316027 0.007786586
000140 92 73 07 3c 3f 43 9b bd eb fb 00 bd 3b 40 e1 bc
       0.0082673 -0.075811855 -0.031490248 -0.027496448
000150 8a d1 66 bd 38 f5 0d bd bc 78 1f 3d 28 f2 8d bc
       -0.056352176 -0.034657687 0.0389335 -0.017327383
000160 ab a3 ae bc d3 8f 7b 3d 9c 8d 62 3d a2 ef 92 3c
       -0.021318277 0.06141646 0.05531083 0.017936531
000170 4e a3 80 bd 94 be d2 3c 76 19 c8 3c 7c 23 54 3d
       -0.06281148 0.02572564 0.024426203 0.051791653
000180 b1 1d 07 3d 43 18 5c 3d eb bd 6c bd bd 08 be bd
       0.0329873 0.053734075 -0.057798307 -0.092790104
000190 3f 23 66 3e 7d 54 32 bb dc 81 8b 3c b8 b9 88 bc
       0.22474383 -0.0027211003 0.017029695 -0.01669012
0001a0 53 df c0 bd d9 6e 88 bd 7d 3a 90 bd 59 f5 0f bd
       -0.09417596 -0.066617675 -0.07042406 -0.03514609
0001b0 8e e7 11 3c f0 3e 13 bd ed d7 12 3d e1 8a 61 3d
       0.008905305 -0.035948694 0.035850454 0.055064086
0001c0 92 11 06 3d ff fc 0e bc 43 c4 67 3c 3a e5 90 bb
       0.0327316 -0.008727311 0.0141459135 -0.004421857
0001d0 7f 75 88 bc 8d f4 b9 bd 57 10 6c bd c8 8c 33 3d
       -0.016657589 -0.090798475 -0.05763277 0.04383543
0001e0 71 0e 13 39 75 5f 55 3d 87 f5 ac bc e4 60 1f 3d
       0.00014024392 0.052092988 -0.02111317 0.03891076
0001f0 55 41 4b bd c0 65 23 bd 62 9e d3 bc b0 61 8a 3c
       -0.049622852 -0.03989196 -0.025832359 0.016892284
000200 1c c8 34 3c 46 12 0b bd 10 6a 5c bd ec f8 3c 3c
       0.011034038 -0.033952974 -0.053812087 0.011533957
000210 c7 d0 19 bc 51 4d 83 bd 35 ec da bd df f2 eb bc
       -0.009388155 -0.06411231 -0.10689584 -0.028802333
000220 7e 91 6d 3d 19 72 21 bd 6a a9 37 bc 88 81 b2 bd
       0.05800008 -0.039415453 -0.011209825 -0.087161124
000230 9a 22 9c 3c 27 0b be ba 68 97 11 3c 90 82 50 3c
       0.019059468 -0.0014499173 0.008886196 0.012726441
000240 89 8e 04 3c 23 55 07 bd 1f 5d b4 bd 36 fc f9 3c
       0.008090624 -0.033040177 -0.08806824 0.030515771
000250 75 25 db bc 81 88 8d bd 42 07 89 3c e1 da 96 bd
       -0.02675126 -0.06910802 0.016727094 -0.073659666
000260 ce cd 44 3c 92 2f 27 bd 73 53 8f bc 3f 56 73 bc
       0.012011958 -0.04081685 -0.017495846 -0.014852106
000270 5a d6 00 bc a1 8a 2b bd db b3 7d bd 2c a9 e8 3c
       -0.007863605 -0.041880254 -0.0619391 0.02840098
000280 05 19 a5 ba 9e b7 ce bc 9c 44 4a bd b9 2e e9 bc
       -0.0012595957 -0.02523404 -0.049381837 -0.028464662
000290 df 62 9f 3b d0 83 cd bc 24 d6 5f bb c4 bb 62 bd
       0.0048640813 -0.025087267 -0.0034154737 -0.05535485
0002a0 52 8e b2 3b e1 8a 08 3d d1 cd 5e bd a1 8e 75 bd
       0.005449095 0.03333557 -0.0543955 -0.059950475
0002b0 20 0e a7 bd 8d 23 b9 3c 83 60 95 bb 32 6c 11 bd
       -0.08156991 0.02259996 -0.0045586242 -0.035503574
0002c0 a5 5f 6f bd ed 68 09 bd fd 08 6c bd 02 a7 53 bc
       -0.058440823 -0.03354733 -0.05762576 -0.012918236
0002d0 ce 3f a2 bd 7c d4 0e bd 32 94 ac bd ac c6 23 3d
       -0.07922326 -0.03487061 -0.084267035 0.03998439
0002e0 1a d5 c0 bd 91 bf 6e bd 0b e0 0c bd 39 89 d0 bc
       -0.09415646 -0.05828816 -0.03439335 -0.025456058
0002f0 0e 57 44 bd e8 7e 51 bc 78 f0 8d bc 7b 1a 34 bc
       -0.047934584 -0.012786604 -0.017326578 -0.010992642
000300 56 fb 41 3d e8 ba ab bc 71 59 b6 bd 62 57 cc 3c
       0.047358833 -0.020963147 -0.08903778 0.024944011
000310 25 d3 17 3d 49 aa 98 3c 51 a6 5f bc 74 b4 ec bb
       0.037066597 0.018635886 -0.013650493 -0.00722366
000320 44 03 1c 3d 96 2c dd bb b5 68 4c 3c e3 38 8e 3b
       0.03808905 -0.0067497 0.012476136 0.0043402775
000330 2d 6f b0 bc 6a c8 8b bd 2c 8f cd bb 5b 4a 94 3d
       -0.021537388 -0.06825335 -0.006273171 0.07240745
000340 6e 5e 8a 3c ef 1b 2e bd 0c 4d c1 3c 26 61 07 bd
       0.01689073 -0.04250711 0.02359631 -0.033051632
000350 33 c6 7f 3c c9 dc a8 3b b0 cb 69 bd 88 b5 04 3d
       0.015611219 0.0051532728 -0.057079017 0.032399684
000360 22 fd be bd fe b3 77 bd d4 8f a6 3c 4e 37 e1 3d
       -0.09325625 -0.06047439 0.020332254 0.10996877
000370 ef 16 92 bd 2b 92 80 3d 89 78 8e bc e8 51 f0 3c
       -0.071332805 0.06277879 -0.01739146 0.029335931
000380 ba dc 71 bd a0 64 e8 3d 33 87 aa bd c7 b9 20 3c
       -0.059048392 0.11347318 -0.083265685 0.009809918
000390 60 07 32 3d ec 50 83 bc 60 32 37 bd b2 5b fa 3c
       0.043464065 -0.016029797 -0.044725776 0.030561302
0003a0 ba 45 eb bb d7 72 5e bd 6d 91 ed 3b 70 cd 4f bd
       -0.007179943 -0.05430874 0.007250002 -0.05073303
0003b0 e2 59 55 bd 72 9a 27 3d 52 ab 54 bd 68 95 4d bd
       -0.052087672 0.040918775 -0.051921196 -0.050191313
0003c0 73 80 32 3c 9f 10 84 3c 44 50 87 bd 8c 6d ab 3c
       0.0108948825 0.016121207 -0.06607106 0.02092626
0003d0 6c b5 3d bd 00 89 c5 bc a8 f2 82 bd e6 43 7a 3d
       -0.046315596 -0.024113178 -0.06393939 0.06109991
0003e0 01 80 75 bd 81 7e 07 3d e5 ae b7 39 bb fb 5b 3b
       -0.059936527 0.033079628 0.00035034787 0.003356679
0003f0 56 73 82 bc 94 94 b8 3d 78 c7 ce 3c 01 f2 d5 bc
       -0.015924137 0.09012714 0.025241598 -0.026116373

Actor.bias f4 [5]
000000 b2 ca 6f bd 9a 6d ef 3c 06 aa 8f bd 02 99 34 3d
       -0.058542915 0.029227067 -0.07014851 0.044091232
000010 f5 80 44 3d
       0.047974546

Critic.weight f4 [1, 256]
000000 f0 d5 75 3e 68 47 f9 3e af c5 83 3e b3 4d 46 3e
       0.24007392 0.4868729 0.25736758 0.19365577
000010 8f a4 c2 be ed 2e 3e bf 02 0b ee 3a f2 a3 24 bf
       -0.38016173 -0.74290353 0.001816124 -0.6431266
000020 ee 1e 94 be 30 88 6d 3e 43 5a 5a 3e d2 c8 46 3e
       -0.28929847 0.23196483 0.21323495 0.19412544
000030 d2 f6 2f bd d9 25 f0 bc 25 a4 7e 3e fb 0a 64 3e
       -0.042959996 -0.029314922 0.24867304 0.22269814
000040 2f 3a 34 3e a9 66 8c 3e 06 8b 07 bf 6f a0 73 3e
       0.1760032 0.27422073 -0.5294651 0.2379167
000050 15 b1 41 bf 7c 48 70 3e d4 9c f7 be fe 76 89 be
       -0.7566083 0.2346515 -0.48361838 -0.26848596
000060 98 2a 4f bd 0b b3 c5 be 81 40 3d 3e 31 af 19 ba
       -0.05057773 -0.3861316 0.18481638 -0.00058625924
000070 aa df 55 bd 7e 07 5c bf 03 6e 04 bf db b2 3f bf
       -0.052215256 -0.8594893 -0.51730365 -0.74882287
000080 ec 68 7f 3e 58 9a 73 3e e8 e8 2e 3e 69 aa b4 bc
       0.24942368 0.23789346 0.17081034 -0.022053914
000090 1b c4 64 3e e4 ac 85 3e 23 7f 40 3e d1 4a 7d 3e
       0.22340433 0.26108468 0.18798499 0.24735571
0000a0 15 8e 6f 3e 9a 40 76 3e bb 12 55 bd 95 ef 7f bf
       0.23394044 0.24048081 -0.052019816 -0.9997495
0000b0 48 19 81 3e 66 a6 4b 3e b2 a5 29 3e 7d fe 6e 3e
       0.252146 0.19887695 0.16567114 0.23339267
0000c0 4d af 14 3f 44 aa 5e 3e 00 87 49 bf 5b 20 cc bc
       0.5807999 0.21744639 -0.7872162 -0.024917772
0000d0 4f 0f 87 3e 34 f4 d7 bc 5b 83 69 3e cd a9 61 bd
       0.26378867 -0.026361562 0.22804014 -0.055093575
0000e0 76 6b 73 3e 57 3b 5f 3e d2 aa ca 3b 06 cb 4a 3e
       0.23771462 0.2179998 0.006184914 0.1980401
0000f0 82 9d 84 bf 05 16 41 3d f5 81 f0 bc 07 2d 85 3e
       -1.0360568 0.04714014 -0.029358843 0.26010916
000100 a4 95 54 bc 79 84 9c bd 8c e1 1e 3d b1 00 65 3e
       -0.01297513 -0.07642455 0.038789317 0.22363545
000110 b0 4a 7b 3d fe 43 71 3e 7c fc 50 bd 0c e4 49 3d
       0.061350524 0.23561093 -0.051022038 0.049289748
000120 e3 72 79 3e 74 4d 00 bd 49 a8 42 3e fc d6 3f bf
       0.24360232 -0.031323865 0.19009508 -0.74937415
000130 66 c5 69 bf 13 3b 27 bd 24 8b 66 3e bf e3 5f bf
       -0.9131683 -0.040827822 0.22514015 -0.8745689
000140 38 27 0b bf 36 28 73 3e 04 11 9d bd dd c5 33 3e
       -0.5435672 0.23745808 -0.07669261 0.17555948
000150 43 c0 6b 3e 98 a4 74 3e 38 a7 3f bd 4d 03 39 bf
       0.23022561 0.23890913 -0.04679033 -0.7227066
000160 5e 84 4e 3e 59 b1 99 bc 6a 22 bb bd 98 38 67 3e
       0.20167682 -0.018761324 -0.09137423 0.22580183
000170 15 f6 46 3e da f6 71 bd 0d 0e 1d bd 93 58 d7 be
       0.1942981 -0.059073307 -0.038343478 -0.42059764
000180 3d e3 5a 3e 04 da 63 bd 56 89 52 3e aa 0c 36 3e
       0.21375747 -0.055627838 0.20560202 0.17778268
000190 8a a8 a0 be cb a4 69 3e 18 83 25 bc b7 7d 12 bd
       -0.31378585 0.2281677 -0.010102056 -0.035764422
0001a0 e1 75 51 bf 86 a2 90 bf 77 f1 3a 3e 94 05 c2 bd
       -0.81820494 -1.1299598 0.18256174 -0.0947372
0001b0 30 a2 65 3e f3 69 97 3e 73 84 77 3e df aa a9 bb
       0.22425151 0.2957302 0.24171619 -0.00517784
0001c0 9d c4 3c 3e 8a 96 17 bf 16 c2 61 3e a4 8d 94 3e
       0.18434377 -0.5921408 0.22046694 0.29014313
0001d0 20 d7 c7 be 57 17 2c bf cf e0 3e bf f7 c2 d8 3a
       -0.39031315 -0.67223114 -0.7456178 0.0016537596
0001e0 b0 b3 6a 3e f5 36 e9 bc ac fc 34 3e 63 86 b8 bc
       0.22920108 -0.028468588 0.17674512 -0.022525018
0001f0 76 04 62 bd 32 f6 36 bd f1 de 5a bf d4 d5 d4 bc
       -0.055180036 -0.044668384 -0.8549643 -0.025980867
000200 69 36 77 3e ac eb 4f be 29 ab 80 3e 45 3f 84 3e
       0.2414185 -0.20304745 0.25130585 0.2582952
000210 2b 8a 31 bd 03 9a 76 bc 82 6b 8d bf ab 5b 7b 3e
       -0.043344658 -0.015051368 -1.1048434 0.24546687
000220 f3 ca 1a bd 69 53 1b be e2 ca 47 3e 6a c7 89 3e
       -0.037791204 -0.15168537 0.19510987 0.26909953
000230 4f 23 3d 3e 86 ad 85 3e 68 de 00 3d 76 f4 5a 3e
       0.184705 0.2610895 0.031462103 0.21382317
000240 ad 07 e2 be 56 e4 8d 3e 44 c4 54 3e 6c 98 73 3e
       -0.4414648 0.2771327 0.20777994 0.23788613
000250 b2 58 05 bf 9f e3 52 3e bc da 43 3e 08 0c 53 3e
       -0.52088463 0.20594643 0.1912641 0.20610058
000260 f9 af 75 3e 9c 2d ac be 0e d8 96 be 49 97 58 3e
       0.2399291 -0.33628547 -0.29461712 0.2115146
000270 a0 17 89 3e 02 95 4f 3e e1 39 a9 be f1 ee 3d 3e
       0.26775837 0.20271686 -0.3305197 0.1854818
000280 b1 4a 10 bd 8a 6b 81 3e 74 42 43 3e 4a 9e 12 bf
       -0.03522748 0.25277358 0.19068319 -0.5727278
000290 a8 7f 5f 3e c0 b8 74 3e 71 17 68 3e 49 f8 57 3e
       0.2182604 0.23898602 0.22665192 0.21090807
0002a0 4b 95 5d 3e 9d 3d 2c 3d 5d 6b 88 3e 5b 74 66 3e
       0.21638982 0.042050947 0.26644412 0.22505324
0002b0 71 fc 84 3e cd 34 7f 3e 34 e7 a0 bc 1b fd ca be
       0.25973848 0.24922486 -0.019641496 -0.3964623
0002c0 e7 bd 80 3e ac cb 6d 3e d5 02 23 bf 51 e3 71 3e
       0.25144884 0.23222226 -0.63676196 0.2362187
0002d0 82 55 81 3e c3 03 ee 3e e0 d5 78 3e b2 b9 61 bd
       0.2526055 0.46487245 0.24300337 -0.055108733
0002e0 32 f9 30 bf f1 87 82 3e ed 52 1d bf 19 9b 1c bf
       -0.6913024 0.2549434 -0.6145466 -0.6117416
0002f0 bb 39 38 3e b4 83 50 3e e4 2b 2d bf eb 77 60 3e
       0.17990772 0.20362741 -0.67645097 0.21920745
000300 19 9b 5a bf ac f3 3f 3e 72 49 30 3e 9e 4a 54 3e
       -0.8539291 0.18745297 0.17215517 0.20731589
000310 27 12 69 3e f3 16 92 3e 46 8a 94 bc 16 ec c3 bc
       0.22760831 0.28533134 -0.01813234 -0.023916285
000320 8e 35 90 3e e8 2c 48 3e eb 2e 4c bd 4d f5 56 3e
       0.2816586 0.1954838 -0.049849432 0.20992012
000330 ae 74 c2 be d4 f5 69 3e 28 67 04 bf 2a cc 86 be
       -0.37979645 0.22847682 -0.51719904 -0.2632764
000340 ac a7 87 3e 1d 3e 51 3e 9d f9 2d 3e 61 7d 5e 3e
       0.2649511 0.2043385 0.16989751 0.21727516
000350 82 2a 3c bd 12 a8 45 bd 7e a0 41 3e 1d c4 7d bf
       -0.045938976 -0.048255987 0.18908879 -0.9912737
000360 d1 35 44 3e 6a 79 00 bd 88 df 79 bc cc 68 61 3d
       0.19161154 -0.03136579 -0.015251048 0.055031583
000370 fd 9d 0b bf 2b 2e 2b be 70 2c 83 bc a0 0d 7a 3e
       -0.54537946 -0.1671683 -0.0160124 0.2441926
000380 e6 2f 84 3e 38 aa d1 be 78 21 94 3e 69 6e 4d bf
       0.25817794 -0.4095018 0.28931785 -0.802466
000390 51 e5 25 bd 93 76 69 3e 46 7f 86 3e 52 56 56 3e
       -0.040501896 0.22799139 0.26268977 0.20931366
0003a0 ee 95 79 be 33 22 01 3c 02 ca 11 3e b9 76 7f 3e
       -0.243736 0.007881689 0.14237216 0.24947633
0003b0 0a 31 1b bd 8a 96 3c bf 44 07 75 bf 7d 86 c3 bc
       -0.037888564 -0.73667204 -0.9571421 -0.02386784
0003c0 89 13 62 3e 6b 13 03 bf 6b fc bb be dc b0 86 be
       0.22077765 -0.51201504 -0.36716017 -0.26306808
0003d0 10 e6 13 bf f0 fb 73 3e da 75 78 3e 98 38 17 3c
       -0.5777292 0.23826575 0.24263707 0.009229802
0003e0 75 35 08 bf 6d ee 71 3e b8 df 6e 3e 62 9a 50 3e
       -0.5320657 0.23626108 0.2332753 0.20371392
0003f0 c9 e1 8b bc a2 84 cd be 5b 34 47 3e c9 1a b0 be
       -0.017075436 -0.40140253 0.19453566 -0.34395435
