testTraining.pth (torch, 246524 bytes, 7 tensors)

Network.0.weight f4 [256, 105]
000000 38 d4 50 bd b2 f5 c4 bd 01 86 30 bc 9e 0a cd bd
       -0.050983638 -0.09617175 -0.0107741365 -0.10011791
000010 69 4a 45 be ec bd 51 bd f4 20 5d bd a4 ea 26 bd
       -0.19266666 -0.051206514 -0.053986505 -0.040751114
000020 81 40 55 3d 9c ba fb bd 9e d4 88 3e d4 26 fc 3d
       0.05206347 -0.12291452 0.26724714 0.123120934
000030 9f 59 05 3e d7 b1 03 3c 43 61 0d bc c6 7b 8a 3d
       0.13022469 0.008038006 -0.008629146 0.06761889
000040 eb 29 6f bd 19 52 b6 3d b8 8b 38 3d 21 ca fe bd
       -0.058389585 0.08902378 0.04505512 -0.12440897
000050 bb 56 49 be 3a 4f b6 3d 2c df 95 3d 30 ea b1 3b
       -0.19661991 0.0890183 0.07317957 0.0054295287
000060 4b 90 d8 bc 4a a9 89 3d 7a 0d 9b bd c6 5f 4b 3d
       -0.026435992 0.067217425 -0.0757093 0.049651884
000070 91 2c 4e 3e f8 16 c9 3d cb 70 d7 39 dd 11 04 3e
       0.20134188 0.09818834 0.00041092033 0.1289744
000080 be 52 14 3e 04 8e b2 3c 18 43 4b 3c 9c dc 83 3e
       0.14484689 0.021796234 0.012406133 0.2575425
000090 85 c0 d1 3c d1 31 d7 bd 5d 62 2c 3e e7 3b e6 bd
       0.025604496 -0.105075486 0.16834398 -0.11241894
0000a0 78 d4 ad bc dd 73 53 bd 9e 74 7d bd 3e b4 5c bd
       -0.021219477 -0.051624168 -0.061878793 -0.05388283
0000b0 a1 d0 1a 3d 63 c0 0f 3e 70 3a f8 3c f9 37 ba 3b
       0.03779662 0.14038233 0.030301303 0.005682942
0000c0 08 f3 14 be db 5f 20 bd f4 14 1f 3e bd aa 54 3d
       -0.14545834 -0.039153915 0.15535337 0.05192064
0000d0 c2 35 46 bd 92 6e 52 bc 27 75 29 3d 09 dd 0c 3d
       -0.04839111 -0.012843745 0.04137149 0.034390483
0000e0 30 ca 93 3c 24 c3 55 3d 46 6d 16 3d da 58 bc 3c
       0.018040746 0.052188054 0.036725305 0.022991586
0000f0 f5 9b 96 bc 24 8e dc bc 96 5c 09 be e3 fd 67 3d
       -0.018384913 -0.026923247 -0.13414225 0.05663861
000100 c9 d1 67 3d 90 57 d9 3d ab 20 3e bd d9 97 fd bd
       0.05659655 0.10612404 -0.046417873 -0.12382478
000110 80 40 9d bd a0 6c cd 3d 9b 75 43 bc 94 c6 12 be
       -0.07678318 0.10030484 -0.011929895 -0.14333564
000120 79 e1 c3 3d 68 ce a0 3c b1 c0 33 3e cb 02 f8 bd
       0.0956449 0.019629672 0.17553975 -0.12109908
000130 1d 8a a1 bd b0 66 96 3b f0 40 cd 3d 9c ee fc 3d
       -0.07887671 0.004589878 0.100221515 0.123501986
000140 19 5d 54 3e 53 b3 94 bc b8 65 9d bc d2 16 00 be
       0.20738639 -0.018151915 -0.019213542 -0.12508705
000150 94 8f 9e bd 78 50 fd bc a7 9d 4c bd 26 db 02 3d
       -0.07742229 -0.03092216 -0.049955036 0.031947277
000160 a0 53 0b 3e 3a 45 e7 bd fb 42 a7 3d 1f 98 a5 3d
       0.13606119 -0.11292501 0.081670724 0.080856554
000170 6e 57 18 3e fd 7a bc bd d1 12 fa 3d 2f 74 20 3e
       0.14877102 -0.09203146 0.1221062 0.1566932
000180 e4 29 22 bd db 49 97 3c a8 17 3b bd 0b 06 21 3d
       -0.03959073 0.018467834 -0.045676857 0.039312404
000190 74 70 03 3d 7d bf d1 3c 68 6e 08 3d c4 eb b5 3d
       0.032089666 0.025604004 0.033308417 0.08882859
0001a0 36 29 85 bd ea b0 c5 3d 09 b0 a3 bd d8 f4 a1 3d
       -0.06502001 0.09652884 -0.079925604 0.07908028
0001b0 8b 4a 2a be dd 07 71 bc b4 3b 71 bc 47 25 a9 bc
       -0.16629998 -0.014711347 -0.014723707 -0.020647658
0001c0 57 21 25 3d 0d ce 21 3d 10 04 b3 3d 7e a1 3f be
       0.040315 0.039503146 0.08741009 -0.18713948
0001d0 25 e5 0e be 23 03 e6 3d e8 9e 1d 3d c5 77 9a ba
       -0.13954599 0.11231067 0.038481623 -0.0011784962
0001e0 a1 91 4d 3e 2c d6 da 3c 51 7e 09 be c3 b6 d9 bd
       0.20075084 0.026713453 -0.13427092 -0.10630562
0001f0 63 92 0b bd 37 f3 88 bd 6d 28 0f bd 9d a4 d0 3d
       -0.034075152 -0.066870145 -0.034950662 0.101876475
000200 3e 5c 3e 3c 9c b5 4a be a3 19 00 3d 4a e8 e5 bc
       0.011618672 -0.19795841 0.03127445 -0.028064866
000210 b1 9a e6 bc 89 14 d7 3c 1b 8c 02 3e f6 c4 93 bd
       -0.028149934 0.02625491 0.12748758 -0.07215302
000220 d5 45 7c be 6e 4f 9b 3d 53 ed 3d 3d 5f 72 19 be
       -0.24636014 0.075835094 0.046368908 -0.14985035
000230 d1 29 7d 3d 44 fd 22 bd e0 00 bc bd b0 90 40 be
       0.061807457 -0.039792314 -0.091798544 -0.18805194
000240 fd f2 02 3c 8f 8e ae bd 30 f3 6b bc 23 e8 be bd
       0.007992503 -0.08523285 -0.014401242 -0.0932162
000250 c0 99 d3 bd ba ef 5a 3d 7e 91 bd bd c7 24 b7 bd
       -0.1033206 0.053451277 -0.09256266 -0.089425616
000260 d6 b1 cd 3c ff bb ea bd 7c 43 72 3d 0a 01 b3 bd
       0.025109213 -0.11461639 0.05914639 -0.087404326
000270 1d c2 c1 3c d5 58 ba be 17 8d d0 ba cc f2 96 3d
       0.02365213 -0.36395898 -0.0015911189 0.073705286
000280 66 8a 11 bc 69 4e 87 bd 4c 41 e1 3d 26 ca a5 3c
       -0.008883094 -0.066067524 0.109987825 0.020237993
000290 3e 18 32 be 45 48 42 3e 61 05 09 be 3e 6c 23 3e
       -0.1739206 0.18972881 -0.13380958 0.1595926
0002a0 d6 8f e3 3d 82 ab 10 3e b2 c3 47 3c d5 0f 13 3c
       0.11111419 0.14127925 0.0121926535 0.008975943
0002b0 71 9c 59 3d f3 cc 4f 3c a1 74 00 3c cc a6 5f 3d
       0.05312771 0.012683141 0.0078403065 0.05460243
0002c0 3f cf 58 3c 9a 85 a1 bd 21 19 e0 bc f4 2c 4f 3c
       0.013233005 -0.078868106 -0.027355732 0.012644995
0002d0 c4 f7 62 3d 54 40 66 bd 52 65 01 3d e1 7d 38 bd
       0.05541207 -0.05621369 0.031590767 -0.045041922
0002e0 2c fc 7d 3d 5d 61 61 3d 95 52 40 3e 5f 24 15 3e
       0.062008068 0.055024493 0.18781503 0.14564656
0002f0 b4 59 ae 3b 45 b5 e2 bd c9 b8 9e 3c 8c cd 39 bd
       0.005320752 -0.11069731 0.019375222 -0.04536204
000300 85 23 02 be 18 7c bd bd cb 36 d9 3c 88 98 fb 3d
       -0.12708862 -0.09252185 0.026515385 0.122849524
000310 b4 1f 4b bd eb 09 2b bd 38 07 9a 3c fe 71 84 3d
       -0.04959078 -0.041757505 0.01880227 0.06467055
000320 69 d5 76 bc b9 81 cd bd dd 3d 3d bc cf fb 98 bb
       -0.015065529 -0.10034508 -0.011550394 -0.00466869
000330 8a 79 4d bd 9b e9 80 3e 95 70 6b bd 35 96 d3 bd
       -0.050164737 0.25178227 -0.057480413 -0.10331384
000340 85 ea 01 bd 85 32 03 bb 21 51 8b 3d 6c 6a cb 3d
       -0.031717796 -0.0020019126 0.068025835 0.09932408
000350 ba 47 cc bb 2d 36 5c 3d f3 80 40 3d 6f 7b 78 3e
       -0.0062341364 0.053762604 0.046997976 0.24265836
000360 09 a5 1b be bd 39 4c bd 2c 54 3b bd 8a 4a ba 3d
       -0.15199675 -0.04985975 -0.04573457 0.090962484
000370 10 c5 20 be d8 97 35 be c4 7c 92 bd d9 95 9c bc
       -0.15700173 -0.17733705 -0.071527034 -0.019114422
000380 16 22 ae 3c f4 4e 2d 3e 0c c0 d7 3d 71 2f a9 be
       0.021256488 0.1692465 0.10534677 -0.33044007
000390 06 0b 1f be cf 10 12 be d7 ca 8e bb e2 51 50 bc
       -0.15531549 -0.14264224 -0.0043576765 -0.012714835
0003a0 0a 48 82 bd f0 4d 67 bd c4 e3 aa be ea 68 37 bd
       -0.063613966 -0.05647081 -0.33376896 -0.04477779
0003b0 66 87 54 bd f5 bc d6 bc e1 c2 4e bc 6b e0 0e 3e
       -0.05188694 -0.026213149 -0.012619705 0.13952796
0003c0 36 3f db bb c0 37 67 be 79 7f 6d be ad 7c dc bb
       -0.006690885 -0.2257986 -0.23193158 -0.0067287297
0003d0 92 c8 a3 3d fd f4 a5 3d 9c 95 44 3c 09 69 dc 3b
       0.0799724 0.081033684 0.01199856 0.0067263884
0003e0 fc f3 90 bd c0 2d 08 3e 65 c6 06 3e a5 49 b7 bc
       -0.07077786 0.13298702 0.13161619 -0.022373984
0003f0 c5 a5 8e 3d 40 94 14 be d5 67 dd 3c 5f e0 b4 be
       0.06965212 -0.14509678 0.02702705 -0.35327432

Network.0.bias f4 [256]
000000 34 af 21 bc 4a dd 0e 3c 02 9f 7d 3b b6 71 99 bb
       -0.009868432 0.008719752 0.0038699512 -0.004682745
000010 b1 53 08 bc 4d 4c d2 bc 21 b0 a2 3c 30 0a b1 3c
       -0.008320735 -0.025671149 0.019859375 0.021611303
000020 64 67 45 3c 0b 8f f3 3c 00 00 00 00 00 00 00 00
       0.012048576 0.029731294 0.0 0.0
000030 00 00 00 00 e0 ef ad 3c 18 87 06 bc c1 86 85 3c
       0.0 0.021232545 -0.00821092 0.016299607
000040 b6 85 04 bc cb bb 05 bc 1c 64 3a bc 42 d5 48 3c
       -0.00808852 -0.008162449 -0.011376407 0.012257876
000050 4d 88 24 3a 00 00 00 00 2d 16 86 bb ce 74 e1 3c
       0.0006276414 0.0 -0.004091999 0.027521517
000060 be ee d5 3c 66 df a0 bb 67 1b 2a 3c f1 f3 8d bc
       0.026114818 -0.0049094437 0.01038251 -0.017328234
000070 b6 1f 7f 3c e6 de 4a 3c 07 fb 7a 3c 00 00 00 00
       0.015571525 0.012382245 0.015318639 0.0
000080 0e a4 07 3a 00 00 00 00 21 b8 5a 3a 25 12 9b 3c
       0.00051742874 0.0 0.00083434774 0.01892955
000090 b2 0a a7 3b 0f 85 65 b9 19 ca 1b bc 55 11 48 3c
       0.0050977105 -0.0002188871 -0.009508633 0.0122111635
0000a0 be a5 b1 3c bf 93 9f 3c 86 96 7a 3c 00 00 00 00
       0.021685477 0.01947963 0.015294677 0.0
0000b0 1e d7 89 ba d7 c8 7d 3c 0e 16 56 bc 91 77 84 3c
       -0.001051638 0.0154897785 -0.013066782 0.016170295
0000c0 8a c0 d1 3c 00 00 00 00 00 01 89 3c 3c e0 6e 3a
       0.025604505 0.0 0.01672411 0.0009112393
0000d0 e6 a4 8e bb 0e 94 49 3b d4 ee d2 bb 63 f2 60 bb
       -0.0043531535 0.0030758413 -0.006437162 -0.0034324161
0000e0 e0 14 c2 3b 9c 6e 6e 3b 3a 4e 4e bc a6 00 d9 3b
       0.0059228987 0.0036381846 -0.012591893 0.0066223918
0000f0 e9 f5 a0 ba 7b cc 12 bc 37 d2 f7 3b 23 80 8b bb
       -0.0012280318 -0.008959885 0.0075629014 -0.0042572184
000100 00 00 00 00 2d 93 5c 3c 64 4f 96 bb 31 4c 15 bb
       0.0 0.013462824 -0.004587101 -0.002278101
000110 68 13 87 3c b4 e7 d9 b8 7e 73 f7 3c 8b 5e d3 3c
       0.016488746 -0.000103905244 0.030206438 0.025801918
000120 00 00 00 00 a1 80 0c 3d 5c 77 71 3c bd fc 91 3c
       0.0 0.034302358 0.01473793 0.01782071
000130 3e 30 22 bc 2b 05 cd 3c c8 72 41 ba 00 00 00 00
       -0.009899197 0.025026878 -0.00073794695 0.0
000140 00 00 00 00 2e 89 60 bc 57 37 3f 3c 72 81 d7 bb
       0.0 -0.013704581 0.011670909 -0.0065767104
000150 a3 e0 bc bc 25 ce 59 3b 2e df df 3c 1d 33 b2 ba
       -0.023056334 0.0033234444 0.0273281 -0.0013595555
000160 79 36 08 3c 70 6e f5 3b 6c 27 75 3c c2 2d 8b 3c
       0.008313769 0.007489972 0.014963012 0.016989592
000170 c4 75 77 3b 00 00 00 00 1a ef d8 3c bd ea 8f ba
       0.0037759403 0.0 0.0264812 -0.0010979992
000180 f8 79 94 3c bf 36 66 bb bc 98 43 3b 80 0f a2 3a
       0.018124565 -0.0035127846 0.0029845675 0.0012364239
000190 12 a0 c5 bb b7 8a 47 3c 6c a0 7a 3c b7 7f 05 3d
       -0.0060310448 0.012179068 0.015297037 0.0325925
0001a0 00 14 ab 3c d6 c3 3b bb 01 1c c5 3c 64 96 b8 bb
       0.02088356 -0.0028650663 0.024061205 -0.0056331623
0001b0 00 00 00 00 c3 43 ab bb 16 58 8d bc 85 f6 15 bb
       0.0 -0.0052265837 -0.017253917 -0.0022882533
0001c0 2a ad 79 3c 00 00 00 00 e5 68 4b 3c 00 00 00 00
       0.015239039 0.0 0.0124151455 0.0
0001d0 18 93 29 bc 99 86 97 bb 27 f3 9f 3c 5d 79 89 3c
       -0.010350011 -0.0046241996 0.019525124 0.016781503
0001e0 36 fa 1b bb d4 65 58 bc c7 04 87 3c 26 53 d5 3c
       -0.002380026 -0.0132078715 0.01648177 0.026040625
0001f0 e0 9f 8d 3c bf 7d 80 ba d8 c7 94 3c 38 64 95 3c
       0.017288148 -0.00098031 0.0181617 0.018236265
000200 c4 f3 1c 3d bf 8f d0 3c 58 d9 99 3b 37 a3 0c bc
       0.03831841 0.025459168 0.004695099 -0.008583835
000210 00 00 00 00 ab 1f a8 3c c8 2d 8b 3c 55 11 4f 3c
       0.0 0.020522913 0.016989604 0.01263841
000220 8e 55 35 bb 33 0d a7 3c 35 07 c1 bb 00 00 00 00
       -0.0027669403 0.020392036 -0.0058907517 0.0
000230 26 7d 9f 3c 2d 02 b7 3c eb d0 6e 3c f0 73 b6 3c
       0.019468855 0.022339905 0.014576177 0.02227208
000240 1a c9 18 bc 8f 94 d2 3b 1d 62 92 3c b2 cf 6a bc
       -0.00932529 0.006426401 0.01786905 -0.014331745
000250 7f 36 85 bc 02 a7 f7 bb 58 78 99 bc fc fc 21 bc
       -0.016261337 -0.0075577507 -0.018734142 -0.009886976
000260 b1 11 4e 3b 23 f9 12 3b 56 bb fd 3b 5d 97 6a 3c
       0.003144365 0.002242633 0.0077432794 0.014318314
000270 f9 e1 ca 3a 00 00 00 00 eb 57 05 bb dc 28 b8 3c
       0.0015478722 0.0 -0.0020346593 0.02248042
000280 d6 92 e5 3b 00 00 00 00 a4 b4 8c bc cf 24 9c 3c
       0.0070060296 0.0 -0.01717598 0.01906052
000290 97 ac 54 3c 00 00 00 00 ad 0b d5 3c c9 20 bc 3c
       0.012980602 0.0 0.026006544 0.022964852
0002a0 f7 84 19 3c 51 71 ed bc 46 98 31 3c 5a 37 c4 3b
       0.00937008 -0.028984698 0.0108395275 0.0059880437
0002b0 84 c6 48 3c 00 00 00 00 e5 a4 a0 3a e1 a3 9d 3a
       0.012254361 0.0 0.0012256174 0.0012026989
0002c0 00 00 00 00 ff 19 56 3c 0d 03 d4 ba 00 00 00 00
       0.0 0.013067721 -0.0016175226 0.0
0002d0 da 0c 53 3c ea c9 7e 3c 63 30 36 3c 00 00 00 00
       0.012881482 0.01555107 0.011119935 0.0
0002e0 46 0e 0d 3c ba 37 96 3c 2b b1 ca b9 36 4f ee 3b
       0.00860936 0.01833712 -0.00038660443 0.0072726263
0002f0 87 c0 18 bc e4 e5 60 bc 85 e4 5e 3c 77 f2 55 bb
       -0.009323246 -0.013726685 0.013604288 -0.003264574
000300 a6 34 6e 3c b0 e7 6f 3c 23 70 cd bb 00 00 00 00
       0.01453892 0.014642641 -0.0062694713 0.0
000310 58 78 69 3c 06 f6 9c 3c a7 4e b9 3c 00 00 00 00
       0.014249884 0.019160282 0.022620512 0.0
000320 8f 3c ad 3c e9 a4 87 3c 17 6e 77 bc ba 0f ca 3b
       0.02114704 0.016558127 -0.015101931 0.0061664255
000330 45 a3 80 3c 9b b3 64 3c 79 22 4e 3b cc 2f ca 3c
       0.015702853 0.013958837 0.0031453653 0.024680994
000340 24 33 39 3c 00 00 00 00 99 73 99 bc 00 00 00 00
       0.011303697 0.0 -0.01873188 0.0
000350 2c c6 12 3c bb 40 8e 3c 65 c0 71 bc eb e2 61 bc
       0.008958381 0.01736485 -0.014755343 -0.013787012
000360 d2 5e b8 bb 1d 01 85 bb f4 94 9a 3b 09 6c d1 3c
       -0.005626538 -0.0040589706 0.0047174636 0.02556421
000370 30 17 2c 3a 00 00 00 00 e2 1e ad 3c 00 00 00 00
       0.00065647345 0.0 0.02113289 0.0
000380 22 f0 47 3c 5d 18 6c 3c da c0 e4 3c 3f e4 5a 3a
       0.012203248 0.0144101055 0.02792399 0.00083500514
000390 db b5 19 3b 6f 36 11 3c f9 6d 1c bc c8 56 18 bc
       0.0023454342 0.008863076 -0.009547704 -0.009298034
0003a0 14 35 2e 3c b4 6f 67 3c 00 00 00 00 1b ec 33 3c
       0.010632772 0.014125753 0.0 0.010981585
0003b0 df 37 ac 3b 00 00 00 00 d4 12 c6 3c 4f dc 03 3b
       0.005255684 0.0 0.0241789 0.0020120328
0003c0 4f 4c d3 3c 35 7b 3a bc de 36 76 bc 00 00 00 00
       0.025793223 -0.011381914 -0.01502773 0.0
0003d0 00 00 00 00 47 99 e3 3c 0d 86 a2 3b e8 c9 4e bc
       0.0 0.02778305 0.0049598278 -0.01262138
0003e0 0c 0a eb 3c 0f 11 83 3c f2 12 bf 3c 1e 22 ab bb
       0.028691314 0.015999345 0.023324464 -0.005222573
0003f0 73 25 83 3c 3f 49 6b bc 80 8f a2 3c dd 1b af bc
       0.016009068 -0.014360725 0.019843817 -0.021375591

Network.2.weight f4 [128, 256]
000000 7a a5 8d 3d 1f 3d 15 bd b7 6d 83 3d ab 8b 1b be
       0.06916328 -0.036435243 0.06417411 -0.15189998
000010 53 6a 90 3d 47 5b 99 3d 42 61 13 be 67 d3 85 3d
       0.0705153 0.07488113 -0.1439257 0.065344624
000020 28 d6 85 bd a7 4c da 3c 80 34 69 3d 3c 44 f5 3d
       -0.06534988 0.026647879 0.056934834 0.11975905
000030 07 06 4a 3c 3e 2b c4 3b 20 69 db 3b 55 19 09 3d
       0.012330539 0.0059866 0.0066958815 0.033471424
000040 7c 85 1c 3e 57 b4 62 3d ff 81 f8 bc c7 32 8f 3c
       0.15285295 0.055347767 -0.030335424 0.017480267
000050 32 64 86 bc fa 17 4a 3d 2c ca ce bd 27 6a b2 3d
       -0.016405199 0.049339272 -0.10097155 0.08711653
000060 a3 fc b7 3d 28 55 df bd b9 71 63 bd b5 e0 68 3d
       0.089837335 -0.10904914 -0.055528376 0.056854922
000070 9c 9d 09 3e ae 39 53 bd 22 3a 09 be e1 ec 94 3d
       0.1343903 -0.05156868 -0.13401082 0.072717436
000080 c5 3d b2 bd 1d 16 6e 3d 39 b2 7b 3d ff 0a 11 3c
       -0.08703188 0.058126558 0.061449263 0.008852719
000090 f8 62 9b bc d7 2e 9c 3d 99 d6 39 3d 43 20 84 bd
       -0.01896809 0.076261215 0.045370672 -0.06451466
0000a0 df 11 90 3d d6 66 9a 3a 7e 31 95 3c ee 18 a2 bd
       0.07034659 0.0011779915 0.018212076 -0.07914911
0000b0 57 5a 09 be 19 4b 36 bc 4f 4c d7 bd 32 0e e0 bd
       -0.13413368 -0.011126303 -0.105126016 -0.109402075
0000c0 4c eb e7 bd 60 1b fb 3d 05 52 0b bd a6 19 01 3e
       -0.11324176 0.12261081 -0.034013767 0.1260744
0000d0 97 2d 4e 3d 15 01 1c 3e 7e 66 73 bd 73 ec a7 3b
       0.050336447 0.15234788 -0.059423916 0.0051246225
0000e0 79 b3 0e bb 00 24 5c be d7 6d 51 be 0d 44 f8 bc
       -0.0021774455 -0.21498108 -0.20452057 -0.030305887
0000f0 11 ce 16 be 11 3d 73 3d 39 9c 27 3e 05 28 3d 3d
       -0.14727046 0.05938441 0.16368188 0.046180744
000100 7b 18 92 bd c5 9a a1 3d a3 ac 2b 3e 20 ee 27 3d
       -0.071335755 0.07890848 0.16765074 0.040998578
000110 21 0b 45 3e 12 9c 8f bd 6c 15 c3 bd a7 b3 31 3d
       0.19242527 -0.0701219 -0.0952557 0.04338422
000120 f2 f9 11 3e e8 be 02 be ae 53 3e 3c d5 5f 22 3c
       0.14255503 -0.12768137 0.0116166305 0.009910543
000130 3e b2 94 3c 07 a6 27 bb 9d 15 29 bd 44 29 8f bc
       0.018151399 -0.0025581138 -0.041280378 -0.017475732
000140 ac a8 0a bd e0 06 f7 3d a5 e2 f4 bc fa d7 7d 3c
       -0.033852264 0.12061858 -0.029893229 0.015493387
000150 de fc df 3d 1b f1 a0 3d b6 bf bc bd 26 40 ce 3c
       0.109369025 0.07858487 -0.092162535 0.025177073
000160 64 cb 71 bd 22 13 17 3e d6 22 40 3c f0 9e 10 3e
       -0.05903186 0.14753392 0.011727056 0.1412313
000170 88 b6 b7 3c ce 17 5b 3d 47 db be 3d b2 d9 c7 b9
       0.022425905 0.0534895 0.093191676 -0.00038118433
000180 6f b2 0a 3d a5 28 e3 bc fc 17 d8 3d dd 79 b8 bc
       0.033861574 -0.027729342 0.1055145 -0.022519046
000190 3b f7 ef bd 1b dc 1d bd 79 88 2c 3d 1c 15 bf bd
       -0.11717077 -0.038539987 0.042122338 -0.09330198
0001a0 a8 48 bc 3b 40 45 35 bd 83 4d be 3d 7d 2a 24 bd
       0.005745966 -0.044255495 0.09292128 -0.040079582
0001b0 f0 e2 52 3d fc b8 aa 3b a1 19 b3 3c 63 8f 08 3e
       0.051485956 0.00521004 0.021862807 0.13335948
0001c0 da 06 3b bb a8 34 85 3d f4 98 96 3d d4 dd 05 be
       -0.002853802 0.06504184 0.07353392 -0.13072902
0001d0 fa 9f 32 3d 3e 1b d9 3c 7d b4 80 bc 7a dc 52 3d
       0.043609597 0.026502248 -0.015711064 0.051479794
0001e0 b1 a6 e0 3d 97 c0 91 3a b8 f8 b9 bd 3b e3 29 bd
       0.10969294 0.0011120018 -0.090806425 -0.04147647
0001f0 41 f8 45 bd 6c 5b 08 3e e0 95 31 3e 77 9f 01 3d
       -0.048332456 0.13316125 0.17342329 0.03164622
000200 dd f5 92 3d 3c ca 64 bd 7a dc 3f bd d6 e5 84 bc
       0.07175801 -0.05585693 -0.046841122 -0.016222876
000210 74 ae 05 3d 52 78 3c 3e 37 93 63 3e 6b bb 0e 3d
       0.032637075 0.18405274 0.22224127 0.034846704
000220 49 cf 7f 3d 2d bc fa bd 3c 31 d7 bd 2a 18 73 3c
       0.062453542 -0.12242923 -0.105074376 0.014837304
000230 c4 31 25 be be 4d 8f bc ad bd ac 3c 08 95 af bc
       -0.16132265 -0.017493125 0.021086538 -0.021433368
000240 cb 73 1b bd d4 e1 a3 3d 5a 06 ac bd 2f 73 35 3d
       -0.037952226 0.08002058 -0.08399649 0.0442993
000250 6e b1 ad bb 3e 7e 91 3d fa f9 da 3d 54 78 e4 3d
       -0.0053006923 0.07104157 0.106922105 0.11155763
000260 ac fe d8 bc 71 ce 6e be e5 b0 94 bd 01 0b a0 bc
       -0.026488625 -0.23320939 -0.072603025 -0.019536497
000270 0c 8b 7c be 0e 15 24 be d3 4c e0 3d e6 19 82 bd
       -0.24662417 -0.16023657 0.10952153 -0.06352596
000280 f8 90 eb 39 88 2d 47 bc aa a8 29 bd c2 54 30 bc
       0.00044930703 -0.012156852 -0.041420616 -0.010762395
000290 29 b6 c6 3c f4 ba ae 3c 2f 64 64 bd 0b ed 85 3c
       0.024256783 0.02132938 -0.055759605 0.016348382
0002a0 b0 14 6c be 3e 24 d4 3d f1 05 fe 3c 32 ce dd bd
       -0.23054767 0.10358475 0.031008692 -0.10830344
0002b0 af 71 91 bd c6 56 ca 3d aa 4d 66 bd 71 35 22 3e
       -0.071017615 0.09879832 -0.05622641 0.15840699
0002c0 d3 60 6e bc b9 50 a9 3c 70 e0 d0 3c 0f c9 52 3e
       -0.014549452 0.020668374 0.025497645 0.2058451
0002d0 f1 3b 5c bb d0 d1 3a bc 72 eb c3 bd ba 2d 89 bc
       -0.0033605064 -0.011402562 -0.09566392 -0.016745437
0002e0 63 a0 39 bd 42 a7 bc 3c d7 0b 9d 3d 20 6e 82 bc
       -0.045318972 0.023028973 0.07668274 -0.015921652
0002f0 ae 05 18 3c ff 24 74 3d ef 8d 21 bc 02 7a c0 3c
       0.009278698 0.059605595 -0.0098605 0.023495678
000300 c0 fb 14 be 3c 05 98 bb e5 0c 28 bd 18 d4 9e 3d
       -0.1454916 -0.004639296 -0.041027922 0.077552974
000310 6c 3e 06 be cc 19 f6 bc 47 84 e5 bd d6 e5 a6 3c
       -0.1310975 -0.030041598 -0.112068705 0.020373266
000320 ac b5 3f bc 24 66 fe 3d bf d3 51 be 10 0e f9 bc
       -0.011701029 0.124218255 -0.20490931 -0.030402213
000330 cf cd 91 bd 36 6c b0 bd 7d cb e3 bc 06 12 bb bd
       -0.07119333 -0.086143896 -0.027806992 -0.09134297
000340 94 64 95 bd 99 2d e3 bc c2 ef fe ba d1 5c 27 3c
       -0.072945744 -0.027731704 -0.0019450116 0.010215
000350 d9 f4 d1 3c a0 10 0c bd ed 89 78 3d 63 33 40 3c
       0.025629448 -0.034195542 0.06067841 0.011731002
000360 ff 95 a6 bd 76 75 66 be 16 dd 2e 3d ff 93 01 bc
       -0.08134078 -0.22505745 0.042691313 -0.00790882
000370 c1 c4 bb 3d 6d 94 32 be b2 de ac 3c 92 95 79 3c
       0.09168387 -0.17439432 0.021102283 0.015233414
000380 0b 0f fe bd 48 63 77 3c fc 4a 16 be 93 1e 34 3c
       -0.12405213 0.015099354 -0.14677042 0.010993618
000390 6c 02 b2 bd 38 e7 67 bc c2 4c f8 3d e2 5a 19 3e
       -0.08691868 -0.014154248 0.121240154 0.14976075
0003a0 d9 af aa 3d b9 b1 27 3a 98 3b 94 bd c3 9a fb 3c
       0.083343215 0.0006397027 -0.07237929 0.030713445
0003b0 23 25 f6 3c 73 2b ac 3c 19 ef be 3d ed 83 0e 3d
       0.030047005 0.021016812 0.09322948 0.034793783
0003c0 a1 d1 80 3d 64 c6 b0 3a 91 05 b5 3d 90 d3 f2 bd
       0.062899835 0.0013486859 0.08838952 -0.118567586
0003d0 5d d8 1d bc 0b d3 72 3d 0e f0 97 3c 25 06 c0 3c
       -0.009634105 0.059283298 0.018547084 0.02344043
0003e0 b8 f7 44 3e 09 b3 ab 3c 7f 78 80 3d 65 d2 79 bd
       0.19235122 0.020959394 0.06272983 -0.060991663
0003f0 43 bb db bd ea 95 3d be 87 cd f5 bd 73 14 3a 3e
       -0.10729077 -0.18514219 -0.12002092 0.18171863

Network.2.bias f4 [128]
000000 98 e5 3f bb 6a 2b 66 bc e8 0a d7 bb 5d df bd 3c
       -0.0029281136 -0.014048437 -0.0065625794 0.023177797
000010 30 1c 0f ba 3a 73 6a 3a ae 30 83 3c 00 45 a2 bc
       -0.00054592174 0.00089435617 0.016014423 -0.019808292
000020 d3 c4 6e bb 8c 07 4a bb 00 00 00 00 51 b7 56 3c
       -0.0036433234 -0.0030827252 0.0 0.0131052295
000030 72 a3 48 3c fd 79 43 bb c4 32 8a bb 8c d9 fb bb
       0.012246 -0.002982735 -0.0042174775 -0.0076858457
000040 38 3a 8e 3c b9 3e 19 3c 09 c5 ff bb 1b 2a 80 3c
       0.017361745 0.009353333 -0.007805471 0.015645077
000050 ff e1 24 3c 5c 69 ef 3c 37 55 c7 bb 53 b3 8d 3a
       0.010063647 0.029225044 -0.0060831564 0.0010810889
000060 11 66 f7 bb ba ce ab 3c e4 9c 8a 3c 0e 92 81 3c
       -0.007550009 0.020972598 0.016920514 0.015816715
000070 c0 62 49 3c e3 e0 2a 3c 00 00 00 00 28 9e 5c ba
       0.01229161 0.010429594 0.0 -0.0008415901
000080 00 00 00 00 37 03 9d 3b 00 00 00 00 79 7c 3c bc
       0.0 0.004791643 0.0 -0.011504286
000090 6a 3a 0f 3d 18 27 64 bb b2 da 88 3c 68 10 ad 3b
       0.034967817 -0.003481334 0.016705845 0.005281497
0000a0 56 38 13 bc 39 82 96 3c 00 00 00 00 c1 de c8 3c
       -0.0089855995 0.018372642 0.0 0.02452028
0000b0 de 48 87 3c da a1 00 bc 7b 05 87 bc dc d6 e2 3c
       0.016514238 -0.007851088 -0.016482105 0.027690344
0000c0 b8 17 ee 3c 01 a6 aa bb ee d6 e8 ba 2d fb af 3c
       0.029064044 -0.0052077775 -0.0017764249 0.021482075
0000d0 8a 98 8a bb 8d 44 71 3c 09 cf d3 bb ea 8d c5 bb
       -0.00422961 0.014725816 -0.0064638895 -0.0060288804
0000e0 a0 f5 a4 bb 02 ee f2 bb 8f 92 9b bb a9 06 a2 3c
       -0.0050341636 -0.0074136266 -0.0047476958 0.019778566
0000f0 65 ef 16 bb 1f 90 cd bb 5a 9f b8 3c 94 2e 82 3c
       -0.0023030874 -0.006273284 0.022536922 0.01589135
000100 25 61 1c 3b bd 03 ee bb fd 22 85 3c 00 00 00 00
       0.0023861614 -0.007263629 0.016252035 0.0
000110 cd c0 c5 ba 00 00 00 00 09 38 71 3c 80 8a 3a bb
       -0.0015087366 0.0 0.0147228325 -0.00284639
000120 fd 7f a9 3b 00 ad f3 bb dc 73 89 bb 00 00 00 00
       0.005172728 -0.0074363947 -0.0041947197 0.0
000130 ec 96 47 39 1e a5 da bb 46 d9 f3 bb 00 00 00 00
       0.00019034342 -0.0066725155 -0.0074416725 0.0
000140 00 00 00 00 74 b4 8e 3c db 12 a1 bc 9b c2 25 3b
       0.0 0.017420031 -0.019662311 0.0025292996
000150 2e 40 e2 bb 84 d7 b4 ba 00 00 00 00 b7 9c 06 3c
       -0.0069046235 -0.0013797139 0.0 0.008216075
000160 fd 1a 13 3c 9f 2b 97 3c a1 3e ff 3a 75 5f 09 bc
       0.0089786025 0.018453417 0.0019473621 -0.008384575
000170 9b 4a 90 3c 15 33 fd ba 0d b5 2d bc 05 95 49 3c
       0.0176137 -0.0019317592 -0.010602248 0.012303595
000180 24 65 51 3b 25 a4 11 3c 00 7d d8 3c 00 00 00 00
       0.0031951154 0.008889233 0.026426792 0.0
000190 97 ff db 3c bc 7c c3 3b 54 f2 ac 3c a2 73 01 3d
       0.026855273 0.005965797 0.021111645 0.031604417
0001a0 d8 15 12 bc c7 c2 b6 bb 00 00 00 00 16 72 ad 3c
       -0.008916341 -0.0055774185 0.0 0.021172564
0001b0 55 9a b0 bb f2 17 7d 3c 00 00 00 00 51 00 bb bc
       -0.0053894916 0.015447604 0.0 -0.0228273
0001c0 b1 e1 d3 3c 93 9f 2c bb f4 3d f3 bb 00 00 00 00
       0.025864454 -0.002634023 -0.007423157 0.0
0001d0 00 00 00 00 21 f6 8a bb 75 a0 0a bc 52 9e 74 bb
       0.0 -0.0042407666 -0.0084611075 -0.0037325812
0001e0 e6 e7 47 bb 47 ea 13 3c 80 d3 88 3c 00 00 00 00
       -0.0030503212 0.009028024 0.016702414 0.0
0001f0 ed e9 06 bc c1 bb 66 3c b1 22 0e 3c d2 fd da 3a
       -0.008234483 0.01408285 0.008675263 0.0016707724

Actor.weight f4 [5, 128]
000000 19 cd 9d 3a 3f 38 a0 bb 8c d2 3b bc 2b 7b 84 bc
       0.0012039273 -0.0048895176 -0.0114637725 -0.016172012
000010 39 b7 b3 bc 22 ff be 3c 57 58 98 bc 22 71 72 bc
       -0.021937953 0.023315016 -0.018596811 -0.014797481
000020 ea 41 ea bb 90 fc d2 bc ed 67 13 ba 32 de 5f 3c
       -0.007148971 -0.025755197 -0.0005623091 0.013663815
000030 db c8 62 3c cb 9b cf 3c de 68 a2 bc 50 22 26 bc
       0.013841833 0.025342843 -0.019825395 -0.010140017
000040 16 17 05 3c e5 7a 65 bb f6 bf 07 3a bd d6 6d bb
       0.00812318 -0.0035015878 0.0005178446 -0.0036291324
000050 18 c4 93 3b 45 7d 6a bc 44 6b 15 bc 52 04 c5 3c
       0.00450946 -0.014312093 -0.009119812 0.024049912
000060 af 24 0e bb ea 6d 0d bd 93 b2 a0 bc 27 f0 40 bd
       -0.0021689346 -0.03452865 -0.0196164 -0.047104027
000070 33 e0 96 bc 65 18 a7 3c 00 24 6a bc 7d c3 1c bc
       -0.018417453 0.020397374 -0.01429081 -0.009568092
000080 a1 f3 3f 3b 41 87 6c ba 47 9f 9d 3b 96 03 17 ba
       0.0029289501 -0.000902284 0.004810247 -0.0005760727
000090 11 56 c6 bc 04 a1 0c bc ed 50 40 bc 66 d3 fa 3c
       -0.024210962 -0.008583311 -0.011738044 0.03061838
0000a0 be 39 40 bb f2 79 72 bb 13 b2 ba b8 ae 97 e2 bc
       -0.0029331292 -0.0036998955 -8.90234e-05 -0.027660217
0000b0 ae f8 f0 39 9f 87 2c bc d0 e6 21 bb 0d 3b 98 bc
       0.00045961648 -0.010530381 -0.0024704225 -0.018582845
0000c0 83 c3 64 bc df 8e c8 ba 18 d8 9c bb a2 11 0b bc
       -0.013962629 -0.0015301368 -0.0047865026 -0.008488091
0000d0 06 60 4c 3b 75 de bf bb e8 8c 20 39 27 ef bd 3b
       0.0031185164 -0.0058553764 0.00015311281 0.0057963314
0000e0 55 9a 1b bc e1 4c 79 bc bc 59 6d 3c 5a c3 c4 bc
       -0.009497245 -0.015216083 0.014486726 -0.024018932
0000f0 d8 71 63 bc 08 f6 1b 3c 84 45 68 bc e8 2d 61 bb
       -0.013882123 0.009519108 -0.01417673 -0.0034359638
000100 26 7d 18 3c e8 84 2e 3c af 82 f8 bc ce c3 ad 3b
       0.009307181 0.0106518045 -0.030335752 0.0053028828
000110 a5 32 2d 3c fe 8e 2d 3c 0d 38 e1 bc e9 0c 6a 3b
       0.010571157 0.010593174 -0.027492547 0.0035713261
000120 69 bb f6 3c 69 3a d1 3b 8b 2d c2 bc 28 7b 9c bb
       0.030118661 0.006385137 -0.023703357 -0.0047754236
000130 ef 47 11 bb 8a 4c 99 bc df 03 1c bc 1b 15 7e bc
       -0.002216812 -0.018713254 -0.009522407 -0.015507962
000140 c5 3f 59 3c 51 0d 02 bd f5 89 0e bb 13 22 f1 bc
       0.013259833 -0.03175098 -0.002174971 -0.029435193
000150 c8 c0 a2 3b 8c 0a 03 bc 5c bd 23 3b bf e5 ba bc
       0.004966829 -0.00799812 0.0024984693 -0.02281463
000160 c1 92 c4 bc aa 9d b3 bc d2 d9 2b 3c 77 e4 80 3b
       -0.023995759 -0.021925766 0.010488944 0.003933485
000170 47 3f ed bc 13 5a 41 bc 06 ef 47 bc ac 8b 33 bd
       -0.028960837 -0.0118012605 -0.012202984 -0.043834373
000180 54 4e 36 bc b8 6b 98 bc 10 a4 48 bc 42 ed 3e 3c
       -0.011127073 -0.018606052 -0.012246147 0.011653246
000190 46 4e 45 bc fc 72 04 bd 79 e1 99 bc 3c 30 cf bc
       -0.012042588 -0.03233622 -0.018784272 -0.025291555
0001a0 de 4f ae bc 9d aa 01 39 a3 df 19 bc 99 4a dd bc
       -0.021278318 0.00012365957 -0.009391698 -0.02701311
0001b0 03 d0 fe 3b b1 51 e1 bb c8 46 1c bc f2 23 83 3c
       0.007776262 -0.0068761935 -0.00953836 0.016008351
0001c0 54 bf 99 bc 44 b3 03 bc 64 52 a3 3b e4 cf 95 3c
       -0.01876799 -0.008038346 0.004984187 0.018287607
0001d0 bb 5e 1f 3c 5d 24 64 3c 9c 25 d4 bc b9 a4 27 3c
       0.009727175 0.013924685 -0.02589684 0.010232144
0001e0 31 16 b7 bc e5 65 6d 3c bf ef de bc de a1 91 ba
       -0.022349449 0.014489626 -0.02721393 -0.0011110862
0001f0 df e4 8d 3b 92 de 2b bb 54 f7 94 3b 4b 79 88 3c
       0.004330262 -0.0026225192 0.0045460854 0.0166594
000200 3c 5c 00 3c df db 00 3c a6 15 08 3b ef bd e4 3c
       0.00783449 0.007864921 0.0020764857 0.027922599
000210 15 ea c4 bb 9c 1b 8a bd 2d 4c 04 3d 91 b9 b3 3c
       -0.00600935 -0.06743547 0.03229921 0.02193907
000220 7d ef 96 bb 2d b1 01 3c 40 09 d8 bb 03 6e 05 3d
       -0.004606186 0.007915777 -0.0065928996 0.03257562
000230 62 58 7e 3c e5 13 a9 bc 6f d7 37 3c a9 f2 9a ba
       0.015524002 -0.02063937 0.011220797 -0.0011821586
000240 a6 71 c5 bc f1 02 14 3d f4 12 1e bb 84 33 98 3c
       -0.024102043 0.036135618 -0.0024120184 0.018579252
000250 6d 49 15 bc 3e ac f4 3c bf 7d 06 3b cc 82 ea b9
       -0.009111744 0.029867288 0.0020521728 -0.0004472941
000260 ef a7 56 bc ec 74 a9 3c 75 6c 92 3c cc b9 33 3d
       -0.013101562 0.020685636 0.017873982 0.04387836
000270 3a 1d b6 3b fd cf 78 bd b3 69 d5 3b 48 ab 04 3d
       0.0055576833 -0.060745228 0.0065128445 0.03238991
000280 75 cb 9f bb 05 62 cb 3c e9 49 93 bb 24 08 9f 3c
       -0.004876549 0.024827013 -0.0044948948 0.019413061
000290 ea 92 bd 3c 1d d6 ba 37 ae 23 ca 3c f2 5b fa b8
       0.023141343 2.2272632e-05 0.024675217 -0.00011938055
0002a0 03 36 0f 3c 6c b6 f6 3c 6f 04 f4 b9 21 62 9c 3c
       0.008740905 0.030116282 -0.0004654261 0.01908976
0002b0 65 6d 02 3c 14 3c a7 bb f5 87 ca ba 77 51 33 3d
       0.007960652 -0.0051035974 -0.0015451895 0.043778863
0002c0 ad 71 b6 3c 64 ce 7e bc b2 34 24 3c 0f 69 e6 3c
       0.022271002 -0.015552137 0.010022329 0.028126268
0002d0 63 0e 2b 3b a1 1d e6 bb 14 bc c5 3b 6b 41 5d bb
       0.0026101104 -0.007022575 0.0060343836 -0.0033760916
0002e0 5f fe 32 3b 35 e1 95 3c dc e6 01 3c 90 bb 4d 3b
       0.0027312262 0.018295864 0.007928576 0.0031392314
0002f0 55 ef a8 3c 1d 57 8e 3c 38 2f a4 3c 51 34 b5 3c
       0.020621935 0.017375523 0.020042047 0.022119673
000300 1a d0 8c bb 4f 51 72 bc e1 f1 32 3c 6a 57 01 bc
       -0.0042972686 -0.014789893 0.010921926 -0.007894376
000310 33 ec 13 bc cb dd 04 bc ce 83 a6 3c 96 f4 8a bc
       -0.009028482 -0.00810952 0.020326521 -0.01696233
000320 50 dd b3 3a 34 4a e2 3b c7 0e ab 3c bd da db bb
       0.0013722572 0.0069058184 0.02088107 -0.0067094252
000330 bc d6 88 3c 4b 83 5c bb e4 eb f5 3b d1 78 09 3b
       0.016703956 -0.0033647593 0.007504927 0.0020976553
000340 4f 62 86 bb 7e 03 63 3c 3f 0a 4e 3c 23 d6 d3 3c
       -0.0041010748 0.013855813 0.012575685 0.025858944
000350 38 03 1b 3c d4 28 bd 3b e9 0e 0f 3c 59 f6 27 3b
       0.009461217 0.0057726894 0.008731582 0.0025629012
000360 2e fd 15 3d 11 26 ef 3c b3 99 f4 bb 35 b8 b8 bb
       0.036618404 0.029192956 -0.0074646114 -0.0056371936
000370 c7 1d 00 3d b5 c3 d0 bb a6 99 31 3c 23 15 5d 3d
       0.031278398 -0.0063709863 0.010839855 0.053975236
000380 db ae 28 3d 76 ec 24 3d b6 5b 0b 3d 97 29 45 3c
       0.04118238 0.04026457 0.03402301 0.012033842
000390 a5 1c dc 3c 13 9d 42 3c d9 ea 02 3d cd e6 bd 3c
       0.026869128 0.01187827 0.03196225 0.023181343
0003a0 db a3 87 3c 11 66 a4 bb 9b d2 30 bc fd cc 86 3c
       0.016557625 -0.00501705 -0.0107924 0.016455168
0003b0 0f 1d 28 bc 53 53 5b ba de a4 4a bb 29 2e a6 bc
       -0.010260834 -0.0008366603 -0.0030921022 -0.020285683
0003c0 40 ba 2b 3c 9b 3d e5 bc 6d bf 26 3c 7d d3 1f bc
       0.010481417 -0.027983477 0.010177475 -0.009755013
0003d0 d7 9e af bb 36 af 06 3b 0f 9e 20 3c 92 9c 36 3b
       -0.0053595114 0.0020551211 0.009803309 0.002786432
0003e0 2e d2 f7 3a 18 37 06 3c 45 27 53 3b 14 c5 ba 3b
       0.0018907243 0.008191846 0.0032219451 0.005699763
0003f0 e6 03 48 bc b6 64 22 3c 6c 9b e5 3c a5 0e 0f bc
       -0.012207961 0.009911707 0.028028212 -0.008731519

Actor.bias f4 [5]
000000 df bf 26 bc 8d 1a 86 3c b4 5d 0c bc f9 7b 3a bc
       -0.010177582 0.016370082 -0.008567262 -0.011382096
000010 71 6b 53 3c
       0.012904034

Critic.weight f4 [1, 128]
000000 86 1e 21 be 9a 17 17 bd 94 39 0b 3e e5 98 ee 3d
       -0.157343 -0.036887743 0.13596183 0.11650256
000010 fd d0 d4 3d 4c 07 ee 3d bc d6 81 3e 8a 33 07 be
       0.10391424 0.116224855 0.25359142 -0.13203254
000020 c3 82 fb bd 1e 67 fa 3d c8 75 59 3d 58 af ab bd
       -0.122808 0.12226699 0.05309084 -0.083830535
000030 f5 d5 a4 bd 2c 62 28 3e 6a c5 ad bb 72 ef b4 3d
       -0.080486216 0.164437 -0.0053030746 0.08834733
000040 de ad c9 3d e7 1b 04 be 8d 5a ea 3d 47 29 09 3d
       0.09847616 -0.12901269 0.114430524 0.03348663
000050 ff 49 fd 3c f8 ce e6 3c 8c ed ca bc 70 6b 01 3d
       0.030919073 0.028174862 -0.024771474 0.0315966
000060 db 40 ab bc e4 f1 af 3d 64 a7 60 3e d3 2c 64 be
       -0.020904949 0.08591059 0.21938854 -0.22282724
000070 b7 b4 3f 3d d5 1b a0 3c a6 67 f4 3c 7e b8 7c bd
       0.046803202 0.019544521 0.02983458 -0.061699383
000080 0b 28 8f 3c ac b6 b2 bd d1 a9 a4 bc a5 8a ff bd
       0.017475149 -0.08726248 -0.020100506 -0.12477616
000090 fe 19 24 3d 32 88 66 bd 0a 98 33 3e 26 e9 64 3d
       0.04006385 -0.05628223 0.17538467 0.05588641
0000a0 f2 5a 46 bd bf 46 57 3e 65 81 be bc 33 ce 8f 3d
       -0.048426576 0.21023081 -0.02325506 0.07021751
0000b0 38 28 19 3e cf 28 19 be c6 18 6f bd 30 3c a3 3d
       0.14956748 -0.14956973 -0.058373235 0.07970464
0000c0 42 a5 85 3d b8 91 30 bd 14 be a1 3c 39 bd bc 3d
       0.06525661 -0.04310772 0.019743957 0.09215779
0000d0 68 4b 42 be 70 3a 87 3d 75 2e 9d bd ef 72 0a 3e
       -0.18974078 0.06602943 -0.076748766 0.13520406
0000e0 28 28 ea bd 28 bb b8 bd 15 ed a5 bc 59 0f 8e 3d
       -0.114334404 -0.09020072 -0.020254651 0.06936521
0000f0 5f 64 84 bc 94 ce 27 3e 86 7e 52 3d 34 7b e4 3d
       -0.016161142 0.16387397 0.051390193 0.11156312
000100 37 ff 98 bd 0d 79 32 bd 04 4d b2 3d 3b 95 f5 bc
       -0.07470553 -0.043572474 0.08706096 -0.029978385
000110 82 43 03 bd 7f 97 b9 3d c1 0e 27 3e 5c 7f f1 3d
       -0.032046802 0.09062099 0.16314222 0.1179187
000120 73 1d b4 3c 13 b7 dc 3d a8 3e 25 be 23 d6 a1 3d
       0.021986699 0.10777106 -0.16137183 0.079021715
000130 3c 75 20 bd 96 94 e7 bd d7 73 4a bc 43 2c e4 bd
       -0.039174303 -0.113076374 -0.01235672 -0.11141255
000140 d8 0c 68 3c 91 98 c7 3d 60 22 cb 3d df d4 30 bd
       0.014163218 0.097458966 0.09918666 -0.04317176
000150 ca ec b2 bd 1d 93 74 bc 9f 36 9e bb ce b0 04 3d
       -0.0873657 -0.014927653 -0.0048282887 0.032395177
000160 32 11 8c 3c ac 13 bb 3d 65 77 b0 3d c0 19 2c be
       0.017098043 0.091346115 0.08616523 -0.16806698
000170 a6 d8 7f 3e f2 67 61 3c 53 7e 0b be 76 eb 7d be
       0.24984989 0.013757693 -0.13622408 -0.24796852
000180 28 a2 a6 bd 9a c6 38 3d be 0e 95 3d 52 28 46 3d
       -0.081363976 0.045111276 0.072782025 0.048378296
000190 47 f3 6b 3d 9b 9f ef 3d d8 f9 97 3d a9 a6 92 3d
       0.057605054 0.11700364 0.07420701 0.07160694
0001a0 47 4b d2 bb f7 6c 0a 3d 24 8a 75 3d d2 c0 12 3e
       -0.006417665 0.033795323 0.059946194 0.14331368
0001b0 07 59 37 be 96 63 86 3e 83 4e 06 3c 51 c7 04 3e
       -0.17905055 0.26247853 0.00819743 0.12966658
0001c0 6d 5b 74 3d fb 84 25 3e eb 30 86 bd 96 30 c6 3d
       0.059657503 0.1616401 -0.06552299 0.09677236
0001d0 e4 1f 17 3d 63 37 1c 3e f2 a0 a2 bd 39 d1 ce 3d
       0.036895648 0.15255503 -0.07940854 0.100985
0001e0 a9 dd 29 bd 11 46 1b 3e 38 f5 ff 3d 8e 3b 1b 3e
       -0.041471157 0.15163447 0.12497944 0.15159437
0001f0 f3 3a 24 3e ec 98 80 3d a2 75 6f bd 54 d0 05 3e
       0.16038112 0.062791675 -0.058461793 0.13067752
